Sphere/NeuralNetworks/models/net1.pt (torch_old, 43264 bytes, 8 tensors)

weight f8 [12, 6]
000000 f9 7c 2b e4 7b d3 ca 3f 80 8c a5 14 32 b7 b3 3f
       0.20957897797686778 0.07701409343785492
000010 bc c3 31 7e e8 24 c2 bf 7a 6f 39 be db a4 c9 bf
       -0.14175134813151924 -0.2003435782270307
000020 61 7b 56 c5 40 f2 e9 3f c1 3f ab 5d f6 0c dd 3f
       0.8108219007734584 0.4539161600814588
000030 81 b3 3e e8 0e 7b b8 bf d8 a0 5a d0 2f e1 c2 3f
       -0.09562771959345008 0.14749715493713356
000040 cd 09 9d 1e 17 75 d3 bf 6d 4b 1b 28 cb 5c f0 bf
       -0.3040216254195485 -1.0226546827950316
000050 4c 5e 68 54 a5 e3 16 c0 6b dd df 6c f0 cf 12 c0
       -5.722310370321406 -4.703065587199812
000060 a1 d4 50 37 de 05 e3 bf 5d 0e ee 14 4f 23 c0 3f
       -0.5944663124452242 0.1260775425144968
000070 a0 d5 63 3d c7 4f d1 3f 2a ad 68 d0 98 c8 d3 3f
       0.27049427981486396 0.30911846496992956
000080 94 02 7b e0 b0 06 03 40 2a ff c9 f9 77 cc 00 40
       2.378267053369493 2.099838210560752
000090 48 70 c3 b8 0f 85 b8 bf b2 45 1e d3 03 75 d2 3f
       -0.09578035603357293 0.28839202515618034
0000a0 92 53 eb 12 ea d7 d9 bf c1 c7 f9 62 4e 66 b1 3f
       -0.40380336616117873 0.06796731869124441
0000b0 00 75 e8 fb 73 4d d9 3f 56 14 99 80 02 2b b7 3f
       0.39535235977548666 0.09050002708052438
0000c0 d6 cf 85 fb 01 4b d2 bf 6a 2b bb 7d 31 11 ad 3f
       -0.28582810938610004 0.05677179965785835
0000d0 ef 91 21 41 8d 5b ab 3f 73 f9 63 26 96 16 e0 3f
       0.053432859612062227 0.5027571439566557
0000e0 0b 25 0e 92 cc d4 e9 3f 2c 3c 97 d8 e7 6d c6 3f
       0.8072264530793815 0.17522905421944424
0000f0 19 8a 40 03 88 2f a4 3f d2 20 1f f8 db 4d 90 3f
       0.03942513503740858 0.01592200948633222
000100 d0 19 18 9e ef 7a ac bf ad 07 c3 70 33 0c a8 3f
       -0.055625427292443796 0.046968085780022185
000110 d4 43 28 d3 14 d2 e5 bf bb ba 0e 53 f2 90 f3 bf
       -0.6818946956792566 -1.2228873485980063
000120 37 f3 7a 95 28 42 c5 3f 67 19 10 c7 a0 c6 c5 bf
       0.1660814981350087 -0.17012414665095862
000130 1d bb 7f 48 f6 99 b1 3f 07 b8 c0 c9 59 14 f1 bf
       0.06875552434915418 -1.0674684411019386
000140 a3 57 62 1f d2 63 ad bf 74 27 9e 3f 12 1c ed 3f
       -0.05740219719989106 0.9096766703162147
000150 fb 1b 12 8e 23 fd ec bf f0 53 57 a7 8c 77 ca bf
       -0.9059007429904108 -0.20677335902169558
000160 c7 b7 8b e6 42 86 eb bf eb c6 94 86 73 c0 e2 bf
       -0.8601393225524071 -0.5859925869501387
000170 7a ff 22 8a a3 db d9 3f 54 ff b2 9b c9 a4 f9 3f
       0.40403069009698067 1.6027313310623486
000180 c3 49 be 9f a8 21 c3 3f 0f fb 38 27 93 ef c5 3f
       0.1494646816250463 0.17137374320187646
000190 6d 67 53 bb 74 25 cf bf 83 7b c3 cf 95 10 d3 3f
       -0.24333056589858462 0.29788728036322015
0001a0 ab 69 ef fa 6d a3 f8 bf 20 5b 4e 00 c4 e5 fd bf
       -1.5398998071819772 -1.8685951244312449
0001b0 df 4b af 8c f0 50 d4 3f f6 2e 49 7a 90 23 b0 bf
       0.3174401639818693 -0.06304266915793363
0001c0 f5 d7 98 fa e5 5f db bf b6 7c 5a fe f0 4e 0b c0
       -0.4277281710850496 -3.4135455962528694
0001d0 50 61 91 4e 02 c3 1e c0 a1 b9 4f 61 03 22 14 c0
       -7.6904384876473415 -5.033216019145045
0001e0 a6 44 2d 9a 26 8a 0e c0 6b b1 f9 0b 11 53 06 c0
       -3.8174564404549356 -2.7905598579001683
0001f0 a6 2c cd ce f2 01 d4 bf 34 cd 4c 24 43 10 f9 3f
       -0.3126189250512631 1.56647028140726
000200 40 94 c7 89 0b 39 00 40 2f 6e fb 4e 91 f3 ee 3f
       2.027854038623019 0.9672323744411581
000210 6e 0b f5 27 9b 13 e0 3f 68 d9 e8 37 28 bd d7 bf
       0.5023933201231168 -0.3709202333442563
000220 1e 49 34 62 72 fb fe bf 4b 5b 60 8d ab c5 11 c0
       -1.9363883815863754 -4.443037232404843
000230 8e 95 5c 2e ac 0d 19 c0 77 36 4f fe 1f cd 0e c0
       -6.263352131272212 -3.8501586788104833

bias f8 [12]
000000 f5 87 8d 25 ea 26 ce bf 8b 49 5f b4 c3 f0 a0 3f
       -0.23556258042941605 0.033086887138455166
000010 e0 87 00 cf 1a 5f c6 bf f7 cc 61 be 95 1a e4 bf
       -0.17477736575625524 -0.628245231475744
000020 36 ac 2e e4 c4 a5 c8 3f c7 53 cb 52 3e d1 db bf
       0.1925588716670476 -0.43464620671630566
000030 92 e5 64 3a 6d e2 80 3f 8d 3f 4b 51 0e e9 c7 3f
       0.00824437460379349 0.18679980248861874
000040 23 a1 a9 50 e1 0e d0 bf c2 f6 43 ce e6 35 a4 3f
       -0.25090821149071213 0.03947373645676812
000050 93 4c 5c f1 0a 5f b0 3f 57 bd d5 75 30 34 ba 3f
       0.06395023720351593 0.10235884548977957

weight f8 [48, 12]
000000 33 a8 2f e0 7e fe d7 3f 43 1b c8 49 da 48 b3 3f
       0.37490817921809877 0.07533039380369382
000010 5d 55 53 9c 72 63 c3 3f 2a 55 a4 3f b5 58 b3 3f
       0.15147240288812727 0.07557232669599459
000020 87 39 a6 7d 18 74 bf bf f9 72 c9 8e 95 87 bd bf
       -0.12286522929773556 -0.11535010086067733
000030 d1 79 28 8e d4 54 61 3f ff 28 3b 5d 89 af d5 3f
       0.0021156455488970734 0.3388389025173097
000040 1c cf 2b 6b 89 1b b7 bf 27 6b 3b 74 5b 02 d3 bf
       -0.09026392809374467 -0.2970188746527804
000050 a5 13 2f e1 1f 75 cf 3f dd 30 7a 76 4a df af bf
       0.2457618569880228 -0.06225044914489939
000060 26 85 61 89 5b 55 c4 3f b9 09 45 d9 33 87 db 3f
       0.15885490615895853 0.4301271077894416
000070 13 3c 21 16 31 fe d3 3f e4 49 18 e1 9e 8f e2 3f
       0.3123896328078796 0.5800318142303778
000080 04 33 63 22 e3 b6 d6 bf b0 9f cb 41 9f ee db 3f
       -0.35491255148080847 0.4364393370183235
000090 05 21 2c 8f ef 00 e3 3f 06 56 f9 63 e7 69 d1 3f
       0.5938642307601475 0.27208885920603654
0000a0 7c fc 98 8d 67 73 dc 3f 81 a9 f2 f5 c1 f1 c3 bf
       0.4445437319554413 -0.15581535824942352
0000b0 ff 0e a3 44 98 59 d4 3f 23 5f 75 4d bc c0 d3 bf
       0.31796843245341216 -0.30863864483170483
0000c0 19 3a 55 5b 88 33 a1 bf 75 76 cc 54 e9 bc c1 bf
       -0.03359628786948949 -0.138577619939429
0000d0 d0 26 4e e2 95 78 a4 bf 8f 61 26 ba dd 43 b6 bf
       -0.03998249423518774 -0.08697305483508998
0000e0 77 5e bc c5 cc df c2 bf 98 6a c4 bf 50 a0 76 bf
       -0.14745483069485818 -0.005523982454429664
0000f0 d7 95 38 66 96 33 d7 bf af df ca 73 2d a2 c8 3f
       -0.362523650956374 0.19244926599435305
000100 e9 b2 0a 90 89 45 a5 3f 5f 7b b5 c2 e8 85 c5 bf
       0.04154615290949499 -0.1681490851142042
000110 d0 56 94 3c aa 8f c1 bf cd dc ea cc 31 7e d4 3f
       -0.13719680746060314 0.320202303042106
000120 2a 22 e5 12 08 5b bc bf 37 cc 2c a2 37 57 a9 3f
       -0.11076403104119295 0.04949354033160385
000130 71 38 e5 63 75 7b ca 3f a9 f2 8e 4f 03 26 d1 3f
       0.2068926561136695 0.2679451252877621
000140 be 29 2c 20 2f 3c b5 3f 33 9f 8a 8a 4b 63 92 3f
       0.0829495862528011 0.017956905680562584
000150 a8 93 2a c0 a7 cf c0 bf 27 ff 89 f3 56 53 96 3f
       -0.13133713610764386 0.021802290548747962
000160 36 f9 93 3d ae 43 cc 3f db 56 c4 af 77 c9 b8 3f
       0.22081544882525755 0.09682415047822295
000170 96 38 72 cb 52 cd c3 3f 4a c8 c5 e1 2e 82 ce bf
       0.15470347341437635 -0.23834787391712303
000180 1a 29 2a 71 b1 25 dc 3f c1 0e 6a 02 0a f1 a3 3f
       0.4398006062625811 0.0389483573863152
000190 a9 59 ff b0 52 43 d5 3f 05 5b fc 01 3d a3 d3 3f
       0.3322340706339682 0.3068382758514619
0001a0 4b 64 f1 a9 5a 75 d6 bf 5d 8d 02 18 87 c1 dc 3f
       -0.3509127292250624 0.44931199402545535
0001b0 4e ad 75 40 b2 8c da 3f 25 32 33 24 68 17 a2 3f
       0.4148374204148312 0.035334829729979846
0001c0 0b cf 93 10 f2 82 82 3f 00 ae 77 c5 03 5b 6b bf
       0.009038821345235279 -0.0033392976435970834
0001d0 0b 42 4a 10 23 0b b5 3f 94 d7 c5 4a b1 53 ce 3f
       0.08220118663508218 0.23692909384743344
0001e0 0b 73 bb f1 79 1b de 3f 3b f2 51 33 34 7c d0 3f
       0.47042702299749867 0.25758080493668317
0001f0 2b 4b e2 51 48 b5 d3 3f 8a de 91 b1 72 7e e6 3f
       0.30793960567932527 0.7029355495605654
000200 b3 7a 89 74 00 bc e1 bf b6 15 5b fe f8 56 d6 3f
       -0.5541994358171308 0.34905838813241574
000210 04 d7 f4 3d b8 19 e2 3f c3 03 8b d9 23 53 b0 3f
       0.5656396112524082 0.06376861630543744
000220 43 d9 6a a0 8b 4d d3 3f 26 12 d3 46 b9 01 cf 3f
       0.3016079966140703 0.24224010427691772
000230 70 b3 d2 71 a4 0a de 3f ec ad 91 ce 69 d6 b6 bf
       0.4693995582154491 -0.08920918744268364
000240 e3 be 7b 4f 71 dd ad 3f c9 78 1d 52 55 24 60 bf
       0.05833009810691949 -0.001970450059999161
000250 bc 0d 8b 9d db 44 b5 3f e6 49 cd 9f 82 86 c0 3f
       0.08308193775433542 0.1291049270899542
000260 3f 25 9d bd b6 ef c2 bf 2a f9 3b 57 91 27 b5 3f
       -0.14794048555840253 0.08263500575774133
000270 c3 b5 f0 f8 5e 4f b7 bf e2 da c0 c6 0b ad d4 3f
       -0.09105485513347049 0.32306188973909233
000280 37 8e d1 45 dd d2 c8 bf 3e 60 92 0e 8d 3b d4 bf
       -0.19393506917104883 -0.31613470480943195
000290 d3 da 7b 44 19 04 d4 3f 66 f7 4f 78 1f fc be 3f
       0.3127501648699937 0.12103459060014429
0002a0 b8 e5 f0 c2 ba 33 91 bf a1 ad c3 a2 8f 6c c1 bf
       -0.01679889502358886 -0.13612552115897095
0002b0 fc 60 68 db 78 05 ae 3f d2 be 0a 2b c6 71 c6 bf
       0.05863549879376426 -0.17534710981043716
0002c0 27 65 cd 7d f1 ca d8 3f 89 e2 db cc e2 b8 da bf
       0.3873866776026084 -0.4175345421386188
0002d0 58 be 2b 12 e6 bd a4 3f 1b 72 1c 3a b7 f0 96 bf
       0.04051131221592347 -0.022402632638760616
0002e0 a3 7f d7 46 bc 9c af 3f 34 06 64 e2 fc c7 d2 3f
       0.06174267163055382 0.2934562884184715
0002f0 2e c8 27 82 4e 0c b7 3f 77 c4 0a f3 af e0 a0 3f
       0.09003153493520763 0.032964228075237516
000300 53 26 2d 21 ea f7 d8 3f 78 eb 60 54 78 ee d6 3f
       0.3901315044391584 0.35830505600068063
000310 e0 b9 70 fd 5c 53 c7 3f da e8 76 68 ad 09 de 3f
       0.1822315442563669 0.46934066011057285
000320 af c5 72 e3 90 6c dc bf f4 20 3b 8d 83 71 de 3f
       -0.4441263409781539 0.47567833702170437
000330 90 3c c4 9c 00 eb cc 3f 8b ec e6 0a 5a 2b 9d 3f
       0.22592170385948807 0.028485686221511968
000340 47 8c 02 b7 08 74 ba 3f 23 17 40 43 1b fd 95 bf
       0.10333303897873335 -0.021473337154041105
000350 ef db 05 7b c4 fd db 3f 45 ab 94 da c4 59 ae bf
       0.4373637391467459 -0.05927863281461624
000360 24 b8 da 52 ff 85 db bf 70 81 3c f9 24 f3 d2 bf
       -0.4300535496830682 -0.2960903581570369
000370 cc 03 71 69 02 17 cf bf 6b 5c 58 34 58 c2 a9 bf
       -0.24288969181546205 -0.050310856237211286
000380 42 79 a5 97 a1 e5 db 3f 9e a4 50 95 8e c3 da bf
       0.4358905774041838 -0.4181858499674237
000390 ee 7d 11 3b fa ca c6 bf c7 f8 7f ae 30 5f 92 3f
       -0.17806938060947125 0.017941246653202094
0003a0 63 d6 68 ef fa 34 c4 bf 70 75 d6 dd 7c f1 d3 3f
       -0.15786682786863357 0.31161424316254394
0003b0 20 d4 89 82 31 27 d5 bf 0f 99 7c 97 63 5e db 3f
       -0.33051717517747825 0.4276360492098243
0003c0 39 84 65 dc b3 b5 db bf cc 6a 8f f7 4d 00 cd 3f
       -0.43296524546719045 0.2265717943945077
0003d0 0c 11 92 9a d3 c9 d4 bf d6 f9 e1 17 15 89 73 bf
       -0.3248185166815041 -0.004769403834983218
0003e0 5c 61 43 b3 68 a4 df 3f 61 84 e2 50 49 82 a5 3f
       0.49440972810909556 0.0420096312748306
0003f0 0c 29 2b 03 32 cb d1 bf a8 b3 5f ed 8c 2a b8 3f
       -0.2780270605986892 0.09439926905879636
000400 ff 9a 2c ac cc d7 d6 bf 3d da 91 12 e3 78 9a 3f
       -0.35692135633364325 0.025851772316366917
000410 0b 1a af a5 9d 49 c7 bf 46 80 51 b7 77 da a8 3f
       -0.18193407621420507 0.048541775825242925
000420 bc 44 b8 a0 92 0d d1 bf e9 a1 1f 19 37 e2 4e bf
       -0.26645341582577564 -0.0009424943002587757
000430 00 6b c3 fa eb 20 89 3f 6a 06 01 33 7a c6 c8 bf
       0.012269824590864342 -0.1935570477526654
000440 4d 41 f5 10 69 51 6e bf 98 ba ee fe 75 6e a7 bf
       -0.003700928885941013 -0.04576462494820993
000450 44 2a 1f be 96 ca a2 bf cf e6 75 b5 5b 34 c9 3f
       -0.03670188017675405 0.19691034660700388
000460 fc f8 d4 0f 37 d2 cf bf 9f 1d 48 69 d1 bb bf 3f
       -0.2486027552894895 0.123959625438252
000470 f1 f2 4d ac aa 07 c9 bf f6 88 51 31 e8 c2 b4 3f
       -0.19554646886162844 0.08109904483857008
000480 51 4b e6 5a 9b d5 98 bf bd 5c 76 7d 8e 09 eb 3f
       -0.024252345488615493 0.8449165773808073
000490 9b b1 8a 76 be 35 a4 3f a0 ca 1d 77 3d 60 b2 bf
       0.03947253415148851 -0.07178100736727311
0004a0 2b 69 d0 6e 6c a2 a2 3f 05 1f 6e cb 7d fe 97 bf
       0.03639544346534004 -0.0234317450918118
0004b0 eb e4 0c 96 4d 1c c1 3f a2 cc 27 9b e6 af cf 3f
       0.13367624117544294 0.2475555665583658
0004c0 f2 1c c3 04 54 b9 bb 3f 7a 31 be 55 b9 6f e3 3f
       0.10829663387550051 0.6073881792704434
0004d0 7e c9 7c ae 90 15 df 3f f0 9c 00 d3 7f bf f0 3f
       0.48569123306074136 1.0467527620583574
0004e0 5b 36 0e 98 78 88 c5 bf 91 f2 66 71 06 cd c8 3f
       -0.16822726654611384 0.19375687157834823
0004f0 ab d5 06 84 a7 45 b4 bf 43 79 29 80 b8 d4 b3 3f
       -0.07918784116085102 0.07746461037593115
000500 ce ff 10 93 2e bb a3 3f b6 83 eb 1d c2 ba ce 3f
       0.03853745980495625 0.24007441006599856
000510 49 38 1e a1 8c b8 ad bf 43 04 81 bd be cc 8b 3f
       -0.058048624675493495 0.013574113996698616
000520 a8 8a 85 a6 b2 56 b7 bf 85 4f 42 4a 22 50 cc bf
       -0.09116665425748727 -0.2211954939453983
000530 de 24 d2 3a f6 18 c1 3f 5a a7 6d 0e 1a 49 c1 bf
       0.1335742747508339 -0.1350433893633703
000540 3e b8 a3 a0 bc 33 b8 bf 9d 79 23 9c 87 49 c3 3f
       -0.09453944131721045 0.15068144916490392
000550 e1 fc 59 ef 56 e7 85 3f ac f7 fc ce 60 06 be bf
       0.010695151500156931 -0.1172848229734586
000560 e4 48 bf f3 2e a1 d6 bf b4 bd 0b 2f ea 63 c7 3f
       -0.3535878544181641 0.1827366571155672
000570 46 53 37 83 fa 96 a8 3f f7 80 8f 01 bf f8 b7 bf
       0.04802687503585061 -0.09363931453799866
000580 38 e8 59 75 1b 73 6c bf d1 eb f5 43 8d 4b cb bf
       -0.003472856168454743 -0.2132431585158359
000590 49 77 0c ed 86 3f a2 bf a8 f3 0c dc 13 99 d7 bf
       -0.035640922962768835 -0.36871811379733765
0005a0 1e a1 7c af fe 83 c7 3f c6 fd 41 25 5d dd d4 3f
       0.18371566361134567 0.32601097715811667
0005b0 6d dc 58 90 71 35 b8 3f 70 d0 45 13 43 39 d8 3f
       0.09456548475360345 0.37849499590016134
0005c0 be 55 ec dd 5a 28 c9 bf 14 92 98 50 31 76 a5 3f
       -0.1965440353020948 0.04191736325109133
0005d0 50 9a 26 9f 92 59 c8 3f 30 df 32 2c 59 1b 46 bf
       0.19023354311976215 -0.0006746468938194413
0005e0 ad b2 fe 00 61 24 d8 3f 4c ab 56 5c 76 51 d3 bf
       0.3772203931537586 -0.3018470670455613
0005f0 32 1b d9 40 b2 76 c4 3f e5 03 a7 2f f6 c4 d3 3f
       0.15987232366952636 0.3088965859752178
000600 06 62 23 19 48 48 c8 bf 2e 8c 21 41 8d 76 d6 bf
       -0.18970586039974097 -0.35098582611516604
000610 ab 2d d4 70 d6 5a 7d bf 55 f2 4f 0e e1 07 a2 3f
       -0.007166707667475884 0.035216362950425996
000620 10 f5 a0 fd 95 ba b2 bf ba f9 42 1a 8c 93 a5 3f
       -0.07315957491023917 0.042141321378483323
000630 2d 6a 41 a8 40 85 d8 3f 0e a2 ad 1f 34 9b c5 3f
       0.3831330912704825 0.16879893824376818
000640 9f c7 d3 c1 21 f9 a9 bf bf af d6 1e 09 35 b9 3f
       -0.050728850279383446 0.09846550944229103
000650 63 6a 90 a8 4e 09 cd bf a6 6b 59 6e e4 09 bd bf
       -0.22684653502149663 -0.11343219465326956
000660 3b 7f 31 0b cf 63 c0 3f fb 40 56 e3 ad 04 e1 3f
       0.12804592176962068 0.5318211975263972
000670 12 9e 6a bb f8 20 d2 3f 87 bf 7a cb 63 11 d5 3f
       0.2832624273528107 0.3291863906006189
000680 fa 8d 78 9a b5 1b a2 bf 0d 2d 05 05 00 c1 85 bf
       -0.03536765585547737 -0.010622024682240406
000690 43 8f 60 84 8a 11 d4 3f 75 95 15 18 b9 eb dd 3f
       0.3135706227060277 0.46751239158614705
0006a0 11 cc 43 5c a4 d3 ad 3f b1 4d da 08 ea ab d4 bf
       0.05825532556800551 -0.3229928099110238
0006b0 92 85 6a 95 ea cd e3 3f d2 dd 75 a5 76 38 f0 bf
       0.6188862722666946 -1.0137850249574183
0006c0 18 31 9f 3a d2 3e d0 3f 1b 36 2d 7c 97 3e c6 bf
       0.25383430218495695 -0.17378514827071076
0006d0 00 bc c7 fb d8 b5 b6 3f 7a e2 a3 cb 70 8f 9d bf
       0.0887122740457329 -0.028867494992456312
0006e0 cc 9f 25 cf 3c 52 bc 3f 29 c0 b1 06 08 a6 c6 bf
       0.11062984521197378 -0.17694187476036063
0006f0 48 ae 93 fa 01 44 ce bf 39 2a 83 86 41 1b a3 bf
       -0.23645043120574116 -0.03731732146259898
000700 99 3b 1e 27 cf 74 b4 bf e1 cc 5e 2a ed 05 dc 3f
       -0.07990736680061018 0.4378617204449267
000710 c8 32 0c f7 db a7 d3 3f 65 1c 70 61 7d d2 a1 3f
       0.30712031484362656 0.03480903448512932
000720 07 2e bf 81 ad d4 ca 3f 4f 5c 92 fd 45 f0 d2 bf
       0.20961541018765237 -0.2959151245390261
000730 9d 45 a1 d7 9b 11 54 bf 69 a5 b8 1b 1b bd a6 3f
       -0.0012249013803010474 0.04441151345629175
000740 a0 dd e2 f8 af 51 d1 bf 2a 42 d5 3f a3 a7 d0 bf
       -0.27061080270092397 -0.2602317927712955
000750 92 a3 d3 e1 cc 39 d2 3f 3f 95 6f 3f 0e 1a 93 3f
       0.284777851613904 0.018654081937616637
000760 59 2d ef b4 06 d1 d1 3f a2 8a 65 01 4d ce c8 3f
       0.2783829466759094 0.19379580085940967
000770 6c c7 eb d8 26 d4 cf 3f 50 f3 bb ff 6e da de 3f
       0.24866185752722048 0.4820821282772174
000780 94 06 e0 ca 61 8a b2 bf ff 7d e0 62 4e 5c cb 3f
       -0.07242404177670841 0.21375446155524
000790 cf 65 63 99 65 39 be 3f 9d 3e 6f 6f df ef 92 bf
       0.11806330675917497 -0.018493167091775054
0007a0 f8 aa 75 c3 fe 25 d4 3f a8 1e 03 bb 21 db b1 bf
       0.314819041136317 -0.06974993530013285
0007b0 42 a5 1c be ab f9 e3 bf 73 40 92 e0 8f bf d1 bf
       -0.6242274010775548 -0.277317017848879
0007c0 6f 96 b3 ea 05 d8 d1 bf f5 b1 75 55 14 2f e0 3f
       -0.27881000442571396 0.5057470006118466
0007d0 6c e9 92 14 1b fe d5 3f cb f9 d4 6c 2d 66 da 3f
       0.34363438615004926 0.4124864161311989
0007e0 f9 e4 cc 90 a2 40 c9 3f e3 7c 6e 3b ee 0c d0 3f
       0.19728500433283339 0.2507892208468105
0007f0 20 84 5b 0f 94 16 c2 bf e1 04 d6 a7 0f d6 d9 3f
       -0.14131403684498967 0.4036902560256533

bias f8 [48]
000000 e2 6a f1 2f 6b 2e 93 3f f5 8f 1e df ba fe e5 bf
       0.01873176078911854 -0.6873449666786643
000010 eb 36 85 1d 34 2f 93 bf 5e 33 fc 3d c2 0a d7 bf
       -0.018734754850178097 -0.3600316624950234
000020 00 21 c5 df 9b bf d1 bf 33 d4 14 a8 04 5e d7 bf
       -0.27731987812559566 -0.36511341489978405
000030 42 4e b7 1b 6f 29 c4 3f 14 4a f6 29 5c 96 d8 3f
       0.157514465840551 0.3841772470269984
000040 63 14 d9 ba 63 c8 db bf 49 99 51 61 91 e3 db 3f
       -0.43410580870506105 0.43576464179786406
000050 43 a5 87 87 96 62 d6 3f 8a 4c fd d4 fa 77 d4 3f
       0.34976733432138846 0.31982298660040753
000060 ad 6e f2 fb 40 4d c3 3f 2c 4d 62 b5 e6 af 5c bf
       0.1507951002321212 -0.0017509224904060467
000070 1f 03 9b 2f 34 d7 c6 bf ad a6 1e c3 66 4f dd bf
       -0.17844250034797768 -0.4579712777582284
000080 88 88 8e 60 8c 49 ca bf 42 20 96 16 e9 0d 8b bf
       -0.2053695174664123 -0.013210125924857267
000090 87 4c 50 35 a5 8d d0 3f 01 0e 8b ae b5 17 d6 3f
       0.25864534574902404 0.3451971249125734
0000a0 31 7f ed d8 d4 5f dd 3f 8e e2 f6 2e fb 23 65 3f
       0.4589740866122041 0.0025806337286805097
0000b0 4e 96 1a 12 7a 87 e1 bf ab 0a 8a 88 a5 c2 c6 3f
       -0.5477877000418603 0.1778151432700573
0000c0 23 72 a4 da bc 1a b5 3f 2f 83 e2 8b 60 05 b6 3f
       0.08243923509548572 0.08601954856068227
0000d0 4d e1 33 61 95 e1 c8 bf 1e 30 92 58 9e 93 ac 3f
       -0.19438426252578225 0.05581374007405791
0000e0 7d fc 55 c8 ad 03 e2 bf c3 1f ca 0a db 64 e3 bf
       -0.5629490769205315 -0.6060614786847441
0000f0 2a 24 a5 1e d2 e7 d6 3f 71 8d b5 70 61 a4 b3 3f
       0.357899217535819 0.07672699929894634
000100 cc 28 8b 78 a2 47 d2 3f 19 91 1f fc 69 cb d1 bf
       0.2856222321685322 -0.27804040547768377
000110 b5 c4 13 ff 9b b9 dc 3f 20 76 90 41 4f 2e d0 bf
       0.44882869634518424 -0.252826513316764
000120 c1 3b bf cf 0f 7d c3 3f e9 66 5a 69 b9 69 b5 3f
       0.1522540821447063 0.08364447424028366
000130 bc 95 40 bf bc c2 e0 bf c7 55 d1 fb 64 47 d8 3f
       -0.5237716422458827 0.3793575724751829
000140 61 3d fe fc 4a 4e d5 bf 0a 89 d7 3c c2 f9 d4 bf
       -0.3329036207805612 -0.32774406377406307
000150 d4 56 47 76 2d 1c d1 bf e6 52 21 c4 a4 12 dc bf
       -0.26734482336665377 -0.43863791611992864
000160 e1 e6 10 13 cb 20 d6 bf 0c 3c 8b 64 7c 1a d4 bf
       -0.3457515417281752 -0.3141165716050984
000170 43 4d 1e a6 39 17 cd 3f d8 5c d7 78 89 fc e2 bf
       0.22727127658127175 -0.5933272705250614

weight f8 [48, 48]
000000 6e fd 8b 9e 06 ea e8 bf eb 18 d2 53 14 29 b4 3f
       -0.7785676094644438 0.07875182196048384
000010 c4 ec 1a 47 41 df b2 bf 74 01 77 1c 7b c3 bb 3f
       -0.07371910081831162 0.10845155186598793
000020 55 93 6a e0 92 9a c2 3f e4 9a 17 8d b8 34 d0 3f
       0.1453422160895125 0.25321782854591235
000030 a6 a2 f9 e8 f3 eb ea bf 2e fb e5 ce 6d 98 f4 bf
       -0.8413028288169542 -1.2872140962569563
000040 0a 45 8c df 46 a2 d4 3f 65 59 06 5e 97 e6 d2 bf
       0.3224045928082694 -0.2953241747103646
000050 a9 28 8d ac b9 68 cf 3f 9d 6b f7 ed 1e af e0 bf
       0.24538346219407473 -0.5213770530493665
000060 e3 7b 1f 91 1f 0e dc bf fa 5a 6c e8 f1 bc b8 bf
       -0.43836201831976335 -0.09663307117839884
000070 05 87 56 ea 93 0f 9e bf a7 e9 74 ca 45 64 ef 3f
       -0.029356299569946582 0.980990310118888
000080 62 2f 81 e2 57 37 c4 3f 37 57 28 50 b9 14 e7 bf
       0.15793894347950316 -0.7212797704293966
000090 87 a6 e1 20 7a 40 8c 3f 37 78 63 f1 43 c9 d8 bf
       0.01379485524030889 -0.38728426526165854
0000a0 41 ed 5b ce 67 77 58 bf 44 81 cc 36 b6 22 bb 3f
       -0.0014933122378682636 0.10599840963232504
0000b0 b7 1c af dd 11 3f d1 3f b0 01 da f5 af 53 e2 bf
       0.26947447441893807 -0.5727157403744538
0000c0 2b 40 10 9b 6d be a3 3f 60 e6 01 d4 a8 b5 a9 3f
       0.038562226465842585 0.050214076881229586
0000d0 76 12 bb ef 0a 46 ba 3f 8b ff 4e 72 1d c1 e7 bf
       0.10263126709748768 -0.7423236115064226
0000e0 62 24 98 0d bc 32 d6 3f 9e 3f db 57 89 85 c2 3f
       0.3468465931660544 0.14470021047463616
0000f0 d5 95 93 71 8c ac d8 bf c7 1b fd 53 38 bd e2 bf
       -0.3855315312524373 -0.5855981483845135
000100 93 15 7c c4 ed 54 c2 bf f4 15 4a b7 33 9e c7 3f
       -0.14321682065944383 0.18451544236829387
000110 47 1b a8 16 b4 d3 d4 bf e4 f9 71 25 d5 b6 d1 3f
       -0.325421354413653 0.27678421646842666
000120 82 71 d9 62 e0 16 91 bf a7 3f e0 6b 2c 8e f1 bf
       -0.016688829453742844 -1.097210332289231
000130 b2 98 93 2b e5 5e ac 3f 77 8c 6d 5e 28 cb e6 3f
       0.05541149289074222 0.7122995228095438
000140 1f b6 c5 21 db 44 d7 3f a2 47 3f 47 07 ea dd 3f
       0.3635776357467381 0.46740896184666714
000150 66 a0 4f 71 e2 77 8b 3f 19 27 fb 4e 88 fa b4 bf
       0.013412255366304925 -0.08194782188652673
000160 35 e5 ef b0 27 65 b9 3f e1 0c c7 15 99 be c2 bf
       0.09919975347283556 -0.1464415890060087
000170 ac 90 6a 34 d3 36 ec bf 67 05 dd 54 61 c7 d0 3f
       -0.881692507148292 0.2621692017310892
000180 81 15 67 13 cb 4a e1 bf d7 d5 73 b9 3b 4c b6 3f
       -0.5403800372084079 0.08710072782181243
000190 41 de cd 6e 82 02 82 3f 78 3f 69 1b 32 2e bf 3f
       0.008793848997569078 0.12179864091126358
0001a0 68 6d 00 31 5d 90 c7 3f 3c ff 4c 78 3c 96 d7 3f
       0.18409314053210868 0.36854469059106854
0001b0 5b f1 7b 4e 8d cd e4 bf 31 8f 95 99 32 f0 eb bf
       -0.6500917942899308 -0.8730710029308054
0001c0 e1 74 d1 fc dd 67 ca 3f fb 16 1b 44 26 08 d2 bf
       0.20629477352750938 -0.28174740458449293
0001d0 a4 6e 21 83 19 44 8a 3f 66 99 b9 0b 50 e2 ee bf
       0.012825202287948763 -0.9651260594371649
0001e0 b3 52 0f e1 b0 de e3 bf ad d0 1f 26 18 11 a9 bf
       -0.6209339519214921 -0.048958544401018635
0001f0 d8 06 f8 49 1c 15 a0 3f e8 14 40 3d f2 0b e8 3f
       0.0314110603612911 0.7514582821173947
000200 ff 38 ec 12 33 0b 9a bf 2d bd d5 1e ef 0b e3 bf
       -0.025433347730591468 -0.5952067949528207
000210 c9 a4 e1 cf d1 42 85 bf 4a 60 12 cf 63 01 b5 bf
       -0.010381354481256004 -0.08205245786155149
000220 39 2b 46 20 39 c6 80 bf c9 41 00 e4 c4 04 9a bf
       -0.008190580651690748 -0.02540881768806161
000230 14 86 b0 ba bd b8 a9 bf 60 79 9a 64 73 5c e8 bf
       -0.05023758796620484 -0.7612854924116554
000240 be 90 1a 59 a9 e4 2d bf 66 16 1e 2d c6 44 b2 bf
       -0.00022806708561973714 -0.07136190988065891
000250 75 54 66 01 b6 75 bb 3f b8 7c f1 1a f8 c0 d7 bf
       0.10726487669156078 -0.3711529029005294
000260 60 16 94 45 0e 39 91 3f 57 02 f9 74 28 d5 bb 3f
       0.01681921291039712 0.10872128349093067
000270 0e f6 8f 33 96 be ba bf 91 d9 0b bc 46 4d e6 bf
       -0.10447062262388604 -0.6969331429270814
000280 bd 15 16 01 40 64 bf bf 30 45 65 51 ec 2b a4 bf
       -0.12262344385643238 -0.0393976067886207
000290 a8 19 44 11 26 67 e0 bf 42 d5 fa 3d 7f 8a b0 3f
       -0.5125913941599736 0.06461329711131206
0002a0 4b 37 f3 2d b9 f1 c0 3f ed 01 d6 93 b0 7c e7 bf
       0.13237681144385713 -0.7339709174557904
0002b0 91 7a 62 14 cd 86 c1 3f a0 31 8c d3 b3 80 ea 3f
       0.1369263028654655 0.8282107478894893
0002c0 e0 77 60 8f 86 0f b8 3f 13 f3 88 a2 0a 22 b1 3f
       0.09398690224085682 0.06692568271769188
0002d0 c2 07 c8 a9 c8 be a8 bf c5 00 b1 02 78 aa 93 3f
       -0.04833056519056768 0.019204974331160658
0002e0 d6 24 d3 ee ea e9 88 bf 9f 5a f2 ff 8b c3 8e 3f
       -0.012164912618020923 0.015021413563130635
0002f0 49 74 cd e6 80 c0 dd bf 5f 25 49 ab f3 8f e3 3f
       -0.46487448252975533 0.6113222451614709
000300 be d9 c3 e6 15 19 d5 bf 4f 64 f0 10 22 61 99 3f
       -0.32965610061310346 0.024784595760227564
000310 fb e8 97 38 89 60 83 3f 7b fa fc d4 9d a4 ba 3f
       0.00946147159537646 0.10407434892565874
000320 82 f8 d5 b7 9b cd d1 3f f0 a5 0e 15 46 20 d7 3f
       0.2781743331214629 0.361344833911601
000330 8f 6d 2f fd f8 05 d0 bf 90 a2 a3 db 89 01 e4 bf
       -0.2503645393860205 -0.6251878061130629
000340 87 8b 36 b5 da 33 c5 3f 70 dc 00 13 f7 1a d8 bf
       0.1656449684934069 -0.3766458211497996
000350 a9 80 3a 36 e1 90 cf bf 32 d7 b6 8e 30 e1 ef bf
       -0.246608878592274 -0.9962389743220454
000360 8b 27 86 23 97 28 ea bf c9 f9 80 3d 79 de b5 3f
       -0.8174548810795711 0.08542592765386482
000370 db c8 1e 66 23 15 a2 bf e4 78 a1 5e 58 d8 eb 3f
       -0.03531752225480186 0.870159325433431
000380 f5 eb cc 09 31 f5 9b bf fe 7b 98 93 a6 8c e6 bf
       -0.027302519057439373 -0.7046692736365683
000390 08 81 e0 c9 46 09 5b 3f 0f 3f 77 7b b1 64 d5 3f
       0.0016501609129662715 0.33427083069999325
0003a0 21 a6 a2 68 83 67 b6 3f c3 1b 50 8e bd ad c1 bf
       0.08751698784421837 -0.1381146378409693
0003b0 72 ce 0a d4 e6 38 77 bf 8d 9b 86 b8 d1 5d ec bf
       -0.005669500039107699 -0.8864525417346713
0003c0 bf fc 16 22 2e 1f b2 bf 70 80 04 53 70 5a c3 bf
       -0.07078827221174587 -0.1511974721297551
0003d0 15 2d 3d a9 50 be c1 3f bf e8 fb 66 ef d8 e1 bf
       0.1386204553949503 -0.5577313434034962
0003e0 02 8c 7b bb b6 e7 c8 3f 10 3d 71 06 49 9c 92 bf
       0.19457134394096448 -0.018174305933198076
0003f0 66 bc 27 15 26 6a 9c bf 70 8c ed e8 a1 30 ed bf
       -0.0277486753856774 -0.9121865796445388
000400 b2 e5 85 c5 5e d0 c6 bf 30 84 8a 04 0c 86 be 3f
       -0.17823395390204905 0.11923289404741477
000410 b4 de 49 4f de 3b d6 bf 3c 01 b9 31 50 92 b5 bf
       -0.3474040769865312 -0.08426381315166948
000420 81 16 44 e9 37 da ab 3f 64 8f 13 94 71 40 cf bf
       0.054399249291276604 -0.2441541646031694
000430 e4 55 60 39 93 8b a9 bf b0 78 67 1e bb 7e eb 3f
       -0.0498929984607164 0.8592200845557922
000440 3b 31 a6 e3 50 c0 cf 3f d3 d9 16 3c a6 42 ae bf
       0.24805651775057833 -0.05910224421988954
000450 3b e0 2a 7d 27 a5 c3 3f 84 9b bc e0 80 68 a7 bf
       0.1534776078385692 -0.04571917289131647
000460 04 a1 cf 49 a1 a3 a9 3f bd 26 db 2a da 6b aa bf
       0.050076523075235385 -0.05160409711022627
000470 11 ee d6 86 4b 50 d9 bf 4b 94 0d 4a ed 39 e1 3f
       -0.3955258194725682 0.5383211561535374
000480 4e 94 4f c7 9b c2 c3 bf ab dc e8 92 dd ad b5 3f
       -0.15437648040748048 0.08468422733936858
000490 d6 19 40 d2 ed aa b2 3f 00 d2 d8 1b 0d 1e b8 3f
       0.07292066939417138 0.09420854501588138
0004a0 d8 b3 f1 e0 4f d2 c5 3f 3b 30 9a 8e ce 5c d7 3f
       0.17048071368790718 0.36503948141103465
0004b0 39 aa f0 42 bc e4 c2 bf 53 d7 2b 4b fa 2a e8 bf
       -0.14760545033034747 -0.755246302431923
0004c0 a6 86 10 9b a4 0a c8 3f b5 f5 c3 03 69 8a cc bf
       0.18782479831229643 -0.22297394451008548
0004d0 6c 3d 35 04 c0 53 cf bf a6 e1 9c 3a 4d 0e f0 bf
       -0.24474334912745677 -1.003491620022126
0004e0 d7 1f 5f ec f4 73 ec bf c4 e4 db 22 c0 8b b9 bf
       -0.8891548744804777 -0.09978867388771834
0004f0 29 de 97 85 4a 17 b5 bf c5 f2 c8 11 a5 9d eb 3f
       -0.08238664399674946 0.8629937503206625
000500 01 e0 7b a1 7c 3d ae bf 59 95 d2 18 29 f0 e5 bf
       -0.05906285735358097 -0.6855664715591657
000510 8f 40 74 f2 68 86 9c 3f 7a 68 b7 cf fa 3b d8 3f
       0.027856483267044537 0.37866087231453316
000520 8d 3b 3f d0 c6 37 bf bf 9f 56 0f c5 7a 75 c8 bf
       -0.12194483360438664 -0.19108519193712412
000530 11 a8 de b9 4d a5 c3 3f 10 12 63 bc 49 c1 f0 bf
       0.1534821660582684 -1.04718946064634
000540 51 fc cf 67 da 31 ad 3f ef b2 12 3a da 29 c8 3f
       0.05702097432367082 0.18877723537061494
000550 0f 81 b2 e2 ac 4b ca 3f 1f 0e 9c cf ac 30 e2 bf
       0.2054344279213258 -0.5684417776942076
000560 c9 d9 d2 67 19 ef a7 3f 12 17 ca 8d 7e dc b1 bf
       0.0467460574376904 -0.06977072679191235
000570 05 2f b6 27 7c 71 9d bf a2 bb 91 00 3a dc ea bf
       -0.02875322334652621 -0.8393831263655225
000580 3f 8b a8 ca 2c 7b cb bf 46 1a ac 99 72 f0 c0 3f
       -0.2146965016882749 0.1323378801682386
000590 17 1d 45 3c ba 54 de bf 83 d4 7c db c4 ee c5 3f
       -0.4739213551115013 0.17134915082138855
0005a0 04 ba ef bc 19 d3 c4 bf ee 5d dd 70 6a 61 60 bf
       -0.16269227719699597 -0.0019995764659304005
0005b0 c4 91 90 a0 17 db c0 3f 69 92 97 a5 ce 7f e6 3f
       0.13168616619181084 0.7031014665813703
0005c0 47 9c e1 b7 08 a0 bc 3f 23 ac a5 91 bf 47 d4 bf
       0.11181692590035751 -0.31687916968684443
0005d0 8d 67 e0 a7 e9 a9 c4 3f 59 22 0d ca ec 2b d2 bf
       0.1614353246412147 -0.2839309666783599
0005e0 5b 61 37 27 ee ab ac bf 32 f0 19 f4 dd f9 9b 3f
       -0.055999223982953615 0.027320354484331406
0005f0 7a 3e 7e 5c fb 32 bf bf dc d9 6e b1 07 92 e1 3f
       -0.12187167175420113 0.5490759339798461
000600 ff 47 cf 2a 58 b5 bc bf 5b c7 39 c9 4d bb bc 3f
       -0.11214209599646095 0.11223302996384403
000610 58 1b 67 52 ab 86 ae bf 2e c8 c8 8f 2b f1 b7 bf
       -0.059621194657259735 -0.09352371464118
000620 4f eb 69 21 7f 17 dd 3f b5 99 8d 00 12 bc c1 3f
       0.45455911887227257 0.13855195071228157
000630 2c 17 2a 75 29 1d 99 bf a7 00 56 16 5a 9e e8 bf
       -0.024525306488178675 -0.7693300663231825
000640 82 34 0d 61 21 d5 b6 3f 3f d4 de 81 71 52 d8 bf
       0.0891896116201725 -0.3800319450631981
000650 64 25 e4 d5 f3 92 ce bf 89 f6 e1 7e ea dc e6 bf
       -0.2388596338644603 -0.7144672849824057
000660 a3 63 43 bf 79 6b ee bf 0f 40 0d fa b2 55 cb bf
       -0.9506195769891871 -0.2135528298335889
000670 11 d2 b1 db 5f cc b6 bf 0b a1 50 60 05 7a e4 3f
       -0.08905600656164149 0.6398951417113791
000680 8e 62 9f 1d 2a a9 d0 3f bc 15 ba be 2b a2 e5 bf
       0.2603249825747661 -0.6760462498793269
000690 89 68 31 c1 37 4e 9b bf e2 8e 5d 49 b5 8a dc 3f
       -0.026665564695897124 0.44596607365222785
0006a0 13 5a e5 b4 4c 0a af 3f a5 78 44 6b 12 77 b6 bf
       0.06062545498086904 -0.08775439375719658
0006b0 59 cc 50 53 d8 f8 c5 3f 72 ca 4c 9f 25 5f f1 bf
       0.17165664737840095 -1.0857292387633177
0006c0 26 0f 6a e4 2f 79 95 3f be 7c 71 f9 48 c3 ae bf
       0.020970104519178488 -0.060083656739828836
0006d0 d8 4a cf e7 8e 03 d2 3f 58 6b d0 a8 f6 fe e2 bf
       0.28146717679662236 -0.5936234757567531
0006e0 a2 22 4d 7b 40 05 c7 3f ee 67 a6 2f eb db a1 3f
       0.17984777470180285 0.03488097149529766
0006f0 c9 7d bd 8a 71 24 c7 bf de ec 1e 5d aa 84 ea bf
       -0.18079966806815964 -0.8286945170179043
000700 83 01 39 9c 83 12 bd bf ea 0a e9 60 13 7a 26 bf
       -0.11356375278501755 -0.0001714848189796261
000710 2f c7 b3 b5 14 67 d4 bf 23 ed 90 c9 e9 a0 d8 3f
       -0.3187915586887468 0.384821364252007
000720 07 42 be b3 bb d5 8b 3f 96 3c 1b 08 d6 41 b7 3f
       0.01359125749857616 0.09084832857046118
000730 7e 70 f1 5c b3 b1 bd 3f 4c 5d e3 b4 be 07 df 3f
       0.11599274653548439 0.48484771408898975
000740 8e 14 a6 66 fa bb d9 3f 39 71 c5 25 a1 13 e1 bf
       0.4020982744626246 -0.5336461770744229
000750 47 eb c3 91 78 e3 b7 3f b1 aa d4 b8 e2 18 d5 bf
       0.09331468161319122 -0.32964389848590786
000760 2f a6 06 cc 8e b9 b9 bf 9c e6 c0 45 51 cb b7 3f
       -0.10048763733961928 0.09294612839667099
000770 7f ac 12 67 4f 8b ab bf 3b a8 e4 03 a1 1d d9 3f
       -0.05379722722258239 0.39243340854830294
000780 0f 68 e1 e6 58 0a 91 3f aa c8 47 12 93 ae 99 bf
       0.016641034213854818 -0.0250800113589739
000790 e1 de 8d ab ba d1 9f bf de be 69 84 ca 96 bf bf
       -0.03107349083026534 -0.12339463932743963
0007a0 7f a2 7e 8e fc 66 cf 3f 31 72 a3 f9 41 e7 ca 3f
       0.24533040006396686 0.210182425397663
0007b0 1a 30 3b 08 48 62 bb 3f 67 cd 84 aa 08 8a ea bf
       0.10696840477902506 -0.8293498354382053
0007c0 98 69 a3 25 65 d4 d4 3f da 56 d0 a9 44 b5 d2 bf
       0.32546356845491564 -0.29231373389607784
0007d0 48 f3 d4 ca 79 7b cf bf b4 d2 5c 0c 59 50 e6 bf
       -0.24595568088434505 -0.6973080865341985
0007e0 ba 78 3d f8 5c 63 ec bf 51 1a 89 a5 9f a6 c6 bf
       -0.8871292923393164 -0.17695994932928952
0007f0 ae 38 3a 1e 63 f1 a2 bf dd ca c4 54 a2 7a e6 3f
       -0.036997888030883316 0.7024699836386749

bias f8 [48]
000000 6a d4 85 6c 0d 8e d7 bf 74 0e f7 bc c8 1a cb bf
       -0.36804519269873615 -0.21175488688287525
000010 44 d9 23 a3 05 82 da bf e4 c8 f5 b7 04 55 d0 bf
       -0.41418591434139196 -0.2551891132817572
000020 0b 48 2c 21 49 99 d7 bf 0f 0f 32 c1 3f 3d d2 bf
       -0.36873081435726424 -0.28498834482910324
000030 e0 3e 8e 99 79 4a bf bf 3c 1c e0 5a af 53 cb bf
       -0.12223014830510293 -0.2134913629272165
000040 77 64 c1 52 e8 e3 d0 bf 0f dd f0 fd ad c6 d0 bf
       -0.2639103706511103 -0.2621264438525523
000050 05 b8 5c 03 85 17 d0 bf 28 9b a6 83 03 60 bc bf
       -0.25143552139604736 -0.11084005321627599
000060 ba ac d9 3f 36 71 b6 bf 1c f8 af 40 6f 3a c7 bf
       -0.08766497668118492 -0.1814707818847986
000070 15 3a 9b 6e 1d ce a8 bf 7f af 68 fa d5 97 d0 bf
       -0.04844753241706116 -0.25926732496258603
000080 38 94 77 84 22 59 95 bf 56 0f 7c 7f 6a a3 cf bf
       -0.02084783490672157 -0.24717456078371453
000090 9e 3f 40 16 79 a3 cf bf d7 76 15 49 d4 83 cc bf
       -0.24717629991982631 -0.22277310913607692
0000a0 ed 62 76 0e 02 21 ba bf d8 05 9d 40 b7 11 c3 bf
       -0.10206616261565289 -0.14897814421605804
0000b0 09 1a d2 bf 78 c0 cc bf 3a 5a 4d c9 d0 b8 b4 bf
       -0.22462376943822474 -0.0809450618229243
0000c0 a1 cf 9c d9 2a 34 c0 bf fc 40 13 59 bb 19 ce bf
       -0.12659202218639812 -0.2351602730691481
0000d0 a2 a3 0c 2f 63 a1 ce bf ba d8 9c f7 30 1b c5 bf
       -0.23930015370686158 -0.16489231195891368
0000e0 5c ef af b8 82 19 bb bf db e5 2f fa 50 72 be bf
       -0.10585801133123368 -0.1189318285759308
0000f0 09 ae 5e a0 bc d5 ca bf f9 80 f4 a3 f0 0f cd bf
       -0.20964773016508811 -0.22704895024890684
000100 fe a1 07 47 b1 d0 c7 bf 59 32 99 4e 8c 75 ba bf
       -0.18605628937008584 -0.10335614127070282
000110 ef 6a 47 b4 c4 63 bf bf 01 93 c8 58 10 f4 cb bf
       -0.12261609460203336 -0.2183857377541685
000120 d8 e1 6f ae 55 e7 c4 bf 7f 1b df bd 49 34 cb bf
       -0.16330977456506335 -0.21253320475645052
000130 cd 53 72 de f2 2d d4 bf ea 2d 44 70 a4 11 d5 bf
       -0.3153044864969246 -0.32920180285938605
000140 25 56 78 97 66 e8 cc bf 50 65 ea a5 9c 93 c5 bf
       -0.22584230800627939 -0.16856725789402072
000150 b0 f8 63 58 53 35 d0 bf 41 1e 9f 3e 0a 9e d2 bf
       -0.25325473434339596 -0.2908959971941592
000160 0f 59 5b d6 be de d2 bf 67 ab 61 1b 37 2e ce bf
       -0.29484530385288193 -0.2357853778551899
000170 96 a1 20 db f5 3a d0 bf de bd 68 fa 15 a4 d2 bf
       -0.2535986556927353 -0.29126500562685276

log_wavenumbers f8 [48]
000000 00 00 00 00 00 00 00 00 ef 39 fa fe 42 2e e6 3f
       0.0 0.6931471805599453
000010 0b 03 ad 7a ea 93 f1 3f ef 39 fa fe 42 2e f6 3f
       1.0986122886681098 1.3862943611198906
000020 33 8d ed f7 41 c0 f9 3f 02 20 2a fa 0b ab fc 3f
       1.6094379124341003 1.791759469228055
000030 57 5a 32 ae 72 22 ff 3f 73 ab 3b 3f b2 a2 00 40
       1.9459101490553132 2.0794415416798357
000040 0b 03 ad 7a ea 93 01 40 16 55 b5 bb b1 6b 02 40
       2.1972245773362196 2.302585092994046
000050 4c 37 7f b7 e3 2e 03 40 7d 9e d3 bc 16 e1 03 40
       2.3978952727983707 2.4849066497880004
000060 51 8c 31 2b 04 85 04 40 a7 bb d7 16 ca 1c 05 40
       2.5649493574615367 2.6390573296152584
000070 1f 48 4d 39 16 aa 05 40 ef 39 fa fe 42 2e 06 40
       2.70805020110221 2.772588722239781
000080 7a 7f fa c1 6b aa 06 40 86 91 6b 3a 7b 1f 07 40
       2.833213344056216 2.8903717578961645
000090 2c b3 04 06 36 8e 07 40 91 e3 73 7b 42 f7 07 40
       2.9444389791664403 2.995732273553991
0000a0 b1 ae 6f 94 2e 5b 08 40 c8 c5 3d 77 74 ba 08 40
       3.044522437723423 3.091042453358316
0000b0 f0 b3 d1 fd 7d 15 09 40 f9 2c 92 7c a7 6c 09 40
       3.1354942159291497 3.1780538303479458
0000c0 33 8d ed f7 41 c0 09 40 cd 1a f0 ea 94 10 0a 40
       3.2188758248682006 3.258096538021482
0000d0 90 84 03 b8 df 5d 0a 40 23 4a 96 d6 5a a8 0a 40
       3.295836866004329 3.332204510175204
0000e0 1f fe cd cb 38 f0 0a 40 9b d6 0b f9 a6 35 0b 40
       3.367295829986474 3.4011973816621555
0000f0 5a 2b 91 48 ce 78 0b 40 6b c8 b8 be d3 b9 0b 40
       3.4339872044851463 3.4657359027997265
000100 d1 b8 d5 f4 d8 f8 0b 40 f6 0d b9 81 fc 35 0c 40
       3.4965075614664802 3.5263605246161616
000110 c5 f3 0f 53 5a 71 0c 40 02 20 2a fa 0b ab 0c 40
       3.5553480614894135 3.58351893845611
000120 bd c7 3a ee 28 e3 0c 40 a8 41 c3 c5 c6 19 0d 40
       3.6109179126442243 3.6375861597263857
000130 d6 0d 88 68 f9 4e 0d 40 0d 72 32 3b d3 82 0d 40
       3.6635616461296463 3.6888794541139363
000140 4e ac 8e 45 65 b5 0d 40 2d 3d 2e 54 bf e6 0d 40
       3.713572066704308 3.7376696182833684
000150 11 ec 14 16 f0 16 0e 40 43 54 fc 36 05 46 0e 40
       3.7612001156935624 3.784189633918261
000160 a4 c9 a3 76 0b 74 0e 40 6c 42 90 bd 0e a1 0e 40
       3.8066624897703196 3.828641396489095
000170 b6 f0 90 2f 1a cd 0e 40 75 bb 50 3c 38 f8 0e 40
       3.8501476017100584 3.871201010907891

grid_cell_size f8 [48]
000000 ef 39 fa fe 42 2e d6 3f 0b 03 ad 7a ea 93 e1 3f
       0.34657359027997264 0.5493061443340549
000010 ef 39 fa fe 42 2e d6 3f 50 14 81 fa ae 58 d0 3f
       0.34657359027997264 0.25541281188299525
000020 4c 98 bf ec 23 f3 c9 3f 90 34 13 d9 c2 88 c5 3f
       0.2027325540540822 0.16823611831060648
000030 90 db 34 11 62 69 c2 3f fc ae 9e 1c 89 15 c0 3f
       0.1438410362258904 0.12565721414045317
000040 30 9a 9a c7 f7 8f bc 3f 10 44 23 cd 93 af b9 3f
       0.11157177565710508 0.10033534773107555
000050 70 96 e4 11 50 56 b7 3f 50 50 25 3b 07 62 b5 3f
       0.09116077839697723 0.08352704233158303
000060 a0 d2 41 a0 35 bb b3 3f e0 bc bb e1 20 51 b2 3f
       0.07707533991362903 0.07155042182033666
000070 80 e4 27 82 8e 17 b1 3f b0 75 d3 8a 58 05 b0 3f
       0.06676569631226137 0.06258157147700305
000080 e0 f2 2a 6e 07 27 ae 3f 40 76 46 81 48 79 ac 3f
       0.058891517828191686 0.05561281755511205
000090 60 41 0a 21 e8 f8 aa 3f a0 70 5f cd 11 9f a9 3f
       0.05268025782891317 0.050041729278491376
0000a0 e0 46 3c 79 3f 66 a8 3f e0 a7 40 2c ed 49 a7 3f
       0.047655089902162606 0.04548588910286333
0000b0 20 e6 8c aa 60 46 a6 3f 60 28 7b 43 7f 58 a5 3f
       0.04350568849481484 0.041690804469525444
0000c0 80 ba bd cb ad 7d a4 3f a0 eb be 02 b8 b3 a3 3f
       0.04002135383676819 0.03848052056806428
0000d0 c0 ea c5 74 bd f8 a2 3f e0 31 4f 79 22 4b a2 3f
       0.037053986076860834 0.03572948199107251
0000e0 00 8f b1 4e 84 a9 a1 3f 60 a7 65 98 af 12 a1 3f
       0.03449643574347583 0.033345687249336065
0000f0 00 3a 9e b5 98 85 a0 3f e0 ae 91 88 55 01 a0 3f
       0.03226926056878554 0.03126017849066698
000100 c0 62 11 c0 30 0a 9f 3f 00 bd 8e 8e 57 20 9e 3f
       0.03031231090821751 0.029420250011466642
000110 00 83 44 1c de 43 9d 3f 00 fe b4 ca a6 73 9c 3f
       0.028579206919974176 0.027784925577405417
000120 80 69 48 e6 b2 ae 9b 3f 40 86 51 93 1e f4 9a 3f
       0.027033610635137872 0.026321866742710975
000130 40 19 cc 5b 1d 43 9a 3f 00 9e a7 41 f7 9a 99 3f
       0.025646647193775296 0.025005210287330826
000140 00 c8 f2 3e 06 fb 98 3f c0 f0 8f 21 b4 62 98 3f
       0.02439508208471608 0.023814024494627217
000150 80 c5 85 b3 78 d1 97 3f c0 64 b7 23 d8 46 97 3f
       0.023260007817446304 0.02273118703837862
000160 40 8a fb a4 61 c2 96 3f 80 c4 49 3b ae 43 96 3f
       0.022225881285417026 0.021742555969869404
000170 40 42 1e b0 5f ca 95 3f 80 5f e5 5f 06 8f 85 3f
       0.02127980720939804 0.010526704598916359
