Sphere/NeuralNetworks/models/net2.pt (torch_old, 186886 bytes, 10 tensors)

weight f8 [36, 6]
000000 6f f1 0d d4 81 7f e7 bf f0 f6 d1 5c d0 ca d4 bf
       -0.7343148366631292 -0.32487877907247675
000010 55 c9 3d a1 9c 86 9b 3f 6d 71 a5 12 75 54 d1 3f
       0.02688069090022201 0.2707798654644396
000020 77 b1 24 7e 91 6a f1 3f 81 df 87 a8 15 86 05 40
       1.0885176589464132 2.690470997473256
000030 fa 92 48 92 90 db d8 3f b5 dd 5a f7 88 36 d9 bf
       0.38840116773125966 -0.3939535537315025
000040 ee 11 3c d5 24 e0 d0 bf 75 9c 11 00 16 f2 e3 bf
       -0.2636806566590896 -0.6233015061706185
000050 be 42 70 db e9 d6 df bf 81 3e 5f 37 eb 96 f1 bf
       -0.4974922793344766 -1.0993454134913068
000060 54 b8 83 9e 3a ac da bf 28 5f bb 0a 66 5d b2 3f
       -0.41676202278074936 0.0717376495552996
000070 55 33 a4 d9 ad 4f b1 bf bc 38 0d f0 a6 7a b3 3f
       -0.06762205661307281 0.07609027252803718
000080 9b ca 71 bf 02 a5 f8 3f 59 4f 2f a0 9a 8b 01 40
       1.540285823659963 2.1931660189092494
000090 e9 d0 70 34 6d cb d7 bf 32 1c 74 84 8f 62 de 3f
       -0.37179117318306837 0.4747656625262976
0000a0 5d 16 7a 06 7b 77 e4 bf 98 3d 6d e9 d8 22 a3 3f
       -0.6395850302221323 0.0373752388901451
0000b0 5d ae 2c f2 ca a0 ed 3f 43 ec c4 b6 86 f0 c6 3f
       0.925878022191181 0.17921527790335476
0000c0 10 48 06 6c e3 36 a0 3f e6 b0 5b d1 f4 09 50 bf
       0.03166876500758076 -0.0009789362715606985
0000d0 63 67 54 15 5d 0d b2 bf d8 75 53 7c f5 7c ee 3f
       -0.07051641245598499 0.9527537754290121
0000e0 28 cc e5 fa 5f 2d e1 bf c1 b0 7d 80 38 8a e3 bf
       -0.5367889309258134 -0.6106226453389568
0000f0 1e 99 05 1a c1 97 bd 3f a8 1d 70 ec 50 c9 d1 bf
       0.11559683690356734 -0.2779123600925808
000100 1d 58 b8 ba b0 91 e1 bf b8 c5 ea e9 3c 2b f9 bf
       -0.549034466445622 -1.573056138743011
000110 81 0a 87 39 3c 02 0e c0 3e 10 ce 2d 51 60 0b c0
       -3.751091432031274 -3.4220298365126203
000120 41 8e ed a1 e2 51 b2 bf 8f b1 52 a6 50 28 d7 3f
       -0.071561970265571 0.36183563463671303
000130 5f ac 56 e8 0e 38 d1 3f e3 20 03 51 d3 55 f4 3f
       0.26904652299226045 1.270953480199801
000140 ee 41 2c af 97 eb fe 3f 05 be 3d 85 1d 14 d9 3f
       1.9325177042666115 0.3918527413543134
000150 2f 98 b0 ec 1b 0e d3 3f 3d 84 56 eb dc b5 78 bf
       0.2977361499237103 -0.006032813039753168
000160 24 5d 50 98 23 05 d8 3f 56 68 36 87 5b 53 f4 3f
       0.3753136622849118 1.2703509599437175
000170 fc 45 00 eb c1 d1 10 40 f6 cc 52 b2 c4 a0 0b 40
       4.204841300861059 3.453500168945193
000180 8d 74 30 df c0 5a d6 bf 23 fc 93 7d c6 54 c1 3f
       -0.3492891482909009 0.13539963847867495
000190 f7 3d 17 11 5c a8 d1 bf 42 fc 93 a2 31 75 f3 bf
       -0.2759008566763152 -1.216111788817003
0001a0 f8 d4 4a 2d 1e 61 f2 bf e3 08 7c 47 6f 70 fa bf
       -1.1487104195815032 -1.652449874149675
0001b0 cc 2d 31 3f b1 5a d3 bf 5d 46 ef dd b1 26 dd 3f
       -0.30241042300323495 0.4554867427187668
0001c0 57 25 6a 9e f2 62 da bf c4 23 48 3e eb 30 e9 3f
       -0.41228929014376575 0.7872215477410625
0001d0 b9 e8 1a e7 d0 b6 fa 3f 5e 66 b9 90 0a 28 e4 bf
       1.66963281894145 -0.6298878504414451
0001e0 37 3e 95 49 9f 0e a6 3f 47 5a da 0d 67 0f c1 bf
       0.04308030865888351 -0.13328254867947661
0001f0 51 a6 89 f2 71 ee b8 3f 8f 29 52 5f d1 62 e3 bf
       0.09738838359194203 -0.6058127271401633
000200 9e 79 09 07 31 6f dd bf e8 93 f8 f6 48 50 db 3f
       -0.4599115914078541 0.4267752086473693
000210 7e f2 d4 03 e8 5c a2 bf 6b f8 7d a3 58 c0 93 3f
       -0.0358650688817521 0.019288430193676136
000220 0f 57 d2 c6 77 f5 a6 bf 65 88 e7 d7 17 c5 e1 bf
       -0.0448415212824057 -0.5553092209704685
000230 27 63 ca aa 4c cd f1 bf 61 e8 a5 91 0f 57 ae bf
       -1.1126219436175206 -0.05925797131472233
000240 e4 20 2e 47 e0 0e de bf f9 c1 1b 0e 0e 1a b7 3f
       -0.469657964240936 0.09024131626552635
000250 d7 3f ce da 2c b3 d2 3f 66 98 68 32 e2 01 d2 bf
       0.2921859871648826 -0.2813649647017712
000260 00 b5 4b bd 45 10 f4 3f 76 d6 77 68 97 e1 fa 3f
       1.2539727587093807 1.680076034620837
000270 73 f9 0a 3b 4b 31 b0 3f f0 1b 9b 52 6a 06 b2 bf
       0.0632521647594098 -0.0704103900599049
000280 92 a0 d5 5e cd f3 cd 3f 38 89 b3 a1 7f 74 f2 3f
       0.23400275354947958 1.1534420315225145
000290 de d7 d4 98 9b 5e c6 3f 95 19 98 ef 26 43 f4 bf
       0.17476220095130562 -1.26639455405675
0002a0 e4 37 eb 89 69 f6 c7 bf 0f 6a 6a 72 bc c4 9c bf
       -0.18720740541760883 -0.028094238742236096
0002b0 65 26 5a 32 79 93 e0 bf 0d 60 20 c9 ae 20 01 c0
       -0.5180021270218275 -2.1409583771710516
0002c0 bc 75 90 c7 e8 fe f8 bf 6d 6a cd 80 92 67 b5 3f
       -1.5622337146263439 0.08361163754072161
0002d0 03 39 54 6d 7a b1 cb 3f ce 7d 4f 25 3c 7b 99 3f
       0.21635370577173071 0.024884166505101217
0002e0 7e 68 41 08 ab 72 d0 3f 4d fd ed 83 20 e7 df bf
       0.2569987850780605 -0.4984818733573391
0002f0 69 3d ee d4 ab 7e 02 c0 aa 8a da dd 74 34 12 c0
       -2.3118511805729907 -4.551227060760235
000300 c6 9b 6e 21 79 17 aa 3f 44 29 d3 77 90 69 a9 bf
       0.0509603360472322 -0.04963351690965337
000310 cf e0 26 a0 f0 b6 d3 3f de 9f d3 b3 8d 41 e4 3f
       0.30804076804953423 0.6330021393050591
000320 47 26 44 f4 95 82 f0 3f ba 5b 99 0e da c3 f3 3f
       1.0318812886856834 1.2353153772616978
000330 08 9c 38 e6 d5 be b2 bf fe 53 8e 10 a7 aa b7 3f
       -0.07322441931374624 0.09244770197103944
000340 e7 7a de 51 d7 cd d5 bf ff 62 a0 d9 1a cb cc 3f
       -0.3406885432722632 0.22494826914114438
000350 e7 cd 9d 1f b0 22 d5 bf a9 14 e9 ae fb 9d d0 bf
       -0.3302421864275104 -0.25964252549267514
000360 d5 51 c0 b2 cc 2b ec bf 7a 40 60 dd c4 5f f0 bf
       -0.8803466311679197 -1.0233811042308205
000370 e8 7e 92 fc ce 4c e6 bf c9 93 36 b4 9e 9f dc bf
       -0.6968760426570642 -0.4472424278158625
000380 5b a4 53 29 b1 d5 e3 bf ad 84 24 d5 59 82 d8 3f
       -0.6198354537165288 0.3829559880706011
000390 16 ab ff fb ac c5 a2 bf be 1e 93 47 95 dd a5 3f
       -0.036664396058617196 0.042706170069832336
0003a0 a7 45 b3 c2 28 5e bf bf 94 f6 a8 5c 23 4b f5 3f
       -0.12253050568985789 1.3308442706615198
0003b0 1f 13 a9 9c 43 3f f7 3f e9 12 f4 ba a1 e1 d5 3f
       1.4529453391598464 0.3418964696614198
0003c0 c4 91 8e 90 d7 8e c2 3f cb b4 f7 00 06 ae c8 bf
       0.144984193405561 -0.1928107743000623
0003d0 d8 da c2 80 88 81 d0 bf 01 23 5f 41 02 32 bc 3f
       -0.2579060800011752 0.11013807388293274
0003e0 52 f6 4b 38 f1 c7 08 40 62 4e 22 c6 0b 3e 11 40
       3.097628059213812 4.310591789096721
0003f0 fe cb 27 06 d9 cd ce 3f ba 52 01 46 da eb da bf
       0.24065697479781528 -0.42064530216638796
000400 f9 15 ca da 5f f1 d8 3f 7e 0f e1 c8 87 e5 d5 3f
       0.3897323261847699 0.342134424372709
000410 c9 6d 6a 7c 54 3b 05 40 d7 5d 3f 78 ab 09 00 40
       2.6539697380046374 2.0047215837800922
000420 c1 5f 75 c5 37 9c d3 bf 86 e9 bd 78 6f 23 d9 3f
       -0.30640978129440205 0.3927878073806358
000430 ed 4b a6 91 c1 e1 e0 bf d2 9a 37 2f 76 d0 b6 3f
       -0.5275581211775467 0.08911837246669599
000440 be 23 1c d5 cd b0 fb bf 9d dd 35 7a 36 42 ed bf
       -1.7306650471311822 -0.9143326174661756
000450 0e 77 ec 11 14 4f b0 3f 69 eb 60 c1 9f ba 93 bf
       0.06370664060201767 -0.019266601732151587
000460 2e 28 51 37 cb 7a b5 3f 66 2c 4c e6 0d 00 f4 3f
       0.08390493488801162 1.2500132556913512
000470 c7 3f 4e 3a 3d 94 fd 3f bb 80 34 55 1e 71 d8 3f
       1.8486912038388128 0.38190420456704616
000480 fa e7 10 4c 13 2e 92 bf b1 ec 87 69 88 38 91 3f
       -0.017753888623907678 0.01681721824750743
000490 00 5c c4 03 98 11 cc bf 5d 57 c1 d7 74 40 d2 3f
       -0.2192869203942962 0.28518410749290074
0004a0 89 d5 d8 ec dc 8b f9 3f bb 5c 59 3e f5 73 e9 3f
       1.5966462375484716 0.7954050271754548
0004b0 ba 09 a8 4d 89 d9 a3 3f 7f 10 05 9f b2 0c 72 3f
       0.03876904557184298 0.0044066407575124025
0004c0 9c 55 f0 3f a7 c8 c7 bf f8 21 ee 68 ff c3 e1 3f
       -0.18581095335018183 0.5551754998605807
0004d0 2c 54 ea a2 8d 28 06 40 23 0b 7b 14 48 ee 01 40
       2.769801399971149 2.2413484191942117
0004e0 65 07 a1 04 a6 3e a7 bf c7 47 14 f0 f7 21 ae 3f
       -0.045399845185342604 0.0588529091420607
0004f0 f8 9b 6d 08 98 85 c4 3f a5 d0 51 a5 b6 98 dd bf
       0.1603269616273051 -0.4624458898972626
000500 25 b5 56 8e 67 f1 f8 bf e7 1f 46 85 90 f3 00 c0
       -1.5589366493325738 -2.1189279949212394
000510 56 b4 d2 51 ab bf c2 3f 31 4b cd a1 bb 35 bd 3f
       0.1464742803122216 0.11410114956133267
000520 84 40 20 24 7a 25 e7 bf bf 9d a6 92 07 2d f7 bf
       -0.7233248429856904 -1.4484935501621832
000530 b2 4d 90 d4 11 f0 09 c0 99 d1 3b 1e bb dd 0b c0
       -3.242221508649629 -3.4832670557027083
000540 2c e5 24 81 4c 98 c2 3f 06 4a ec 69 05 b5 c6 bf
       0.1452727919184239 -0.1773993270113154
000550 18 2e 37 d4 a2 22 da 3f 60 1d cc 71 4f 3b eb 3f
       0.40836401676344414 0.8509900305370302
000560 e6 7c 10 b1 cb e2 dc 3f 83 44 c3 4f ed 52 d1 bf
       0.4513425091881359 -0.27068646230060994
000570 ea f5 ac 62 33 85 a2 3f 68 68 ba e9 8f 4a 93 bf
       0.03617249087845294 -0.018839119568476198
000580 58 29 21 71 73 20 a7 3f 32 84 56 ee 93 25 e5 3f
       0.045169456062086055 0.660837140563791
000590 16 7a 1f 3e 1b 2e d4 3f 90 cd 6b 1a 03 d0 cf bf
       0.31531411234564766 -0.2485355261811546
0005a0 cc cb 6e 66 76 15 ba bf 67 ac fb ab 0f 40 c4 3f
       -0.1018899917678901 0.15820499322521472
0005b0 83 a0 e6 9c ec 67 e4 bf 40 14 6b 62 60 a5 e5 bf
       -0.6376860680075115 -0.6764375612480151
0005c0 fa 89 5f 9a f3 7b df bf 2d 6c f5 74 59 8c de 3f
       -0.4919404037047169 0.4773162500548008
0005d0 fb dc 08 0e f6 23 af bf 29 12 99 82 45 d0 c2 3f
       -0.06082123681374615 0.14698094250538077
0005e0 c6 42 16 86 15 28 da bf 1b 31 24 5b 68 89 f6 3f
       -0.4086965379183706 1.4085467872819837
0005f0 c4 5f 76 50 92 c6 fe 3f ae 18 0b 52 03 1f f8 3f
       1.9234793799459888 1.5075715260332276
000600 0d ff f2 ee ee 59 89 3f 48 c6 89 49 96 dd 79 bf
       0.012378565470839509 -0.006314837512591938
000610 64 43 c5 d6 9e d7 ca bf 7f 4b 2f 65 01 9d e6 bf
       -0.20970521437495926 -0.706665704370934
000620 ef ba 99 72 e4 0f eb bf 5e 80 83 9b 59 ef eb bf
       -0.8456899870196518 -0.8729675328613771
000630 2c f5 fd ea 2d e2 be 3f cf 72 99 61 a8 8d ac bf
       0.12063872325048369 -0.055768262781133886
000640 42 6b 16 cf 3b 8c d1 3f bf 2c 02 23 3b fd f2 3f
       0.2741841814364997 1.1868239753264758
000650 9e 3e ad f6 0d a2 11 40 1a b7 2a 43 f3 60 13 40
       4.40825639183427 4.844677972299701
000660 fe 30 fb 64 62 4c e0 bf 10 69 a9 24 e6 8e a9 3f
       -0.5093242618836766 0.049918357825577186
000670 55 36 2a 05 85 31 c0 3f 3a 86 bd 3d d6 3f be 3f
       0.1265112185687253 0.11816157347996006
000680 0f a2 3a 9c e4 6a 00 40 28 53 82 eb 3f f8 fc 3f
       2.0521938519853005 1.8106078338216296
000690 be d0 80 d5 9c 70 de bf f1 54 5a fb f4 80 c5 3f
       -0.47562332963867593 0.1679979541119461
0006a0 f6 eb e2 eb 9d 13 e1 3f bf 1b 67 17 34 10 d2 3f
       0.5336446387440208 0.2822389820616386
0006b0 3f 2b cb 94 82 42 0b 40 86 f8 32 7f 2d c8 11 40
       3.407475626421188 4.4454860567913155

bias f8 [36]
000000 fb f6 d7 a6 95 3f d2 3f 47 ad f6 c8 06 62 8e 3f
       0.28513089459725877 0.01483540821830921
000010 af 20 b9 76 81 2c d2 3f 34 88 10 44 77 88 80 3f
       0.28396641344125845 0.00807278801409348
000020 3e 41 85 14 12 9c 75 3f 89 5a c3 33 c1 b4 ab 3f
       0.005275793672197713 0.054113423889863795
000030 d1 90 d8 4b 87 a8 d5 bf 98 c2 90 cd 28 22 d1 bf
       -0.3384111633952332 -0.26770992350342615
000040 85 ff e1 cf 09 c0 d0 3f ba 81 0d b6 33 a6 b5 bf
       0.26172108937316124 -0.08456729120872
000050 7e 96 91 f8 bb b8 b4 3f b4 6c 99 61 f5 99 8a 3f
       0.08094382113048401 0.012988965073580473
000060 43 f2 ca 66 b2 ce cf 3f e6 d9 9d a6 59 93 a9 bf
       0.24849538821389858 -0.04995231779951208
000070 ff 49 93 87 c3 22 d4 3f a5 b9 34 c7 ae 72 c8 bf
       0.3146218131998068 -0.19099983908513454
000080 ff ba 18 a8 4c 55 a7 bf 71 a3 95 b2 06 46 9a 3f
       -0.04557265808067789 0.0256577536105484
000090 66 8a d4 6c 0d 6f d3 3f d1 38 d8 4d 40 62 9a bf
       0.30365310314133465 -0.025765423537500724
0000a0 39 9e a8 fa a0 8f a3 3f 28 fe eb 87 d7 6a a4 3f
       0.03820517597005985 0.0398776391430114
0000b0 0e 7c 72 20 b4 4b a1 3f 31 61 94 f7 49 d4 b8 bf
       0.0337806977852254 -0.0969892720644381
0000c0 a8 88 1e 48 49 a4 5b 3f 64 47 d1 d2 cf 71 a8 bf
       0.0016871181146389889 -0.0477433152051521
0000d0 4b 81 12 64 e6 cf 7b bf da 7e 19 4d 0e ed 88 3f
       -0.006790065731508153 0.012170898177998369
0000e0 0c f0 a6 f9 f3 bf b3 bf 34 cf fa 6d 4c c8 79 bf
       -0.07714772076627713 -0.006294535210759556
0000f0 47 cd 84 eb 32 87 b1 3f ac c0 37 07 4c 58 a7 bf
       0.06846922159166012 -0.045595527535512076
000100 6f 5e a4 55 3e e8 98 3f a1 76 6c 9c ed 7b be bf
       0.024323438622643353 -0.11907849377572656
000110 96 a6 38 bb 67 c3 d6 3f 03 4b 99 b1 97 b1 b6 3f
       0.35567658694581306 0.0886473473158667

weight f8 [120, 36]
000000 f3 7e 5b d0 70 16 c8 bf eb a8 20 30 ca 8e ca bf
       -0.1881848351831575 -0.20748259878138894
000010 06 bc ff cf eb 3a c0 3f df db 16 3d ee 25 c7 bf
       0.1267981305713592 -0.18084505064845666
000020 ac 70 13 0e 24 38 76 bf b4 c7 f6 97 32 10 c0 3f
       -0.005424633827001351 0.1254943124782223
000030 8e ee d4 7b 14 d0 bc bf 9a 9c 98 f7 09 70 b1 bf
       -0.11255004904972507 -0.06811582846477152
000040 08 93 ce 10 3d 16 c5 3f 14 be 6e 3b ae 85 bb 3f
       0.16474116631174973 0.1075085539912311
000050 36 e6 91 e4 05 af c4 bf 0b 38 ef e2 76 7e b8 bf
       -0.16159127865448547 -0.0956796936072523
000060 f4 56 fd b7 70 c9 c5 bf 63 87 d6 0e 8b a8 a7 bf
       -0.17020997032039242 -0.04620775753143282
000070 57 94 dd e1 20 20 ab 3f 39 b7 ad f3 7b 46 d1 bf
       0.052979495593526486 -0.2699270133660892
000080 93 fc 99 83 19 b3 b9 3f 02 38 eb 82 22 4b 93 3f
       0.10038909399917122 0.018841304054880943
000090 f2 8f 8c 8e b1 3d a9 bf 83 76 ca e0 1f c8 c6 3f
       -0.0492988096723649 0.17798231578938237
0000a0 5d 17 16 57 b5 37 bf 3f d5 0e a5 79 3c 99 a1 3f
       0.12194379211549973 0.03437222466393811
0000b0 ea 64 9e ea 21 40 b9 bf 34 ed eb 74 b0 7d aa 3f
       -0.09863483407970688 0.0517401831366108
0000c0 62 51 29 0b 99 f8 a2 bf 9f a3 ca d4 70 03 b8 bf
       -0.037052900898433064 -0.09380250163179803
0000d0 55 a7 30 e3 0d 62 ba 3f 86 c8 4e 5f aa 79 c0 bf
       0.10305868908531342 -0.1287129369134769
0000e0 67 18 32 ed 3d 12 a3 3f ef a1 bf 08 96 59 bd bf
       0.03724854965644014 -0.11464822496021275
0000f0 ae 67 9c df a2 70 a3 bf ab 2f 91 57 66 20 c7 3f
       -0.03796872119546833 0.18067626262415834
000100 f8 07 98 a1 26 37 8b 3f 40 0a 3e 1b 61 fc ac bf
       0.013288785749868012 -0.05661300141857284
000110 ef 36 69 05 77 39 9e bf 71 16 2a 36 be 00 ba bf
       -0.029516086297284024 -0.10157383749364059
000120 51 a1 17 d1 c8 80 70 bf 02 8e 5d a5 7c 34 c4 3f
       -0.004029068413253193 0.15785177301869174
000130 fe 8c 5d c5 82 ba 33 3f 97 2c b7 7d 8c 2c 93 3f
       0.00030103390360221294 0.01872462765986124
000140 1a e0 4e 34 f6 d7 ab 3f 40 7e 9e 1b b9 c4 a5 3f
       0.054382032284991236 0.04251650297305476
000150 79 5f 41 ef 0a 0c 6d 3f e6 30 a8 d9 4e b7 b2 bf
       0.0035457814756618103 -0.07310955823794849
000160 63 1c b4 7a 1a 4b b3 3f 75 3b 8b 2e 27 09 a7 bf
       0.07536473746960008 -0.04499170725977467
000170 66 98 bb c5 18 40 a9 bf ee 4f ef 36 2c aa b1 bf
       -0.04931714452486417 -0.06900287953550308
000180 c0 3b 63 05 c6 d5 a3 3f 27 39 61 c3 89 4c bb 3f
       0.03874033752219175 0.10663662929548377
000190 a8 62 b5 87 72 17 bd bf 96 98 49 33 5e 0f c8 3f
       -0.11363902867504783 0.18796899322768884
0001a0 ff 8b 75 fc 66 ed c2 bf 44 49 b8 71 49 70 b8 bf
       -0.14786994292362007 -0.09546336199153865
0001b0 6b 30 ac e1 ea 6b a4 bf 6c d8 01 e3 e6 33 cb 3f
       -0.039885845230032434 0.21252142032944066
0001c0 c6 1e b2 8a da 61 9f bf 96 12 74 4a f9 41 b9 bf
       -0.030646719661062936 -0.09866293018064662
0001d0 e6 43 d3 2c 65 66 a6 3f df 59 9c 88 17 69 b4 3f
       0.04374996349509512 0.07972857556556033
0001e0 37 95 8f 8c cf 0f bb 3f 9f c8 5a d2 6a 71 9f 3f
       0.10571000272428398 0.030706090058352783
0001f0 46 f1 73 98 8c 3e 92 3f 05 b9 45 2e df db a5 3f
       0.017816731266962614 0.04269311370704724
000200 fa 32 f8 ac 9d 3c bd 3f 90 ef 42 3f 6a 6d b2 3f
       0.11420617554558624 0.07198204082936699
000210 d1 d9 10 da aa 86 ad bf 11 f2 25 7e d9 6f 78 3f
       -0.057668055648196444 0.005966043072814135
000220 3c 33 94 c4 4d 9b bd 3f 7c 58 40 e2 6d 70 51 3f
       0.1156509976319286 0.001064402874367625
000230 ae e7 fa aa bf 02 c4 3f 15 80 9f 35 2c b8 92 bf
       0.15633388374936658 -0.018280688069239732
000240 e1 98 42 95 5a 30 c1 bf 45 95 89 f5 25 b7 b5 3f
       -0.13428814209073095 0.08482587093893297
000250 22 e0 19 09 96 75 ac 3f dd d7 7f d2 9d 12 9f bf
       0.055584610568019124 -0.030344453785765658
000260 fd 3b f7 66 f7 8e ab 3f 0f cf 64 00 b4 e0 bb 3f
       0.05382512218385924 0.10889744767774466
000270 a2 3f c7 d9 25 8f 95 3f 43 f5 a9 b3 0c f6 c6 3f
       0.021053878228314844 0.17938383839274694
000280 3b 24 3d f8 34 df c4 bf 22 af 91 1e 10 69 c0 bf
       -0.16306173440014668 -0.1282062672865943
000290 1f c9 91 44 5d 90 b1 3f 2c 8a 3c 48 d8 af b2 3f
       0.06860907482203914 0.0729956795080759
0002a0 0f b0 e7 da 41 8f c4 bf 93 95 6d 59 3a 91 ac bf
       -0.16062186421129396 -0.05579550115252654
0002b0 3a 26 a9 4a 17 db cb 3f 65 a4 dc 09 e4 c7 b4 bf
       0.21762362618965075 -0.08117509117859496
0002c0 7c 43 30 20 f9 a4 c0 3f f3 d8 84 bc 7c 22 b5 3f
       0.13003458091455034 0.08255748369706221
0002d0 58 d1 08 3f cb 9d 6e 3f 5e a6 89 fd 08 03 b1 3f
       0.0037373513844391297 0.06645256223569038
0002e0 f4 aa 83 f9 cf 5c c2 bf f0 e4 83 df f9 38 b4 bf
       -0.14345740969959986 -0.07899438578523976
0002f0 6a b7 dd d5 39 bf 9f bf 54 24 84 63 00 17 bf bf
       -0.031002906492566686 -0.12144472531885359
000300 85 64 35 73 8c f1 be bf 06 b6 6b 95 c8 97 a2 3f
       -0.12087323963841541 0.036314266433560546
000310 b8 a5 9d 58 6d 9b c6 3f db 2a 0d 3a 2e a9 bb bf
       0.17661825968688816 -0.10805024068137518
000320 c2 a2 70 ee ad fa bb bf 1d 03 bb 6e 72 f1 ae bf
       -0.10929381438530597 -0.06043584443751213
000330 86 61 0d 3c 45 a5 a2 bf 3c 4b 33 58 80 70 c2 3f
       -0.03641716344890526 0.14405826861055882
000340 9e 34 71 16 ff 22 bb 3f 17 c7 53 1c 62 a6 9c bf
       0.10600275323777672 -0.027978451708754095
000350 9e 6b 62 71 89 e9 bd 3f ef 2f 20 43 2c fd c8 3f
       0.11684474008727228 0.19522622373221973
000360 1d 9d 11 a7 87 33 c8 bf 81 2f 82 05 12 68 cc 3f
       -0.1890725675359385 0.2219259764573245
000370 8e 81 55 d2 fa 79 89 bf 2a c1 11 66 c6 af 74 3f
       -0.012439689201244854 0.005050444598154772
000380 b2 4f 07 eb 8f dd bb bf 65 43 00 86 97 f2 ae 3f
       -0.10884952056886624 0.060444579227015884
000390 99 cc 9b e6 d3 7c c1 bf d0 ec cf 37 54 f2 9f bf
       -0.1366219402330884 -0.031197849184519566
0003a0 38 28 b1 be b2 48 cd 3f 2b f6 92 c4 1b db a9 3f
       0.22878107367643152 0.05049978994928169
0003b0 db 25 6d 5e 9a 4b 97 3f c5 d4 9f 71 94 09 c3 bf
       0.022749340070083206 -0.14872985408843512
0003c0 6e 68 b1 d1 e1 c9 c9 3f 69 d6 77 f2 11 39 b2 bf
       0.20147345293918612 -0.07118332070953105
0003d0 46 33 ab fc ad e5 c5 3f d7 28 ee 93 84 44 d6 3f
       0.1710717662557732 0.3479319996482792
0003e0 65 b0 f4 90 d3 ca ca bf e1 f7 64 b2 70 f0 a2 bf
       -0.20931477144165736 -0.036990663315449764
0003f0 54 f1 19 18 02 68 d7 bf 5b a4 14 c9 60 92 c8 bf
       -0.36572315553327894 -0.19196710413351323
000400 a4 e5 d9 a2 b7 43 96 3f d3 af 29 49 9c 1a d2 3f
       0.021742696108480467 0.28287417549904353
000410 26 f3 70 f8 3d 40 c3 bf 33 a3 b1 64 32 85 c5 3f
       -0.15039801245611634 0.168127345244352
000420 34 33 75 d2 2f e2 cb 3f 8f f7 b7 42 1f 51 32 bf
       0.2178401734949148 -0.0002794934577819924
000430 d2 2d f3 9f 84 14 b0 3f af 8b a8 67 da 56 e1 3f
       0.06281308083560269 0.5418521904542696
000440 ae df 27 e0 c9 92 a8 bf 4b 2a 72 8a ff a0 75 bf
       -0.047994907963527 -0.00528049297930495
000450 a2 cc 62 0d 17 ed be 3f 99 52 21 70 99 8c c7 bf
       0.12080520703129818 -0.183978252173479
000460 13 23 03 20 6a 07 c2 3f f7 3c 3c e5 f2 b1 8a bf
       0.14085127413843476 -0.013034722920137727
000470 a3 b2 10 5f 51 1e c3 3f d1 26 ac 8e 23 ea c8 bf
       0.14936272756439903 -0.19464535204342906
000480 87 6b 12 3a 02 24 95 3f 18 b6 44 78 17 75 ad 3f
       0.02064517478411745 0.05753396361465607
000490 47 88 44 44 cf e3 bb 3f 68 62 50 b9 bb 0c bc bf
       0.10894484917346957 -0.10956929468410126
0004a0 5c 1a 40 28 f5 57 ae 3f 53 6d f3 3d 80 51 b5 3f
       0.05926481357896726 0.08327485573265862
0004b0 27 84 4c e8 7a be 79 bf db f0 e5 00 ae b0 d1 bf
       -0.006285171610927376 -0.2764086731692836
0004c0 74 a1 25 05 32 2f c8 bf 99 34 a9 c1 16 e5 c4 3f
       -0.18894028903310878 0.1632412381754065
0004d0 a1 cb c6 8b 65 fb 6c bf 58 3f 5a e8 58 1c b8 bf
       -0.003537844020877271 -0.09418254540127913
0004e0 56 2a 20 d3 69 b1 bd 3f c8 58 60 3e 00 4e b6 3f
       0.11598836330828396 0.08712770007000181
0004f0 42 40 09 ae 4b 47 c4 bf 87 18 b0 bb d2 dd d6 bf
       -0.15842576978548278 -0.3572890122308156
000500 16 6e a4 0e 85 0b 86 bf f2 54 65 9e b2 e6 ba bf
       -0.010764159688327484 -0.10508266799054747
000510 cb 70 70 a5 a4 0e c9 bf 0d 2d 7f 3e 3c aa be 3f
       -0.195759373455877 0.11978508497047731
000520 cc d8 e8 cf 66 4a a2 3f d4 1e f3 64 73 32 c5 3f
       0.03572388923605416 0.16560213498291054
000530 86 18 05 d7 ec cd b1 3f 4c 79 53 2b ae 3f b7 3f
       0.06954841851720248 0.09081543500676509
000540 36 18 99 2d 6b d2 c2 bf a4 de 58 d6 84 ab 81 bf
       -0.14704646803346727 -0.008627927581172763
000550 43 a9 c1 ba 8f 34 9c 3f d2 18 22 4e d3 3d cd 3f
       0.027544255994521604 0.22844926180932262
000560 c8 e1 37 a1 fa 1b ba 3f fb a0 6f 73 03 af a5 3f
       0.10198942600243932 0.04235087188846084
000570 a0 f7 2c ed 54 3e b3 bf 48 99 fd 7b c4 e1 c2 3f
       -0.07516985693379619 0.14751487783650874
000580 39 75 4f 5c cb 33 bb 3f 76 e1 6f 33 04 ef ba bf
       0.10625906947776266 -0.10520960098063434
000590 bf 10 dd 9f e7 9a b2 bf 1e 48 7b 03 27 76 b9 bf
       -0.07267615940969828 -0.09945911250113723
0005a0 18 5d ad 1b e8 77 bf bf eb fc 3b fb f8 74 a6 3f
       -0.12292338062012609 0.04386117998910229
0005b0 2a ab a2 58 85 d4 b7 bf a8 86 42 b3 7b 3b 97 3f
       -0.09308656133604801 0.022687847915796283
0005c0 b4 41 77 29 e9 7a b1 3f 59 33 bb 1e fd 11 70 bf
       0.06828171980237735 -0.003923405409022995
0005d0 27 b7 e2 8a 34 8f cd 3f fc 0c 1a 20 b9 16 bb bf
       0.23093277722858227 -0.10581547769293204
0005e0 3d 33 79 09 ed 5a be 3f d3 bc c1 56 97 aa c1 3f
       0.11857491952214345 0.1380185292832495
0005f0 dc 54 4b 18 b3 ff 8c bf 8b cf 82 3f 17 f4 a8 3f
       -0.014159583262350166 0.04873726511269102
000600 c8 75 ab 41 83 3b c0 3f bb 68 7f 34 ce 0a bc 3f
       0.1268161841061739 0.1095398786705201
000610 2d e3 a2 83 b1 67 ae bf c1 10 df f9 46 a8 9b bf
       -0.05938486797226115 -0.027009114266335347
000620 d5 01 9f 86 d0 db c4 3f 50 59 3f ee df 25 b3 3f
       0.1629582078294464 0.07479667250240607
000630 e7 8b b4 fa 84 48 d2 3f 7e ef cc 38 45 52 c8 3f
       0.2856762359899094 0.19001069329703663
000640 11 b1 71 16 c9 81 c6 bf a5 4e 9b 3a 3c 76 b0 3f
       -0.17583573909667696 0.06430412703348994
000650 a9 85 14 1b ea d5 c4 bf a3 c8 1d 18 92 f1 a1 3f
       -0.16277815172456414 0.03504616302861165
000660 35 b8 63 26 0d 9c 99 bf 71 98 e1 d5 30 08 b8 3f
       -0.025009351223097737 0.0938749811335542
000670 ff 08 5b b4 f9 16 a0 3f 20 17 ee 2f 04 30 c1 3f
       0.031425288454117954 0.1342778429063225
000680 46 aa b7 ed 09 41 b4 3f 2d 87 6d d2 e4 b2 af 3f
       0.07911741307877049 0.06191172665309206
000690 24 f7 97 76 b9 2b 9a bf 6d cf 8a e6 79 5b a0 3f
       -0.025557420600299655 0.03194790782200028
0006a0 fd e3 af 07 e7 3d b1 3f 42 39 29 d2 0e fe bf bf
       0.06735080659554167 -0.12497036581882973
0006b0 be 71 6b 80 cd 61 bb bf c4 f6 ea dc 98 a0 aa bf
       -0.10696110139128387 -0.052006508796222956
0006c0 e8 57 cd 79 82 0d cd 3f ba ec bc c9 d9 d0 9d 3f
       0.2269747824417998 0.029117014825925415
0006d0 1e c1 09 28 c5 0b c6 3f f3 b7 a0 e1 73 21 b0 bf
       0.17223419623361108 -0.06301044710627916
0006e0 72 03 8b 09 b2 15 c5 3f cc 07 7c e6 6f a6 b4 3f
       0.16472459283798063 0.08066462876379815
0006f0 a7 84 bb a4 bc c1 ba bf 71 2d f6 fb 14 3d b9 3f
       -0.10451869031705262 0.0985882868900967
000700 0c 9d 02 03 22 f7 c3 bf 32 e3 02 1e e6 db ab bf
       -0.15597939631445745 -0.05441207043026565
000710 c4 cc 84 3b e7 11 72 bf 66 64 4f c5 59 7c c5 3f
       -0.004411605121549648 0.16785738119395716
000720 a0 d3 44 cc 46 bf ac bf eb 14 5c a8 08 9e b4 3f
       -0.05614682429806028 0.08053640470832917
000730 80 bd 42 13 4d a9 c1 bf 36 68 5e 72 4f 05 97 3f
       -0.13797915878738465 0.022481194835201466
000740 27 be c1 b8 45 21 bf 3f c0 eb 0b 02 87 7f cd 3f
       0.12160144577659847 0.23045432662897092
000750 d5 0b 5a 3b 53 82 ca bf ce 04 e3 e4 95 50 b6 3f
       -0.20710220716509178 0.08716713750893065
000760 33 1e 25 4f be 9b c8 3f 5c 79 d8 5d 53 29 9f 3f
       0.19225291122914853 0.030431082346802682
000770 e8 2f 16 0b 49 dd c3 3f b1 41 c9 2a e7 7e bf bf
       0.15519059220639453 -0.12303013605674697
000780 13 30 30 2d 39 b4 a1 3f 38 fa 4b bb 6d b2 b8 3f
       0.03457812000860385 0.09647260496783694
000790 79 12 e5 74 c9 3a c7 3f 00 db 30 9d d5 8f cf 3f
       0.18148153503183886 0.246576978448239
0007a0 2b 17 8b ad 1e 5e d1 bf 7b ce 8b f3 93 b5 ba bf
       -0.27136961886968675 -0.10433315940809422
0007b0 22 5d 08 28 80 49 b1 bf a2 51 cd 29 a1 77 c2 bf
       -0.06752778031692633 -0.14427580395807832
0007c0 99 76 62 cc 6b 67 c2 3f 82 7b 65 8f 32 a8 c8 3f
       0.1437811611148632 0.19263298036363713
0007d0 f9 ca ea 93 63 29 ae 3f 83 8d ce e5 45 33 ab 3f
       0.05890952282552137 0.05312555723437653
0007e0 03 5d 5b fa 99 bf e2 3f 77 53 85 4f 73 b3 d3 3f
       0.5858888520987481 0.30782778516486736
0007f0 d9 d6 96 d6 8c 90 89 3f 77 66 6d 2d 1d ca d6 bf
       0.012482738779776724 -0.3560860580088056

bias f8 [120]
000000 47 5c 39 65 ec 26 b4 bf 14 59 db 94 17 6b 89 bf
       -0.07871892424860603 -0.01241129324936855
000010 b0 1a 02 80 36 74 a2 bf 77 de 35 0c 25 29 90 3f
       -0.03604288399315203 0.01578195464159512
000020 8a 3f 82 d3 34 78 b7 bf 48 aa dd a4 13 00 c8 3f
       -0.09167795337475418 0.18750234174815916
000030 e3 af 7f e9 64 54 b7 bf 82 f9 a6 9c d4 5e d0 bf
       -0.09113150311139821 -0.2557879953200414
000040 eb f9 68 b4 2c 45 cf bf b9 f8 d7 0f 01 cd c4 bf
       -0.24429854210934762 -0.16250623010268386
000050 8f a9 47 1c 44 9c 9e bf db de 4c fd 13 48 7f bf
       -0.029892982698507316 -0.007637098392301057
000060 62 fc ab db bf b4 c3 bf 1c 7a 7e d2 17 88 a3 3f
       -0.1539535353294666 0.03814768261439758
000070 5a 8c d5 b9 a4 13 81 3f ac a4 2c 82 9d 8b d4 3f
       0.008338248177727593 0.32102143967001484
000080 83 c9 a0 f4 bd e8 ab bf 7f 3c 5e 3b dc ae c3 bf
       -0.05451005564863733 -0.15377381228288198
000090 93 54 14 53 5c ee c0 3f ac 38 94 06 bb ae cd 3f
       0.13227418953525624 0.23189485379447683
0000a0 14 9f 36 e8 33 66 c1 bf 56 92 af 04 56 27 a2 3f
       -0.1359314807752915 0.03545635993194611
0000b0 50 62 d0 6b be a9 9a 3f 86 9a 87 05 ae 91 c3 bf
       0.026038146334118217 -0.1528832938194748
0000c0 99 f7 d6 67 13 f2 c3 bf d1 eb 6b 34 70 27 b5 bf
       -0.15582506723688708 -0.08263303069899954
0000d0 85 87 67 e0 b9 d2 d0 3f 70 3e a4 12 c4 05 a3 bf
       0.26286169924252817 -0.03715336539800951
0000e0 6a 9a df 23 18 33 d6 3f d1 d6 72 ee 83 2d 97 3f
       0.3468685484244022 0.02263456480860421
0000f0 52 74 45 53 f4 73 a2 bf bf 8f e6 3f cf 6a b2 bf
       -0.03604091183181225 -0.07194228468011853
000100 ca 5f 8b f8 13 11 cc 3f 3a c8 cd 10 8d f1 a8 bf
       0.21927117954214587 -0.048717888165711945
000110 fe 44 3e be 15 10 c6 3f c0 2d ca ba 59 22 bc bf
       0.17236587323399272 -0.1098991471318902
000120 c8 07 d7 60 05 55 d3 3f f9 95 ec ee 69 0b d0 3f
       0.3020642705633887 0.25069664318502266
000130 6c 29 cf 6d f1 50 c3 bf ea 59 28 a7 49 a4 c0 bf
       -0.15090768682268718 -0.13001366292947064
000140 a9 d5 30 a6 e6 a3 97 3f ea 55 0f e5 cb 02 cc 3f
       0.023086170094946876 0.2188353413063589
000150 84 e1 a4 e1 73 97 ce bf 7f 5a ef 4f 95 ec c8 3f
       -0.23899696843887963 0.19471994784426624
000160 1d 42 ba 20 7d 6a c4 3f 4d c7 ca ad f6 b6 cd 3f
       0.15949977968240683 0.23214610563223417
000170 91 d0 d2 67 c2 62 c6 3f dd 64 32 3f 8b ca ce 3f
       0.17488889760500517 0.2405561503008248
000180 44 21 fb 06 6c 97 ba 3f 3e 32 f4 6e 46 23 be bf
       0.10387301607545846 -0.11772575577578778
000190 24 63 69 01 63 dc bd bf 9c ef e2 76 b4 59 c3 3f
       -0.11664408478226257 0.15117507748607018
0001a0 48 5f 3d 79 dc f0 b6 3f a7 3c b4 d7 0a b0 73 bf
       0.08961275062517615 -0.004806558946497542
0001b0 76 d8 84 57 db e4 d3 3f 20 2c ab ac 7c 70 a5 3f
       0.31084331080217653 0.04187383277675161
0001c0 9e f7 88 0b 44 85 c0 3f 09 3c 30 47 16 ba 97 bf
       0.1290669494937306 -0.023170803160663698
0001d0 fb 37 39 6e 41 ee a2 bf 9f bf 5e 54 a7 38 85 bf
       -0.03697399588109814 -0.010361964475890604
0001e0 e5 a4 a1 5a 61 8d bb 3f 06 84 65 8c c7 84 a4 3f
       0.10762604201012811 0.04007552708458921
0001f0 f8 98 66 4f d6 53 c5 3f d6 f0 7d 9b 89 49 99 3f
       0.1666210067462044 0.02469458591029724
000200 33 94 88 07 a5 d7 a0 bf 11 72 ce 6b 99 3e c3 3f
       -0.03289523808442887 0.15034787906633132
000210 b3 40 fe 00 92 2e b5 3f 4e 0a 09 39 88 27 c2 3f
       0.08274185680625372 0.1418314245693914
000220 a0 52 6d 0f 89 71 cf bf fc 99 19 b4 68 f1 d0 3f
       -0.2456523251845697 0.2647344359196777
000230 a6 14 45 d9 6d 8c bf 3f c9 97 28 85 a3 37 7a 3f
       0.12323652796210868 0.006400717497433158
000240 0a b3 1f 06 95 f6 ac 3f 29 d3 07 af 7a f1 b8 bf
       0.0565687723136304 -0.09743468068320439
000250 42 24 97 28 54 a0 b2 bf 08 87 aa 35 69 85 be bf
       -0.07275892249084939 -0.11922318992813186
000260 77 9e b3 6f 78 5c cf 3f ef fb 3f 79 17 2b c3 3f
       0.24500947431737405 0.14975255413443686
000270 e9 e5 10 15 aa 72 a4 3f 0c e3 b0 70 de 31 be 3f
       0.03993731982377453 0.11794843913311243
000280 d4 e8 cf c4 dc e0 c1 bf d1 d3 ec 56 d1 ec a9 3f
       -0.13967475519149863 0.05063490091416834
000290 3d e5 39 38 a5 f3 cf 3f 39 5e 94 25 75 f9 cf 3f
       0.2496229671994942 0.24980034193935
0002a0 fc 55 89 89 22 cb c1 bf f2 03 7d bc 19 32 b8 bf
       -0.1390116855206286 -0.09451447345510625
0002b0 cc 6d f0 39 21 c3 99 bf 10 17 b8 12 0d 3b cb 3f
       -0.025158423577620145 0.21273959554690025
0002c0 66 c6 83 81 b6 e1 d1 bf 83 75 cd 62 7b 5e 9b bf
       -0.27940142295765324 -0.026727607636862338
0002d0 4d 66 94 fa 39 41 ba bf 9b 1a 0d 28 7c e6 ba bf
       -0.10255777709644427 -0.10507942178547085
0002e0 72 fc 52 a6 bb 0e d2 bf 87 a1 0d b4 f1 62 b6 bf
       -0.2821492313632411 -0.08744726796942902
0002f0 87 aa ba a1 ee 4f c7 bf 8f 75 de 66 b0 c3 b8 bf
       -0.18212683579379904 -0.0967359782357191
000300 67 78 ec a3 3f 95 bb 3f 90 1c c7 80 c5 77 a7 3f
       0.10774610282939677 0.04583565899843578
000310 2c 74 d0 a4 fe b0 6a bf 44 0f ee 22 df ab a9 bf
       -0.0032582257758933166 -0.050139401449114135
000320 78 b0 a3 a9 cb aa b9 bf 44 ee 6c 95 8b 13 bc 3f
       -0.10026238338076776 0.1096732368286491
000330 bc 52 57 a0 c3 c8 a4 3f b6 66 ea 4e 12 02 a0 3f
       0.04059420902527708 0.03126580441785391
000340 21 5f 2e 07 34 5d b6 3f 01 d5 15 68 0e b7 c3 bf
       0.08735966849633005 -0.15402393419541485
000350 99 8c 04 7c ad 9e a1 3f 4b ae 1a 89 eb 0b b5 3f
       0.03441373957527922 0.08221313569327397
000360 8b 46 33 6e ab d1 b3 bf e1 7b 18 70 bc aa 7f bf
       -0.07741805496632474 -0.007731185994571428
000370 91 db 5f 4f ce 47 b9 3f 75 10 80 f7 dd ca c4 bf
       0.09875192106106413 -0.16244101128552627
000380 73 64 c5 26 5b e7 b7 3f 1a 48 1b 52 a2 35 96 3f
       0.09337396332320384 0.02168897272242285
000390 c9 ee 04 e3 bd 6b ae 3f cf d1 41 1f a1 27 b5 bf
       0.059415754282296236 -0.08263594639885884
0003a0 26 0f d2 6b ad be c0 bf 18 c5 cc a4 33 24 c9 3f
       -0.13081901325869544 0.19641728922719248
0003b0 37 a7 6b 00 8d 80 ab bf a1 81 7d 9a e0 e7 cc 3f
       -0.053715139676411665 0.22582633536786736

weight f8 [96, 120]
000000 57 b5 b1 1e 50 5e b3 bf 49 06 89 6f 9e 21 b3 3f
       -0.07565785169000115 0.07473173354176156
000010 89 39 1a 21 34 77 8a 3f 9f 8c df 70 2b ad 92 bf
       0.012922675380903541 -0.01823871494697171
000020 03 7c 8d 21 c8 bd b3 3f ee 92 93 08 81 32 9c bf
       0.07711458987385815 -0.027536407612290974
000030 64 64 ec c5 cf 22 8f bf 63 1d aa bb 9a a8 a8 bf
       -0.015203116634028464 -0.04816134968592214
000040 82 ba 73 bb c3 56 b2 bf df 23 70 99 84 a6 86 bf
       -0.07163642240969106 -0.011059795315320585
000050 53 00 ff ac e8 2a 96 3f 47 14 3c bc bc c1 b6 3f
       0.021648059424251475 0.088893695789083
000060 84 af 5b c9 de d7 b7 bf 59 ad 2a c5 8d 83 95 3f
       -0.09313766876192459 0.021009650382138065
000070 94 39 e4 58 57 da 9c bf c2 b1 a5 b7 82 04 b4 bf
       -0.028176655579096613 -0.07819382651877674
000080 3d e7 3e 0c 0c c2 ad 3f a3 2e 5e c2 4e f1 a8 3f
       0.05812108659252011 0.04871603129057902
000090 2b 3a 1e 79 fe b4 a4 bf a5 aa fb f4 09 e9 88 bf
       -0.04044337490551116 -0.012163236416616494
0000a0 81 9c b2 28 51 d7 a4 3f 18 14 96 c9 75 21 b9 bf
       0.04070523855016806 -0.09816681071795619
0000b0 b5 47 a8 3f f2 2d 98 3f 13 5d ea 5b 73 63 a8 bf
       0.02361277116330714 -0.047633748026038834
0000c0 a3 2b 17 b0 cb b0 b9 bf 0c fe 0d 57 9e 69 a4 bf
       -0.1003539376171561 -0.0398683053272145
0000d0 8b 2b 74 30 2c ef 97 3f f6 6b 8e d4 85 cd a0 3f
       0.02337330861795865 0.03281801433259794
0000e0 f4 5c 1a 86 3b 28 b6 3f 51 9e 3f 0c 96 57 97 3f
       0.0865513994598251 0.022795052049245538
0000f0 dd c8 3a e7 df f8 95 3f 48 a4 b9 2e c7 b3 8a 3f
       0.021457193840156975 0.013038211930693447
000100 de 9a ef b7 a0 94 b4 bf f1 dd bd 52 9a de 76 3f
       -0.08039288035034128 0.005583384346997886
000110 46 4f 3b 7a fb 21 b3 3f 84 02 cf d8 67 49 8b 3f
       0.07473727926418147 0.013323603919958467
000120 00 1b 42 9a 18 4a 9e 3f 35 69 af 2b a1 87 b6 3f
       0.029579529204535326 0.08800704304249936
000130 ed 04 1b 31 3c 47 94 3f 67 09 b8 56 7b 1b b4 3f
       0.019802990433849855 0.07854433886681066
000140 db 9f fb 1b dc af ae 3f 1a ac ed 12 07 c1 a1 bf
       0.05993545381153328 -0.03467580896434459
000150 00 d2 40 0a af c3 a8 bf 1b 21 67 58 af fb 91 3f
       -0.04836794853364168 0.01756166436260385
000160 93 79 b1 ff c5 d4 b2 bf e6 e2 2b 5e ca ad b8 bf
       -0.07355916492949736 -0.09640183257205201
000170 21 d7 9f 46 d1 9e bb 3f 92 1a 7e 9d 01 c1 a1 3f
       0.10789211248615206 0.03467564628140453
000180 0d 43 7a 3f d4 90 9b bf b0 44 2e 82 2e c4 b2 bf
       -0.026919666647304875 -0.07330599477997413
000190 9a a3 a9 1b 8c f6 b6 bf 14 53 f7 52 6f 67 9b 3f
       -0.08969951320035677 0.026761760176515173
0001a0 ce 79 32 eb 25 86 a9 3f 5b 09 87 08 9b e1 7a 3f
       0.04985159393367021 0.0065628105152789286
0001b0 60 4b f3 42 aa 55 b0 3f aa 4c be 34 7a 05 9b bf
       0.0638071454480218 -0.02638808199806123
0001c0 cd 16 3d f3 a5 66 85 3f 34 75 05 8f e8 bb 80 bf
       0.010449692235521191 -0.008170906891502662
0001d0 6f 17 29 a3 17 f0 aa bf 7a e5 65 74 23 04 96 3f
       -0.05261300913529864 0.021500162104961508
0001e0 8d f2 8e 06 63 0c 97 3f 93 0f 7f e7 75 75 b4 bf
       0.022508189463894147 -0.07991730596319106
0001f0 2b fb 6d af 68 2e b0 bf c3 66 e0 71 9f 6c a5 3f
       -0.06320814402532153 0.04184435143561196
000200 6b dc e1 40 04 3a 87 3f 66 cc 1c b9 ec cd 81 bf
       0.011341126661348086 -0.008693551444230074
000210 82 92 32 26 0b c2 af bf 7a e2 ca 38 a2 3e aa 3f
       -0.06202730981138861 0.0512591070486836
000220 78 f9 d6 49 82 4e b0 bf 62 67 df 82 18 15 3e bf
       -0.06369795134285094 -0.000459021076378732
000230 9d c3 95 5b 45 6b 68 bf 71 41 35 0d a9 68 a2 bf
       -0.0029808382648117263 -0.03595474516135056
000240 e0 45 c2 c7 60 4e b7 3f 4d 91 8d c6 d1 7e ae 3f
       0.09103970410276174 0.05956130551092773
000250 ca c8 bf 12 04 e1 82 bf 47 ec 3e 90 9b 52 bb bf
       -0.009218246290377503 -0.10672924300790597
000260 50 8d b1 1b 93 65 b3 3f 8b db 63 ba 13 ec 5a bf
       0.07576865602600447 -0.0016431992203800063
000270 41 5f 91 63 72 44 91 bf e7 ce 66 41 df d8 b2 bf
       -0.016862666442050814 -0.07362170550078027
000280 04 f0 0c cb 01 91 95 3f 6e 5b 93 78 a3 92 a8 bf
       0.021060970323773645 -0.047993763416960586
000290 68 99 a9 3a 05 06 a8 3f 7d 72 a0 6a 3c b3 b2 bf
       0.04692093220801291 -0.07304742434684815
0002a0 7e 2f f8 e0 7b 07 ac 3f 3b 41 17 1b 70 79 a0 3f
       0.05474459763726623 0.03217649775217742
0002b0 3d 84 b8 e2 61 aa 74 3f 72 fd 99 f3 31 8e 86 3f
       0.005045301786169407 0.011013403174046064
0002c0 c9 70 87 c1 b4 28 b6 bf 54 3e f2 b0 fb e9 b8 3f
       -0.08655862545805627 0.09732029981591356
0002d0 34 d5 c7 e9 76 ba 89 3f e8 b9 8f db 3c 58 9f bf
       0.01256268406812442 -0.030610037709203924
0002e0 e5 8a 04 6d c9 e3 9c 3f fb 2e c9 66 22 9d 8a 3f
       0.028212687758364736 0.012995022546554482
0002f0 f0 65 61 24 aa 5d 91 bf 1c 46 90 b2 58 bb b3 3f
       -0.016958864660727657 0.07707743033849862
000300 c3 4a 4d f4 fc 6b b9 3f 23 19 2d 97 9d 3b 98 3f
       0.09930401768114465 0.02366491542059025
000310 5f 14 d2 88 bb a5 bc bf 24 8e d8 27 0e 61 bb 3f
       -0.1119038781199193 0.1069496962814403
000320 65 b7 37 fd 8e 3d b7 bf ed cc a2 ac 25 2b 7c 3f
       -0.0907830589491972 0.006877085843530068
000330 88 bf 17 04 96 cd a7 3f 6a 38 82 49 59 57 a2 bf
       0.04649037170372511 -0.035822668288447115
000340 59 28 ec 2a 76 cb 92 bf 21 a9 30 09 29 a9 ab 3f
       -0.01835426938036053 0.05402496564086535
000350 19 be e4 ab 45 ba b6 bf e2 19 30 28 f8 4f b1 3f
       -0.08877978750819472 0.06762648564481524
000360 7b 4c b3 b3 bf cb a8 bf c1 f8 40 5c 85 9e 81 3f
       -0.04842948025329804 0.008603135946142594
000370 6f 71 30 15 d9 7b 8e 3f f5 04 e8 b7 fb cf 86 3f
       0.014884658774513252 0.011138884115100537
000380 a1 1a 55 bb 80 9a be 3f 72 c5 d3 3d 98 74 aa 3f
       0.11954502652688827 0.051670796916264985
000390 a2 e8 f4 1c a8 94 8a 3f 8d 14 a9 78 59 39 a8 3f
       0.012978852637946684 0.04731254194170118
0003a0 73 b8 30 7f c3 57 b5 bf 82 ae 53 04 6d a3 a0 bf
       -0.08337041716797149 -0.032496840265449314
0003b0 6a 24 eb 31 28 25 a5 bf 09 4b d6 86 da 46 b1 3f
       -0.04129911050183284 0.06748739044114073
0003c0 d3 22 6f 7c 6b 91 c3 3f fe 70 37 0d ac 97 9c bf
       0.15287536216626182 -0.027922333056140218
0003d0 4b 5e d9 a4 cd 2b bc bf 6c 6b b1 ba b9 18 d3 bf
       -0.11004338526378736 -0.2983841250585815
0003e0 77 0b 6b 52 76 f0 bd 3f 67 ee 3c 16 44 05 bf bf
       0.11695041191255294 -0.12117410223884804
0003f0 2b b2 a6 80 00 92 92 3f 20 a7 1c 0e 1f 1c cf 3f
       0.018135078289264122 0.2430456942468533
000400 bd 88 69 65 2e ed c4 3f 12 4e 95 55 3a ad b7 3f
       0.16348819686669983 0.09248699750360626
000410 ae ea 3a 58 f9 db b2 3f 4d cc db 74 48 f1 92 3f
       0.07366903690391766 0.01849854672668654
000420 80 31 6f 4f 09 83 cc 3f 8e 75 91 94 e5 86 c2 bf
       0.2227489126074822 -0.1447417235785164
000430 18 52 6c 16 e8 fb a8 bf db b4 96 fd 9a 69 b6 bf
       -0.04879689477653332 -0.08754891101007749
000440 0d 06 35 82 46 d6 c1 3f a8 a2 50 3d 7f bd bb bf
       0.13935166700143534 -0.10836024519870568
000450 7a 98 5e 32 7e ba b1 bf 9a 44 3c d0 9e 5a cc bf
       -0.06925190667843309 -0.2215155140661736
000460 69 99 b2 20 3a 2d b2 3f 17 f8 b4 60 52 1a 91 bf
       0.07100261019022515 -0.016701972153207203
000470 29 82 9f 52 27 ce a2 bf 85 e2 b9 de 33 32 c2 3f
       -0.03672907718260305 0.14215706229494543
000480 3d 66 db 4e 1d ce d1 3f 6c 39 3a 04 72 c3 9c 3f
       0.278205229767625 0.02808931494524229
000490 56 f2 d6 d0 2b 72 c6 bf cb 9a 1e 26 34 fa 92 3f
       -0.17535922715423408 0.01853257639563814
0004a0 5c b3 0c 0f 73 95 ad 3f 5b 71 9a f4 1b 5f ab bf
       0.05778083380423624 -0.053460000618744195
0004b0 74 eb 73 1d df 8a c1 bf 03 4d fe c3 de 65 b8 3f
       -0.13705052316785393 0.0953044155597134
0004c0 62 6b fa ef 09 ec 70 3f 67 93 94 99 b0 8c c2 3f
       0.004131354158426999 0.14491851328889568
0004d0 73 1f 96 ed 9a 1c c5 bf 4c c6 ca f5 cc 89 97 3f
       -0.16493546105288778 0.0229866051692567
0004e0 13 e6 88 aa 4f f7 b3 bf 3d 5e 0b 53 e9 a5 ae bf
       -0.07799241937109284 -0.059859553706413916
0004f0 92 d8 c0 8c 8a 45 b1 3f 97 d4 4f cf 20 eb a7 bf
       0.06746736465797401 -0.04671576052343445
000500 b9 26 90 10 ba 95 b9 3f eb f0 46 3d 39 d8 c3 bf
       0.09994089989063583 -0.155036120338884
000510 b1 bc 5a e4 68 55 be 3f f4 37 7b 81 39 58 c6 bf
       0.11849074912128078 -0.17456740209894372
000520 e3 58 5c 52 1c e8 b8 bf ae 2c da 36 0b dc c4 bf
       -0.09729172716865579 -0.16296520403225173
000530 5e 25 83 28 2a 3c c3 bf 67 4e 5d aa 59 07 af bf
       -0.15027358034266575 -0.06060295300144674
000540 20 67 7a 43 72 2c c3 bf f9 b4 3e 61 d6 0c b6 3f
       -0.1497938947184645 0.08613338350433598
000550 c4 cb b9 c5 f9 82 a1 bf e4 73 8b 3d 50 5d 9a bf
       -0.034202390085645656 -0.02574658752097382
000560 40 3d 86 a9 df cd c3 bf 7a d3 15 40 6b 4b ac bf
       -0.15472026612813217 -0.05526290089884518
000570 47 7a be 0f b9 b8 c2 bf a2 7d ad d1 a1 9c a8 bf
       -0.14626229542496302 -0.04807000813047614
000580 5e 52 49 a4 33 48 bc bf a4 db 1a 13 db cd c3 3f
       -0.11047671090029484 0.15471971924645544
000590 64 f8 70 f1 24 cf c3 bf b2 06 b0 81 19 94 c9 bf
       -0.1547590426361608 -0.19983214218523454
0005a0 c9 d8 82 32 62 38 c6 bf 49 3b ae e7 b7 f3 a4 3f
       -0.17359569040644932 0.04092192366726139
0005b0 9b eb df 74 e7 f8 a6 bf c5 db 7e 1d 6f c2 8c bf
       -0.04486773778622607 -0.014042728507645106
0005c0 f4 22 1f fc d3 d9 ac bf aa 6b 90 49 f8 4c ac bf
       -0.05634939625412541 -0.05527473352432051
0005d0 44 ff fd 3c 69 d2 a3 3f a5 08 a1 98 a5 e5 c0 bf
       0.03871468419583704 -0.13200826599683527
0005e0 2b e9 ef f6 e0 7a 96 bf 00 0c bd 35 5d ad c0 3f
       -0.02195312030014766 0.1302906525034757
0005f0 0f 7a e2 78 f1 3a bb bf 20 35 93 02 04 27 90 3f
       -0.10636815263067255 0.015773832947890587
000600 61 c5 d6 54 c6 8f aa 3f 10 c0 27 2d 35 39 9d 3f
       0.051878164154355096 0.0285385426340668
000610 0a 0d 88 94 28 a9 c7 3f 34 cb df 06 db 1a c0 3f
       0.18484980824005276 0.12581956706670783
000620 4d 32 3b 81 94 c7 cc bf ec aa 81 6e 0d 52 cf bf
       -0.22484070119971236 -0.24469154258561987
000630 1b 76 1c ba 86 ed bb 3f c9 ba 7d ea 2e f4 c6 bf
       0.10909311336259757 -0.17932688188326143
000640 26 65 59 69 d4 4e a9 3f 51 78 2d b8 dd 98 c5 3f
       0.04942954813004467 0.168727602892377
000650 79 90 02 70 9c 0e a6 3f ee ac 4c 5c fa 2d b0 bf
       0.043080223725412155 -0.06320156815916153
000660 df be 9b b7 0d de c1 3f e9 88 0f ce e5 a3 bd 3f
       0.13958903756382932 0.11578213005808248
000670 f3 11 e5 62 40 74 c2 3f ef 5f 99 d1 fe a3 c9 bf
       0.14417271450851352 -0.20031724199611697
000680 8e ab 8c 6a 20 b4 b5 3f 7e cb 36 8e 7a 23 d1 bf
       0.08477976418786978 -0.26779044998254864
000690 b5 d0 77 69 ae 70 aa bf 32 dd 37 57 9a 15 bc 3f
       -0.051640940069689924 0.10970463399268196
0006a0 dc 8e fb 61 47 48 bc 3f 2b af 3b 87 47 33 c2 3f
       0.1104778875556422 0.1421899233167719
0006b0 ca bc 42 10 27 69 ca 3f 55 e5 7f 8e 30 c7 73 bf
       0.2063340024373928 -0.0048286339515411685
0006c0 c7 86 5a a5 6e 6e 91 bf 19 58 4f 78 9a 78 bc bf
       -0.01702282795179746 -0.11121526181463572
0006d0 e5 98 4d 36 ad 5e 9b bf 75 f5 e8 bf a3 e8 c7 3f
       -0.026728350104712546 0.18678709860425227
0006e0 5d 3e f2 41 77 bf ac bf be ad 2b db f7 98 a3 bf
       -0.05614826850898844 -0.038276429657198005
0006f0 d8 d2 54 9a ce 11 b5 3f 05 d6 5a 1d e8 b9 ac 3f
       0.08230296390395198 0.056105855544426965
000700 41 fc 74 b0 f2 18 c0 3f 59 c5 b5 70 a4 8c 86 bf
       0.125761352692253 -0.011010441484105614
000710 e8 e8 24 ac 30 f4 b7 bf f7 3d 22 8d eb 3f ca bf
       -0.09356979563463919 -0.20507568732544687
000720 f0 31 de 4d 18 1a 5b 3f 71 c9 37 7e e4 c3 bc bf
       0.0016541707368303814 -0.11236408311359526
000730 18 9e 40 fe 27 1c a0 bf f1 46 a0 b0 e9 2c a5 3f
       -0.031464814936324526 0.04135828286247357
000740 06 bc a8 31 28 29 c9 3f 7d ac 7b f7 1f b2 8e bf
       0.19656851219903632 -0.014988183727345334
000750 26 e5 0f 85 56 6e b0 3f 6a 09 7b ef 47 63 a9 bf
       0.06418362377725781 -0.04958557890269584
000760 d5 0e 9c 8e ed d2 b4 3f a2 cf 53 94 db a4 b5 bf
       0.08134350520782203 -0.08454677935861679
000770 10 94 c0 18 45 af 7f 3f d9 2a 08 89 3f b1 b9 bf
       0.007735509785594466 -0.10036084266190971
000780 db 97 4b e3 04 5d b7 3f 93 9a 8c fe 67 19 94 bf
       0.09126310872269931 -0.019628167067959067
000790 8a e5 3c be 70 ac b4 bf dc 03 9d ff 9e 7d 84 3f
       -0.0807562317321723 0.01000522821016319
0007a0 8c ad a8 7c 33 51 b0 3f b1 92 bc 87 9c 20 89 3f
       0.06373903077535753 0.012269232647278501
0007b0 59 2a 10 3e 85 0e 94 bf f8 f5 d4 c9 6f f6 b5 3f
       -0.0195866412287081 0.08579157521759118
0007c0 0b 4f b3 28 3f a6 be 3f ca 06 c8 a4 72 b1 91 3f
       0.11972422355330196 0.01727847223992888
0007d0 70 45 fb 47 69 dc b0 bf 08 70 f8 b6 0d db a4 bf
       -0.06586320884095698 -0.04073374613309971
0007e0 62 f7 d8 f9 bb af 97 3f 5e eb a0 68 c0 6e 95 3f
       0.023131310581667626 0.02093029631235354
0007f0 41 4a a4 c3 1c d7 b1 bf cc c0 47 61 63 64 c0 bf
       -0.06968860412988766 -0.12806360483182855
