Sphere/NeuralNetworks/models/net3.pt (torch_old, 43081 bytes, 8 tensors)

weight f8 [12, 6]
-0.25867140048525755 0.019529696291514194 -0.1290367059092133 -0.2647404927411989 0.3967218363048627 0.4522821458855714 -0.23950902667110235 -0.5421684199552845
-0.6311929506618592 -1.8121603684383167 -2.046631420634513 -0.579194053192636 -0.1424376412425214 -0.10006958458571785 0.4641219180405048 1.3433181358183037
3.2402462195700936 4.680828816356924 -0.1916937291871168 0.3289332119012451 0.1569044896228683 0.23170394728228774 -1.65417717339924 -2.3309121603927916
0.15407002063965247 0.05364610798976089 -0.34541441796240846 0.2627589506735896 -0.33986400051703697 -0.19284190743636345 -1.0373589608499707 -0.6795497405252549
0.022308749788847303 0.7368558504311467 0.7692384037984261 0.986697742756987 -0.02934834361076355 0.057533591985702515 0.03467601537704468 -0.07050636410713196
-0.15434914827346802 -0.28611552715301514 -0.1348974108695984 -0.3477024734020233 -0.2433956414461136 -0.05028828978538513 -0.384033739566803 0.31475764513015747
-0.2007103190470559 0.16623917944003108 0.19736288764805857 1.6074908863003083 2.629595405931232 0.4069311848722623 -0.4340310069474269 0.12879922683206368
0.06006962098278112 0.7282126134390344 5.434939112699794 6.94536207282998 0.04064229130744934 -0.2811611294746399 0.014589637517929077 -0.38099032640457153
-0.3817315697669983 0.2808750867843628 -0.5166079466396324 0.08770733083055088 -0.7563518284022988 -1.3118544712158509 -2.911683444291661 -2.038097955544425
00000000: 29a9 5f7d 128e d0bf 92d0 7dbb 97ff 933f
00000010: ca8b ee57 4684 c0bf 2306 901b 82f1 d0bf
00000020: fa75 22fc e363 d93f af2a 49d0 30f2 dc3f
00000030: 3618 5356 3ba8 cebf dc38 1496 7159 e1bf
00000040: a2de 118f bb32 e4bf 50cc d8de 9bfe fcbf
00000050: e3ba 544b 805f 00c0 7500 90f7 c188 e2bf
00000060: be91 6d89 653b c2bf f4b5 1e09 299e b9bf
00000070: 05cf d56a 2cb4 dd3f ae69 5728 3b7e f53f
00000080: 5a54 c035 06ec 0940 a3b5 7130 2bb9 1240
00000090: 407d da8c 6b89 c8bf 0fc8 ebe2 3d0d d53f
000000a0: 1c4d c341 7215 c43f 813c f795 79a8 cd3f
000000b0: 9ea1 d87b 8277 fabf cfe2 5546 b5a5 02c0
000000c0: 3c7e f801 91b8 c33f 9156 bfae 8077 ab3f
000000d0: 6ec9 2d13 451b d6bf 43f5 f7ea 0ad1 d03f
000000e0: d7bc d3ef 54c0 d5bf 7164 de2a 0baf c8bf
000000f0: bd02 b1b5 0599 f0bf cef5 f118 dfbe e5bf
00000100: 96ee 07db 1ad8 963f 34fa 6eb8 5294 e73f
00000110: 0687 64db 999d e83f 78b4 0525 0793 ef3f
00000120: 0000 0000 7e0d 9ebf 0000 0000 0b75 ad3f
00000130: 0000 0000 0ec1 a13f 0000 0080 b40c b2bf
00000140: 0000 0080 b6c1 c3bf 0000 0080 b74f d2bf
00000150: 0000 0080 5144 c1bf 0000 00e0 c140 d6bf
00000160: 0000 00a0 9627 cfbf 0000 0000 63bf a9bf
00000170: 0000 0040 0294 d8bf 0000 0040 fd24 d43f
00000180: 336f 2330 e0b0 c9bf a820 814f 5347 c53f
00000190: 8d3e f2e5 2f43 c93f 3172 145d 48b8 f93f
000001a0: ec7d f150 6909 0540 eced af18 290b da3f
000001b0: 6481 12fd 29c7 dbbf d034 7f39 7e7c c03f
000001c0: 7f54 3503 72c1 ae3f c52b e889 844d e73f
000001d0: 0030 c3ad 60bd 1540 f0bb c6fe 0cc8 1b40
000001e0: 0000 0000 11cf a43f 0000 0040 8bfe d1bf
000001f0: 0000 0000 2ce1 8d3f 0000 0040 2562 d8bf
00000200: 0000 0040 4a6e d8bf 0000 0080 dbf9 d13f
00000210: 4b78 7563 0d88 e0bf 1c63 89d5 fc73 b63f
00000220: e43e e8bf 0834 e8bf 39bc 2f1d 5bfd f4bf
00000230: 6f4c 8cb0 204b 07c0 b5dc 084d 064e 00c0

bias f8 [12]
-0.020077294423374435 2.2958210823094913 0.028615667069377713 -0.043185198805265515 -0.37691732626901153 0.3050443969647651 -0.2701627016067505 -0.2557835578918457
0.06337429429534329 0.21566166118088337 -0.3957193195819855 0.49641518549328356
00000000: 3621 c36b 248f 94bf 89e4 8f71 d75d 0240
00000010: e963 dde8 6c4d 9d3f 526a 14d1 5e1c a6bf
00000020: 30c1 67d9 691f d8bf 57ab 32ef d885 d33f
00000030: 0000 0080 584a d1bf 0000 0000 c25e d0bf
00000040: 03d4 6739 4c39 b03f 44ef e222 cd9a cb3f
00000050: 0000 0020 7753 d9bf 7e9c bb32 44c5 df3f

weight f8 [48, 12]
0.10216254640468929 -0.07637176099857346 0.02983835752737566 0.3724024719369047 -0.2462125558794838 -0.03199645571157243 -0.04311564564704895 0.26590025424957275
-0.21162871115253432 0.0926948979652996 0.08472663164138794 -0.1297836709427458 0.14759093353170163 -0.19766621867521952 -0.24668983570362374 0.1747282076028816
0.20387136936187744 0.05449389231104157 0.04462778568267822 -0.2432263046503067 -0.22680572699971785 0.029233691774376368 0.09986308217048645 0.20022823294195052
0.11023286009791586 -0.2317810567936795 -0.15570256260955273 0.1344516009679973 0.11900406024844355 -0.0789791441847488 -0.2453262358903885 -0.1657620072364807
0.09669916241916579 0.15827708929233975 0.09128051996231079 -0.5551805246080904 -0.02825134210904511 1.4622203539674514 -0.3981585684151443 -0.896329170503136
-0.09321383836419621 0.1681548275817461 -0.14840617775917053 -0.22856275737285614 1.4824241249651322 1.11391973589245 -0.03847512602806091 0.7752457674994145
-0.11359577760249812 -0.03253608426249074 -0.1187801712073779 0.3043182053605531 0.21105382970876296 -0.22380674432991146 -0.11997181177139282 0.20175838470458984
0.04694535447817943 0.03866457391294183 -0.06480592489242554 -0.10420569117052828 0.07787857380313287 0.40004454272594403 0.04289060893028384 -0.11316134379406413
0.17324382248897224 0.3269167966887064 -0.11033937335014343 0.1842746138572693 0.018195182279182022 0.517940858623143 0.010089188814163208 0.3022792395957509
-0.2452066599187253 -0.06968467944218 0.3452758347032419 -0.5020705370653757 0.2769047732295693 0.4468658969631208 0.25300168991088867 -0.03392764925956726
0.11578196825173646 0.5653370124721514 0.0445098876953125 0.07042228484554496 0.09606857070903187 0.15708263006959142 -0.2831561575852166 0.14513345833957028
0.025664691231910428 -0.27430497193433767 0.06532102823257446 -0.16498509049415588 0.02498550807847948 -0.04692216533095699 -0.23102807998657227 -0.15467252924549685
0.15460720658302307 -0.13983789421305046 -0.08465208528287814 -0.08426162600517273 -0.250360369682312 -0.14151267116786181 0.008929699659347534 -0.0250551700592041
0.1095213324496286 0.15622634024847973 0.06354930996894836 0.14609554409980774 0.24790865262115014 0.10723574427748346 -1.0517684037137989 0.12699148547276454
-0.13333308188835208 -0.9025008818976944 -0.13451440632343292 -0.2713615596294403 0.17608228239057783 -0.3763094931488669 -0.28177422285079956 -0.055185757520276525
-0.21285494699879695 0.0026447443833530334 0.19802989311894112 0.041148997985181894 -0.2545677929079635 -0.030228216176481373 -0.13403022289276123 -0.03382396697998047
-0.23415357306032136 -0.009290213102019383 0.08736205101013184 0.015892650528792563 0.110917898675554 0.09169853295549858 -3.8938577185098073 0.2875972442403837
-0.25363415609018525 0.6343858765470329 0.20632508397102356 -0.041061535477638245 -1.076183086239383 -2.8034351242858584 -0.008658140897750854 1.853992573344844
-0.19046712853638553 -0.0007368119581717685 0.03761959621047529 0.21884797527106292 0.06364137531128349 0.18398459903053022 0.19159191846847534 0.002676457166671753
-0.3226121960542264 0.13885003799387302 0.2262515425682068 -0.10775352263818781 0.1609054813576592 -0.15955052803081715 0.1758715027306216 -0.1007185463906132
-0.25702651127782933 -0.04910689951836107 0.0038133859634399414 -0.037604331970214844 -0.2591324294271892 0.11659023623265874 -0.19757582247257233 -0.08531815071403127
-0.0361047242781009 1.0829792094765993 -0.15650515491983621 0.45750126417282444 -0.27757114071440736 0.8345024402210602 -0.09874702990055084 0.02049165964126587
0.7113975267946383 -0.024497620635987153 0.09868866205215454 0.9648192680520054 0.1589515209197998 0.02267058742093363 -0.24603387713432312 0.08385342359542847
-0.060686349868774414 0.05408871212337871 -0.2693248689174652 0.2848711609840393 0.03127793433654398 -0.1755977909443683 0.13093489408493042 -0.12642661043723674
-0.08994871377944946 0.036462014659707366 -0.15685030991498936 0.06015366315841675 0.08528155088424683 -0.2577151358127594 -0.07113498449325562 -0.27463874220848083
0.0974845559695573 -0.09894329232044317 0.21555012464523315 0.17940974088210865 0.005581432791066589 -0.08038051275661467 0.08665376681126795 -0.03084949345060912
-0.20208748562473666 -1.5621620259346185 -0.11471767723560333 -0.2788189947605133 0.06595417692947128 1.1258929633485553 -0.16502833366394043 -0.8359785774739559
-0.03483343116889863 1.9181127907434263 -0.1697885855218137 0.5425608949688613 0.03732939224352217 1.5469763761754152 -0.05835704505443573 0.01562979817390442
1.0844897728522653 0.20221458065501216 -0.03150811791419983 1.7324763128243035 -0.23761665640280752 0.1765891901569004 -2.64579587766721 0.29885796023921285
-0.19383303602841734 -0.7250630924527269 -0.16549506783485413 0.11870694160461426 -0.04431200866321703 -1.0047979189601473 0.18742448091506958 0.542030046941813
-0.026208706903034472 -0.22601306752035508 0.27181899193909775 -0.7674816923394712 0.09313151011540664 0.1455628421221847 0.2603100538253784 -0.18830013275146484
-0.016406891494138303 -0.23457122276061815 -0.24429064989089966 -0.1897961919074744 -0.03578149400067975 -0.050490525606013345 -0.32187403971309275 -0.25326388672969147
00000000: 3b29 af1b 5327 ba3f 40a9 d387 198d b3bf
00000010: 2a59 fc46 f28d 9e3f bec9 7a2d 71d5 d73f
00000020: 65f8 ae9d e483 cfbf c6fc bce5 d661 a0bf
00000030: 0000 0000 4113 a6bf 0000 0080 8204 d13f
00000040: dfba a54c a616 cbbf 575b 4453 daba b73f
00000050: 0000 0000 a5b0 b53f 6880 2057 c09c c0bf
00000060: d935 5a7c 42e4 c23f 6df5 5d6c 204d c9bf
00000070: 8624 4d54 8893 cfbf e2e9 ab70 7e5d c63f
00000080: 0000 0000 7518 ca3f d886 9d9a 9fe6 ab3f
00000090: 0000 0000 74d9 a63f 0000 0020 0a22 cfbf
000000a0: 7e30 0156 f807 cdbf 56fc 72d8 6fef 9d3f
000000b0: 0000 0080 a090 b93f aa5b 1c28 14a1 c93f
000000c0: dea9 1081 3838 bc3f 166e 616d 00ab cdbf
000000d0: a8dc 27c3 0fee c3bf bab4 86c6 b535 c13f
000000e0: 27b8 dbd2 0c77 be3f b6ed 5629 fa37 b4bf
000000f0: 0000 00a0 d966 cfbf 0000 0080 b037 c5bf
00000100: a212 24bc 46c1 b83f e0bb 1b75 6c42 c43f
00000110: 0000 0000 295e b73f 012c 92f2 09c4 e1bf
00000120: fdb0 b479 ebed 9cbf 395f 7d2b 4165 f73f
00000130: 38c6 7d13 6e7b d9bf 7a60 3883 baae ecbf
00000140: fb10 4fb3 dcdc b7bf 2e66 90ee 1886 c53f
00000150: 0000 0040 f9fe c2bf 0000 0060 8b41 cdbf
00000160: 336d f85b 02b8 f73f b76e 4080 9dd2 f13f
00000170: 0000 0000 03b3 a3bf 8bb7 3836 d0ce e83f
00000180: 0434 c4e5 9c14 bdbf 0bd1 b1d3 91a8 a0bf
00000190: 6dbc bf96 6068 bebf 9476 e610 f379 d33f
000001a0: 68b8 25d8 cf03 cb3f c9b6 c20b b3a5 ccbf
000001b0: 0000 0000 79b6 bebf 0000 0000 38d3 c93f
000001c0: 17a6 5db4 3809 a83f 7a91 f0d0 d7cb a33f
000001d0: 0000 0000 1f97 b0bf 426e a263 39ad babf
000001e0: ee27 8ba7 d9ef b33f 88e0 fc6c 549a d93f
000001f0: ff7a 5205 c2f5 a53f bd54 c44e 24f8 bcbf
00000200: 3e7e e983 da2c c63f f9a0 926d 34ec d43f
00000210: 0000 0080 333f bcbf 0000 0080 4f96 c73f
00000220: 9adb 5503 c2a1 923f cb8d 21b5 f892 e03f
00000230: 0000 0000 a4a9 843f 33b4 1406 8b58 d33f
00000240: 7a60 8e8c ee62 cfbf 2585 3ceb dad6 b1bf
00000250: d591 89d0 ff18 d63f e663 1f3b f610 e0bf
00000260: a025 48cc ceb8 d13f 35e0 496b 7399 dc3f
00000270: 0000 0000 2e31 d03f 0000 0000 f75e a1bf
00000280: 6f93 1b17 e3a3 bd3f d528 79a5 3d17 e23f
00000290: 0000 0000 00ca a63f f33a 52e2 3107 b23f
000002a0: c166 5e29 f397 b83f 6b93 759b 481b c43f
000002b0: 6c54 1f01 3b1f d2bf c1d9 8fb0 bb93 c23f
000002c0: a910 0346 d847 9a3f b6a4 e570 368e d1bf
000002d0: 0000 0000 e1b8 b03f 0000 0040 3b1e c5bf
000002e0: adb7 4810 cd95 993f 57a1 1b9b 2e06 a8bf
000002f0: 0000 0000 5492 cdbf 3e79 5937 4fcc c3bf
00000300: 0000 0040 2bca c33f c77a 3147 35e6 c1bf
00000310: 9702 d451 c2ab b5bf 0000 0080 2b92 b5bf
00000320: 0000 0080 e705 d0bf 505a 5153 161d c2bf
00000330: 0000 0000 bc49 823f 0000 0000 10a8 99bf
00000340: 39e3 150d 9709 bc3f ed0b 1287 39ff c33f
00000350: 0000 0080 c444 b03f 0000 0040 42b3 c23f
00000360: 2c9e b381 78bb cf3f 854e a23e cd73 bb3f
00000370: 96ab 0e1b 0bd4 f0bf 01ed 7cca 4141 c03f
00000380: f2b9 17f5 0e11 c1bf 8193 8b87 49e1 ecbf
00000390: 0000 00a0 c437 c1bf 0000 00e0 fc5d d1bf
000003a0: 86e3 223e dd89 c63f 05eb 8f69 7415 d8bf
000003b0: 0000 00c0 9608 d2bf 7d57 82bf 4e41 acbf
000003c0: 2569 13b6 d43e cbbf debd 3f54 6eaa 653f
000003d0: d3c1 4925 0b59 c93f cf13 3841 7b11 a53f
000003e0: 08e5 49b6 d64a d0bf 14df 933f 25f4 9ebf
000003f0: 0000 0000 e727 c1bf 0000 0000 6051 a1bf
00000400: 6c8f 4489 bef8 cdbf 7f7f 914b bf06 83bf
00000410: 0000 0000 5c5d b63f ed59 12b9 2946 903f
00000420: 7740 5a8b 1d65 bc3f 4992 2218 8e79 b73f
00000430: e136 22e0 9e26 0fc0 b6a8 9b45 fe67 d23f
00000440: f293 63c1 8a3b d0bf a60a 1a9c e34c e43f
00000450: 0000 0040 dc68 ca3f 0000 0080 0406 a5bf
00000460: 0481 7ec1 0b38 f1bf a81f fa64 6f6d 06c0
00000470: 0000 0000 5cbb 81bf 12b0 d81d f4a9 fd3f
00000480: 526e 0314 3a61 c8bf 0444 bfa1 d324 48bf
00000490: a14f d32e e042 a33f 54e2 4ae0 3503 cc3f
000004a0: a369 a219 cd4a b03f f0e2 e6ad ce8c c73f
000004b0: 0000 0080 1586 c83f 0000 0000 f0ec 653f
000004c0: 3efe d59f ada5 d4bf 8eb3 1d8a d6c5 c13f
000004d0: 0000 0080 cff5 cc3f 0f83 c21f bc95 bbbf
000004e0: 02d2 1602 8d98 c43f 90d7 f9d5 266c c4bf
000004f0: e560 4318 f582 c63f fa2c d9ce b0c8 b9bf
00000500: 0b2b 0953 1f73 d0bf 6aee e01e 8a24 a9bf
00000510: 0000 0000 403d 6f3f 0000 0000 e040 a3bf
00000520: 7342 6e2f a095 d0bf 80f5 a693 dbd8 bd3f
00000530: 0000 0020 2a4a c9bf 316c 120b 69d7 b5bf
00000540: 37d6 0284 517c a2bf e732 ef01 e253 f13f
00000550: 419f 0465 5c08 c4bf 5c0f e061 b347 dd3f
00000560: 82a2 ebbe b9c3 d1bf 11d0 2576 3eb4 ea3f
00000570: 0000 0040 7c47 b9bf 0000 0000 c4fb 943f
00000580: 6339 01bf c4c3 e63f e173 d87d e715 99bf
00000590: 0000 0000 a943 b93f 4cb0 5aa8 ccdf ee3f
000005a0: 0000 0000 8658 c43f bd50 375e f536 973f
000005b0: 0000 00c0 097e cfbf 0000 0000 6b77 b53f
000005c0: 0000 0000 4812 afbf cc2a 4e03 84b1 ab3f
000005d0: 0000 0060 9e3c d1bf 0000 0040 543b d23f
000005e0: 4ab0 1f52 a903 a03f 5b8e ad08 fd79 c6bf
000005f0: 0000 0080 79c2 c03f 3206 9646 bf2e c0bf
00000600: 0000 0000 e106 b7bf 75f9 0431 26ab a23f
00000610: 67e6 b9c3 ab13 c4bf 0000 0000 76cc ae3f
00000620: 0000 0000 03d5 b53f 0000 00a0 677e d0bf
00000630: 0000 0000 e735 b2bf 0000 0060 ae93 d1bf
00000640: c81b c173 bff4 b83f 5fc4 acfc 5854 b9bf
00000650: 0000 0080 2597 cb3f 2e14 d6fc e5f6 c63f
00000660: f5d8 d674 8edc 763f b47e 8639 d193 b4bf
00000670: 4394 87f6 f02e b63f f3c6 df75 0297 9fbf
00000680: e434 d8b2 00de c9bf 9f13 c79b 9dfe f8bf
00000690: 0000 0040 235e bdbf 0000 00a0 2bd8 d1bf
000006a0: 6a59 f278 5fe2 b03f a10e 0657 a803 f23f
000006b0: 0000 0000 a61f c5bf 2208 4d25 56c0 eabf
000006c0: f613 5bff afd5 a1bf 5584 a409 97b0 fe3f
000006d0: de6f 06e3 a1bb c5bf 1d5a 7faa a85c e13f
000006e0: b120 bb8d d61c a33f 60ba f54c 6ac0 f83f
000006f0: 0000 0080 f9e0 adbf 0000 0000 4201 903f
00000700: 80f3 b3f2 115a f13f 4f04 58d9 2ae2 c93f
00000710: 0000 0000 d521 a0bf 00cd 0a15 39b8 fb3f
00000720: 1912 1efc 386a cebf 9287 467e 799a c63f
00000730: 3dc7 7307 972a 05c0 a61b 5823 7d20 d33f
00000740: 422f 505b 85cf c8bf f1df b383 b733 e7bf
00000750: 0000 0040 f12e c5bf 0000 0000 9463 be3f
00000760: cda2 0e48 10b0 a6bf f15c 90fb a613 f0bf
00000770: 0000 0080 86fd c73f d30f a265 4f58 e13f
00000780: 2670 138c 74d6 9abf eff9 bb06 ffed ccbf
00000790: e2d8 337c 7b65 d13f 700e 1cc4 358f e8bf
000007a0: 4f3a 2c76 77d7 b73f 6bbb 369f cda1 c23f
000007b0: 0000 0080 eba8 d03f 0000 0000 381a c8bf
000007c0: 5bdb 95d9 f7cc 90bf 8c77 2b09 6e06 cebf
000007d0: 0000 0080 ea44 cfbf c7ef 92da 3d4b c8bf
000007e0: 9fe3 11b5 f351 a2bf c6aa 78e8 e4d9 a9bf
000007f0: e3f1 7f92 9599 d4bf 88c2 b0bb 7935 d0bf

bias f8 [48]
-0.12011442033228258 -0.03578403847092441 0.15437005841905632 0.9349378488906291 0.11349392238952324 -0.047380078611988743 0.11804052734539419 0.28652042698784447
-0.1711263672068368 0.22811680279918137 -0.08919320103527009 -0.030995603379941707 -0.08761331853675634 0.0790877353539633 0.6908547285625494 -0.14426087492282325
-0.2018777162393708 0.059253887656557 0.7912558584493689 0.3680688780986278 0.44467980513339767 0.13367700357749876 0.02856739694301424 -0.10092666429545573
-0.14117455458060807 -0.1458916813135147 -0.29509981860838963 -0.02614876217929612 0.38888405624951905 -0.14481821701932646 -0.41790313879605684 -0.18470484547726415
-0.3096011732426057 -0.18236657977104187 -0.36758213553226976 0.025836876369891727 -0.21850527822971344 -0.30038148752359184 -0.2455480694770813 -0.09779007732868195
0.07916982382656934 -0.3356018634777309 0.08829208403124456 -0.2626373895937505 0.06170687010500289 0.21659200390335032 0.10679814313376369 -0.1776406466960907
00000000: 2feb 1a93 d1bf bebf 5521 e715 4952 a2bf
00000010: 3e1b 32e8 65c2 c33f 15e4 98c7 02eb ed3f
00000020: 0e30 f50c f00d bd3f 2aa5 3da0 3342 a8bf
00000030: 6212 8d6c e737 be3f af1e e3c5 5956 d23f
00000040: c77d 5103 78e7 c5bf 7164 d86f ee32 cd3f
00000050: 82d7 7899 5dd5 b6bf 4ab7 58bb 4fbd 9fbf
00000060: c734 cf91 d36d b6bf 5827 dc04 183f b43f
00000070: c5d1 2e60 7b1b e63f 4464 f1ed 2377 c2bf
00000080: a906 8506 21d7 c9bf 6ba2 4a8b 8656 ae3f
00000090: c7de 59ce f751 e93f 23fa 86c4 708e d73f
000000a0: 8a55 0f49 a275 dc3f 5fdb 4bfb 531c c13f
000000b0: ff8b 688e c540 9d3f 997f 7172 54d6 b9bf
000000c0: f2bc 79ff 0112 c2bf 0000 0020 94ac c2bf
000000d0: d2a0 7e59 eae2 d2bf 6e57 90b9 bdc6 9abf
000000e0: b4c2 e1f3 79e3 d83f d244 fb40 6789 c2bf
000000f0: 8996 81ce ecbe dabf 1f69 5e8b 68a4 c7bf
00000100: 8e55 7870 81d0 d3bf 0000 00c0 c957 c7bf
00000110: b51d ad38 7786 d7bf 7d6d 286c fb74 9a3f
00000120: 0000 0020 fbf7 cbbf ce35 4f46 7339 d3bf
00000130: 0000 0080 1e6e cfbf 0000 0040 c508 b9bf
00000140: 584a 2a3c 7944 b43f c443 073d 807a d5bf
00000150: d8ed 685d 4f9a b63f 1ac4 c00d 0dcf d0bf
00000160: 543a 14fa 0a98 af3f ec84 ab6a 49b9 cb3f
00000170: 7175 0884 1f57 bb3f 0000 00c0 edbc c6bf

weight f8 [48, 48]
0.014261978845249424 0.0601457715058097 -0.028846696054239767 0.10669030614664682 -0.06543696631395488 -0.269145442926117 -1.1745238980899326 -4.767515884765941e-05
0.10473586139436683 0.3999939559781539 -0.062109329615244194 -0.3979835058309041 -0.1480795647798293 -0.5741743394662985 0.05419962574197334 -0.06849542964832615
-0.033098482243941074 -0.25401251116618273 -0.281832998882861 0.49109438754977736 -1.1033095973849578 -0.03935436219907102 -0.2758894185271315 -0.3092956940554729
-0.12910631134432626 -0.056338779628276825 0.04516573279766952 -0.3387867960551564 0.06668713748715607 -0.13505859838896542 0.03208355289919882 0.10821961623378379
0.07924273981083371 -0.04202558100223541 -0.9681878852448407 0.05859441040014172 0.03894394636154175 -2.120635866804212 -0.11635932326316833 -0.028052642941474915
0.007697003240205962 -0.03866452958846809 0.2972849456789044 -0.02247995278033109 0.42727742430014093 -0.13822498051958262 0.07750753914152105 -0.10995516180992126
-0.1683852937865345 -0.21912719164222746 -0.02540840204981631 0.06914588516375192 0.03486650141347689 -0.882830700886687 0.1649779635969943 0.35179448443008887
0.07915535681540167 0.6210816410730514 0.03209065193088168 -0.8262599251200763 0.02279991305067645 0.021513641056131565 -0.09826630176014396 -0.06710485135050842
0.08490894882238945 -0.39729299696492487 -0.07306688542045309 0.28030272560658215 -0.3160141842362122 -0.011437692851318826 0.0519888536084217 0.05267055803360441
0.09202511430246106 0.010016679763793945 -0.004897863071109678 0.021541030759284752 -0.0192606443424133 0.13614755217093855 -0.04433852537757598 0.1160435473509577
0.11933795894756882 0.13570910692214966 -0.6245211066608595 0.02591735729048249 0.1332097053527832 -1.9847058113959932 0.10307718813419342 -0.12342749536037445
0.019624987668312235 -0.11004843508895627 0.09620211925512563 0.0181719780551086 0.7560934670068469 0.032308108046240853 0.11725636465393417 0.11931771039962769
-0.04170474593714032 0.02086347519218388 0.15179186182376214 0.2384262495965034 -0.1405150524959791 -0.7589065438814203 0.14265231968866735 0.11705546707948737
0.042363577939012666 0.3127115955093103 -0.15418169353497924 -1.2306343430636522 -0.04081104154313737 0.07427871021056522 0.057845917952867545 0.046190997197605214
0.051705039550782296 -0.5868314995023955 -0.18587402680753906 -0.002037585310129529 0.10626053241554302 -0.010945638992422154 -0.1155599497663525 -0.016637690794100705
0.1053907018531045 0.05436372756958008 0.10236268337677033 0.0010438326343935416 0.023984294973900862 -0.0010001843182969785 -0.04587703626365466 -0.11708425443233625
-0.11299542029291085 -0.14043089747428894 -0.4361894987979324 -0.0767146936655552 0.033044129610061646 -2.041549781597707 -0.0943521112203598 0.11369514465332031
-0.09527305981265659 -0.04440104073897322 -0.1415078457880084 -0.021952934019535644 0.4095783669334284 -0.07231398306215782 0.034058653921310876 0.0046851783990859985
0.002561258396319576 0.03631437106654611 0.2617204648849921 0.26740791774940187 0.05987191704042718 -0.3132643810835734 0.5680688500167659 -0.015912202697327772
-0.029733869637658197 0.047756757103885265 0.07522351383914261 -1.5390429617846528 0.011535329860325103 -0.11731196579718935 -0.16235140705385553 0.030009074826427538
-0.08742507997771053 -0.6966177011104654 -0.18888835812687654 -0.20842396230048807 0.3395903067550733 0.11601933590477871 -0.027156715705443743 0.016241361241096444
-0.03344028964082438 -0.07331939041614532 0.0997992103882074 0.06117621943473312 0.047542856638554065 0.07460767541248454 0.05732224237539801 -0.0292615696554365
0.08699087857505304 -0.0734735056757927 -0.445048593709024 -0.09471932297799918 -0.040261462330818176 -1.915742140824651 0.06351292133331299 0.11730936169624329
-0.02263807295474212 -0.1159556168213736 -0.3777291983505919 -0.05384916034089455 0.5795103475078519 0.158542625435188 0.1388725329156875 0.11421877145767212
0.04156829849972309 0.08023099962077358 0.3642141106515307 0.34973982635301043 0.07327293683660974 -0.03877550782270184 0.6496222750882941 0.1137429189067052
0.08705874338165422 -0.1331829046940707 0.05357262413042313 -1.8064612030055556 0.01371459745913159 -0.027964606911483385 -0.06761077492480425 -0.1050510612639538
0.03869847425675271 -0.7109676330337195 -0.31199288690215154 -0.3827283019357581 0.3774862437256008 0.1179379533158179 -0.19318873869403844 -0.006372261552116801
0.11682486228577905 0.06078915297985077 -0.034399063178890764 0.05599216615985803 0.022453840406589553 -0.12179788483057184 -0.13914033128424402 0.1271844994468332
0.001601588125810944 -0.1240282729268074 -0.41911173848016875 -0.10660940477261449 -0.08004312962293625 -1.8327077239100527 -0.05241876840591431 0.07450582087039948
-0.09288176129227144 -0.15080304357338867 -0.3584527157927365 0.12929950472704882 0.25060703130472006 0.15143859371139895 0.01551622520452951 -0.12945348024368286
0.009741700724634258 -0.14669745450709654 0.47737242798345847 0.34619419245280547 -0.04071514288562662 0.33923801101017725 0.6896137038075465 -0.07799729270941928
-0.08763114339046381 -0.24734305061643044 -0.009804401611224874 -2.0151915440159374 -0.0426388253977332 0.04710506333747381 -0.03204241138487167 0.12117855289191624
00000000: 9a93 bb65 6235 8d3f 7264 3833 6dcb ae3f
00000010: 0b3a 9a00 fd89 9dbf 2c38 b34f 0e50 bb3f
00000020: 6e94 441e 7ac0 b0bf fe0b cfce ad39 d1bf
00000030: cbaa 2a92 d9ca f2bf f692 12fc d9fe 08bf
00000040: e63d 682b f8cf ba3f 8286 e13f 8099 d93f
00000050: a2aa f246 cbcc afbf bd08 79cf 8f78 d9bf
00000060: 44b7 f76b 45f4 c2bf 95b9 46dd a25f e2bf
00000070: 6fd0 08a8 0dc0 ab3f fbd8 439e ea88 b1bf
00000080: c0e6 91c5 48f2 a0bf 22f3 0eb1 bd41 d0bf
00000090: e9ab 4846 8d09 d2bf dda0 7127 176e df3f
000000a0: e419 e2f6 27a7 f1bf 792c 3345 4126 a4bf
000000b0: 31bc 7817 2ca8 d1bf 9bc2 b02a 80cb d3bf
000000c0: 782d 773c 8e86 c0bf 0000 00c0 6fd8 acbf
000000d0: 7b1f 8882 f61f a73f bae7 57d0 aeae d5bf
000000e0: 9239 9282 6812 b13f f1e5 8fa3 9949 c1bf
000000f0: 2d12 e264 416d a03f 6c80 82e0 47b4 bb3f
00000100: fed6 ee8f 4049 b43f 0000 0080 6084 a5bf
00000110: da51 f028 65fb eebf 0545 cb28 1600 ae3f
00000120: 0000 0000 76f0 a33f 8b30 f5ef 0ff7 00c0
00000130: 0000 0080 b9c9 bdbf 0000 0000 d5b9 9cbf
00000140: 122d 1a93 e486 7f3f 0d05 3254 d6cb a3bf
00000150: 902d d26f b706 d33f 5c51 0718 fc04 97bf
00000160: d00b ec68 8358 db3f 3332 692d 5bb1 c1bf
00000170: e567 ceb9 88d7 b33f 0000 0080 0526 bcbf
00000180: e262 f838 a68d c5bf b743 e21c 5c0c ccbf
00000190: 1fec 63ff a804 9abf c468 6e73 8bb3 b13f
000001a0: edf8 97a6 05da a13f 8bd1 862b 2640 ecbf
000001b0: b6d9 1a77 ff1d c53f 2096 6203 cd83 d63f
000001c0: da4a d384 8643 b43f a5c0 119b e6df e33f
000001d0: 61d5 1999 2f6e a03f 3b5b 8ca7 b870 eabf
000001e0: 8b00 9e43 dc58 973f 2e10 0403 ac07 963f
000001f0: d1d2 5bf8 fa27 b9bf 6410 f495 c82d b1bf
00000200: 5a74 54c6 97bc b53f 3d3a 399b 3f6d d9bf
00000210: 342a 4deb 82b4 b2bf 876f ddd7 7af0 d13f
00000220: 3277 978e 9339 d4bf d3a4 e725 a56c 87bf
00000230: 6868 0274 489e aa3f 1dcc 6ea8 a2f7 aa3f
00000240: aff8 5638 f58e b73f 0000 0000 a083 843f
00000250: 4209 5f1b c80f 74bf cd74 881a da0e 963f
00000260: 0cc4 33f6 0fb9 93bf e097 0072 486d c13f
00000270: 0f2c e608 8ab3 a6bf bac0 c8a8 07b5 bd3f
00000280: 28e8 d9b6 ee8c be3f 0000 0080 ea5e c13f
00000290: d1a4 18b0 13fc e3bf 3d71 d867 148a 9a3f
000002a0: 0000 0000 040d c13f ed07 82e1 5ac1 ffbf
000002b0: 0000 0040 4463 ba3f 0000 00c0 f198 bfbf
000002c0: 6414 e1a0 9218 943f 1bdc ae5d 222c bcbf
000002d0: 3db4 01bc b3a0 b83f fb20 cdcd ac9b 923f
000002e0: ec6f 30ed ea31 e83f 0192 e836 b08a a03f
000002f0: 4fbe 6f5b 8304 be3f 0000 0000 9b8b be3f
00000300: cba8 c60f 535a a5bf 3a7d 861e 3c5d 953f
00000310: 487f 2a6d ea6d c33f 6d30 4358 c084 ce3f
00000320: 2971 88b1 65fc c1bf 671d 5660 f648 e8bf
00000330: 5974 e163 6e42 c23f aba5 ecda 58f7 bd3f
00000340: 4d47 94cb adb0 a53f cdb7 f27e 7703 d43f
00000350: e4f3 afc9 39bc c3bf 6faf 0ca3 adb0 f3bf
00000360: 69a8 7c51 2fe5 a4bf 69b8 24f7 ed03 b33f
00000370: d21b a1eb fa9d ad3f cfab aaac 58a6 a73f
00000380: fd67 d13b 1579 aa3f 8403 54da 52c7 e2bf
00000390: f437 2859 b8ca c7bf e355 a248 20b1 60bf
000003a0: e18e 94e7 e333 bb3f 31da 0ccc aa6a 86bf
000003b0: a650 f93c 5695 bdbf 5ed2 5d87 7809 91bf
000003c0: 47f6 c291 e2fa ba3f 0000 0000 90d5 ab3f
000003d0: af1c 6fd9 7034 ba3f abef bdc1 261a 513f
000003e0: ff40 1fca 568f 983f 58c0 f8bb 1363 50bf
000003f0: 3b94 c7e4 317d a7bf 5ed6 a9d3 3bf9 bdbf
00000400: de7d c192 44ed bcbf 0000 00c0 a3f9 c1bf
00000410: 2f87 0c5c 87ea dbbf 428d 6afc 92a3 b3bf
00000420: 0000 0000 29eb a03f dbf1 480d 1855 00c0
00000430: 0000 00c0 7527 b8bf 0000 0000 201b bd3f
00000440: 73d0 15b4 d063 b8bf c0b6 c3b3 bbbb a6bf
00000450: 62b9 e4d8 ed1c c2bf 741d a976 d47a 96bf
00000460: d233 c82e 8836 da3f a5a3 4b50 2b83 b2bf
00000470: 8bc2 79c9 2270 a13f 0000 0000 c430 733f
00000480: cbc0 8f21 59fb 643f 5f14 3618 cc97 a23f
00000490: 4eff 5731 07c0 d03f 7a35 5b19 361d d13f
000004a0: 2361 462b 88a7 ae3f 395c f00b 860c d4bf
000004b0: ca58 96b9 9e2d e23f 4af6 c4d8 494b 90bf
000004c0: 1786 b536 8e72 9ebf 1f31 d9db 9273 a83f
000004d0: 604e d423 d941 b33f a310 4083 eb9f f8bf
000004e0: f245 fdc3 d59f 873f 2545 8730 2808 bebf
000004f0: 1cc1 e04f eec7 c4bf 19d4 d9eb b2ba 9e3f
00000500: 4fbd 5a73 7d61 b6bf 5fb1 8234 b14a e6bf
00000510: 5002 6064 7e2d c8bf 4344 e4ea a2ad cabf
00000520: 324e 63fb d8bb d53f 5d27 6a75 71b3 bd3f
00000530: bc5e 4957 f8ce 9bbf e4fb 7d4d 93a1 903f
00000540: 4491 c0ec 151f a1bf 0000 0040 0fc5 b2bf
00000550: 89b2 c8e8 708c b93f f9ba 874b 7d52 af3f
00000560: 208e d78c 8957 a83f 455d ed15 7d19 b33f
00000570: 77e3 ab48 5759 ad3f e984 ccb2 bef6 9dbf
00000580: 8fb8 87c2 0845 b63f 0000 00e0 28cf b2bf
00000590: 6f1b c718 ad7b dcbf 6c61 7d8a 863f b8bf
000005a0: 0000 0080 269d a4bf 0f93 263b e1a6 febf
000005b0: 0000 0000 6242 b03f 0000 0080 fc07 be3f
000005c0: aeb8 f05b 6f2e 97bf e309 096e 44af bdbf
000005d0: e73e 6a16 b72c d8bf 5993 29fd 1d92 abbf
000005e0: 99ac c748 598b e23f e60f a2ef 1f4b c43f
000005f0: 79c0 973d 93c6 c13f 0000 0000 713d bd3f
00000600: 4f9e 36a5 7048 a53f e521 7fcf 048a b43f
00000610: f95c 7fb3 484f d73f 9fdf 1227 2362 d63f
00000620: 1826 65e3 03c2 b23f b8f5 f723 62da a3bf
00000630: 1e3c 48a7 b4c9 e43f e11a db84 411e bd3f
00000640: 19b2 a757 7b49 b63f 890e 062e 230c c1bf
00000650: 28bf 33f9 de6d ab3f 466d c6dc 43e7 fcbf
00000660: b1a8 841c 6616 8c3f be71 8500 c1a2 9cbf
00000670: aec4 2893 f04e b1bf 18ed 8958 a0e4 babf
00000680: c8fa ac52 49d0 a33f 8d9e 8c31 3fc0 e6bf
00000690: 5c14 7503 b1f7 d3bf 1b55 04d9 9e7e d8bf
000006a0: 2072 df0f bc28 d83f 47d8 7284 2e31 be3f
000006b0: bdbc 5299 68ba c8bf 9084 7cef cc19 7abf
000006c0: 418b e0f2 3be8 bd3f 0000 0080 c11f af3f
000006d0: 5395 bb06 c19c a1bf 7142 fa54 01ab ac3f
000006e0: 5316 ddb8 23fe 963f 5fbc 116c 252e bfbf
000006f0: c6d0 35b2 59cf c1bf e854 d7e8 9447 c03f
00000700: b72c cf27 8c3d 5a3f 0000 0020 51c0 bfbf
00000710: 0317 890a bad2 dabf 90c4 f102 c14a bbbf
00000720: 0000 00e0 b47d b4bf d71f 9555 c552 fdbf
00000730: 0000 0000 a2d6 aabf 0000 0040 d012 b33f
00000740: d02a 255f 19c7 b7bf cf79 249e 834d c3bf
00000750: fa7f dfa8 e3f0 d6bf b688 18dc e28c c03f
00000760: ae7d e612 f209 d03f 42dd abff 5662 c33f
00000770: e691 7c7e f8c6 8f3f 0000 0080 ee91 c0bf
00000780: de64 28f0 74f3 833f c2d8 c170 fbc6 c2bf
00000790: 52de 8c15 458d de3f 7298 a9af 0b28 d63f
000007a0: 929d 4a7e 9dd8 a4bf ba52 b658 13b6 d53f
000007b0: 4c42 17c2 5011 e63f 030e 5d6d a1f7 b3bf
000007c0: f51e f99e fe6e b6bf 2f2d a5e4 efa8 cfbf
000007d0: 846b 3782 5414 84bf 27cb 85be 1c1f 00c0
000007e0: 5c09 3f91 c1d4 a5bf d55a 05a5 271e a83f
000007f0: 064c f7e9 dc67 a0bf 1fbb a5c1 8e05 bf3f

bias f8 [48]
-0.0025923747852164797 0.25943829388814715 0.2670472207716632 0.19804536249908528 0.042753732963174994 0.009208646568974216 -0.08855529552464904 -0.015664331536458333
0.022903377080929477 -0.025247539118365744 -0.14571895688053568 -0.09570987461030084 -0.1158257243037583 -0.08333361881318593 -0.0770075652553909 -0.04695376048779291
-0.12187665912419278 -0.1160477483099514 -0.10165142124327384 -0.10062629277363834 -0.13728566224352215 -0.13557061476670118 -0.0834310985457352 -0.09061733570768175
-0.13342799155695909 -0.0906349898068512 -0.06630414456912115 -0.17735212030042632 -0.216085572368445 -0.12458600385337622 -0.08993835826125463 -0.03980625927446381
-0.0680019415585411 -0.1441649258916569 -0.09487974042334438 -0.16155508392258475 -0.15252849230959842 -0.2240687824199846 -0.16891791570344777 -0.32090096652786365
-0.34869418576846617 -0.3451660011933925 -0.35765273373261114 -0.4213441824939012 -0.3947120945173199 -0.33005478079519857 -0.346610213271626 -0.3401750426205566
00000000: 37c3 7c9d 9a3c 65bf a318 e512 a39a d03f
00000010: 54ed ec39 4d17 d13f ba6d 87e9 8c59 c93f
00000020: 93ae b739 d1e3 a53f 7055 d59e fbdb 823f
00000030: d97d 2a52 8fab b6bf 6ab2 a67e 4f0a 90bf
00000040: fd47 1f9e fb73 973f 7f7d 45ab 7dda 99bf
00000050: efc4 1a35 eba6 c2bf 3c02 5b3d 7180 b8bf
00000060: 3b8f eb31 c1a6 bdbf 32c0 751f 5a55 b5bf
00000070: 7a05 518e c4b6 b3bf 7546 70c3 520a a8bf
00000080: b98a 1509 4f33 bfbf a403 c423 4eb5 bdbf
00000090: 96ef d4d9 d305 babf 819b 940c a5c2 b9bf
000000a0: 31d7 c59a 9392 c1bf 445d 5cbe 605a c1bf
000000b0: 4329 b98f bd5b b5bf 6bad 509d b232 b7bf
000000c0: 55d6 0d1e 2b14 c1bf fcfd 17cd da33 b7bf
000000d0: 587d 83f4 4ef9 b0bf fb85 486a 79b3 c6bf
000000e0: 6ade 3a29 b1a8 cbbf c5ee 164c dee4 bfbf
000000f0: 4855 6343 3306 b7bf 1214 856b 7c61 a4bf
00000100: bff5 0e43 9368 b1bf c9ab f70c ff73 c2bf
00000110: f2d5 2be6 094a b8bf cf9a f944 d6ad c4bf
00000120: d8c5 16bb 0d86 c3bf 1b31 462e 49ae ccbf
00000130: 42d0 d32d 1a9f c5bf 5b7c 1f35 a489 d4bf
00000140: 0b94 0b6b 0151 d6bf 1b45 b423 3317 d6bf
00000150: 4b38 ad4a c8e3 d6bf 4ff4 0a97 4df7 dabf
00000160: 3867 5284 f642 d9bf 4cd8 5916 9e1f d5bf
00000170: 9c84 9d9a dc2e d6bf e51f be8a 6dc5 d5bf

log_wavenumbers f8 [48]
0.0 0.6931471805599453 1.0986122886681098 1.3862943611198906 1.6094379124341003 1.791759469228055 1.9459101490553132 2.0794415416798357
2.1972245773362196 2.302585092994046 2.3978952727983707 2.4849066497880004 2.5649493574615367 2.6390573296152584 2.70805020110221 2.772588722239781
2.833213344056216 2.8903717578961645 2.9444389791664403 2.995732273553991 3.044522437723423 3.091042453358316 3.1354942159291497 3.1780538303479458
3.2188758248682006 3.258096538021482 3.295836866004329 3.332204510175204 3.367295829986474 3.4011973816621555 3.4339872044851463 3.4657359027997265
3.4965075614664802 3.5263605246161616 3.5553480614894135 3.58351893845611 3.6109179126442243 3.6375861597263857 3.6635616461296463 3.6888794541139363
3.713572066704308 3.7376696182833684 3.7612001156935624 3.784189633918261 3.8066624897703196 3.828641396489095 3.8501476017100584 3.871201010907891
00000000: 0000 0000 0000 0000 ef39 fafe 422e e63f
00000010: 0b03 ad7a ea93 f13f ef39 fafe 422e f63f
00000020: 338d edf7 41c0 f93f 0220 2afa 0bab fc3f
00000030: 575a 32ae 7222 ff3f 73ab 3b3f b2a2 0040
00000040: 0b03 ad7a ea93 0140 1655 b5bb b16b 0240
00000050: 4c37 7fb7 e32e 0340 7d9e d3bc 16e1 0340
00000060: 518c 312b 0485 0440 a7bb d716 ca1c 0540
00000070: 1f48 4d39 16aa 0540 ef39 fafe 422e 0640
00000080: 7a7f fac1 6baa 0640 8691 6b3a 7b1f 0740
00000090: 2cb3 0406 368e 0740 91e3 737b 42f7 0740
000000a0: b1ae 6f94 2e5b 0840 c8c5 3d77 74ba 0840
000000b0: f0b3 d1fd 7d15 0940 f92c 927c a76c 0940
000000c0: 338d edf7 41c0 0940 cd1a f0ea 9410 0a40
000000d0: 9084 03b8 df5d 0a40 234a 96d6 5aa8 0a40
000000e0: 1ffe cdcb 38f0 0a40 9bd6 0bf9 a635 0b40
000000f0: 5a2b 9148 ce78 0b40 6bc8 b8be d3b9 0b40
00000100: d1b8 d5f4 d8f8 0b40 f60d b981 fc35 0c40
00000110: c5f3 0f53 5a71 0c40 0220 2afa 0bab 0c40
00000120: bdc7 3aee 28e3 0c40 a841 c3c5 c619 0d40
00000130: d60d 8868 f94e 0d40 0d72 323b d382 0d40
00000140: 4eac 8e45 65b5 0d40 2d3d 2e54 bfe6 0d40
00000150: 11ec 1416 f016 0e40 4354 fc36 0546 0e40
00000160: a4c9 a376 0b74 0e40 6c42 90bd 0ea1 0e40
00000170: b6f0 902f 1acd 0e40 75bb 503c 38f8 0e40

grid_cell_size f8 [48]
0.34657359027997264 0.5493061443340549 0.34657359027997264 0.25541281188299525 0.2027325540540822 0.16823611831060648 0.1438410362258904 0.12565721414045317
0.11157177565710508 0.10033534773107555 0.09116077839697723 0.08352704233158303 0.07707533991362903 0.07155042182033666 0.06676569631226137 0.06258157147700305
0.058891517828191686 0.05561281755511205 0.05268025782891317 0.050041729278491376 0.047655089902162606 0.04548588910286333 0.04350568849481484 0.041690804469525444
0.04002135383676819 0.03848052056806428 0.037053986076860834 0.03572948199107251 0.03449643574347583 0.033345687249336065 0.03226926056878554 0.03126017849066698
0.03031231090821751 0.029420250011466642 0.028579206919974176 0.027784925577405417 0.027033610635137872 0.026321866742710975 0.025646647193775296 0.025005210287330826
0.02439508208471608 0.023814024494627217 0.023260007817446304 0.02273118703837862 0.022225881285417026 0.021742555969869404 0.02127980720939804 0.010526704598916359
00000000: ef39 fafe 422e d63f 0b03 ad7a ea93 e13f
00000010: ef39 fafe 422e d63f 5014 81fa ae58 d03f
00000020: 4c98 bfec 23f3 c93f 9034 13d9 c288 c53f
00000030: 90db 3411 6269 c23f fcae 9e1c 8915 c03f
00000040: 309a 9ac7 f78f bc3f 1044 23cd 93af b93f
00000050: 7096 e411 5056 b73f 5050 253b 0762 b53f
00000060: a0d2 41a0 35bb b33f e0bc bbe1 2051 b23f
00000070: 80e4 2782 8e17 b13f b075 d38a 5805 b03f
00000080: e0f2 2a6e 0727 ae3f 4076 4681 4879 ac3f
00000090: 6041 0a21 e8f8 aa3f a070 5fcd 119f a93f
000000a0: e046 3c79 3f66 a83f e0a7 402c ed49 a73f
000000b0: 20e6 8caa 6046 a63f 6028 7b43 7f58 a53f
000000c0: 80ba bdcb ad7d a43f a0eb be02 b8b3 a33f
000000d0: c0ea c574 bdf8 a23f e031 4f79 224b a23f
000000e0: 008f b14e 84a9 a13f 60a7 6598 af12 a13f
000000f0: 003a 9eb5 9885 a03f e0ae 9188 5501 a03f
00000100: c062 11c0 300a 9f3f 00bd 8e8e 5720 9e3f
00000110: 0083 441c de43 9d3f 00fe b4ca a673 9c3f
00000120: 8069 48e6 b2ae 9b3f 4086 5193 1ef4 9a3f
00000130: 4019 cc5b 1d43 9a3f 009e a741 f79a 993f
00000140: 00c8 f23e 06fb 983f c0f0 8f21 b462 983f
00000150: 80c5 85b3 78d1 973f c064 b723 d846 973f
00000160: 408a fba4 61c2 963f 80c4 493b ae43 963f
00000170: 4042 1eb0 5fca 953f 805f e55f 068f 853f
