Sphere/NeuralNetworks/models/net4_nonlog.pt (torch_old, 210431 bytes, 12 tensors)

weight f8 [36, 6]
00000000: 0000 0040 a348 d13f 0000 0000 63e0 aa3f
00000010: 0000 0040 2f08 d93f 0000 00c0 8fe0 d83f
00000020: 0000 0000 4090 58bf 0000 0000 09f2 d03f
00000030: dcb8 a0a9 aecd e23f 9e2b f037 90b4 d4bf
00000040: 0669 a570 33ad aabf ad9c 2f69 d106 bbbf
00000050: a9a3 5209 60aa d1bf 5564 7f0e 6735 d43f
00000060: 89fb 4f2e 394f f53f 97ce a849 c8e5 d9bf
00000070: 6182 7b46 88c9 bf3f a32b d690 e6f4 c1bf
00000080: 99d1 baff 616a d4bf fb28 9f0e 7a7e a73f
00000090: bda7 5876 36f6 da3f 4a77 9572 377e cbbf
000000a0: b50f 75c8 6bb0 d33f 8b5c 5b93 9c49 c93f
000000b0: ecc9 c0b2 29a8 bf3f f110 fb19 104c b9bf
000000c0: b07a e2ca 8cd9 dbbf 5bf8 4ee7 79a5 d73f
000000d0: 9b75 1bc1 c557 e5bf 4775 da04 4568 c63f
000000e0: 3e40 ce18 0f16 c7bf 1ba7 f81a 09f8 d63f
000000f0: 0000 0080 2969 d2bf 0000 0000 7bc0 b83f
00000100: 0000 00c0 d278 c7bf 0000 0000 e75b bc3f
00000110: 0000 0000 8295 c03f 0000 0040 293c d23f
00000120: d936 6a66 6354 cbbf 97d1 f3c4 53ba edbf
00000130: b905 42c0 ace9 b83f d295 d1b8 66b6 b13f
00000140: 61a2 76cf 2377 d6bf c277 e3b4 bdce d43f
00000150: 58b0 8af6 d610 f33f a407 1718 de63 d8bf
00000160: 5012 b918 cb68 e23f 5aab b34a fdfe d3bf
00000170: 0d3d 8a00 7226 c43f afc2 17ac 7dc4 c3bf
00000180: ce93 4b93 9c2e e2bf 1686 82c5 5e91 ebbf
00000190: 9261 e849 c918 d8bf 2322 bced f5a8 d4bf
000001a0: 1e54 97fa 31f6 cbbf 79b2 5681 ffe2 d13f
000001b0: 7150 23c0 0dc3 d7bf 27fa f1b8 fc3d e33f
000001c0: 6f16 b28e 3e93 d8bf 8958 6810 2ce4 b33f
000001d0: 14e3 a8b6 4911 b5bf 1bee 5d98 d04f 97bf
000001e0: 0000 0080 b7a6 d53f 0000 0080 1880 c23f
000001f0: 0000 0000 f993 bfbf 0000 0000 507d 67bf
00000200: 0000 0000 48db 7b3f 0000 0000 7fbf ab3f
00000210: 841c 172d 42a0 e53f b557 eea8 118e f1bf
00000220: 05fb 240a a361 cb3f e293 b702 4ce7 a1bf
00000230: 8bee b5e0 5afd ae3f 2ef9 25b2 c10e 983f
00000240: 0000 0000 bd64 c23f 0000 0000 3bd2 d43f
00000250: 0000 0000 400f 67bf 0000 0000 600a 923f
00000260: 0000 00c0 3b73 d93f 0000 0040 b65a c2bf
00000270: 1976 6b06 377a fc3f dfc2 3240 87d1 c2bf
00000280: db64 456e 1a4e d6bf 739e 9e0b a283 933f
00000290: 5dcd c4b1 88f3 a7bf 307e b2cf 34b4 c8bf
000002a0: f58c 5489 861b df3f 6515 e668 3a14 c33f
000002b0: c81a aaf1 3b29 813f a32b d262 41ed 7fbf
000002c0: e574 f5cd 62a4 bfbf 9a8b ce6a 4679 cb3f
000002d0: 60ab 3019 9ddf dfbf de7b 7f55 4c6d d3bf
000002e0: 38c9 2a7e 5850 b4bf 375d 2162 4c0b cfbf
000002f0: 9892 7144 15ba d83f 6aee 5826 2ae5 cfbf
00000300: 26f4 6a67 741f 943f fdb3 6d74 e97f bf3f
00000310: 2518 8f21 5226 c13f c8d5 8217 b53d dc3f
00000320: 3d54 5490 4cad c1bf 8da4 6191 ad2b 91bf
00000330: 8baa 49df 968b eabf 9073 9eb3 7be6 0140
00000340: 5fdd edc2 f12e 993f 8ac0 2dcb 7c7c ca3f
00000350: 5476 995e aa60 acbf c184 5968 8e67 c3bf
00000360: f744 1e19 a4dd aebf 221f 8bbd d555 f63f
00000370: f98e 41d8 5462 e43f 10e3 cef0 2fa3 bdbf
00000380: fa50 0250 b0ca b8bf f0fc 8e06 d876 b3bf
00000390: a056 4eea 9062 f1bf da66 05d2 0e7d bd3f
000003a0: c0b9 b5cc 927b c83f 6000 4a1c 3d2d b1bf
000003b0: db16 02a3 f97b d7bf a917 0c18 cb8b d23f
000003c0: 0c88 4fcd 7a7b e53f 08e8 90bb 7a42 e83f
000003d0: 3204 85a8 b5c0 e03f dbfc f296 6b85 d8bf
000003e0: 69a0 0be3 9204 d1bf 24e6 3350 1e4f d43f
000003f0: 6499 1817 1a63 c33f 48f0 372a 3689 d03f
00000400: 433f 0925 0df8 c43f 708c c86f 3eb2 9abf
00000410: 298e 9e23 b269 a63f 783d 5f13 aa30 a1bf
00000420: 4846 09ea 8f04 fa3f 337a f054 f32d e53f
00000430: a0ff be39 77d8 d8bf e30f 0b06 4254 c73f
00000440: 3a96 48ab 1374 cf3f a7e5 c09a 7825 c3bf
00000450: 7256 6702 54c1 f93f 931b 90ee 0836 cebf
00000460: 45e4 0d01 688a dd3f e03e ca28 07e0 9a3f
00000470: 5978 b7bd 83aa d1bf f846 57f6 2554 b13f
00000480: 0000 0000 cefa ae3f 0000 0000 127b b63f
00000490: 0000 0080 81a0 bbbf 0000 0000 16b4 aa3f
000004a0: 0000 00c0 c025 d03f 0000 0000 a08c c23f
000004b0: 0000 0000 ebf2 b03f 0000 0000 5994 a63f
000004c0: 0000 00c0 1441 cabf 0000 0000 f5b4 a9bf
000004d0: 0000 0000 3187 d33f 0000 00c0 b8c7 d13f
000004e0: 172a 1ad3 41c2 e8bf 2b0c 6e43 39c8 e63f
000004f0: 894e 79e2 bc9d cfbf 60e7 85fc 6602 dfbf
00000500: 99a7 d91f 5a2d d43f 7b7e 404a 9153 90bf
00000510: 5523 4d20 59f4 c63f bece 372d 6950 9bbf
00000520: b9ce d789 4bed c9bf 2577 585f 1cf0 c1bf
00000530: ca46 7668 10a9 d83f 2b39 6c31 97d7 b53f
00000540: dc80 4dad 2362 edbf 08fe fd98 1dd1 debf
00000550: 7a52 e028 86b9 b13f a928 9306 9ef3 de3f
00000560: a53e bec4 529e c33f 9b63 d8cd f0df d0bf
00000570: 6ad9 6071 1d7a 6d3f 304e 1dde 2408 c1bf
00000580: 375b 7b14 620a b1bf 1cc2 b37b 8939 d3bf
00000590: 17d2 e9ac e0aa b53f cdd7 91d5 034d d83f
000005a0: 0000 0080 3b7b cb3f 0000 0020 1133 d0bf
000005b0: 0000 0000 b5a9 a33f 0000 0000 16a6 bd3f
000005c0: 0000 0040 2e02 d73f 0000 0040 9743 d63f
000005d0: 0f61 a66a e425 bfbf e516 a6e7 f1c4 57bf
000005e0: b9fe f7e2 083a bb3f 82f3 4ff3 5a59 b4bf
000005f0: c3a0 b8d7 c93e b8bf a64a af35 38a4 bebf
00000600: 1dee 107b 0f66 e9bf dcbb 8951 4552 efbf
00000610: ee88 9f73 8ab4 d7bf dfa7 92f4 4045 843f
00000620: a945 99d4 5fad b13f 8af2 0bc0 b7dc c63f
00000630: 0000 0000 9780 cbbf 0000 0000 ffaf abbf
00000640: 0000 0080 91fb d73f 0000 0080 3f24 d23f
00000650: 0000 0000 e8b9 ab3f 0000 0000 1946 c23f
00000660: 0000 0000 cb6c cbbf 0000 0040 364f d93f
00000670: 0000 0000 54e7 90bf 0000 00a0 06b7 d2bf
00000680: 0000 0000 c018 cc3f 0000 00c0 d195 d43f
00000690: 3322 f5f3 7ba7 bebf 6d29 9cc8 fea3 b23f
000006a0: efa2 e618 c0c9 d2bf bd22 b781 de33 b13f
000006b0: ed79 04bc 02a5 ccbf 0a2f a249 1109 c6bf
0.27005845308303833 0.05249318480491638 0.39112454652786255 0.38870614767074585 -0.0014992356300354004 0.2647726535797119 0.5876076996844648 -0.323520712496867
-0.05210266828608394 -0.10557278459565352 -0.27602387342863693 0.3157594338968626 1.3318416413382883 -0.4046498030977345 0.12416888924372806 -0.14028627464389584
-0.318993091331572 0.04588681629646093 0.42127763325936113 -0.21478932471193907 0.3076428849783455 0.19755894847068975 0.12365971197213071 -0.09881687769217586
-0.435153196458411 0.3694748648521277 -0.6669644137979732 0.17505705582599715 -0.18036068640913244 0.3588888896361923 -0.2876685857772827 0.09668701887130737
-0.18337473273277283 0.11077731847763062 0.1295626163482666 0.28492194414138794 -0.21351282597281943 -0.9289950224615947 0.09731559461399443 0.06918947231459718
-0.35102172145938054 0.3251184717645367 1.1916112547433126 -0.38109543182883443 0.5752921564931714 -0.3124383191595165 0.15742325807921312 -0.15443392661065533
-0.5681898953304143 -0.8614953858961509 -0.376512834716345 -0.3228125402097552 -0.2184507821645249 0.27947986250618545 -0.37128013385268505 0.6013167965136902
-0.3839870828163389 0.0777003803308124 -0.0822950430819101 -0.022765406894434386 0.33830058574676514 0.144534170627594 -0.12335163354873657 -0.002867370843887329
0.006800919771194458 0.05419537425041199 0.6758128052396306 -1.0971848105304904 0.21391714091620187 -0.034967780429532316 0.06052669518518624 0.023493792055426947
0.1436992883682251 0.325331449508667 -0.0028148889541625977 0.01761770248413086 0.3976582884788513 -0.14339330792427063 1.7798376322529121 -0.14701929697687086
-0.34851704376849363 0.01905682750626032 -0.04677989168194572 -0.19299945966211984 0.48605502520713567 0.1490548145485874 0.008379429161562327 -0.007794623769892181
-0.12360208061496143 0.21463852133919376 -0.4980232950207917 -0.30354603146946413 -0.07935097770931498 -0.242532298960876 0.38635760959577103 -0.24918105003768015
0.019651240169640392 0.1230455312012992 0.1339819587576027 0.44126632019046186 -0.1381011681302499 -0.01676818084562064 -0.8295397149170908 2.237540629647306
0.024593141100436863 0.20692405625186822 -0.0554249992826327 -0.15159778685759842 -0.060284736696425804 1.3959557918587469 0.6370033477546421 -0.11577129010300902
-0.09684278443666364 -0.07603216323967721 -1.0865639832094658 0.1151894819971874 0.19127116199110894 -0.06709653797770576 -0.3669418422581267 0.2897823080860414
0.6713232049917237 0.7581151641272763 0.5235241214178414 -0.3831433271515842 -0.2659041611900706 0.31732900459573643 0.15146185043085858 0.25837473032857305
0.1638199263420522 -0.0260705714919251 0.04377514538580513 -0.03357440458750721 1.6261138097801382 0.6618591937038388 -0.38821201934114846 0.18225884718969984
0.24572988379911626 -0.14958102756808708 1.6096992582219198 -0.2360240139825832 0.46157264807658677 0.02624522386992012 -0.27603238608378927 0.0676902510088232
0.060507237911224365 0.08781540393829346 -0.10791787505149841 0.05215519666671753 0.2523042559623718 0.14491653442382812 0.06620663404464722 0.044100552797317505
-0.20511111617088318 -0.050208717584609985 0.305126428604126 0.277815043926239 -0.7737130282487809 0.7119413678159437 -0.24700127657216722 -0.4845216241879964
0.31526806936619206 -0.015943784863451143 0.17933191373074445 -0.02667393053520927 -0.20255417090048924 -0.14014010100884736 0.38531885339135086 0.08532090145692865
-0.9182299027270591 -0.4815134042800939 0.06923712251620798 0.4836192192275442 0.15326914412115858 -0.2636682520110811 0.0035982680374459413 -0.13306103558953586
-0.06656468391461777 -0.30038678245822026 0.08463863584058405 0.37970062118926934 0.21469825506210327 -0.2531168758869171 0.03840413689613342 0.11581552028656006
0.35950809717178345 0.3478754162788391 -0.12167193988569046 -0.0014507639267277658 0.10635428944805882 -0.07948845329515389 -0.0947080756819814 -0.11969329176580831
-0.7937085536609093 -0.9787928192653186 -0.3703943375713966 0.009897716010829725 0.06905173244856279 0.17861077191618718 -0.21486175060272217 -0.05407711863517761
0.3747295141220093 0.28346240520477295 0.054152727127075195 0.14276421070098877 -0.2142575979232788 0.39545971155166626 -0.016507446765899658 -0.29242101311683655
0.21950531005859375 0.32164424657821655 -0.11974310594553898 0.07281486890511753 -0.29356386596422984 0.06719771067504161 -0.2237857263616684 -0.17215171904933185

bias f8 [36]
00000000: 0000 00a0 5fae d8bf 9252 09be f01d d4bf
00000010: a1bc f55e ecc8 eebf 1b3e c9a9 7604 a93f
00000020: 9976 a4be 9430 e53f 0000 0080 82a7 c93f
00000030: 98bb 7ccb e7f3 d8bf 821a 0e02 be48 d13f
00000040: 2467 2201 4757 e5bf 6370 06c2 d9c5 eebf
00000050: 0000 00e0 e8d4 d7bf 2b15 aaaf ba29 aabf
00000060: 0000 0040 81c0 c4bf add1 4d85 f5e4 d1bf
00000070: bd85 8dd0 4a3d bcbf 0cbf 8ccd 0c6a e4bf
00000080: 3078 32a5 b008 dbbf 0b40 715b 071d cc3f
00000090: e477 8b99 9de4 c43f 07d9 b69f 3fd1 b83f
000000a0: e665 3830 0d1e d43f c148 dd8b 4d51 d2bf
000000b0: 5e6d 913d d946 b43f a0b8 22a4 0419 e93f
000000c0: 0000 0080 5eb6 b0bf 0000 00c0 fd24 d33f
000000d0: ff55 cc48 0041 dbbf b92c 9d23 04af ca3f
000000e0: fe51 abf1 3f2d e73f a72e e419 702d bfbf
000000f0: 0000 0080 a1a0 babf f0b3 c515 b9f2 f2bf
00000100: 0781 2bff 0742 d7bf 0000 0000 0007 6ebf
00000110: 0000 0020 1af1 d9bf 358d 7e61 ac82 f5bf
-0.3856429159641266 -0.31432741697543876 -0.9620267729459507 0.048862179017870676 0.6621803019986202 0.20042449235916138 -0.38988680717278035 0.27006483269398285
-0.6669039747386916 -0.961651686625839 -0.3723699748516083 -0.05109961885777133 -0.16212478280067444 -0.27959955232588635 -0.11031024543401365 -0.637945558037218
-0.4224053967717536 0.21963588681182986 0.16322679517082783 0.09694287919305476 0.3143341990376868 -0.2862123361457059 0.0792060637772258 0.7843039708875672
-0.06528273224830627 0.299132764339447 -0.4258423529548451 0.20846606959307737 0.7242736549474669 -0.12178707725632397 -0.10401353240013123 -1.184258542106587
-0.3634052268880769 -0.003665447235107422 -0.40534070134162903 -1.3444026764271488

weight f8 [72, 36]
00000000: 0000 0040 3e18 b83f 8e64 92e5 fccf ba3f
00000010: f0f9 b805 6700 cfbf 42e9 948d 9b16 bb3f
00000020: 929c d368 059a cf3f 0000 0000 7826 ac3f
00000030: b6c2 7b00 4cc4 7e3f 2995 1564 43bb d5bf
00000040: 58be 2dfc 6422 c93f b12b 81f3 8f91 a73f
00000050: 0000 0080 e02d ac3f 940b 0ef8 b4ec 783f
00000060: 0000 0080 b3b8 a9bf f2db eb4b f68f cabf
00000070: 7c74 46da 3bb6 843f 3f3f 4b3a 04c3 b43f
00000080: 8f69 bfe2 e947 c0bf 9ad3 33ed 57cf d93f
00000090: 4cc3 ccf2 3af6 c33f 248a 267e aeb4 c9bf
000000a0: 13a1 83b7 0e94 cdbf b240 d0b4 69b3 af3f
000000b0: 8f49 4d2b 883f d2bf 65fd 785d 9e39 dabf
000000c0: 0000 0080 7152 a8bf 0000 0000 8d03 97bf
000000d0: c930 7596 92ba c33f ad28 f37e 28dd aa3f
000000e0: 89cb 2e43 56f3 aa3f 6c88 f867 b8ff c2bf
000000f0: 0000 0000 dae3 823f fdcb 9f00 691d 973f
00000100: 23ee 9cce 2982 953f 0000 0080 6355 adbf
00000110: 0000 0040 aa22 be3f 56be 5451 5914 d73f
00000120: 0000 0060 daa0 c43f 5533 6d12 c24a aebf
00000130: fb03 ee56 04bf c53f 1d66 bb63 6630 c1bf
00000140: af8d ac07 0a64 c2bf 0000 00c0 aecd bebf
00000150: 1cc5 3eea fbc3 aebf bfe6 bef3 e935 cbbf
00000160: 4a03 fa20 0a8c c53f bb80 92da 10b2 b03f
00000170: 0000 00c0 7290 a5bf d2b7 84f5 741d c2bf
00000180: 0000 0000 4cfc aa3f a527 563d 8cf3 d23f
00000190: d656 41b1 caa2 cabf c0e3 fbb3 16b7 b7bf
000001a0: e26e f042 94ca b2bf 82c9 4f11 5903 bd3f
000001b0: bce1 2468 3a30 c53f 6d7a 7a3b ada7 bbbf
000001c0: 27db d3bf fe2c e1bf c015 045b 1137 bfbf
000001d0: a9df 103b c8f8 a1bf 5c73 0a6a f946 c33f
000001e0: 0000 00e0 bbe1 c23f 0000 0060 09a6 c43f
000001f0: ca10 2ac8 f808 7e3f 5d57 a7d8 3a5d 6fbf
00000200: 029f ed51 2e0d f3bf 4886 8964 b31d b8bf
00000210: 0000 0000 14df 75bf eb72 c7f7 00d2 d03f
00000220: fb09 f53c b13d 95bf 0000 0000 c72f 9fbf
00000230: 0000 0000 47f8 9a3f 737b dc49 bc2c d33f
00000240: 0000 0040 78ab bc3f 8a79 99ee 8f11 c93f
00000250: 6c13 335b e0ff b5bf b8e7 6e7f 15f0 b1bf
00000260: 864c 8c22 4b3e b0bf 0000 0080 86ef a93f
00000270: 93d9 bef1 dd54 823f 988f 3cff f4b1 b03f
00000280: fab0 eb15 31b4 82bf 868e 595e 5011 a9bf
00000290: 0000 0060 ff22 c43f 089f 4c65 76f5 c63f
000002a0: 0000 00c0 b57d b03f dc53 6766 6871 cbbf
000002b0: 3702 7306 0ece 8e3f 5d8d f6fb 965d 9cbf
000002c0: 3c7b ea9b 162c 98bf b235 4bf6 aa40 c6bf
000002d0: 76f1 d214 fb6e c1bf 9b75 9d25 8119 ca3f
000002e0: 56f1 7e0e de85 c4bf 0000 00e0 eb5b c43f
000002f0: c419 2ee0 8046 c5bf 32a2 8728 0922 b43f
00000300: 0000 00e0 0cec c3bf 0000 00a0 2e44 c23f
00000310: c35c c704 5473 8dbf 0000 0060 3e98 b5bf
00000320: 164c 7f1d 0bb5 ce3f 0000 00c0 1811 bdbf
00000330: 0000 0060 71d7 bdbf 5160 c687 9e95 a23f
00000340: 90c8 cba9 58d4 d5bf 0000 0040 016a c1bf
00000350: 0000 0000 bb59 94bf 857e 9574 5f57 d7bf
00000360: 0000 0080 89ce a73f f4a9 5d29 210f bc3f
00000370: 8d94 e912 8734 c4bf fe73 2d7b 7da4 c2bf
00000380: a45c 9203 9b8d d73f 0000 00e0 46fa c4bf
00000390: fb86 5b11 3b4a e7bf ff43 1bdc 1ebd b03f
000003a0: 430c abf4 1548 a63f 4fbd add8 fc73 d43f
000003b0: 0000 0020 e77b c33f 837c 693e af8e d8bf
000003c0: 0000 0080 1d43 a63f a040 72a7 1290 a3bf
000003d0: 2d70 7b98 9cf7 c5bf 8178 5914 5467 adbf
000003e0: ea51 4447 b3c0 b0bf b6f7 74ac 17dc cd3f
000003f0: 9da5 32a4 5590 b1bf 901f b9a8 0a64 953f
00000400: 20b8 3180 72f5 d63f bbb2 0e32 e1ba 933f
00000410: 061c aff4 639e bdbf 2102 ab23 037e d0bf
00000420: 0000 00c0 1523 babf 0000 0060 cf7e bcbf
00000430: 183a eab2 af45 d73f 3501 c2b6 4639 a03f
00000440: b1b6 e0e0 432e f0bf 9521 e86a c815 c2bf
00000450: 0000 0060 d749 b1bf 1883 67c0 9167 acbf
00000460: 0161 5e4f 88a3 fbbf 0000 0000 9964 923f
00000470: 0000 0000 cbf0 9a3f 52f8 17c1 15ef ca3f
00000480: 0000 0000 58e8 aabf c14a 6468 61df c43f
00000490: f6e8 a176 e994 db3f 9469 41be 3e2a a33f
000004a0: 735f 4985 c391 dfbf 0000 00a0 821e c33f
000004b0: 779d 16e2 db9f a6bf e4ba c0fc c3ac d73f
000004c0: 4ea6 5b2d 0e3c aebf 1c22 67cf a602 d6bf
000004d0: 0000 0080 afe4 a3bf 1b92 af32 722a c73f
000004e0: 0000 00c0 18cb b7bf e441 c905 3c71 d03f
000004f0: 06d2 a0e8 d998 be3f 5d83 c04f d95b 933f
00000500: 3461 cea5 075c 8ebf 830f f212 e9e1 d4bf
00000510: 4522 5411 0540 cb3f 2bfd 7955 4edc ddbf
00000520: a236 cc1d 8fb5 bc3f 1aa1 4366 f10a af3f
00000530: d760 5739 f36a c83f 442f 9633 5957 df3f
00000540: 0000 00e0 1b95 c4bf 0000 0000 5a6b 86bf
00000550: a2e5 1dbe 76df cdbf 5d18 02ea 2da5 b8bf
00000560: 9fc0 0fd8 c863 efbf 72cf af0d 3606 c5bf
00000570: 0000 0080 5794 c2bf 6393 53fb fe56 b5bf
00000580: b637 24c1 ca27 dfbf 0000 0040 5b3c c5bf
00000590: 0000 0000 cab9 8fbf 4716 c9bc 080f bb3f
000005a0: 0000 0040 54c0 bf3f 6592 8b36 e080 93bf
000005b0: cde0 3e54 4242 b73f 4710 7a9a 6b44 babf
000005c0: f4b8 609a b5a9 c7bf 0000 00a0 0dd1 c13f
000005d0: d4d0 2960 6ddb c9bf d81a 1bef d132 afbf
000005e0: 4f62 e7cb 14bc b8bf f104 2095 352d c5bf
000005f0: 0000 0000 80db bcbf e927 c2f8 3145 b43f
00000600: 0000 0040 5098 bd3f 32ee 5163 d50a acbf
00000610: 727a 65cc ae56 cdbf d9ed 19da a67a 603f
00000620: 5df2 4972 653c a9bf 7aaa 5a9f d249 8dbf
00000630: 3d8e e2a1 7f55 a83f 3590 e64e da62 91bf
00000640: 6c11 a8d6 87e0 b7bf 8a87 cbe9 887a 823f
00000650: 82cd ef47 179f c2bf 8c2e 040f 1918 a7bf
00000660: 0000 0080 cbe2 c2bf 0000 0000 4535 c5bf
00000670: 305c e599 c137 c5bf 3fe3 87e5 8f53 75bf
00000680: 1573 1181 1efa 98bf f685 b03b 3475 b9bf
00000690: 0000 0080 184c a3bf 4881 df61 96d8 79bf
000006a0: b3f1 29d5 16d3 b4bf 0000 0080 0d64 adbf
000006b0: 0000 0040 d099 b73f c942 9741 f4ec a5bf
000006c0: 0000 00c0 03d0 bfbf 71f2 b5ca 1165 c23f
000006d0: 4a9c 3e0b 6191 b6bf 0000 00e0 c20f c1bf
000006e0: 20a5 e0a3 5f75 b2bf 0000 0000 9a29 ac3f
000006f0: ac0f 303a 8093 a5bf 65de 9df6 684b 53bf
00000700: eb03 b9fb f065 a2bf 9662 72c4 d2c8 b6bf
00000710: 0000 00c0 0608 b1bf 0441 9efe 8263 a73f
00000720: 0000 0000 bc8f 95bf 7eab 6bb2 10d9 c1bf
00000730: 0000 0080 a9a7 a03f 32b5 0a39 f03d b1bf
00000740: 0000 0000 6316 9c3f d7c6 4429 ba40 77bf
00000750: b44b 318e e418 c6bf 93c1 02f4 e428 a8bf
00000760: 0000 0060 e723 bdbf 0000 0000 3603 bbbf
00000770: 0000 00c0 fbef bd3f 0000 0000 dc47 b0bf
00000780: 0000 0040 4720 bf3f 0000 0000 fa35 a3bf
00000790: 6308 ca15 e422 83bf 0000 00c0 a5d0 b33f
000007a0: 5155 2f0a fe61 b43f 0000 0040 a97b bb3f
000007b0: 0000 0080 82dc c0bf a749 ad8d 225c b4bf
000007c0: 0612 3e7c 4459 913f 0000 0000 34be b6bf
000007d0: 0000 00c0 4b75 b73f 1823 3ad7 afbf c1bf
000007e0: 0000 00a0 8b18 c23f b609 fbae cd19 9abf
000007f0: 8a6b 817b 057b 79bf b11c bb74 3354 c33f
0.09411992132663727 0.10473614315778176 -0.24219978122160013 0.10581371504386985 0.2468878518913909 0.05498099327087402 0.007511422045113283 -0.3395546414743245
0.19636213601505648 0.046032427286795914 0.05503751337528229 0.0060851163005989535 -0.05023728311061859 -0.20751837451072636 0.010113208388071941 0.08110071585838073
-0.12719462939896828 0.403280240672126 0.15595185142003698 -0.20082646522230718 -0.2310808559480014 0.06191568691440476 -0.2851276800985482 -0.4097667610949059
-0.0475039929151535 -0.022474482655525208 0.1541312441498859 0.05246855306320817 0.05263776369192558 -0.14842896534634364 0.009223654866218567 0.02257312837896207
0.021004346118600147 -0.057292088866233826 0.11771644651889801 0.36061699812396364 0.16115884482860565 -0.05916410899099015 0.16989187473885167 -0.1342895495388782
-0.14367795347889742 -0.120325967669487 -0.06008898958624284 -0.21258282090803068 0.16833616838632742 0.06521706901776529 -0.04211767762899399 -0.141523952371641
0.052706122398376465 0.29611497869393083 -0.20809301047363843 -0.09263746160640007 -0.0734036124635469 0.11333233521125943 0.16553430638465538 -0.10802729322538492
-0.5367425676948628 -0.1219340178687025 -0.035101182184404785 0.15060346296095417 0.14751385152339935 0.16131703555583954 0.007332774929299466 -0.0038286351529945154
-1.1907180023499113 -0.0942031975223695 -0.005339697003364563 0.2628176135747668 -0.020743150086909506 -0.03045569360256195 0.026337727904319763 0.2996054383565287
0.11199142038822174 0.1958484568630861 -0.08593561388540899 -0.07006964074289967 -0.06345052331407616 0.050655558705329895 0.008950933399188432 0.06521540862428166
-0.009132750970330939 -0.048960219876588204 0.15731804072856903 0.1793659205079552 0.06441818177700043 -0.21439843177964135 0.015041455814185685 -0.02770076668606457
-0.0236056835807361 -0.17384850526870604 -0.13619936482235645 0.20390333496736165 -0.16033530910307076 0.1590552181005478 -0.16621409364979745 0.07864434470651174
-0.15564118325710297 0.1427057534456253 -0.014380127330623776 -0.08435430377721786 0.23990000667853967 -0.11354212462902069 -0.11656864732503891 0.03629775435837302
-0.3410855920948359 -0.13604751229286194 -0.019873544573783875 -0.3647078169360401 0.04649762809276581 0.10960585842045828 -0.15785301612337257 -0.14564484133271088
0.3680179152374399 -0.1638878434896469 -0.72781136884825 0.0653857505196953 0.043518720738142246 0.3195793262484203 0.15221871435642242 -0.3837087735645996
0.04348079860210419 -0.03820856374761772 -0.17161900945109335 -0.057428958400792325 -0.06544037332452715 0.23327918930766395 -0.06860862025009458 0.020889441059153635
0.35873091238943466 0.019267576866399887 -0.11569809650164595 -0.25769117816165205 -0.10209785401821136 -0.1113099679350853 0.36362831566012366 0.03168698292666009
-1.01129520266424 -0.14128976078087577 -0.067532978951931 -0.0554776713722786 -1.727424917253359 0.01796187460422516 0.02630917727947235 0.2104212944831852
-0.05255389213562012 0.1630670318341654 0.43096386513901963 0.037431679462957806 -0.4932717134120061 0.14936859905719757 -0.044188376759218544 0.3699197738923614
-0.059051936184755335 -0.34391184095560035 -0.03885410726070404 0.18098285174268444 -0.09294275939464569 0.25691128315977907 0.11951982430839089 0.018905063145328572
-0.01482397055387761 -0.3262884793295983 0.21289122911572825 -0.46657141063038193 0.11214537122233506 0.06063036321012501 0.19076385784024438 0.48970632589110985
-0.16080044209957123 -0.01094694435596466 -0.2333820751480689 -0.09627043688860355 -0.9809307308151068 -0.1642520491437796 -0.1451520323753357 -0.08335870395565119
-0.48680371152374435 -0.1659044325351715 -0.015491083264350891 0.10569815262814429 0.12402845919132233 -0.019046309785056077 0.09085478359964157 -0.10260651132017627
-0.1848666194723091 0.13919229805469513 -0.202008888201482 -0.06093460124752931 -0.09661989191170871 -0.16544217854974577 -0.11272430419921875 0.07918083499148988
0.11560536921024323 -0.054770153402355595 -0.2292078493146224 0.0020116099192912626 -0.049288912011409926 -0.014300961959937231 0.04752730227599187 -0.016978655877793087
-0.09326981535565942 0.009022779116495423 -0.14548007023368476 -0.04510572727494119 -0.14754623174667358 -0.165688157081604 -0.16576404585313886 -0.005206644149887306
-0.02439162886399789 -0.09944464165939579 -0.0376899391412735 -0.006310069495129085 -0.08134596542544763 -0.057403966784477234 0.09219075739383698 -0.042823441511819
-0.12426780164241791 0.14370939634308713 -0.08815580868268671 -0.1332934945821762 -0.07210347891727453 0.055004894733428955 -0.04214096746730375 -0.0011776471169166133
-0.035934000709410295 -0.08900182052674163 -0.06652872264385223 0.04568108900196147 -0.02105611562728882 -0.13943680488531734 0.032529160380363464 -0.06735135452864396
0.02742914855480194 -0.005676963035783542 -0.17263466780658876 -0.04718699911734627 -0.1138290986418724 -0.10551774501800537 0.1169431060552597 -0.06359648704528809
0.12158627808094025 -0.037521183490753174 -0.009343892970040629 0.07740245759487152 0.07962024449019124 0.10735566914081573 -0.13172942399978638 -0.07953086813839737
0.016942091067464936 -0.08883976936340332 0.09163354337215424 -0.1386623192704739 0.14137406647205353 -0.02548905735489778 -0.006220837989611714 0.1510071105933313

bias f8 [72]
00000000: 2208 ce92 25c5 d0bf 06c7 233c ae5f e2bf
00000010: 8533 d405 fb78 f03f a040 8738 7785 d8bf
00000020: 4693 eae7 a23d dabf 270b 839a 3709 bfbf
00000030: 4245 62d5 3e7f c1bf 27c9 1e41 c018 d93f
00000040: ec77 b08d 55ad e2bf ca64 2143 0b1f b7bf
00000050: dfcd 153b 5777 dbbf d0ab 5655 ad73 debf
00000060: a14a 4ecd 0a33 ccbf 0a22 fd3b ac5d e6bf
00000070: 8a77 c583 0606 c73f c18f c00f ea95 c0bf
00000080: 74e2 a0fc f069 c6bf 7b02 007d eb98 e1bf
00000090: a95f 6de8 c528 d53f c93f dadc 9771 99bf
000000a0: 56e7 cc2c 4b18 d53f 841d 6097 08eb b5bf
000000b0: 0dd7 3c37 78c7 d03f 5bd0 f40b a14d debf
000000c0: 99e6 8220 e4a2 b03f 27ed 29bd f96c 9dbf
000000d0: 6bf8 1445 6e92 b23f a2cb 8770 e44f afbf
000000e0: e105 3ae8 a78e bdbf ff67 f9c0 8f55 d73f
000000f0: 7168 909b 50a6 bdbf 0a6a fc2c 4fcc c4bf
00000100: 12f1 695c 5e11 d23f cfec ba18 f04d d3bf
00000110: 16de 45e4 1404 e3bf 4fcd 8527 7872 a23f
00000120: 12ea ccbe 70d7 a1bf 9147 ea98 e130 983f
00000130: c79b aac5 6461 b1bf eb8b 2c1f b967 9a3f
00000140: 4710 971a ea8e bb3f 3eac 6b99 1c0c e03f
00000150: 3b76 2632 eeb4 85bf 0768 4288 119f a9bf
00000160: e99c 8018 4c14 c6bf f730 c137 9fa5 d53f
00000170: 737b 8827 d9e4 d2bf 01f5 7cad e8e9 acbf
00000180: 1c88 489f a840 a93f 3b51 ad56 9a52 d53f
00000190: 7af1 f06e 2cd9 cebf b7cc 7d2e 1f86 debf
000001a0: 7c92 0ddf 88f3 c9bf ef36 5423 8340 db3f
000001b0: b342 2398 1a02 b6bf 2daa acac d7e2 d93f
000001c0: d675 2cd3 dbd7 bcbf 639a ba91 79a5 d3bf
000001d0: 061a b3f1 f0ac c2bf ff39 e208 626c 9bbf
000001e0: 753d 83e5 202e b43f 575b 872b 5b5f dabf
000001f0: b0cb e041 d225 dabf ae73 1eb1 1d07 e23f
00000200: 8170 c047 4a8d c13f 018a c486 4d9f dfbf
00000210: 0dbd a0a3 a4e8 c6bf df3f ccb6 1258 bebf
00000220: d3df b64f 6864 e63f 387a e357 1888 b7bf
00000230: 3b86 252a d9b8 c1bf 0a21 ac8d 2592 643f
-0.26203288399131186 -0.5741797613720514 1.029536268967804 -0.3831461002382728 -0.4100119843299591 -0.1212343933321277 -0.1366957227624344 0.39213568076515276
-0.5836589591378902 -0.09031744374205455 -0.4291589810374869 -0.4758103688606612 -0.22030768418024585 -0.6989346667915595 0.17987138208530623 -0.1295750214495666
-0.17510807357190894 -0.5499169770628919 0.3306135911748194 -0.02484738622166541 0.32960776686706106 -0.08561757751168925 0.2621746577673186 -0.4734881035576614
0.06498552125676794 -0.028736021204605635 0.07254685579843716 -0.061156405197741806 -0.1154580060920334 0.36459726185933045 -0.11581901357604509 -0.16248502441960994
0.282310095069776 -0.3016319505220055 -0.5942482431846112 0.036029581856292674 -0.03484680489642157 0.02362396713085208 -0.06789235902634437 0.02578629734774644
0.1076494517247407 0.5014784809585604 -0.010599003701652445 -0.050041721232631224 -0.1724944228783223 0.3382337612608945 -0.2952177892747649 -0.05647208326124976
0.04932143158318089 0.33316667999794775 -0.2410026113228801 -0.4769361452119471 -0.20274458781490867 0.4258125157365233 -0.08596960272121627 0.40447036612264037
-0.11266874223334553 -0.30697478514995263 -0.14590274621714644 -0.026780635635583746 0.07882886508308735 -0.4120700764737441 -0.4085584300366305 0.5633686503748458
0.1371243334150485 -0.4940980735865708 -0.17897470464365775 -0.11853138888204694 0.6997567707940057 -0.09192039628713011 -0.13845362241686296 0.0025110944237704035

weight f8 [120, 72]
00000000: 0000 00c0 6dce a9bf e952 a55d 8bf8 833f
00000010: 5c9f 5181 55cb b13f 649f 3f5c f869 a0bf
00000020: 79f8 1e37 1eeb babf cbf3 6e23 7d8e b03f
00000030: 0000 00e0 0cdb b23f d582 cace aca9 8f3f
00000040: 9f97 ef9c 59c4 80bf 7050 0947 8b04 bb3f
00000050: 1f82 a7ff 3cff b03f f329 66a9 406f b3bf
00000060: 0000 0080 f48e 933f b129 1acf 11e6 b9bf
00000070: 40a6 a60d af9d b0bf c9c6 bffd 138f b43f
00000080: d151 5b36 558e b93f 06cf 7da3 8a78 babf
00000090: 91c4 77e2 d625 b03f 0000 0080 06c2 933f
000000a0: a6dd 275a acde 793f f117 21cd 46ed b0bf
000000b0: ce6b a493 b1e4 b6bf cfce 6ead 2538 a2bf
000000c0: 4d1a 6474 ecc6 b53f 0000 00e0 bf4d bbbf
000000d0: 0000 0000 8dbd a4bf 0000 00e0 2719 bc3f
000000e0: 0000 00a0 de36 b03f da45 5b03 4569 9abf
000000f0: d886 1d9d 7830 abbf da08 4ef9 afdf a6bf
00000100: c88c 5fbd d386 96bf 7a9a d04f 5d9a a1bf
00000110: d724 7298 fac3 8cbf a662 3e28 81a9 bdbf
00000120: 0000 0080 eccd 913f dcc7 f9ab 67a6 9b3f
00000130: 2941 4e02 cfce b23f d161 458e 7e3c aebf
00000140: 0000 00a0 7729 ba3f 01ee 8f09 6c6b b73f
00000150: 0000 0080 0c40 903f 0000 0080 1c62 923f
00000160: d11c b487 d5a4 b3bf 1342 1fb4 094f b2bf
00000170: ff0e 5441 2d79 b8bf 034a 3ef3 3fe8 98bf
00000180: d0b9 6c10 cd5b 6bbf e24e 97eb 4297 bdbf
00000190: 0000 0060 a033 b5bf cf40 af8f 1fc0 903f
000001a0: 0000 0080 df80 9c3f 2b53 3602 061b b0bf
000001b0: 8f68 0cbe 0653 bd3f 588d be6b 8a46 b3bf
000001c0: 548e 6ec2 2c69 9cbf 0000 0020 63ec babf
000001d0: 0000 0060 ed22 b83f d868 b835 5eab 853f
000001e0: 0000 0000 f4c5 73bf 339d 59a7 d0df b2bf
000001f0: 833f 96ad 86f3 b53f f069 1c48 d76a abbf
00000200: 13a0 c377 4de4 943f 48d3 074b f62c b9bf
00000210: 7a78 fb40 e4a9 b23f ae90 3e1c 8e0c aebf
00000220: cfe9 4cc4 2180 943f 3767 d372 31c5 b73f
00000230: e6ef 5d68 04e7 bfbf f007 c92c fd48 bebf
00000240: f718 8d82 03b9 b4bf 8aad 61aa 18d6 a3bf
00000250: 4087 eb0c 9302 c2bf 15cc ed27 d9fd a43f
00000260: c7e1 7d1e 84e2 b4bf 8821 8efe 7e45 b93f
00000270: cd95 af55 8344 b73f 3253 c89e 80b4 bbbf
00000280: ab61 d1a5 c1f3 b3bf a40f a480 86bd 4bbf
00000290: f7a7 8569 09b6 753f 607c 2944 abb7 81bf
000002a0: 0000 00a0 e355 b03f 3518 7fcf bc4c c5bf
000002b0: 7113 e300 b118 b9bf 5439 2a98 370c 62bf
000002c0: f6e9 4505 1acf ab3f 8f69 b178 779c a03f
000002d0: 513c 170c 3390 b2bf 6a6f bb79 63cd 89bf
000002e0: 14a6 6179 067a b43f c7ba e07d d454 b6bf
000002f0: 6aa9 c151 2006 d0bf 1785 b975 aef6 323f
00000300: 023f 2b14 5350 7e3f 0000 0000 d4c1 7abf
00000310: 0000 00c0 86f4 b4bf 8472 5b10 692a c53f
00000320: 0000 0080 4c8b 9c3f b3b3 b77c 986f ae3f
00000330: 2fea 31fe 5c6e b5bf f73f 6626 4f8f a8bf
00000340: 752e f029 f065 b93f cf8d e974 786e c7bf
00000350: 9721 4a49 0a69 8d3f ddab d568 e5ee bf3f
00000360: 0000 00c0 368b aa3f 2c6d 3a90 0189 c0bf
00000370: 3a16 c2b2 65dc b23f 3a0b a969 493e aabf
00000380: 0000 0000 616a 87bf 7e3f efd7 d337 b2bf
00000390: 0000 00c0 496a a0bf 0000 0000 177e 803f
000003a0: 426c 8688 29c7 ab3f 3544 6916 3132 aa3f
000003b0: ba16 c55f da33 ad3f d380 3a5b d8a5 973f
000003c0: 39fb 2855 cf0b 9d3f 0f52 5e22 ed89 bf3f
000003d0: 0000 0080 357b a7bf 5b6a e53a 288f a13f
000003e0: 0000 00c0 b37a a53f 4a7c 4a87 c945 be3f
000003f0: c04b 3fac 9535 b7bf c0c0 7dda fe70 b63f
00000400: 3f8c 80dd 5a52 b3bf f2db bab7 1e25 533f
00000410: e8cf 0c98 a657 aa3f 22cd e208 bd58 ba3f
00000420: ee32 0b71 1ad1 b93f cab1 7f3f 7b49 b13f
00000430: b9ce 5d98 e7a3 83bf 54aa 7278 8730 8e3f
00000440: 136c 5796 1af0 b2bf 1cf1 1f4f c050 babf
00000450: e256 c7d7 e279 b7bf 32b9 dfe5 a113 b53f
00000460: 7a28 d6ff 0fc0 bebf 9b69 7447 1931 bd3f
00000470: 8c49 bdbd d643 9d3f abcb de54 646c a9bf
00000480: d061 930b e864 ab3f ca32 1915 03f5 c7bf
00000490: feb2 d532 08e4 b7bf 5ac4 2358 0844 bb3f
000004a0: 6d03 208d 85e4 bdbf 5ca8 9873 f443 a1bf
000004b0: 0000 0080 2c25 9e3f bfb9 597c fdf9 e3bf
000004c0: d03d dbf6 a3f7 da3f e3b7 a50e 5234 d0bf
000004d0: 3ff8 5883 5371 a83f 0b3c e30c d013 d03f
000004e0: 0000 0040 75cf b5bf f230 27b7 73cf c7bf
000004f0: e2b4 5e34 39db b1bf 9d1c 5693 86a2 a9bf
00000500: 7940 7b1f 7cdf adbf 0c67 face d926 d6bf
00000510: 7e32 f8e0 e49e d3bf 0000 0040 92b5 a53f
00000520: d91b 24c3 2b6c d1bf 1f2c ba73 9ae8 bdbf
00000530: c974 a38a cf92 b0bf 5a6e 8195 0974 a53f
00000540: 42d0 d7c5 0208 c5bf 0000 0020 1b16 b9bf
00000550: 0000 0000 e43f 82bf 0000 00a0 5e20 b83f
00000560: 0000 00a0 7072 b93f 0cf2 cf7e 3b97 d6bf
00000570: 1908 e470 256b bbbf c3a2 7f60 6364 e73f
00000580: 1e9c 29e3 0ac6 bcbf cf66 5f9b 6f49 cb3f
00000590: 6fa0 5b03 a2b7 be3f 9d1e 6736 a4e9 c6bf
000005a0: 0000 0000 5f99 8a3f d4d7 d127 28af 973f
000005b0: f1f0 dce5 f405 9bbf 6584 b650 c586 d5bf
000005c0: e018 fa6c ced5 e3bf 9eab b31f 5d57 a33f
000005d0: 0000 00c0 184b b5bf f7f9 d1bb 9876 aabf
000005e0: 0000 0080 c947 9d3f 8861 e85e 68d8 b7bf
000005f0: f37d 5496 d0aa 803f c6f9 b904 1052 b03f
00000600: 0000 0080 fcac 9f3f 804d 6db2 15f7 d2bf
00000610: 0000 0040 2e0f ae3f 4559 c122 0907 c9bf
00000620: 0000 0040 755a abbf b5dd 0a2b 2fdf c5bf
00000630: 1be4 a77c 4962 b83f 4a7b 5730 db77 c1bf
00000640: 6f0d 0c9d 16d9 aabf 56b5 353f 3e0b c5bf
00000650: 0000 0080 3e64 90bf eae9 983a ea7e b5bf
00000660: 6128 1757 7901 c3bf 6ae0 2cd5 deac c93f
00000670: 3491 9b28 f1f4 d0bf 886b ae09 cd85 cebf
00000680: 9523 4ed8 d357 d0bf 7eba 352a 96c2 e0bf
00000690: d830 8e7f 7185 bc3f 9f46 7a8e 4123 d1bf
000006a0: 9e9a 27c4 ffe0 dfbf ee78 23e5 51db da3f
000006b0: 00e1 7449 2084 b6bf ad5d a426 ea83 babf
000006c0: e4df aa40 a8f8 86bf 2f4b 2747 af62 993f
000006d0: 496a 9e69 ef57 b7bf 928a fe86 2cf7 b83f
000006e0: 6bc8 ca1c 9420 a9bf 17b5 349b f764 b43f
000006f0: 1b46 2ed3 9283 b1bf 92b7 6b59 f018 b1bf
00000700: 61c5 a09b 968c bebf 931b ec1e 3cdd 933f
00000710: 25ca e8ce e615 a4bf 0c7f 7267 977e ad3f
00000720: 0000 0040 62d4 ad3f 15ca 2957 549b b5bf
00000730: 5c4a a84a 17b9 adbf 5994 9df7 f885 9abf
00000740: fb9f 81dc 7b8d a3bf cb16 6489 e2b8 72bf
00000750: 0372 e53e bee8 bdbf 0000 0060 b848 b73f
00000760: 9ef6 bf4c 5ee6 b6bf 483c a9f1 07cb 753f
00000770: ea38 61fe bb0a b3bf 17af 99c8 b39c b7bf
00000780: 8767 06e6 492c 763f 0000 0080 0529 b3bf
00000790: 0000 0000 2f9a a3bf 0000 0040 42e7 b7bf
000007a0: 0000 0000 d624 aabf fecb fdae 1bc6 82bf
000007b0: 2563 359b 7dea b23f 1817 29c4 6304 87bf
000007c0: abc4 efab 79fd a73f 0fc4 6774 fd4c c2bf
000007d0: 273b f23d b0eb b6bf 8426 8345 3048 613f
000007e0: 0000 0040 3fc9 a13f 142a 9ea0 f8ef b4bf
000007f0: fd3b 82f1 862a 54bf 95fc 07a3 5409 93bf
-0.05040305107831955 0.009751404567091853 0.06950888068388167 -0.032058488140875224 -0.10515011640288376 0.064674206877455 0.07365494221448898 0.0154603481872199
-0.008187008001140415 0.1055380867413207 0.06639462701378605 -0.0759163297244994 0.019100017845630646 -0.1011668329830744 -0.06490606387401332 0.08030819840476079
0.09982807709759035 -0.10340181819429625 0.06307738331794811 0.01929483562707901 0.006315873385112003 -0.06612055309332711 -0.08942708830401999 -0.035584618969918595
0.08506658402993957 -0.10665511339902878 -0.040508657693862915 0.10975884646177292 0.06333724409341812 -0.02579219658838903 -0.053104180506819254 -0.04467534940978775
-0.021998699601579103 -0.034380832665466834 -0.014045675065306558 -0.11586768372070341 0.01738709956407547 0.02700197207600029 0.07346814924517688 -0.05905528532702287
0.10219524055719376 0.09148287995770234 0.015869326889514923 0.017952390015125275 -0.07673391879153547 -0.07151852271568541 -0.09559901089602006 -0.024323462697404718
-0.0033396725806575725 -0.11558931590780788 -0.08281900733709335 0.016357892174540475 0.027835361659526825 -0.06291234544762563 0.11454813136916385 -0.07529511576153902
-0.02774496018140689 -0.10516948252916336 0.09428294748067856 0.010580764784255 -0.004827454686164856 -0.07372764669127178 0.0857471631809386 -0.053549506714450135
0.020402155337166116 -0.0983423169307801 0.07290484034044367 -0.0586895379522344 0.020020034414509 0.09285267880786995 -0.12461879299183884 -0.11830122321501313
-0.08094808518680795 -0.038742800520448276 -0.14070356493817293 0.040999208568699576 -0.08158136124064362 0.09871667589880506 0.09088917581501406 -0.10822299839521746
-0.07793817804611673 -0.0008465677977089647 0.005300556913747193 -0.008651102082863626 0.0638105645775795 -0.16640434390700568 -0.09803301116614961 -0.002203091223527279
0.054314435142220605 0.032443746073755546 -0.07251280827698393 -0.01259877887007806 0.07998695815481255 -0.08723190377416322 -0.2503739164736972 0.000289361565341721
0.0074008221879038345 -0.00653250515460968 -0.08185617625713348 0.16535676287357515 0.027875132858753204 0.05944515726500956 -0.08371525960857505 -0.04796836227171746
0.09921170257455876 -0.18305879315003756 0.014360504495258648 0.12473901566924846 0.051843367516994476 -0.12918109457391702 0.07367549528324782 -0.05125646033095284
-0.011433370411396027 -0.0711643602546683 -0.03206091374158859 0.008052997291088104 0.054253862300548863 0.05116418264936621 0.05703623217645544 0.02309358650984523
0.028365363667258257 0.12319833840440018 -0.04586188495159149 0.03429532736727899 0.04195176810026169 0.11825236847879342 -0.09066138701682203 0.08766167482622489
-0.07547538669364061 0.0011685180642595464 0.05144997221069031 0.10291654078428228 0.10084691295487477 0.06752748775733788 -0.009589967095713236 0.01474099956825118
-0.0739761940998707 -0.10279466563946865 -0.09170358436616824 0.082330816861689 -0.12011814113626143 0.11403043741703416 0.02857909710957922 -0.0496550897218165
0.053504229939509096 -0.1871646740932163 -0.09332324257929867 0.10650684501503474 -0.11676821418224188 -0.03372157965743902 0.02943868190050125 -0.6242663792343633
0.4213647757250927 -0.25319339208988206 0.04773961046565533 0.25120927103574847 -0.08519680798053741 -0.18601843302747728 -0.0697513344627683 -0.05006809757747386
-0.05834567913336825 -0.3461212655325745 -0.30657312364272815 0.04240090399980545 -0.2722272306131664 -0.1168304951226422 -0.06474015364388487 0.041900920391267873
-0.16430697117141518 -0.09799356013536453 -0.008910924196243286 0.09424392133951187 0.09940246492624283 -0.3529804933930627 -0.10710367208596984 0.731004417871269
-0.11239688917122279 0.21317858778529916 0.11998951513271704 -0.17900517135989427 0.01298784464597702 0.023129107885743697 -0.02638991024944998 -0.33635075456738256
-0.6198494080024624 0.03777590763078041 -0.08317713439464569 -0.051686070372841834 0.028594158589839935 -0.09314586941798642 0.00813830336352248 0.06375217547790787
0.030933327972888947 -0.29633085655697045 0.05870956927537918 -0.19552721211466398 -0.05342451483011246 -0.17087354280168446 0.09524974149088943 -0.1364702211421565
-0.05243750254706014 -0.16440561376968316 -0.016007401049137115 -0.083967818552004 -0.1484824824568163 0.20058808716726456 -0.26495007482141664 -0.2384582803032027
-0.25536056636388454 -0.5237532448207529 0.11141118396898564 -0.2677768603690342 -0.49810785442097394 0.4196362245255746 -0.08795358460782055 -0.10357535785111933
-0.011216463540549122 0.024790514676918448 -0.09118553474983417 0.09752157493361782 -0.04907667972055737 0.07966563739019637 -0.06841390281467634 -0.06678678687214148
-0.11933270740043646 0.01939863146528926 -0.03922959590672218 0.05760644090446307 0.05826098471879959 -0.08440138938912185 -0.058052757132959626 -0.02590168963742587
-0.03818881098487733 -0.004570851239127992 -0.11683262858918657 0.09095337241888046 -0.08945264219070245 0.005320578604894051 -0.07438254318660467 -0.09223483703106826
0.0054133307134182134 -0.07484468817710876 -0.03828570246696472 -0.09337247908115387 -0.05106228590011597 -0.009166923787892852 0.07389054335852714 -0.011238841461032531
0.04685573791346916 -0.14297455009321466 -0.0895338202701451 0.0021096175006263835 0.03473851829767227 -0.08178666993459444 -0.0012308423811508977 -0.01859028096259559

bias f8 [120]
00000000: 3b0b 0176 7ed7 bebf 4041 c687 9e4c babf
00000010: c5b3 c08e d503 b0bf 3596 7141 1559 afbf
00000020: 3d65 ceb0 9cbe a0bf 87d4 1e75 23eb bbbf
00000030: 906e 56b7 ef5a c3bf e4ba dc90 b126 66bf
00000040: 65ae 8569 8578 b6bf 2f28 ca10 dbc1 d23f
00000050: 1245 3968 186a c3bf d0a4 70fc f5c3 c93f
00000060: 7319 2b3d 85b5 92bf 9ac9 1614 70c5 bcbf
00000070: 6bbe d820 0ecf 9dbf 289e 81fa 69a2 eabf
00000080: d6db 6a0c 42eb d5bf 4f25 4203 48e5 c73f
00000090: 76b6 bb94 7556 d6bf 727d 0782 b0ef 74bf
000000a0: 4d68 b3fb 0483 c2bf 31c9 230a 48d6 bdbf
000000b0: a529 9fcd b684 873f 0fc7 dc77 e083 bb3f
000000c0: d7d4 4875 7b30 9bbf 96ca aa97 f6ed cc3f
000000d0: ce85 e336 ed05 c2bf 9ca2 cc06 87db 9e3f
000000e0: 2144 6532 5bb7 b6bf 00fa 0fd4 b05d c0bf
000000f0: 219c be6f 0ca8 acbf 6f3d 635b cfa0 e13f
00000100: 4509 93f9 d27f a03f a63e ffb2 0375 c4bf
00000110: d084 ed85 3b08 b9bf 84ea 0235 8845 d03f
00000120: 1969 0685 7dab c0bf b14c 68d4 aa29 b7bf
00000130: e58d 5fd3 b0df b4bf 5adb 4e5b 679c c5bf
00000140: ba68 f519 d7bc b6bf f242 0d2f 2e12 ad3f
00000150: cfa8 5a3a 6dbb e83f 88b7 427b 913c c6bf
00000160: 72ab d7de 0722 b1bf 3235 6f64 4e77 dcbf
00000170: 1624 c57e 99b5 bcbf b754 7df2 ddaf a5bf
00000180: 429d 4599 d422 55bf c90b ac96 1d69 d0bf
00000190: 3ee4 5cc3 753d 97bf 45f3 6692 f530 d73f
000001a0: c0cc 79f1 2316 dabf 635a 1a5f a4ce b13f
000001b0: b7e7 d9e1 7df5 95bf aad1 fe91 ce7c babf
000001c0: 9dd6 fa98 0197 a3bf 4671 27a0 1223 b9bf
000001d0: 2313 73f7 f6f6 c5bf ad82 bfff 3ef6 a23f
000001e0: 3574 ca5a 604f bbbf 5a71 8e76 e6c3 c03f
000001f0: d81b c960 7a0a c3bf e4fd e444 8e85 ca3f
00000200: 9a20 7d08 7bf9 91bf 6e1f 7545 7a20 b6bf
00000210: c2d7 4d8d ad1e 603f 8fa0 cbe2 7b5d cc3f
00000220: f574 2d2b a11f a2bf a4e0 bd77 e70c a7bf
00000230: 6ee7 083f 52f9 c4bf 1f2e 968c 929d 91bf
00000240: 547f 7a14 68b9 bdbf 988d 0bd9 edc0 74bf
00000250: 0c19 a8e7 a5eb adbf 2a22 8fb1 7c57 bf3f
00000260: 9814 1470 78e4 c6bf 35cd 295c 4337 d13f
00000270: 7132 767e a6db a4bf d5fb e715 b0ac c1bf
00000280: eb12 8a63 6336 afbf 832b 7a5d c187 c0bf
00000290: 61fe d3f7 c0e7 c8bf f33b 1014 04e8 d03f
000002a0: c6a2 dc47 b76a 9dbf ca87 6636 ed8f c1bf
000002b0: e16d d9b7 46d4 a6bf 5803 d94a be43 b4bf
000002c0: c6c7 7d1a df0f abbf ce3f eda6 777c b9bf
000002d0: 5c8b 142f 3840 a6bf b777 e5a5 c079 c1bf
000002e0: 3504 33a0 b7c3 d93f 65a8 573f c045 c7bf
000002f0: 6b81 3d3f d050 c23f 26ac 34e8 4c2b ce3f
00000300: 9f08 8b8a 40f8 a93f c246 24fc 1c12 b33f
00000310: 08bc 85a2 effa b4bf 0758 f912 df75 a03f
00000320: d8ba f6c6 4ca3 bbbf 431a 36d4 672b 77bf
00000330: ca64 adea 9a28 c03f c83a 5baf 2f99 e1bf
00000340: bc7c 0025 e655 a13f fdf4 68fe aa08 7b3f
00000350: 3dc4 4e43 299f 993f c78c 21ba 3568 c1bf
00000360: 4f81 ef0c 7fe1 a8bf 06dd a939 e415 c0bf
00000370: 1bbd 0cdf 971a c7bf a6cb 5fe6 8e7d b1bf
00000380: 27c0 671d 7f22 c3bf d923 8a9a 5b27 ccbf
00000390: e4a8 c856 797a da3f 7827 737c aec5 c3bf
000003a0: eaa1 2108 09de cabf fced 1d3f fd6c d53f
000003b0: 99e7 f8c2 6558 aabf caec 3dd7 cc3f bebf
-0.12047567730864454 -0.10273161711507317 -0.06255850539373771 -0.06122652458070058 -0.03270425470618441 -0.10905667886147984 -0.1512126584246869 -0.002703997429214554
-0.08777650667405508 0.2930820144616772 -0.15167527283714627 0.20129275156185722 -0.018270570619983894 -0.11238766184286533 -0.029110165362168077 -0.8323259251309922
-0.3424840089095914 0.1866846099767749 -0.3490270569298909 -0.005111398204888361 -0.14462339677885652 -0.11655092475465235 0.011483600759579835 0.10748103071525981
-0.026552132638433115 0.22601206212637653 -0.14080586605181938 0.030134305753707666 -0.08873529415474525 -0.12785921434984004 -0.05596960891789871 0.5508801255145225
0.03222522064744963 -0.15982099762049023 -0.09778186816903944 0.2542439000787129 -0.13023346896518076 -0.09047954259613068 -0.08153824959258989 -0.16883556326294064
-0.08881897338634107 0.056779330485943094 0.7728792323807968 -0.17372339743218057 -0.06692551794519178 -0.444781873779749 -0.1121459898469229 -0.042357383585718215
-0.0012900425109253076 -0.25641574586932997 -0.02269538884067778 0.3623632363995067 -0.40760134297961415 0.06955935785149729 -0.021444289121496953 -0.10346690239277359
-0.03826146118573812 -0.09819141778956916 -0.1715992649316372 0.037034958571671474 -0.10667993752072465 0.1309784010781055 -0.1487572643838735 0.20720079769124233
-0.01755325545607942 -0.08643306918849955 0.00196775338047936 0.22160290311808636 -0.035397564430903396 -0.045020326010616146 -0.1638586814677256 -0.01720265372345697
-0.11611032962764273 -0.005066804020973058 -0.05843847706641911 0.12242869696559269 -0.1788473651178364 0.26899799347229997 -0.04073829930994045 -0.1380825144733239
-0.06096182432250948 -0.1291429239684839 -0.19457256413442095 0.2641611286098275 -0.02872740150556543 -0.1372047916057098 -0.04458828920607139 -0.07915868117653468
-0.05285546491985786 -0.09955547166214204 -0.043458705660916336 -0.13652809238823035 0.40257063526593423 -0.18181613057032844 0.1430912312307656 0.23569642389461015
0.05072213832092242 0.0744951358394941 -0.0819539806159214 0.03214928728691296 -0.10796050889505737 -0.005656629163587615 0.12623917063573337 -0.5499494957856195
0.0338584823768939 0.00660006327103457 0.025021214230666045 -0.13599273289137256 -0.048595400170372664 -0.12566807571031563 -0.18049906149961079 -0.06832211613054415
-0.14949025092892151 -0.21995110555533762 0.41372521853430855 -0.15447026325847069 -0.20990097901382337 0.33477717555771824 -0.051455669451072335 -0.11816101317338049
