Sphere/NeuralNetworks/models/net4_log.pt (torch_old, 208980 bytes, 16 tensors)

weight f8 [36, 6]
00000000: 91eb f78e 4e22 e73f d9ce b59f afcd d43f
00000010: 239e 35f6 df18 cfbf 64e1 d349 ba9a b8bf
00000020: ad42 9957 e63b 91bf 7802 0a1f be6a aabf
00000030: 0000 0080 2a90 d73f 0000 0000 6847 d33f
00000040: 0000 0040 dc3d d93f 0000 0000 1622 c73f
00000050: 0000 0000 da06 cc3f 0000 0000 c040 993f
00000060: 0000 0000 984f c83f 0000 00c0 e845 d0bf
00000070: 0000 0000 011d c03f 0000 0000 7ca5 a53f
00000080: 0000 00c0 563e d63f 0000 0000 fefa c43f
00000090: 0000 0080 ac23 b0bf 0000 0000 97a8 c2bf
000000a0: 0000 0080 9249 cd3f 0000 0000 00c0 863f
000000b0: 0000 0080 2909 d13f 0000 0000 cfaa b73f
000000c0: d823 27ad 7890 d93f 0ffe 6930 3b6a d23f
000000d0: 2f6b f000 6445 c33f 2e0d 91ba 9c7b d83f
000000e0: 6a6b 0394 c270 b8bf d4bb 1a81 8052 bfbf
000000f0: a2da d59c 42c6 bdbf c74f cbe6 de67 c73f
00000100: 39d1 d9eb 2bea c53f a82a 616f 6bdd c23f
00000110: adac 1bc0 4c5a d1bf c6b2 14df 659a d43f
00000120: 3e31 1ffb d268 df3f 7f68 8640 661d b83f
00000130: fb06 a5b1 5445 d0bf 3da0 d02c a651 9e3f
00000140: cfae bd54 9ce9 a3bf 20e6 b3dc 9382 cf3f
00000150: 0000 0000 f02a b3bf 0000 0000 7ed2 d63f
00000160: 0000 00c0 6ed6 d43f 0000 0040 c096 c6bf
00000170: 0000 0040 945b d23f 0000 0080 8396 d63f
00000180: 80af 6707 ab3f d23f 78c5 cc37 4343 d23f
00000190: 64c5 e06f 2d60 b3bf c811 d014 b47c c43f
000001a0: 5c5e d044 bc11 bbbf 8ea2 59de 55e5 c03f
000001b0: 0000 0000 4ca0 883f 0000 0000 ca27 d83f
000001c0: 0000 0000 7634 be3f 0000 0000 4680 cc3f
000001d0: 0000 0000 d93c c33f 0000 0080 58a1 c03f
000001e0: 5f6e 09f0 e317 a33f 72f3 12af 4163 f33f
000001f0: 2ee7 5405 ea6a e53f c411 ff48 a9dc 86bf
00000200: 2065 4b94 7d2d 833f 80de 3c96 d755 80bf
00000210: b68b 299a 827c ba3f 7f96 32af f11b a4bf
00000220: e2a4 7136 6188 babf 0b9f d309 61c8 dd3f
00000230: 2e09 9055 166e a1bf 893b ef2c 79ef b33f
00000240: 2171 ffdb 6191 b7bf e05f 4e80 84e3 cd3f
00000250: 2453 5b77 3c3c a9bf dd93 16a2 d29d b3bf
00000260: d245 6f85 b4ab 693f c89e 6ed6 1682 be3f
00000270: 3343 7330 7dfd d43f e891 d343 aa19 be3f
00000280: 5f7f 6c94 bb48 c0bf 5955 0f0c 00dc d0bf
00000290: bace 2a3b 9119 c0bf 9318 74f8 ef4a da3f
000002a0: 0000 0040 f46a d53f 0000 0080 30cb d33f
000002b0: 0000 0080 2212 cfbf 0000 0040 3340 ccbf
000002c0: 0000 0000 6c35 d83f 0000 00c0 2b2f d33f
000002d0: 9130 9f18 8cbc cbbf abf7 d40f b23a b63f
000002e0: 6e4c 0d77 d580 b03f 0774 714b f959 c83f
000002f0: dded efb1 f199 d13f aa9d d980 451c b2bf
00000300: 0000 0000 f75d a5bf 0000 0000 62d3 bf3f
00000310: 0000 0000 6bb7 bf3f 0000 0040 b9bd d33f
00000320: 0000 00c0 f0cf d93f 0000 0000 46e1 bbbf
00000330: b6aa a7fb b632 e83f 35ea bb34 7ec6 cc3f
00000340: 4030 7f53 f277 d73f eacb 0fb5 33bd c8bf
00000350: 238a 6e20 cb48 b7bf a60b 29fd e5a3 cb3f
00000360: 1cd1 e580 755f b13f 5dfd a7d5 a7c0 d33f
00000370: b065 b813 dd54 ce3f c6e7 18bc 0c16 cb3f
00000380: 90e2 bee7 6cb1 ccbf 604c 1907 f78e c33f
00000390: 0000 0080 539b b23f 0000 0040 8585 cbbf
000003a0: 0000 0080 5c3e bebf 0000 0080 22ad c93f
000003b0: 0000 0080 7358 cc3f 0000 00c0 bee3 d33f
000003c0: 4582 cd49 b7fa e33f a937 ecfd 8b8c d23f
000003d0: dd95 2c5a 6baf d53f 4bc4 c3d6 dcf1 8fbf
000003e0: f1e6 c61a a262 c53f 45cf fe39 f20a c4bf
000003f0: 0d1b 3011 363c cd3f 3913 b12d 5707 c4bf
00000400: ebb1 9842 30ea d7bf 22e6 8669 75b3 d5bf
00000410: 4c18 eac1 8cda d9bf da97 890b 6a93 c2bf
00000420: 6338 4b73 d8d0 c93f f5d9 5331 9dff cebf
00000430: e350 288c 4021 adbf a930 6062 3999 d13f
00000440: f0c0 a8dc f8f1 d63f 9cc8 b4a1 060b bfbf
00000450: 0000 0080 39dc ce3f 0000 0040 3cb5 c5bf
00000460: 0000 00e0 f0a6 d6bf 0000 0000 ca13 bf3f
00000470: 0000 00c0 5434 d63f 0000 0080 c8d6 c63f
00000480: 0000 0080 c0ab c83f 0000 00e0 83be d7bf
00000490: 0000 0000 605b 643f 0000 0080 cb02 c13f
000004a0: 0000 00c0 20fb d53f 0000 0080 7fc8 c43f
000004b0: e585 7adf 4e63 c8bf 0230 8fb6 37a1 a73f
000004c0: 65f4 2065 4966 e73f 52d6 eb86 0f60 d63f
000004d0: 7ee4 9bd2 b8a6 ce3f 66aa 923d 4e9c d1bf
000004e0: db23 8ea1 924e d13f e4eb 5dd4 b59f c53f
000004f0: 8ade af7c 3b7d a4bf e72a bf22 4116 b5bf
00000500: 684f 9e07 2e29 bcbf 0e59 b461 719c acbf
00000510: 61eb 76c3 43bb e13f bf3d 96ee 758e 8fbf
00000520: b3c5 ea43 daab ac3f ed72 597a 7dc1 b4bf
00000530: 6d46 3d10 06a0 b43f e596 c9d5 84d7 9e3f
00000540: a64f e8f3 f8f6 b13f 1c14 3741 8f16 89bf
00000550: f584 18bf b073 c1bf 5972 0b69 6e5d d2bf
00000560: a32d 7bea c15a c33f f3ac da75 f846 d23f
00000570: e1e4 7a20 0c4f d9bf 5efc a341 55c1 d1bf
00000580: c3ef 627e 8616 c5bf 7e38 1bc4 4970 be3f
00000590: 973f 0ca3 ffe5 ca3f 6e80 da21 bf5e ce3f
000005a0: a690 b91a a883 cfbf d549 258c c1b2 d13f
000005b0: bd13 e964 25e5 d3bf f4cf 9749 8101 cf3f
000005c0: a880 ca71 e630 ca3f 17c7 27ee fa1e a93f
000005d0: 0000 00c0 7126 d73f 0000 0040 4198 d83f
000005e0: 0000 00c0 f76d d13f 0000 0000 e0d5 b43f
000005f0: 0000 0000 2d23 d1bf 0000 0040 cf38 d63f
00000600: 1b39 bd1a a3ca ce3f c033 41c2 6a28 d4bf
00000610: 96d7 4aa6 7055 a0bf 8cfd ec25 5170 a63f
00000620: dbb8 519b 8b51 ce3f 3c05 a10d b706 b9bf
00000630: 0000 0000 c0c6 443f 0000 0000 d93e d63f
00000640: 0000 0080 425e d53f 0000 0080 7a5f c0bf
00000650: 0000 0000 9e13 c03f 0000 0080 a0ff cd3f
00000660: 27f5 97b8 2881 abbf 260c 62ed c317 a83f
00000670: 6753 a2a7 824d d93f d938 2564 0ff2 e03f
00000680: d65b 3355 627a ccbf ef7a 6dc5 ded7 843f
00000690: 0000 0080 a90d ce3f 0000 0080 afd1 c6bf
000006a0: 0000 0000 7b91 bbbf 0000 0040 d4fd d2bf
000006b0: 0000 0040 2100 d03f 0000 0040 9f46 d33f
0.7229378502228078 0.3250540790242958 -0.24294662019677657 -0.09611095716889434 -0.016830062004660352 -0.051595631874993 0.3681741952896118 0.30123329162597656
0.3944006562232971 0.18072772026062012 0.21895909309387207 0.02466106414794922 0.18992900848388672 -0.2542669177055359 0.12588512897491455 0.042278170585632324
0.34755486249923706 0.1639096736907959 -0.06304433941841125 -0.14576995372772217 0.2288077473640442 0.0111083984375 0.2661842107772827 0.0924500823020935
0.39944283399068814 0.28773383834774874 0.15055513425689912 0.38254469127078294 -0.09547058213813178 -0.12235263015712344 -0.1163064606570097 0.18285738248107306
0.17120884910731052 0.1473821920247549 -0.27113646278912534 0.3219237020992235 0.4907729580270547 0.09419859957998432 -0.25423161838635594 0.02960834167984693
-0.038891682953218536 0.2461724116945314 -0.0748739242553711 0.3565974235534668 0.3255879282951355 -0.17647555470466614 0.2868395447731018 0.35293662548065186
0.2851359913172402 0.2853553814812453 -0.07568630200764442 0.16005564705132103 -0.10573937110927417 0.13199876172008768 0.012024492025375366 0.3774285316467285
0.1179879903793335 0.22266459465026855 0.15029442310333252 0.12992388010025024 0.03729164414536678 1.2117325629071414 0.6693010429509962 -0.011163065471813456
0.009364110076989507 -0.00797623088111199 0.10346237434127556 -0.03927569640772521 -0.10364348963925665 0.4653551670039497 -0.03404302401033231 0.07787282321008439
-0.09206210728683974 0.23350578560780288 -0.049287690706171255 -0.0766269345973138 0.00313363321354452 0.11917250380667632 0.3279717419764438 0.11757911830824919
-0.1272196268773724 -0.26342774560665344 -0.12578025235199225 0.41082381499325854 0.33465296030044556 0.3092767000198364 -0.2427409291267395 -0.22070923447608948
0.37826061248779297 0.2997540831565857 -0.2166915054534724 0.08683312307854744 0.06446584850827872 0.19024578269718992 0.27502100350076636 -0.07074388881448238
-0.04173251986503601 0.12431919574737549 0.12389248609542847 0.30845481157302856 0.4033166766166687 -0.10890614986419678 0.7561907687316622 0.2248075253954355
0.36669595865237525 -0.19327398625281883 -0.09095449010650518 0.21593928204864915 0.0678628387157158 0.3086337648855613 0.23696483099847176 0.21161040481984922
-0.22416459384637166 0.15280044409391547 0.07268258929252625 -0.21501222252845764 -0.11813905835151672 0.2005961537361145 0.22144931554794312 0.3107754588127136
0.6243549767933209 0.28982829854146047 0.33883174711294634 -0.015598035148714958 0.16707254703015154 -0.1565840514355107 0.22839999999288133 -0.15647401553192156
-0.37366873267708794 -0.33907828622213476 -0.40396422326046344 -0.14512372554162206 0.20168595914441587 -0.24217572125026235 -0.056894318684642696 0.27497706038480857
0.35851880596875585 -0.12126199195771153 0.24109572172164917 -0.16959336400032043 -0.3539392650127411 0.12139570713043213 0.34694403409957886 0.17842966318130493
0.19274145364761353 -0.371003121137619 0.0024849772453308105 0.13289779424667358 0.3434526324272156 0.16236871480941772 -0.19053064262429512 0.046151867899965296
0.7312361693544857 0.3496130769338822 0.23946295055046457 -0.2751651383684134 0.27042070176008587 0.16893647069431872 -0.040017947168903126 -0.08237082575139319
-0.11000335393901894 -0.05588106458360374 0.5541094606081566 -0.01540844091758131 0.055998631277712894 -0.08107742535635128 0.08056676765888833 0.030119014309454867
0.07017475085041144 -0.012250060250957921 -0.13634309130524228 -0.28695259340546425 0.1512071986129345 0.28558169850539555 -0.3954496686161076 -0.2774251118680179
-0.16474991961683658 0.11890088117363182 0.21014399968453 0.23726643708232892 -0.24620534233975383 0.2765354031190815 -0.3108609662488638 0.24223342984589602
0.20461731487467216 0.04906448514146982 0.3617214560508728 0.3842929005622864 0.2723369002342224 0.08138847351074219 -0.26777195930480957 0.3472173810005188
0.240558994346835 -0.3149668595331683 -0.03190185575424136 0.043825660590751075 0.2368635662455237 -0.09775871355761451 0.0006340444087982178 0.34758591651916504
0.33387815952301025 -0.12791377305984497 0.12559866905212402 0.2343636155128479 -0.0537197804769483 0.047056315162102444 0.39535585756794095 0.5295483547177141
-0.2224848667162564 0.010177364730848263 0.23479193449020386 -0.17827409505844116 -0.10768860578536987 -0.2967424988746643 0.2500079274177551 0.3011854290962219

bias f8 [36]
00000000: dbe5 6500 4754 ddbf 0000 0080 cc54 c03f
00000010: 0000 0000 84c9 cb3f 0000 00a0 a3f9 d9bf
00000020: 92dc 0b65 7766 e0bf 5604 9741 60e5 c0bf
00000030: 0951 1b46 b9f4 d7bf 0000 0040 c750 d63f
00000040: 73b4 84b2 cc35 1cbf 0000 0000 397f d83f
00000050: 04b1 3d23 3667 ca3f 9ec8 b4cd 5be1 c63f
00000060: 2721 36ac 1d4d a2bf 3e98 6522 c218 eebf
00000070: 0000 0000 88bf 80bf 1cfd 7d62 abea b6bf
00000080: 0000 0000 902c a5bf 9f8f 6e0b 095e d0bf
00000090: 7456 76c3 7e9f d4bf 0000 0000 c099 78bf
000000a0: 3190 0d4b 79aa e1bf e734 b001 b5a2 d2bf
000000b0: 2d74 cc80 69aa c3bf 0000 0080 5464 c23f
000000c0: 0000 0000 b163 b5bf f016 96a0 e5fe e53f
000000d0: 49ac 0193 a00e d73f 979f 5070 b175 c1bf
000000e0: d83b 4c94 d791 94bf d79a 0710 bec5 a6bf
000000f0: 450c 26ab 7ee6 c3bf 0000 0000 a2f9 bc3f
00000100: 147a 13cc 2966 e5bf 0000 0080 dfea c13f
00000110: 08b0 9a4e 4dce d1bf 0000 0000 1a66 a7bf
-0.4582688812148185 0.12758785486221313 0.2170872688293457 -0.4058617651462555 -0.5125081037102908 -0.13200000002510376 -0.374311750854091 0.348680317401886
-0.00010761319993398011 0.3827650547027588 0.20627476425887192 0.17875239891288158 -0.035744597694306095 -0.9405222579778252 -0.00817781686782837 -0.08951827196687073
-0.04135560989379883 -0.2557394611014789 -0.3222348126231289 -0.006006002426147461 -0.5520597902182144 -0.291180850647676 -0.15363806523319692 0.14368683099746704
-0.08355242013931274 0.687365354199498 0.360267776070661 -0.13640420898559277 -0.02008759348523967 -0.044477405030013344 -0.1554716430365223 0.11318409442901611
-0.6687211023198096 0.1399802565574646 -0.27821667362400193 -0.04570084810256958

weight f8 [72, 36]
00000000: 0eb7 10f7 73ef aebf 0000 0000 b499 73bf
00000010: 0000 0000 4210 c3bf 0000 0000 cc70 973f
00000020: 29ff 1c90 6530 7dbf 0000 0000 28a8 99bf
00000030: c3b6 84f9 6262 9abf 0000 0080 34c1 aa3f
00000040: 33b5 17b3 ada1 bd3f 0000 0060 eb80 bcbf
00000050: af84 5ea9 0f2f ccbf 7cb9 15b3 0c1d a6bf
00000060: c379 3ea4 3edc c4bf 3048 17f7 6cdb 99bf
00000070: 0000 0080 9826 a0bf 0000 00c0 6eea c4bf
00000080: 0000 0000 02b2 a4bf 1181 897c ff21 c4bf
00000090: d6b6 bc8a 19a6 bc3f 0000 0060 5cb4 b6bf
000000a0: d32f c2da 14cb a73f e3f6 d78a 4938 dcbf
000000b0: 0000 0040 b8e0 bc3f 0000 00c0 1c75 afbf
000000c0: 0000 0000 d446 ac3f b8a6 ec7f 5ba2 b1bf
000000d0: 004b 4b00 4531 a6bf 81e6 2d27 f891 c7bf
000000e0: a43e 4124 510b b23f 703a fdc9 592a d3bf
000000f0: 0000 0040 0d82 b83f 0000 0000 4cd3 91bf
00000100: 012c 3787 eaf8 acbf 0000 0000 fa73 80bf
00000110: ea94 3061 f800 9b3f 0000 0000 bc23 bebf
00000120: 6e31 3b64 c093 a2bf 0000 0000 0d3c c2bf
00000130: 0000 00c0 9d4b bb3f 0000 00a0 d364 c43f
00000140: ee5f b7fc 7806 913f 0000 00a0 0bc1 c23f
00000150: c1f8 4da8 adc2 b0bf 0000 0060 e442 b7bf
00000160: 0000 0060 470d c4bf 0000 0040 a8e6 bc3f
00000170: db6d b637 ba01 acbf 9d00 24a1 43a9 c1bf
00000180: 0000 0000 2709 9fbf d703 9cf7 080e cfbf
00000190: 0000 00c0 ca0a be3f 0000 0000 76da 8e3f
000001a0: 0000 00e0 99d8 c4bf 42a6 3518 6c91 b0bf
000001b0: 76a8 b8f2 59e4 cabf 0000 0000 6292 a63f
000001c0: 03a4 e8f4 0f3a c3bf f79e 52b1 75d8 b3bf
000001d0: 0000 0020 c013 c53f 0000 0000 c680 8cbf
000001e0: 0000 0040 2138 bc3f 70e3 822b 3b7a 5f3f
000001f0: 9b54 17e1 d9d6 a03f ffa4 5203 b8ff a5bf
00000200: 0000 0000 cc90 bcbf 9a53 11d7 b183 b1bf
00000210: 0000 00c0 15d1 bfbf 0000 00a0 43e5 c23f
00000220: 586c e74c a2a0 c2bf 0000 0060 95d2 c33f
00000230: d1d6 ea4f 0529 c6bf 0000 0000 bd77 953f
00000240: e7e3 a312 6254 b23f 0000 00e0 f96e c03f
00000250: 0000 0000 088a 9d3f 0000 0000 5cae a8bf
00000260: 8050 4232 bef6 d3bf deac fa9a 3b41 bebf
00000270: 00d2 8f88 1721 c13f 0000 0060 0506 babf
00000280: 3647 9fc3 9613 ad3f 0000 0060 6eed b3bf
00000290: e6ea 8f04 0a7b babf d551 c171 5709 c23f
000002a0: b7f4 d823 8abc bd3f 3d9e 816f 5edf a0bf
000002b0: 0000 0060 f112 b0bf b66f 246a 18d0 b43f
000002c0: 0000 0000 7c1d acbf 9ce8 4fb7 da3d bb3f
000002d0: e844 2f22 d059 a23f 0000 0040 fb3b b73f
000002e0: 553c 1cf8 1111 a23f 8c34 e760 5347 ccbf
000002f0: 92a1 5a58 d39e c03f 0000 00c0 823e b6bf
00000300: 0000 0080 a81d aa3f 9937 0d17 3935 c5bf
00000310: 1248 2f8f 8448 8a3f 9494 d7f6 e6d7 c1bf
00000320: 53d9 600c e950 a13f fa33 a372 a299 9dbf
00000330: 2ac4 b754 a57b 813f 0000 0000 61d5 923f
00000340: 4c9e 87e2 4695 71bf 0000 00e0 88c3 c1bf
00000350: 249b 062a eb03 a6bf 0000 0000 5806 c2bf
00000360: 099d 31a7 a230 c7bf 0000 0000 d466 b8bf
00000370: 0000 0080 1ab4 a1bf 0000 0000 26b2 863f
00000380: 9bee 85c2 f28f a33f 31fe d1c1 29a0 a2bf
00000390: 5df1 5c07 3105 75bf 0000 0000 d864 933f
000003a0: 1adc 40ec 021c b0bf 0000 0000 78fb 8f3f
000003b0: af5c 8526 d83d 593f 1731 5787 2a24 c8bf
000003c0: e9be e409 986f ad3f 6a6d c16a e984 a1bf
000003d0: 0000 0000 443d a2bf 2201 1d8e e02b bf3f
000003e0: 0000 0020 88ea c13f 66d2 6610 1328 a63f
000003f0: 3ea3 bb2d 691c a2bf 0000 0000 8af5 b03f
00000400: 3ff6 dc2c ffe0 b8bf f727 e5d9 8b1d b9bf
00000410: 0000 0000 2011 af3f 0000 0000 00b5 823f
00000420: 0000 0080 2d3e ab3f 6425 bbbe 54c4 b83f
00000430: 7508 0071 b6b9 b5bf 053a 362f 2613 b63f
00000440: edb7 c67d 1641 b73f 0173 3e04 95ed a0bf
00000450: 3759 7507 9c07 c33f 0000 0080 9fc7 a93f
00000460: d1e5 903f 9b0c c3bf 0000 0060 1faf b5bf
00000470: 2094 e9fb 011d 843f 0000 0080 2fd1 ab3f
00000480: 438e 8d1a c5fd 90bf 0000 00c0 2db4 b53f
00000490: 0000 0080 b710 a5bf 0000 00a0 cb68 c13f
000004a0: 0158 929b e57f 7ebf 0000 0000 f785 943f
000004b0: 6eac 1bab f397 adbf 0000 0040 468f b03f
000004c0: 3918 dc25 34ce c4bf 0000 0080 c71a c5bf
000004d0: 186f c322 06bb b33f ccf8 097f e57a bbbf
000004e0: fba9 734a c802 92bf 0012 6d97 7496 c4bf
000004f0: 0000 0040 c146 b83f 0000 0000 9e0d a8bf
00000500: 0000 00c0 de5f bc3f 6211 84f8 306d c9bf
00000510: cdc2 0cc6 3e83 b9bf 0000 00c0 5723 b53f
00000520: 9fdd fe51 9603 c5bf 6408 1376 04e2 91bf
00000530: 0000 0060 eb8f c2bf 0000 0040 e318 bb3f
00000540: 0000 0040 57a2 b03f d178 c821 c49d 80bf
00000550: 83a0 ca54 cd26 b3bf bdad 3ff3 bfbb c6bf
00000560: cff3 c8cc 9502 b53f 6ac4 41cc 4fa7 c8bf
00000570: 0000 0060 c4e9 b2bf 0000 0000 1cf8 9d3f
00000580: ebb1 de36 94f9 9a3f 0000 0000 f63e 89bf
00000590: b17e 81e7 ed7e abbf 0000 0040 a4b1 b63f
000005a0: 854c 9397 911e d4bf 0000 0000 6b95 b4bf
000005b0: 0000 0000 1e51 a6bf 0000 0080 3999 a43f
000005c0: bb11 f5e7 3dbd b7bf 11d2 a77a c1b4 b8bf
000005d0: 3190 6934 e67b c4bf 0000 00c0 c4b7 a6bf
000005e0: 475e 8708 471c b9bf 0000 00c0 6101 b1bf
000005f0: 31f5 6061 61cf d33f 9a58 a97f dee7 b23f
00000600: 23ed 0db3 581b be3f 59d6 8bba 0f35 b3bf
00000610: 0000 0000 1e8c 81bf ef68 c15b 3e7e a8bf
00000620: 0000 0000 a82f 80bf 83da 93f9 d6bc ab3f
00000630: 8cc1 8a26 12d2 adbf 0000 00c0 016d c1bf
00000640: d545 a7d9 5767 c6bf 90d1 e10c 7ae7 e33f
00000650: e5b7 b495 0a6c a9bf 0000 00a0 d6c5 c23f
00000660: 0000 00c0 aaa7 bd3f 2646 41b2 57d7 aabf
00000670: 7bf8 a329 02fe bcbf 2a26 4058 6a3e b03f
00000680: b1c6 a034 f477 a3bf 035a 5f1b f79a d0bf
00000690: f8bf fc9f 2f6c 9e3f 0000 0000 4e83 a0bf
000006a0: f921 643f 38a0 9abf 0000 0000 2000 803f
000006b0: 68df 954d 45b7 463f 0000 0000 b064 7f3f
000006c0: 6363 dae6 c51b 96bf 0000 0000 24fe b0bf
000006d0: 0000 0000 0ed8 ab3f 0000 0020 fde4 c03f
000006e0: d082 5084 53ab cfbf fc48 8b26 091d b33f
000006f0: bb1c 683b 5a14 b9bf 0000 0040 dcd7 c2bf
00000700: 7cf2 0eee 4067 a8bf 0000 0040 c47a b73f
00000710: 5dcb 70b2 534d 80bf 9ed4 b360 fa0c 8fbf
00000720: 0165 796c 220d ba3f 42be 4828 301b a5bf
00000730: 0000 0020 f773 c03f 63e0 691a 2c35 c13f
00000740: 0000 00c0 bfa3 b93f 3ea2 041c 784a b8bf
00000750: bbc8 2f08 c1f0 c83f 0000 00c0 bd57 b63f
00000760: a42b ad9f a748 bdbf cbb0 7afd 5104 b2bf
00000770: 92f3 74a8 3b11 c03f 0000 0040 274d b23f
00000780: 0000 0060 a9ad bebf f3fb 6341 17dd 94bf
00000790: 6b81 9de5 c44c cfbf c516 505b 73e5 87bf
000007a0: d81a 936e 3640 b0bf 987f 45a0 31d1 93bf
000007b0: 59f6 13c8 dbe8 c2bf 0000 00c0 a8e9 bb3f
000007c0: 08bc daed 2b8a b93f 0000 0000 8d45 babf
000007d0: 6129 1b2d 2903 c33f 0000 00c0 7a98 b3bf
000007e0: ce6b 285c 7f90 8f3f 0000 0000 d402 a23f
000007f0: 0000 0000 a63d c5bf 0000 0000 27c2 963f
-0.060420631322228954 -0.004785254597663879 -0.14893364906311035 0.022891223430633545 -0.00712623284363171 -0.025055527687072754 -0.025765940169711465 0.052255287766456604
0.11574826834085598 -0.11134215444326401 -0.2201861931799036 -0.04319038091749669 -0.16297133464554578 -0.025251104909166766 -0.031544461846351624 -0.16340431571006775
-0.040420591831207275 -0.1572875364390787 0.11190948140275778 -0.08868958801031113 0.0464712636031376 -0.4409355026144636 0.11280395090579987 -0.061440370976924896
0.05522787570953369 -0.06888362763552436 -0.04334464672651528 -0.18414213097621615 0.07048518309715718 -0.2994598839331166 0.09573443233966827 -0.017407596111297607
-0.05658657932834644 -0.008033707737922668 0.02637088864516538 -0.11773276329040527 -0.03628350471044227 -0.14245760440826416 0.10662256181240082 0.15932698547840118
0.016626253532962147 0.14651627838611603 -0.06547055586813412 -0.09086444228887558 -0.1566552370786667 0.11289454996585846 -0.05470067911229722 -0.13797803276248014
-0.030308350920677185 -0.242615815070194 0.11735217273235321 0.015065118670463562 -0.16286014020442963 -0.06471896735242758 -0.21009373046519259 0.044085562229156494
-0.15020942171511828 -0.07752166346710597 0.16466523706912994 -0.013917490839958191 0.11023147404193878 0.001921232016725418 0.03288918373770252 -0.042966604619616426
-0.11158442497253418 -0.06841575146365955 -0.12428413331508636 0.14762158691883087 -0.14552716021612144 0.15486399829387665 -0.17312685396398433 0.020964577794075012
0.07160008387644688 0.1283867210149765 0.0288468599319458 -0.04820525646209717 -0.3119349947749086 -0.1181828740470112 0.13382238548332737 -0.10165437310934067
0.056790076617870985 -0.07784166187047958 -0.1034399281633501 0.1409100823826878 0.11615813613112179 -0.03295416937981741 -0.06278904527425766 0.08130028334966152
-0.054912447929382324 0.1064125726260578 0.03584146897595436 0.09075899422168732 0.03528648523035175 -0.22092668754195122 0.12984697164689557 -0.08689133822917938
0.05100752413272858 -0.1656867373043809 0.012833629245424336 -0.1394013123782868 0.033820421944641986 -0.028906381842535446 0.008536616943247994 0.018392100930213928
-0.004292752164907276 -0.13877974450588226 -0.042998646621802444 -0.14081859588623047 -0.1811717335105885 -0.09531903266906738 -0.034577205777168274 0.011081978678703308
0.03820761322546425 -0.03637819758386874 -0.00513190414295325 0.01893937587738037 -0.06292742031006107 0.015616357326507568 0.0015406237453896956 -0.1886037026255358
0.0574920188977311 -0.034217161447226044 -0.03562366962432861 0.12176326245844796 0.1399698406457901 0.04327449393477849 -0.03537300761474292 0.0662466287612915
-0.09718317837992972 -0.09810709066110222 0.060677528381347656 0.009134292602539062 0.05320875346660614 0.09674577385444177 -0.0848650003318044 0.08622969296104806
0.0908369118758114 -0.03306260754400193 0.1486697231691296 0.05035112798213959 -0.1488222179776089 -0.08470340818166733 0.009820952892548418 0.054330334067344666
-0.01659305548254354 0.08478055894374847 -0.04114316403865814 0.13601060211658478 -0.007446190743527482 0.020042285323143005 -0.05779992545816347 0.06468619406223297
-0.16254283760662405 -0.16487973928451538 0.07707250927654419 -0.10734400130783966 -0.017588738960435873 -0.16084153550959002 0.09482963383197784 -0.046978890895843506
0.11083786189556122 -0.1986447537857528 -0.09965889296723703 0.08257053792476654 -0.1641719723099699 -0.017463750559507565 -0.14501707255840302 0.10584850609302521
0.06497712433338165 -0.008113415032365985 -0.0748108226786162 -0.17760466935520283 0.08207069635041296 -0.19260594819528204 -0.07387950271368027 0.029266774654388428
0.026342693184845983 -0.012327119708061218 -0.05370276881217018 0.08864809572696686 -0.3143657665470488 -0.08040493726730347 -0.04358762502670288 0.04023151099681854
-0.09273135102291168 -0.0965081142856621 -0.16003110465237705 -0.04437079280614853 -0.09808773000929093 -0.0664273351430893 0.30953249463694293 0.07385054222808876
0.11760477420277886 -0.07502840332366513 -0.008568033576011658 -0.04783816213667246 -0.00790339708328247 0.05417510792351712 -0.05824333878024665 -0.1361391246318817
-0.17502878310783268 0.6220064403155892 -0.049652415060663015 0.14666254818439484 0.1158396452665329 -0.05242418337787695 -0.11325086132635136 0.06345238356166108
-0.038024550842590606 -0.25945832894413473 0.029709571971750365 -0.03225177526473999 -0.026001814717377034 0.007812738418579102 0.0006932342904937107 0.007664382457733154
-0.021590320792344807 -0.06637787818908691 0.05438274145126343 0.13198818266391754 -0.24741596184414627 0.074661800298859 -0.09796680403097728 -0.14721253514289856
-0.04766276269899536 0.09171701967716217 -0.007959989436221166 -0.01516147239315507 0.10176291607185207 -0.04122305385351101 0.12853898108005524 0.13443518914914696
0.10015486180782318 -0.09488630947147045 0.19484722995509238 0.08727632462978363 -0.11438987396574746 -0.0703784221502161 0.1255259106200382 0.07148976624011993
-0.11983736604452133 -0.020374644628642313 -0.24453030788118765 -0.011668111061236339 -0.06347980689597976 -0.01935269871444198 -0.1477312781279803 0.10903410613536835
0.09976458127015075 -0.10262376070022583 0.14853396131941124 -0.07654540240764618 0.01541232585900856 0.03517782688140869 -0.16594386100769043 0.02222500741481781

bias f8 [72]
00000000: 6432 76c0 e7f3 73bf 22f8 460a 145e a6bf
00000010: 7678 9115 08fd dabf 8025 c5c0 2006 c1bf
00000020: 09ef dba5 6794 cbbf 20e7 2547 8801 b83f
00000030: 28d4 a0bf fe52 c7bf 0d6b 2b99 40be cfbf
00000040: df4d b9e3 fff0 ccbf 7bde 88a5 3fd4 d3bf
00000050: 12f0 669c 8f14 a9bf a0b0 6c7b 4b0a b6bf
00000060: da38 cff3 475e d23f 99bb 5d19 70ea c3bf
00000070: a356 b0ec 012b d0bf 79d8 1f69 d052 48bf
00000080: 69eb 5f6c cab2 d1bf d11b 100c 0a16 e0bf
00000090: 4676 dfd6 5c7f d0bf 16d3 c163 23c8 db3f
000000a0: f12d 68f8 2445 d93f 7cb8 84b4 bc00 c6bf
000000b0: bd81 616e cb0c 823f e2af da2c f86f 763f
000000c0: 362c 4283 4671 d73f 43b3 64bd 4653 e43f
000000d0: 8c69 2d68 821f e63f 2911 901f 46cd 94bf
000000e0: f607 aa13 dd78 84bf 8352 8653 d2b3 813f
000000f0: b58a 59da a64f b0bf ccae 756a 7102 85bf
00000100: 300f 533d 3109 76bf eef8 2f96 d6f4 d93f
00000110: 2380 ff43 66ea c6bf c0fb 6182 cef6 a9bf
00000120: e81e 5c33 5f83 d1bf 159a a9b4 c44a c6bf
00000130: e286 95eb fdc1 ccbf f78b 7482 2287 c0bf
00000140: d813 5670 a53f cdbf f06b d266 bff5 6a3f
00000150: 2a08 8e4e b92f bcbf 1e70 b261 0ef5 b3bf
00000160: 101e 2aef 54c6 d1bf 4b2b 8ee9 08e3 cabf
00000170: 57f3 0802 7787 d8bf 263a b793 5782 e03f
00000180: 2655 1c3f 0bbf bbbf 0454 e8d6 3bc4 d5bf
00000190: 1aa5 3cb4 b503 e0bf 545d dc41 8b9b cebf
000001a0: 50ad b9dc 401d cdbf f688 f48d a553 b7bf
000001b0: e567 211b 5875 c5bf bf7a eeeb 85cf a7bf
000001c0: 7fed 5cc9 73cd cd3f c175 eca8 0977 a3bf
000001d0: 26ff d1cc d3a7 b3bf 55fa 6c8c c866 d0bf
000001e0: cc39 3693 7daf 6c3f f304 f906 7fd7 cb3f
000001f0: 0d0d 1d29 8aba b0bf dfac 457d eaa2 cdbf
00000200: b41a b1c7 a770 c13f 89a0 442b 4dde c4bf
00000210: cf45 7d25 7154 c0bf 71d9 3dd6 875d b7bf
00000220: db69 cdab 25a4 e23f 5858 4e5c f528 c6bf
00000230: 505f 0491 8180 c63f f672 d95a 7acc c0bf
-0.0048712780766321 -0.04368651032881156 -0.42169382196687566 -0.13299950993159015 -0.21546645735349326 0.09377338158620008 -0.18222030979964754 -0.2479935405634354
-0.22610472316101402 -0.30982962766163497 -0.048984992830327326 -0.08609458697600525 0.28700445947187136 -0.15559197653371085 -0.25262497057097216 -0.000742294085511088
-0.27653751929726994 -0.5026903377155297 -0.25777359946900835 0.43409046880633306 0.3948452401970988 -0.1718974954068847 0.008813466363961514 0.0054778761238303015
0.36628878420077926 0.6351655673111981 0.6913463625635798 -0.020314307857931233 -0.009996153986552497 0.008643763708087398 -0.06371538954548835 -0.010258565961258091
-0.005379860250460486 0.40556873957383643 -0.1790283042928432 -0.050711110511648894 -0.2736433030663492 -0.1741567499295377 -0.2246701622307717 -0.12912398691068436
-0.22850482926528914 0.003291009742111488 -0.1101032082351884 -0.07795801053220017 -0.2777302108374622 -0.21005355266637546 -0.38326811979987013 0.5159109005997535
-0.10838384905612894 -0.340102157469403 -0.5004528541805116 -0.23912182536944704 -0.22745524194338396 -0.09112009731009948 -0.1676435596917251 -0.04650515084289485
0.23283240635087663 -0.038017560835423854 -0.07677959204192727 -0.2562734004349399 0.003501649154436159 0.2175139221235792 -0.0653463697790821 -0.2315343009644044
0.13625046969010202 -0.16303410160731271 -0.12757696466955656 -0.0912709138918666 0.5825374942317539 -0.17312495238428727 0.1757966955271919 -0.1312401717758786

weight f8 [120, 72]
00000000: 9c1a d40f bb6f b03f 0000 0060 bf04 b13f
00000010: f573 4a1b 2da1 b2bf fbcf 8fec 1c25 b23f
00000020: 0000 00c0 8fec ae3f 1a8b 7074 6db4 c2bf
00000030: 2ae0 d618 cad0 bcbf e426 884b 90ed 9fbf
00000040: 0000 0060 9086 b43f 5686 e89c ba9c b9bf
00000050: 0000 0000 9579 98bf 6686 a0bc a82d b1bf
00000060: 30fc 1365 3759 9b3f 0000 0060 6e18 b23f
00000070: 0000 0000 bb48 b4bf 9d89 740b 1e58 a2bf
00000080: 0000 00c0 e0bb ad3f 209a 7593 66f3 a2bf
00000090: 3492 8136 338e 813f d8d0 ce36 a68f bfbf
000000a0: 21aa 5835 beaf c0bf 2ea4 f56c 534c a53f
000000b0: 5566 28fa e6ca af3f 0000 0080 1657 b2bf
000000c0: e52e 2890 aabe a43f 2d30 d466 b85b b0bf
000000d0: 0e8d cd61 71b9 79bf 0000 0080 65d6 9e3f
000000e0: 0000 00e0 c324 bc3f 68e7 7dd9 46e2 a43f
000000f0: 0000 0000 6e40 7b3f f5ba fd71 d2cd b5bf
00000100: 0000 0000 b2e4 8ebf bb39 71dc 5a67 b3bf
00000110: 0000 0000 c036 5ebf 1264 8932 ee44 c5bf
00000120: 30bc 1069 75f4 bbbf 7dde 7261 9575 a5bf
00000130: 0000 0040 8281 a3bf 0000 0020 6149 bcbf
00000140: d0e2 470b bade aabf 5a56 3395 d46b a3bf
00000150: aba4 544c 20b2 b93f d4eb 8aa9 a8c0 89bf
00000160: afce b224 dc08 b0bf 0000 0000 4376 babf
00000170: 0000 00c0 d82a a43f db39 ab82 4a39 b4bf
00000180: dadd b349 df15 b6bf 0000 0000 1937 99bf
00000190: b555 a786 f43b bfbf 5d76 8395 2a5b 633f
000001a0: 0000 0000 4c41 bdbf db33 8107 2979 88bf
000001b0: 0000 00c0 979c a5bf d380 0e29 6938 ad3f
000001c0: a582 8cdb 83dc aabf 2d2c b2e0 7722 993f
000001d0: eb9d 40de 53da ba3f 7f18 db1f c4ba 833f
000001e0: 1394 3bca 7735 b2bf 3f83 2e4b 0be4 a3bf
000001f0: 2066 232e 5e1c 97bf 0000 00c0 7d6c ab3f
00000200: 267e 417b 3b0d 8b3f 0000 00c0 9f01 b3bf
00000210: ac8c b300 0f66 8bbf 0000 0020 5708 adbf
00000220: 0000 0000 2c6c 763f 4aa7 4942 37f2 50bf
00000230: 0915 c685 33b7 b0bf f56d 58c0 2d2b bbbf
00000240: b313 a8c3 a1f3 96bf 0000 00a0 4615 bebf
00000250: 9581 008c 8aff 83bf 4ce5 f88d 95d0 44bf
00000260: 0000 0000 4621 72bf a752 92d8 28fd a5bf
00000270: 5270 2050 e8f2 823f 4711 acf7 f4f8 b63f
00000280: 0000 0040 3368 a1bf 3f86 34dd 0575 c7bf
00000290: 0000 0000 8dcc 9dbf b703 2f7f 63f2 a33f
000002a0: 0246 1987 bcbd 8cbf 0000 0040 ea3f a23f
000002b0: 0000 0000 76bb b6bf d020 d8df 0f9b bdbf
000002c0: c2a9 90b9 c95a c5bf 2194 c066 545e 963f
000002d0: 7f82 4d82 17ac b0bf 8ac8 bed1 cf61 adbf
000002e0: 08f3 5a8f ab01 afbf 61ee 3af7 d7e8 a23f
000002f0: 28d9 375a 1404 90bf 4bea 879f 01d7 8bbf
00000300: 9f56 e8d2 5e36 c1bf 4430 4ce4 894b 68bf
00000310: 9e88 1694 f226 653f 89a5 30fa cc3a 8cbf
00000320: 9399 c004 7b0a bbbf 70e1 ae7a 7d40 af3f
00000330: 71c4 b675 eec6 883f 3990 f52a 6292 b9bf
00000340: 4cf9 b236 c1fb af3f c502 ff28 cdf8 b0bf
00000350: 0000 00a0 3a2c b83f 0868 bc8d e40d c9bf
00000360: ff73 804f ca96 903f efd9 f635 356d 96bf
00000370: 0000 00a0 475a b73f 0000 0040 6633 aabf
00000380: 727f 4ed2 8828 b1bf 26a3 0c77 a625 a73f
00000390: d566 3b91 b1d3 b2bf 7e7b d6e8 939f a6bf
000003a0: 0cf4 74ef 15dd c3bf 0000 00e0 be77 b03f
000003b0: 7fb9 33fb 9288 923f 9a3c 79db 466f b0bf
000003c0: 9876 ea61 2aaa bbbf 0000 00c0 32a8 a33f
000003d0: 933c 78e3 4f04 9bbf 862f a0c4 6dfd aa3f
000003e0: 0000 0040 234a a4bf 8046 67fa 42cd a2bf
000003f0: 0000 00c0 6e90 b9bf 875e 453a 82a1 b1bf
00000400: 0c53 ee6d b328 a2bf 3c35 ce45 b0f9 90bf
00000410: 64ff 41aa c54f b13f 89e8 6b99 1bac 913f
00000420: b51f c6d4 3288 9fbf fc4b 8040 ceec 843f
00000430: 2ab9 c877 0b04 b0bf 08d9 c3c1 db79 a43f
00000440: e1d2 18f8 4798 ae3f 0000 0020 d269 b63f
00000450: 26a4 56fe 1063 b7bf 0000 0080 b53e 983f
00000460: 23dc ac28 bcf6 9dbf dd12 b7fa a675 c13f
00000470: ecbb f94e bfa1 b6bf 60b5 4418 c862 afbf
00000480: 0000 0000 12e7 b7bf 0000 0020 2ba8 b73f
00000490: 778e 537a 1318 ad3f e146 0ff3 2432 963f
000004a0: 9384 b4ba cb5f ad3f 17c3 5fc8 bd45 a4bf
000004b0: 8aee 4461 f1e7 a4bf ed9c ff63 066c ba3f
000004c0: 0000 0080 751e b7bf 0626 f3c1 8af9 cabf
000004d0: 0000 0080 1726 b5bf 66b5 4e40 2fca 853f
000004e0: 5a5b 2a7d 5115 623f 0000 00e0 ebe9 b53f
000004f0: 0000 0080 ede9 bdbf bcad 087a c15f 963f
00000500: e52d ca5b b0c7 c6bf d368 8f0a 77e7 7d3f
00000510: 6e50 5196 5491 b8bf 0c0c 4d51 365b bbbf
00000520: 88b8 7400 42e4 adbf fca3 b269 50d3 afbf
00000530: 7bfa 9b8e ba12 a83f 8ab5 60fc 71a4 973f
00000540: 4d3c 57e5 c1b3 bdbf c278 dc80 b177 7ebf
00000550: 0593 efcc d8a0 7e3f 0000 0020 2b3b b43f
00000560: 237d 9472 2dd0 a73f c176 691b b685 a13f
00000570: 524d 71c7 a37f 9cbf 9289 67a6 c715 873f
00000580: 0000 0000 2b6e a2bf 4cdd 0579 9463 c2bf
00000590: 0000 00a0 20aa b53f 8c0d 1be0 43d2 b8bf
000005a0: 5643 c86d ba9b b6bf 649a 9a24 8943 babf
000005b0: 0000 0080 6645 a0bf 0000 0060 593e bb3f
000005c0: d8dd 2468 2a4f 99bf ca43 c9ac 0123 c2bf
000005d0: d6aa 40eb 595c b23f 0cdc 9cc6 66ce abbf
000005e0: 0000 0000 e064 4abf 0000 0080 d200 953f
000005f0: 7c10 2b7f 54f1 92bf 575d ae6a f3ed c6bf
00000600: 405c eacd 0b68 b8bf e8ff 06ce e8e6 bfbf
00000610: d00d dcef 8a69 b33f ba6d 8f31 4d9c a1bf
00000620: 0000 0080 9026 a3bf 7752 4de8 7188 84bf
00000630: 0000 0000 0737 87bf ae3f a0e4 c866 bebf
00000640: 139f b2a1 54a4 aabf 1008 ea82 605c c4bf
00000650: bc54 b6ce d3d7 b43f fdc6 6e2f 2a19 b33f
00000660: f7ec 75fa 037f bcbf 05e5 68d5 ccef 863f
00000670: db73 54d9 4424 84bf 604e 0ccf 126f 663f
00000680: dad0 3db6 2233 c1bf 0000 0080 fe1e b6bf
00000690: 69dd d0f9 e10a b73f 0000 0080 054c 903f
000006a0: dfa3 fa15 d9e7 b3bf a872 b3bb 0cc6 c3bf
000006b0: 074e 8650 c667 b6bf 0000 0040 c715 a63f
000006c0: f890 872a 7ded b1bf 0000 00c0 df24 b9bf
000006d0: a7dd 5ef9 a24f b6bf 2715 531a d299 813f
000006e0: 0000 0080 6878 953f 0c84 382b b900 b3bf
000006f0: a5e6 e3e9 55ce c3bf 0723 d25e 9535 a53f
00000700: 0000 00a0 a2b7 b8bf ad72 2a87 b266 97bf
00000710: 0000 00c0 8d3a aabf 8da9 78e3 86c1 7c3f
00000720: b531 c09a de43 7bbf 0000 0080 495c b3bf
00000730: 0000 0040 64c4 bbbf 4816 4314 d33d c6bf
00000740: 0c61 3e1d ec87 9dbf f1e2 f3fb fc3f a7bf
00000750: 648c 28f7 f870 bebf de82 abeb e4e4 c3bf
00000760: be71 f7cd e411 b0bf 7f3a 428f d570 a7bf
00000770: 6791 db5f 9e78 7ebf c54d 3a61 e82a 903f
00000780: e32e 242d 7fbe b7bf 0000 0040 77ed ab3f
00000790: a5ca 3fb8 a9a7 93bf 0000 00e0 6868 b73f
000007a0: a1a9 2157 7a51 a33f 6e1b db1d dfdc acbf
000007b0: 082e 4853 f3fa 893f fc75 4b35 f1df 693f
000007c0: 0000 0020 07eb b6bf 77a1 0302 e818 b2bf
000007d0: 0000 0040 0604 a7bf 1975 e30a 0a9b b8bf
000007e0: 0000 0000 7dfc 9fbf 22ed aa16 8bd4 60bf
000007f0: 0000 0080 214b bdbf 0000 00a0 851e bb3f
0.06420487533987757 0.06647869199514389 -0.07277185360221934 0.07087879920419475 0.06039857119321823 -0.14613121209648555 -0.11256087404660833 -0.03117967091569697
0.08017828315496445 -0.10004774409073866 -0.02390129864215851 -0.0671029530062924 0.026707521004024126 0.07068528980016708 -0.079234778881073 -0.035828532121985314
0.058074019849300385 -0.037013249874508825 0.008572006321807192 -0.12328566396792284 -0.13036325077821778 0.04159794526169268 0.0620948963516638 -0.07164135575294495
0.04051716813782295 -0.06389954100103586 -0.006280367754558881 0.030114732682704926 0.10993599146604538 0.040788854646008954 0.006653241813182831 -0.08517184527384443
-0.015084639191627502 -0.07579582101718689 -0.0018441081047058105 -0.16616609065639004 -0.1091988927371268 -0.04191271605071465 -0.03809744864702225 -0.11049468070268631
-0.05248052013116011 -0.0379320556764184 0.1003742395738693 -0.012574498819381143 -0.0626351918788781 -0.10336703062057495 0.03938939422369003 -0.07899919214398869
-0.08627124356632213 -0.02462424337863922 -0.12200859343950905 0.0023628074378468215 -0.11427760124206543 -0.01194984487679023 -0.04221033304929733 0.057071005117224204
-0.05246364645995997 0.024545548524241113 0.10489391494831295 0.009633571836627162 -0.07112835585901704 -0.03884921353097192 -0.022569152418190908 0.05356209725141525
0.013208832453698593 -0.07424353063106537 -0.013378255089668244 -0.05670425668358803 0.005474254488945007 -0.001034311260037462 -0.06529542938195133 -0.10612760492261215
-0.022413756911209236 -0.11751214414834976 -0.009764749906083373 -0.0006352167365043875 -0.004426263272762299 -0.042947079121551206 0.009252371735833407 0.08973628088648865
-0.03399810940027237 -0.18325875569375857 -0.029100611805915833 0.03895865371260448 -0.014033768532644156 0.03564388304948807 -0.088797926902771 -0.1156473084921601
-0.16683312950892853 0.021844214221477757 -0.06512591296405822 -0.05738686976782599 -0.06055961728040954 0.03693270581194664 -0.015640562063674285 -0.013593685799596097
-0.13447175310345913 -0.0029657071303344235 0.0025820482121200047 -0.013784028420632992 -0.10562867036842354 0.06103889582249422 0.012098181693405348 -0.0998898844605386
0.06246761124337982 -0.06629640818483569 0.09442488104104996 -0.19573647423459328 0.016200219252016975 -0.021900969904629915 0.09122131019830704 -0.05117339640855789
-0.06702475676001798 0.04520912364234268 -0.0735426883287816 -0.044186231777749704 -0.15518449966649006 0.064327172935009 0.018099114019543002 -0.0641979490112469
-0.10806527033352109 0.038392625749111176 -0.026383636721274483 0.05271475815979358 -0.039628125727176666 -0.036722271982978505 -0.09986011683940887 -0.0688706772101516
-0.03546677319460487 -0.016577486286725604 0.06762347609219216 0.01725810169134737 -0.030792993771256955 0.010217295974177525 -0.0625617186967459 0.039992206004102526
0.05975556281592787 0.08755219727754593 -0.09135538300928711 0.023676715791225433 -0.029261531813258423 0.13640296213102135 -0.08840556791413662 -0.06130051895375277
-0.09336960315704346 0.09240979701280594 0.05682431095354173 0.02167566045301939 0.057371489087253334 -0.03959458418819944 -0.04083208382004695 0.10321083012933104
-0.09030851721763611 -0.21074041814999606 -0.08261248469352722 0.01063954272270946 0.002207430990277909 0.0856006070971489 -0.11685070395469666 0.021849654267652716
-0.17796902162477504 0.0073008203553063976 -0.095967566202775 -0.1068605373848614 -0.058382093959481074 -0.06215907373672988 0.04701788893543309 0.023088246373097067
-0.11602413033618682 -0.0074383672452126865 0.007477614285538396 0.07902783900499344 0.04651014350587903 0.03422326168650392 -0.027830657051095394 0.011272010579834544
-0.03599676489830017 -0.14366393956491164 0.0846271887421608 -0.09695839139299361 -0.08831372432929405 -0.10259301322603559 -0.03177948296070099 0.1064201220870018
-0.02471605549473374 -0.1416933149035045 0.07172166818115086 -0.054309093231886235 -0.0008054822683334351 0.020510949194431305 -0.018498726140720553 -0.17913668355024967
-0.09533761765702398 -0.12461714773144161 0.07582920413920324 -0.03439561109527341 -0.03740359842777252 -0.010025873090549127 -0.011335425078868866 -0.11875587064446222
-0.05203499292229998 -0.15906912224096503 0.08141826435742677 0.07460273416543468 -0.11131310333978549 0.011199569952724983 -0.009834802515394194 0.002738510833646221
-0.13437303446301635 -0.08641043305397034 0.09000980710049124 0.015914998948574066 -0.07775646959875314 -0.15448149838529912 -0.08752097574170402 0.043134905397892
-0.07003004349059327 -0.0982189029455185 -0.08715265834950135 0.00859417097889066 0.020967133343219757 -0.07422978692240195 -0.15473436279699118 0.04142443449479143
-0.0965520516037941 -0.022852696895472025 -0.051227979362010956 0.007020499142110015 -0.006656522320565396 -0.07562693953514099 -0.10846544802188873 -0.17376173486097657
-0.028838815007106652 -0.04541006637186296 -0.11891132387295184 -0.15542279727289715 -0.06277303722840252 -0.045782731759676835 -0.007439249658748848 0.015788680013953078
-0.09275050022204882 0.05454609543085098 -0.01919427096431527 0.09143691509962082 0.03773100198380353 -0.056372616190450184 0.012685681323112 0.003158541784030742
-0.08952374011278152 -0.0706925396840513 -0.04495257884263992 -0.096115710886313 -0.03123660385608673 -0.0020544735501438907 -0.11442765593528748 0.10593447834253311

bias f8 [120]
00000000: b29c 4137 4ec5 b1bf 9ef3 a102 f616 c7bf
00000010: 1531 8a55 685d c9bf b230 e14a 0b89 c7bf
00000020: 5303 a179 f4a6 c7bf 37b6 bee9 1d90 ccbf
00000030: 037c 0430 927e c6bf 5f8d 388a 298a c5bf
00000040: 8a00 a605 1288 c53f fa4a 5873 396c c4bf
00000050: d103 72fd f0dd a5bf 8fed 684b 0769 cebf
00000060: 89e4 ca2c 4e04 aebf 01cc d98a f14d c2bf
00000070: 1c81 6347 d568 b9bf 92ad 6589 b700 873f
00000080: 2f52 39b4 f262 be3f 6cac 581c 4233 84bf
00000090: 5e0e c3e6 253a d0bf f406 d40d a82b e13f
000000a0: 7ea5 0785 94ed d4bf 7f2b 79fd 8a1b c4bf
000000b0: 7e6c efd9 4a31 b8bf d6ca ee2e 9bb0 bebf
000000c0: cee3 43c3 ee2a c6bf 5463 a145 1037 b53f
000000d0: 6d0a 4c4a 5823 ccbf 65a5 9764 d8e8 c0bf
000000e0: 8805 b90e 247a bbbf 07ca 0b76 a888 c3bf
000000f0: 9698 b446 89e4 c4bf d5a1 62b8 36e5 c1bf
00000100: 151c 1559 5c3b c1bf ed05 16c6 c68b b43f
00000110: 3378 4316 8dbe bfbf f9e6 95f4 d532 b3bf
00000120: 5551 0bf7 392f b3bf 663e 334b 2f0b aebf
00000130: 4a24 bcac b323 d03f e95f 729a 7ddd a8bf
00000140: abf0 f600 4db6 b9bf b376 3d24 ff7c a5bf
00000150: 8591 ea5f dcc7 d33f 50c8 c76f 0036 da3f
00000160: ac38 0bc2 34bb c53f eaf6 6e09 785c c3bf
00000170: 62ae c2f6 4772 bbbf 9c09 6c37 13d7 b8bf
00000180: 94af 3799 88aa bfbf 45cd f45e f367 c3bf
00000190: de5c d767 75ca bdbf c129 2018 cf6d c0bf
000001a0: eaaa aeb8 e197 c8bf bbd7 86b0 a3ae bcbf
000001b0: 12f2 bfdb f90f babf bb59 5e95 eda7 c2bf
000001c0: 44dd 3ae8 181a 8cbf 4657 8454 f591 bebf
000001d0: eb2a 030f da17 c2bf f5cf c823 03bc abbf
000001e0: 2db0 991e bd4b b2bf 7f47 8452 1b8b 86bf
000001f0: 9df1 dea5 44b5 a9bf 44d2 72dc b664 cebf
00000200: 51e5 4da4 7d12 bbbf 0df1 56f1 7f67 bfbf
00000210: 4a74 4758 cd7d ccbf 4925 3ae5 6a57 9fbf
00000220: dbe2 2807 9110 a73f 8902 f7fc 4ae7 b1bf
00000230: 7072 4fd6 7f74 a63f 7f01 fe70 ba57 c6bf
00000240: c80a 1b95 5b35 a0bf b945 4d96 9891 6c3f
00000250: d8f1 de5c f38e a23f 34af 018f 10eb c4bf
00000260: b0bb 7d1e 7ed6 a6bf da14 eda8 29ec ccbf
00000270: 2ba0 532b 151c bbbf 25fd 6b61 1999 c0bf
00000280: decb cf87 cb34 87bf a45e 4dcc 512f c0bf
00000290: 7be8 ff53 1fb3 5e3f cc64 5184 fc75 cbbf
000002a0: 6ef1 a2d3 203a c2bf 755a 04cb 8e39 bebf
000002b0: e266 8976 f63f c8bf a21c c3b0 2043 aabf
000002c0: 6d33 0412 7ec6 bdbf 7913 bf66 7c6c babf
000002d0: 233b af7b 1c98 c9bf fd85 f3a4 c464 c4bf
000002e0: 3eb3 4477 3416 9e3f 2310 75e4 f4dc b3bf
000002f0: 975e 2160 8200 c5bf 6ce4 59fe 526a b1bf
00000300: 8498 c994 9173 c3bf ad58 129a 84ca c7bf
00000310: 7819 63ef bb1d acbf 336b ce11 b669 c7bf
00000320: 83a2 ad45 c001 8fbf c6b3 1129 1ca9 acbf
00000330: 2923 c277 85b2 b4bf d714 c731 4163 c4bf
00000340: 3788 d9ed 90ed b8bf b28b c388 bef4 b2bf
00000350: b63e 07f4 9951 bbbf 00b6 ed0e f0f5 b9bf
00000360: 6c98 1bfd 108e c0bf 1148 f80f 4cda c4bf
00000370: 7aa0 5424 7f91 b5bf 43f7 83d1 b71b a8bf
00000380: 039c ac1a 5473 c3bf dc31 e6be efb7 c5bf
00000390: 91f9 0252 e8cb c1bf 3a6e 4360 ffa6 b3bf
000003a0: ec20 2235 f159 bfbf bbd8 ec86 051b a6bf
000003b0: 96db b42b 2d42 cdbf 0a36 aaa0 de41 a6bf
-0.06941689347296423 -0.18038821342989037 -0.198163072364317 -0.18386975437386394 -0.18478256167329707 -0.22314809716537962 -0.17573764175992332 -0.16827887772624714
0.16821503902247442 -0.15955274707865624 -0.042708903253703696 -0.23758021528361126 -0.058626597373810325 -0.14300364761183462 -0.09925587647331152 0.011231836205033461
0.11869732761380968 -0.0098633923435811 -0.25354907546372896 0.5365791578371657 -0.3270007418746771 -0.15709054352404547 -0.09450214214978023 -0.11988229652233015
-0.17318520101960505 0.08287145328484985 -0.219828640249108 -0.1321058741735143 -0.1073324714607421 -0.1526079727551208 -0.16322437240996085 -0.13980754855334845
-0.13462404584626655 0.0802578195198504 -0.12400132936042567 -0.0749944421894745 -0.07493936807015207 -0.058679082803448065 0.25217906826634773 -0.04856483946167584
-0.10043793939161343 -0.04196927373298589 0.30907353751015193 0.4095460025411102 0.16977557635113294 -0.15125942669504094 -0.1072125413363039 -0.0970317850406332
-0.12369588604604892 -0.1516098226216888 -0.11637052331149131 -0.12835110357293725 -0.19213506238641936 -0.11203978595480539 -0.10180627455697103 -0.14574975770365292
-0.013721651637168215 -0.1194146472301699 -0.1413528989126783 -0.0541687947446973 -0.07146818158224795 -0.011007512527189565 -0.05021109127798982 -0.23744855655754027
-0.10575089703879327 -0.12267303125458202 -0.22258917627815072 -0.03060690902797106 0.04504826748274634 -0.06993549991512728 0.04385756960957543 -0.17455225484082956
-0.03165708727967381 0.0034873943535919908 0.03624687679937083 -0.16342360480063578 -0.04460519907194482 -0.2259571146807165 -0.10589725787906505 -0.1296722150509392
-0.011331167299408248 -0.12644407725996587 0.001873760789747907 -0.21453815899693607 -0.142398932779439 -0.11806576210470061 -0.18945198810506897 -0.05129339368573339
-0.11631000461438896 -0.10321786411721047 -0.1999545673301891 -0.15932519964466954 0.029381580142558088 -0.07759028031893016 -0.16407804197182393 -0.06802862844223662
-0.15196437611593094 -0.18586785815268084 -0.054914353344019895 -0.18291355008553864 -0.015140058638011716 -0.05597770692188635 -0.08084901975429361 -0.15927901201772585
-0.09737497145536698 -0.07404700125657263 -0.10671388824197944 -0.10140896191088444 -0.12933552130488424 -0.1629118993737966 -0.08425135266281983 -0.04708647186815409
-0.15195704748586544 -0.16967579671144406 -0.1390352631041876 -0.07676693058186226 -0.12246615931701726 -0.04317490837131418 -0.22858204492669348 -0.04347129546395585
