Sphere/NeuralNetworks/models/net5_log29.pt (torch_old, 19083 bytes, 12 tensors)

weight f8 [6, 6]
00000000: 2edb e175 d0de cf3f d525 8700 d52c aebf
00000010: 0f65 4d75 1725 db3f 6a19 2f10 4223 943f
00000020: 00a6 a27a 73ce b6bf 3cb4 c7e1 ead0 b83f
00000030: c11d 3afd eccd 84bf 7a74 3f83 474b b2bf
00000040: eec6 5e3c f5dd a4bf a734 22d0 0c0d a6bf
00000050: 7668 3847 9659 bd3f 9bfa ed9c 4faa d3bf
00000060: dca8 76e7 9afa cc3f 2916 ab6e 9c3c d1bf
00000070: 4e6e 15a2 6c13 c13f 9a5b 9107 6e52 c43f
00000080: bb37 aa76 1f72 ccbf 6122 fbf9 3b34 d23f
00000090: 7681 8b35 659c b5bf cf50 1133 e546 c5bf
000000a0: c77e 8159 fc7d b1bf 6bd3 5701 b9e5 aebf
000000b0: e6ff d1a2 0a06 b03f 1d9c 0605 f24f d0bf
000000c0: ef8d 116d 4611 d83f fc9e acd6 ccb3 e83f
000000d0: 7585 d6c9 fc76 e3bf 45bb 8fae 9df3 efbf
000000e0: 0831 bfe1 28b1 fcbf 58d6 8eb9 b057 e5bf
000000f0: 0000 0080 38e6 d73f 0000 0020 486d cebf
00000100: 0000 0080 a288 c3bf 0000 0080 ab72 cf3f
00000110: 0000 0080 5d13 d03f 0000 0000 89d9 aabf
0.24898725276917716 -0.058935791315501675 0.42413889365487106 0.01966574882296738 -0.08908769363429059 0.09693782818040203 -0.010158397176623592 -0.07146117166799285
-0.040755904788410166 -0.04306831398671678 0.11464823950555733 -0.30726995778233296 0.22639786054543876 -0.26932440574123234 0.13340528406375757 0.15876555795213393
-0.22223275465188216 0.2844381276341093 -0.08441765362977613 -0.16622605317627978 -0.0683286398429984 -0.06034639493365187 0.06259218669038055 -0.2548794793205518
0.3760543885348104 0.7719482605798187 -0.6082748357913902 -0.9984882745173783 -1.7932518785701763 -0.6669543861559744 0.37342655658721924 -0.23771001398563385
-0.152607262134552 0.24568694829940796 0.251181960105896 -0.052440911531448364

bias f8 [6]
00000000: 60fc 07c9 f7a1 b4bf 9c01 64e9 6c09 d93f
00000010: 9706 0b27 666e d13f 2d3d 6280 e8d0 c1bf
00000020: 3d2b d7ab 404f fabf 0000 0080 05d5 d2bf
-0.08059643419254447 0.3912002829747736 0.2723632222442602 -0.1391878725885162 -1.6443487846870106 -0.29425179958343506

weight f8 [6, 6]
00000000: 991b 0341 6791 c53f b67d aa27 b2fd b3bf
00000010: bac4 2596 07d7 b4bf 6252 218c 0cfb e23f
00000020: 60fa ca7e c970 ec3f 0000 0000 2d1c b9bf
00000030: c07e 5497 f4e5 b9bf 6fc9 a71c 9eff b73f
00000040: 578d a7bd 71ad ab3f c90b 10dc d405 a73f
00000050: bb30 8883 6fbd d03f 0000 0020 cdbc d2bf
00000060: 772a 9879 3469 babf 7323 0d65 9ba9 c43f
00000070: 87c6 dfb7 1387 b0bf d325 e389 b7f5 ddbf
00000080: cda5 4aeb c357 a1bf 0000 0000 7bc7 c0bf
00000090: 65a1 e5b5 8079 d13f 0d05 6036 b4d1 bd3f
000000a0: 0000 0000 eb16 cc3f f852 3d83 ca8b c13f
000000b0: bcc7 16d1 0711 de3f 0000 00e0 5c34 cdbf
000000c0: 0000 0060 c8df d6bf 0000 00e0 908b d9bf
000000d0: 0000 0000 43b2 a3bf 0000 00e0 11d7 d1bf
000000e0: 0000 0080 4ebd babf 0000 0040 3439 d53f
000000f0: 0000 0080 bc8e c7bf a166 8b8b d334 ab3f
00000100: 0000 0000 ac84 88bf 3ddb e0ad 4acb c8bf
00000110: 907d 8557 75b1 98bf 0000 0020 6fb8 c8bf
0.16849985765858547 -0.07808984249503834 -0.08140609183989769 0.5931456314961674 0.8887679554389472 -0.09808617830276489 -0.10116509146291275 0.09374416541667129
0.05405764999502576 0.044966365683670136 0.26156223149224517 -0.2927735149860382 -0.10316780060399276 0.16142599519869413 -0.06456111182321865 -0.468122372298777
-0.033872721168630805 -0.13108766078948975 0.2730409408891517 0.11648107841030626 0.21944940090179443 0.13707858474904078 0.46978946131559574 -0.22816048562526703
-0.3574086129665375 -0.39914342761039734 -0.038469403982162476 -0.27875182032585144 -0.10445109009742737 0.33161646127700806 -0.18404346704483032 0.053137408050770725
-0.011971801519393921 -0.19370397081521587 -0.024114449946294025 -0.19312848150730133

bias f8 [6]
00000000: fde7 0212 13f6 b23f 7d9e 4068 b70c e03f
00000010: a788 c203 de19 643f d41e f4f5 ca29 b1bf
00000020: 0000 0000 eb61 b7bf 5b1c 0796 0099 88bf
0.0740672987912205 0.5015522991352125 0.0024537407135350633 -0.06704395775534105 -0.09133785963058472 -0.012010578707203281

weight f8 [30, 6]
00000000: ce42 6baa 7c5d d6bf 7b8d 71aa 2328 a13f
00000010: 5aea d9d5 a457 b6bf d81b f418 5d87 e53f
00000020: 0000 0040 afbc c2bf 5d0c c7ca 7b3e d63f
00000030: f8c3 3bf2 ed22 d3bf 9329 044d 76b4 be3f
00000040: c0d9 aea8 0009 bf3f 24f5 1357 e0f0 e03f
00000050: 0000 00c0 245a d93f a4f1 777d 403d c63f
00000060: 889d 01cd 480c d1bf cf94 c35b 94c8 ddbf
00000070: 59fa 93ef e368 b5bf aec4 cf24 5793 e83f
00000080: 0000 0000 8bb4 d13f 7791 bb07 3cf5 d63f
00000090: b6d0 57bb 731c c5bf a9dc 9fd3 7f04 91bf
000000a0: cf40 e9ba bdf7 c73f 1417 26af 2e65 cd3f
000000b0: 0000 0000 349b a33f 9ebb f70c 7015 c73f
000000c0: 131e 9143 f038 cdbf 26c9 c22a 4b90 c93f
000000d0: 9f10 dbd3 05dc a4bf 3897 762a 4f17 bf3f
000000e0: 0000 0080 41fa d7bf 7aa4 85dc 73a5 a3bf
000000f0: eccc f5ce fb93 d1bf 253e 47cf 297c 97bf
00000100: 3b2c e2b8 5a77 d8bf 6222 e426 7291 ce3f
00000110: 0000 00a0 0e74 c8bf 04c8 2914 1346 cf3f
00000120: 423b dba9 cb47 d5bf 2dfa a546 2d41 d2bf
00000130: b390 427e 96a0 d13f a917 ec0b 0687 da3f
00000140: 0000 0020 f59e cebf 6c76 ef0a 3383 c1bf
00000150: eb31 c728 fd31 d5bf d8e3 f118 b2c3 943f
00000160: d761 0182 1248 cabf 2873 460a d4a8 c63f
00000170: 0000 0040 3682 d1bf 3450 dfd8 5101 ba3f
00000180: d00d fe2b dfd0 d9bf 4a92 c576 abf7 913f
00000190: cd37 5ce9 6026 ddbf 509a 52d8 39bb d03f
000001a0: 0000 0080 938a bcbf 070b 4984 d6f5 9fbf
000001b0: cc37 2fbf b6bc d8bf 3ce8 818a ad9e ba3f
000001c0: 694c 9572 1223 cabf f878 1548 7d4a c13f
000001d0: 0000 00a0 1af6 d3bf 7af3 2b19 ce8c d3bf
000001e0: 2d19 09a3 2dd0 debf 3b9c 9e1e d8fc c33f
000001f0: ef4a a007 44fd be3f b97f ddb6 8f75 cf3f
00000200: 0000 0000 d341 c63f 6732 e2dc f39d c53f
00000210: 0a00 33c8 0236 e0bf ea9d d015 5c40 d93f
00000220: 8926 53c3 7e49 ce3f 639e 885e 7dd9 bf3f
00000230: 0000 0060 ee5f cebf cbdf 841a d1de d73f
00000240: 1495 5beb fc75 e1bf 8d77 3af3 6e0f c83f
00000250: 2d6f de48 7858 d63f 1fe9 4487 c1f0 d13f
00000260: 0000 0000 f6b2 a0bf 633a 09c3 3e53 c4bf
00000270: 296a 757a ea61 e1bf 8aee 730d 2b83 a3bf
00000280: e6a1 3dff 98d0 cc3f 856b 1608 81c3 d73f
00000290: 0000 0080 e94c b3bf 8527 a969 a101 cb3f
000002a0: 1d52 1e62 0b28 e0bf ed49 73d8 e18e cb3f
000002b0: 5ce4 bb63 3e26 2abf 7a75 ea63 11ac c03f
000002c0: 0000 0060 5207 c5bf fa7a 2fb2 3a23 cfbf
000002d0: 74c4 6ae8 fc6d dfbf d509 75b1 cccd a73f
000002e0: 6fab 9fa4 ecf2 8dbf 2a7e a6a8 3a18 c63f
000002f0: 0000 00c0 374e d33f e69e 82fa 63f9 d7bf
00000300: dab6 9d13 8c61 dfbf c552 86a6 c0d9 d0bf
00000310: 81b2 bfbf b376 b6bf ed5f 5912 0085 d43f
00000320: 0000 00c0 52fd d0bf fdb6 fc20 f9e5 d13f
00000330: 9c18 71bd ba0a debf e3c6 ddb1 5f56 a2bf
00000340: 80ad 87d5 f9a1 b8bf 01b7 5948 1f12 c13f
00000350: 0000 0000 305c c83f ec93 2fa9 0982 a7bf
00000360: 4988 e1ad 3d5c dcbf e86e e743 de5c bf3f
00000370: 327e 4e62 00ae d53f 5690 94dd e465 98bf
00000380: 0000 0000 5c3e cd3f a161 bcda 2ba0 c63f
00000390: c9a5 9d7d db07 dbbf ddf5 be04 053a b23f
000003a0: a699 7bfe a049 c03f 4196 fa9d 42ea aabf
000003b0: 0000 0080 51c0 d53f 4500 acd3 8655 c7bf
000003c0: b300 1357 c5d4 d7bf 3eca 672c b601 d2bf
000003d0: 7986 fb08 085f bebf 3dc5 fcce 4c87 a03f
000003e0: 0000 0000 7bb5 b83f 8f9c 56f4 01b4 d43f
000003f0: b1fd 407d e8c9 d4bf 9bdc 1ae1 765b c4bf
00000400: ecd0 1343 008b a83f a659 b84d a40d c2bf
00000410: 0000 0040 1e21 d83f 528c f047 30dd c1bf
00000420: f437 d7cc 7a36 d2bf dcbd ad8f 596f c53f
00000430: eaed 083a dbd3 a3bf 3769 9b57 8367 dabf
00000440: 0000 00c0 124a d2bf a00c 49d0 08dc dabf
00000450: 4d00 27fb 518e d4bf 6326 413d 0ac6 99bf
00000460: 1ac7 3b54 7369 d3bf e0cb c426 73cd cfbf
00000470: 0000 0080 23a7 cd3f 119b cede 458a d4bf
00000480: f8cd 51ee 8393 d8bf 9b52 4652 199b d2bf
00000490: 917c 03c1 054f d8bf c15f dd9c 9b23 7c3f
000004a0: 0000 0080 da97 d73f 6433 01df 0ed0 ce3f
000004b0: 2d30 a71f aeac d3bf cc2e 9ce2 d0bc c5bf
000004c0: b466 e6f8 c36f a63f d0ac 7a79 8bc0 cbbf
000004d0: 0000 0080 ace4 cebf 6883 df6a b2ba b73f
000004e0: d373 31f3 3839 d2bf c311 75ef d3dc 853f
000004f0: 7302 11f7 9388 d3bf f837 1c9c a6b6 d7bf
00000500: 0000 0040 c26d d23f 5c94 be6c 7b73 d3bf
00000510: 275b 7f7c 8e08 d3bf 2820 2968 e255 cfbf
00000520: c28a 1e41 773b a83f 3130 f027 e669 cbbf
00000530: 0000 00c0 c64f d0bf 948f efbd 1541 c13f
00000540: 340b 5f1c b2db d1bf 0d8c 933b 359b debf
00000550: 98fe cd42 1429 d63f 863f 79ef eb72 c0bf
00000560: 0000 0000 9f43 c33f 0267 00bd f92f bd3f
00000570: 4777 d248 0bf4 d0bf 57ea 7f08 1e76 dfbf
00000580: a140 fdf1 5325 c7bf e337 1ac4 b818 c4bf
00000590: 0000 0000 8f42 c0bf 5067 6c4a 19a6 c83f
-0.34945599215010936 0.03350936370477605 -0.0872748396013007 0.6727738845228215 -0.14638319611549377 0.34756369402402304 -0.29900692611323576 0.11994113331107874
0.12123111837613632 0.529403848718776 0.396126925945282 0.17374426008599386 -0.26637477893969974 -0.4653674026615819 -0.08363175009797298 0.7679858893372022
0.2766444683074951 0.35871792559762333 -0.16493078849419412 -0.01661872605469897 0.18724795938988456 0.2296503405779552 0.03829348087310791 0.18034172661961362
-0.2283001260677656 0.19971599185880357 -0.04074114047173904 0.1214494208021194 -0.37464940547943115 -0.038371678036875204 -0.2746572037787718 -0.022934582973730983
-0.38228481345203463 0.2388136567972366 -0.19104178249835968 0.24432600483447697 -0.3325070532563822 -0.2852280797887115 0.27542650537567254 0.41449118770867216
-0.23922599852085114 -0.13681638750033487 -0.33117608053433284 0.020277769825472663 -0.20532447193069345 0.17702723027914513 -0.27357250452041626 0.1015826372598106
-0.40337352081425326 0.017546347736600056 -0.45546744145474066 0.2614273655439421 -0.11148950457572937 -0.03121123487859292 -0.38651817961078616 0.10398373252419985
-0.20419531435854602 0.13508573550911485 -0.3118959963321686 -0.3054690595452524 -0.4814561931747388 0.156153693152392 0.1210520285242571 0.24577518872228923
0.17388379573822021 0.16888283047991878 -0.5065931234494212 0.3945532048259951 0.23661789452880935 0.12441237981749391 -0.23730258643627167 0.37297465886831266
-0.5456528279143265 0.18797098995576925 0.34914977184392876 0.2803195782650096 -0.03261536359786987 -0.15879044078106394 -0.543202628304532 -0.03811010874957528
0.2251158949177487 0.3713076189975982 -0.07539233565330505 0.21098725947586786 -0.5048882404685774 0.21529791897644604 -0.00019950400916693672 0.13025109652236805
-0.16428594291210175 -0.2432626123472444 -0.4910881299684384 0.04649200121140821 -0.014623497747342033 0.1726144145477389 0.3016490340232849 -0.37459659065142004
-0.4903288070262143 -0.26329056036165027 -0.0877487509857904 0.32061769287019964 -0.26546162366867065 0.27966144772913976 -0.4694048738496208 -0.03581522985667875
-0.09622155631193685 0.13336554558502914 0.19031333923339844 -0.045913984205789266 -0.44312993984761256 0.12251080663503056 0.338745208742668 -0.023826194786252884
0.22846555709838867 0.17676304035627502 -0.4223545767514137 0.07119780889384893 0.12724697519224754 -0.05256851366474936 0.3398631811141968 -0.18229756675282452
-0.37236150267927853 -0.2813544686934256 -0.11863756388950177 0.03228225733472321 0.09651917219161987 0.3234867941013783 -0.3248234961683592 -0.15904127112819286
0.04793549364868163 -0.1410413150303615 0.3770213723182678 -0.13956264031102933 -0.2845751762769162 0.1674606277042433 -0.03872571071084592 -0.4125679355180582
-0.28577107191085815 -0.4196798357044802 -0.3211865379962589 -0.025169525135686387 -0.3033111879914131 -0.2484573306370228 0.23166316747665405 -0.32093950994969683
-0.38400362275498834 -0.29071648630751107 -0.37982314919458654 0.006869895803752913 0.3686434030532837 0.24072442902470492 -0.30741456118699056 -0.16982470574327235
0.04382145322160849 -0.21681350165940794 -0.2413535714149475 0.09269251927572741 -0.28474258183797224 0.010675101990849428 -0.3052110588796843 -0.37052312131061127
0.2879491448402405 -0.30392346973014184 -0.29739725263555034 -0.2448084839436444 0.04732868833459271 -0.21416928243741176 -0.25486916303634644 0.13479873441894752
-0.27903416414862936 -0.4782231408882474 0.3462572719945256 -0.12850712960289118 0.15050113201141357 0.11401329864784418 -0.26489526855026607 -0.4915843089108071
-0.1808266574466915 -0.15700444770158048 -0.12703120708465576 0.19256893285710897

bias f8 [30]
00000000: acea 7b1e 76b3 edbf f861 aea2 5ff7 f0bf
00000010: 4e7b 37dd dbd0 e7bf 8177 263b a5e2 e4bf
00000020: 6323 dc44 e21a d8bf fb0d bff9 1393 89bf
00000030: fe90 ea01 7a71 d03f 6050 3e4d 63e5 c03f
00000040: 9821 eb96 b1fe c23f 230e 9c45 5a7e b43f
00000050: be33 c845 1f7a a53f 7dc1 8924 dfbb bcbf
00000060: 6cb5 d413 ae5d 96bf 8489 f3ae ed95 b23f
00000070: 21fa 8219 6843 b9bf 9584 93cf 727f a2bf
00000080: d925 fae4 a9a1 ba3f 1ead 299d e021 abbf
00000090: d1df 1fa5 68a4 c6bf b4f4 c3ef 1a19 c8bf
000000a0: 14ec caea ac3d a7bf 5df5 b31c 86d9 c4bf
000000b0: 748f 81a2 ce32 d9bf f4d4 f1b2 6640 d5bf
000000c0: 8b44 2452 4237 cdbf eff7 a0c6 9017 d7bf
000000d0: fcdb a6bb ea8b e0bf be5e af31 f686 dbbf
000000e0: 171b 3950 440a d7bf 97cb ddcf 7205 dabf
-0.928156909503135 -1.060393939469689 -0.7442454643859067 -0.6526666789320502 -0.37664086079217024 -0.012487560328628957 0.25692606150757047 0.1320003630795581
0.1483976351648948 0.0800529880471506 0.04194734312850511 -0.11224169389766377 -0.021841735802060766 0.07260022660515203 -0.09868479369013318 -0.03612860473527594
0.10402929153692443 -0.05299283903590378 -0.17689235747070467 -0.18826615054414264 -0.045392421399320565 -0.16288830186378336 -0.39372602338538987 -0.3320557353502658
-0.22824887286018156 -0.36081332585661036 -0.5170797028612237 -0.4301124081807578 -0.36000163873943464 -0.406582549089927

log_wavenumbers f8 [30]
00000000: 0000 0000 0000 0000 ef39 fafe 422e e63f
00000010: 0b03 ad7a ea93 f13f ef39 fafe 422e f63f
00000020: 338d edf7 41c0 f93f 0220 2afa 0bab fc3f
00000030: 575a 32ae 7222 ff3f 73ab 3b3f b2a2 0040
00000040: 0b03 ad7a ea93 0140 1655 b5bb b16b 0240
00000050: 4c37 7fb7 e32e 0340 7d9e d3bc 16e1 0340
00000060: 518c 312b 0485 0440 a7bb d716 ca1c 0540
00000070: 1f48 4d39 16aa 0540 ef39 fafe 422e 0640
00000080: 7a7f fac1 6baa 0640 8691 6b3a 7b1f 0740
00000090: 2cb3 0406 368e 0740 91e3 737b 42f7 0740
000000a0: b1ae 6f94 2e5b 0840 c8c5 3d77 74ba 0840
000000b0: f0b3 d1fd 7d15 0940 f92c 927c a76c 0940
000000c0: 338d edf7 41c0 0940 cd1a f0ea 9410 0a40
000000d0: 9084 03b8 df5d 0a40 234a 96d6 5aa8 0a40
000000e0: 1ffe cdcb 38f0 0a40 9bd6 0bf9 a635 0b40
0.0 0.6931471805599453 1.0986122886681098 1.3862943611198906 1.6094379124341003 1.791759469228055 1.9459101490553132 2.0794415416798357
2.1972245773362196 2.302585092994046 2.3978952727983707 2.4849066497880004 2.5649493574615367 2.6390573296152584 2.70805020110221 2.772588722239781
2.833213344056216 2.8903717578961645 2.9444389791664403 2.995732273553991 3.044522437723423 3.091042453358316 3.1354942159291497 3.1780538303479458
3.2188758248682006 3.258096538021482 3.295836866004329 3.332204510175204 3.367295829986474 3.4011973816621555

grid_cell_size f8 [30]
00000000: ef39 fafe 422e d63f 0b03 ad7a ea93 e13f
00000010: ef39 fafe 422e d63f 5014 81fa ae58 d03f
00000020: 4c98 bfec 23f3 c93f 9034 13d9 c288 c53f
00000030: 90db 3411 6269 c23f fcae 9e1c 8915 c03f
00000040: 309a 9ac7 f78f bc3f 1044 23cd 93af b93f
00000050: 7096 e411 5056 b73f 5050 253b 0762 b53f
00000060: a0d2 41a0 35bb b33f e0bc bbe1 2051 b23f
00000070: 80e4 2782 8e17 b13f b075 d38a 5805 b03f
00000080: e0f2 2a6e 0727 ae3f 4076 4681 4879 ac3f
00000090: 6041 0a21 e8f8 aa3f a070 5fcd 119f a93f
000000a0: e046 3c79 3f66 a83f e0a7 402c ed49 a73f
000000b0: 20e6 8caa 6046 a63f 6028 7b43 7f58 a53f
000000c0: 80ba bdcb ad7d a43f a0eb be02 b8b3 a33f
000000d0: c0ea c574 bdf8 a23f e031 4f79 224b a23f
000000e0: 008f b14e 84a9 a13f 001f 764f 8b5b 913f
0.34657359027997264 0.5493061443340549 0.34657359027997264 0.25541281188299525 0.2027325540540822 0.16823611831060648 0.1438410362258904 0.12565721414045317
0.11157177565710508 0.10033534773107555 0.09116077839697723 0.08352704233158303 0.07707533991362903 0.07155042182033666 0.06676569631226137 0.06258157147700305
0.058891517828191686 0.05561281755511205 0.05268025782891317 0.050041729278491376 0.047655089902162606 0.04548588910286333 0.04350568849481484 0.041690804469525444
0.04002135383676819 0.03848052056806428 0.037053986076860834 0.03572948199107251 0.03449643574347583 0.01695077583784066

w_1 f8 []
00000000: 2f48 f654 0e37 563f
0.0013558998069567276

w_2 f8 []
00000000: fc89 6a7f 6cd3 923f
0.01838464286505291

log_max_wavenumber f8 []
00000000: 9bd6 0bf9 a635 0b40
3.4011973816621555

radius f8 []
00000000: 178b 2fd1 7852 f13f
1.0826347514454875
