Sphere/NeuralNetworks/models/net5_log.pt (torch_old, 208980 bytes, 16 tensors)

weight f8 [36, 6]
000000 6b 2c f4 6c e7 08 cd 3f 53 1d 88 fa b3 77 95 3f
       0.22683422870645428 0.020964443365327167
000010 94 52 8a f8 6c 9f c0 bf 60 a3 3a d5 d3 fd d1 bf
       -0.12986528526075303 -0.2811173994364733
000020 e8 09 5c 99 bf 04 c0 3f 67 19 d4 f9 e5 bc c6 3f
       0.12514491070039857 0.17763971995027392
000030 72 7b 59 81 b3 1f e3 3f f2 8d da b6 25 57 f0 3f
       0.5976197744711114 1.0212762015079275
000040 ab da 4f 03 d7 3e d3 3f ad 39 d4 f4 4e a7 c6 3f
       0.30071044276648234 0.17698084787884963
000050 8a c4 03 9a 0c e3 b4 3f 88 27 e2 2c df 8c c8 bf
       0.08158949623227066 -0.19179906550953896
000060 a3 45 b0 32 44 5f 79 3f 45 ce 4a f5 62 de 92 bf
       0.006194368742414555 -0.018426462384651527
000070 b6 77 97 5b d2 8f c0 3f fb b2 70 2e 35 97 c6 3f
       0.1293890902733758 0.17648949401463895
000080 02 e3 79 4f a8 ff 9d bf a3 59 9e 3f 82 81 b2 3f
       -0.029295568323933992 0.07228864720523247
000090 00 00 00 00 15 3f c1 3f 00 00 00 00 e0 8c a6 bf
       0.13473761081695557 -0.044043540954589844
0000a0 00 00 00 00 fe a4 99 bf 00 00 00 00 3c a8 80 bf
       -0.025043457746505737 -0.008133381605148315
0000b0 00 00 00 40 e4 d1 d8 3f 00 00 00 80 e1 6a b5 3f
       0.38781076669692993 0.08366212248802185
0000c0 98 c0 ff 06 6b 86 d4 3f 0f 74 21 42 bc ae d3 3f
       0.32070422824382083 0.3075400014693636
0000d0 53 fc 88 5a b3 e9 b2 bf cb 8d 38 4a 2d 65 9e bf
       -0.07387848816232294 -0.02968283429630762
0000e0 0c c0 fa 34 a1 5a 9d bf 43 92 b0 7f e6 78 bd bf
       -0.028666037424670818 -0.11512604348588078
0000f0 2e 0d 70 c8 51 3b c6 bf df e4 64 37 63 35 b6 bf
       -0.17368528639790654 -0.08675212957759325
000100 ed 3f 09 50 2e 2d d2 3f 81 3e 57 2a 9d af d1 3f
       0.2840076238253449 0.27634362349360947
000110 ea 6a 3a a5 b1 c7 bf bf 95 a1 72 7b c0 40 ca 3f
       -0.12414083751574947 0.205101070668445
000120 b9 bf a9 5b 25 ca a1 bf b3 f6 ce 38 ad 02 dc 3f
       -0.034745376052228 0.4376633696336782
000130 63 73 96 c4 8a 4e c9 3f 36 65 bb eb 5b 22 bd bf
       0.1977094135189886 -0.1138055277364359
000140 0c 52 a3 41 be 29 d2 3f 1b 09 f5 bd 23 10 b7 bf
       0.28379780206640315 -0.09009002101541734
000150 48 a9 f3 66 eb 11 e3 3f 84 d6 19 12 1c f0 cf 3f
       0.5959374438073519 0.24951506503900955
000160 8d 0b 95 c3 d2 fe c9 bf 15 f3 23 f4 c2 b9 c7 bf
       -0.20308908986961818 -0.18535649224204379
000170 0c 7a 8e 89 0c 61 b0 bf 72 bb ec 7a 09 6b db 3f
       -0.06398084982217983 0.4284080219685428
000180 a6 37 99 91 35 08 d4 bf 74 73 49 88 c6 90 d5 bf
       -0.31300105303386727 -0.3369613963057454
000190 43 f8 49 30 d5 7e b6 bf 07 c7 85 cb 59 e9 7e 3f
       -0.08787281445435817 0.007546759378202378
0001a0 78 0c d7 04 8c e6 a6 3f fc 68 41 ed 2a da c5 3f
       0.044727683630775894 0.1707204493021165
0001b0 62 2b 3f 28 63 0f c9 3f 02 5e bb 9d 4a 64 d7 3f
       0.1957820841328966 0.3654963054991357
0001c0 52 16 d6 c7 41 0d c9 3f bd c1 7e 22 f6 32 ce 3f
       0.1957170701754643 0.23593022045453252
0001d0 b0 1b 03 a8 89 de c3 bf c9 06 24 a3 36 eb 97 3f
       -0.15522881225316842 0.02335820551616655
0001e0 57 5e e7 6f fd 23 d9 bf 70 6e cc ae 4f eb d7 bf
       -0.39282165458778223 -0.3737372595803441
0001f0 b6 ca 5b 44 9e b1 b4 bf 81 b4 ef 74 50 2d ad 3f
       -0.08083523911390497 0.056986345552879854
000200 1c 7f 95 68 45 9f a6 3f 97 af 73 f4 34 93 a0 3f
       0.04418389226589012 0.03237309917480429
000210 80 23 2d 88 e9 9f d4 3f 3f b6 f7 4f 6e b3 d7 bf
       0.32226026819676434 -0.3703265934881052
000220 74 d3 7e 44 0f aa ca bf 4d 3c d0 53 57 d2 ce 3f
       -0.20831480831625593 0.24079410164310602
000230 8e 16 58 ca b3 14 c1 bf c8 c4 d1 db 7d 6e d0 3f
       -0.13344428424914095 0.25674387423266554
000240 fb 4c 46 ab 83 3b d3 3f 48 62 0a fd 7d 09 90 3f
       0.30050746656452504 0.015661209649439095
000250 3d ae b7 71 9f a8 de bf 37 65 d3 eb f5 0a dc bf
       -0.4790419207117543 -0.4381689837442368
000260 1d d9 41 f1 ee 26 d1 bf cf d1 b3 0e 58 86 d3 bf
       -0.26800130424762064 -0.30507470546515675
000270 ec 03 c5 40 cc 0b ce 3f 02 2a 4a 40 95 72 af bf
       0.23473504221513453 -0.06142107400690479
000280 dd 56 8d c2 23 26 98 bf 64 8b 74 f3 06 8f d1 3f
       -0.02358299136115859 0.27435468459059664
000290 bd 90 b7 c5 cf 66 83 bf d1 77 34 86 af 37 7c 3f
       -0.009473441335054006 0.0068890434661436776
0002a0 00 00 00 80 92 1e c0 3f 00 00 00 00 50 2d 93 bf
       0.1259329915046692 -0.018727540969848633
0002b0 00 00 00 00 7e 5c 96 bf 00 00 00 80 a3 51 b5 bf
       -0.021837204694747925 -0.08327695727348328
0002c0 00 00 00 80 1a c0 c0 bf 00 00 00 c0 bc 45 d5 3f
       -0.1308625340461731 0.3323814272880554
0002d0 57 d4 d2 ef c3 64 10 bf ae 37 68 5b ef f1 d4 bf
       -6.253667739282549e-05 -0.3272665398261506
0002e0 a6 a9 b3 4a 8b 7b c9 bf 24 80 11 e2 ac 1a d3 bf
       -0.19908276698636235 -0.29850313260067396
0002f0 63 c7 5a 72 5b da d5 3f 02 5c b7 48 74 e3 d8 3f
       0.3414524666542233 0.3888827047462088
000300 d0 42 60 19 31 6f f0 3f 6f b6 33 fe 4c fa e8 3f
       1.027146433949543 0.7805542912371503
000310 ac 24 2e bd 78 6c 89 3f 8c bb ea c0 dd 5a 9e 3f
       0.012413924477885217 0.029643502139773
000320 9e bf dd c9 12 51 97 bf a7 5c 67 fb dd 6d cc bf
       -0.02277020794957673 -0.22210287833761308
000330 00 00 00 00 0a 37 ca bf 00 00 00 40 c4 c7 d5 3f
       -0.2048046588897705 0.3403177857398987
000340 00 00 00 40 9d 34 d5 3f 00 00 00 80 90 5c c4 3f
       0.3313363194465637 0.1590748429298401
000350 00 00 00 00 2c d7 c7 3f 00 00 00 00 6f 0b cd 3f
       0.18625402450561523 0.22691142559051514
000360 cc 32 29 a6 30 95 f0 3f c4 27 7a 50 00 a3 d7 3f
       1.036423348489893 0.3693238054189545
000370 75 b7 d7 55 b3 67 d3 bf 22 33 f2 e0 6b 11 ba bf
       -0.30320437796660055 -0.10182832948539702
000380 e3 66 53 75 39 8d 8b bf a4 24 43 86 f9 63 b5 bf
       -0.013452958004950449 -0.08355674293410914
000390 ac 8f 83 30 c3 57 ca bf f8 17 c6 c4 e0 ef cd bf
       -0.20580329769938766 -0.2338829956826769
0003a0 96 43 c7 b2 04 2d 95 3f bc 8d 7f bd 51 5a b7 3f
       0.020679543887868933 0.09122191311285283
0003b0 3c d0 5c 22 4c 47 d6 3f 07 50 f3 72 11 8b c3 3f
       0.3481016479083825 0.15268152344526717
0003c0 6b 21 ed 6a ce 43 dd 3f 02 fb fb 1a 6a d2 c9 3f
       0.4572635692789137 0.2017338401564857
0003d0 7d ce e3 73 fc cb d8 3f 1d 1f b6 10 71 4b a7 bf
       0.38745032613153524 -0.045497449197737995
0003e0 0b aa d1 f0 21 38 d0 3f 0f 9f a0 ac 6a ca bb bf
       0.2534260608432823 -0.10855738367592614
0003f0 4f be 2b f8 fd f0 a0 bf e8 49 51 d7 55 11 c2 bf
       -0.03308862356595609 -0.14115403188277686
000400 a4 40 79 9e e6 d0 87 bf 01 ba 55 7d 93 c4 db 3f
       -0.011628915511352318 0.43387305488332123
000410 b4 16 fa 48 80 44 c3 bf 79 8c 4d 9c b4 de cd 3f
       -0.15052798808408385 0.23335893280009026
000420 42 29 a8 be c1 06 bb 3f e1 2f 12 89 9b c2 d3 bf
       0.10557185082158063 -0.3087529028496175
000430 ac 30 09 1e 09 ba a7 3f 84 33 c2 cd fa 58 d9 3f
       0.04634121410035283 0.39605589002240316
000440 05 61 3a 93 85 c4 b6 bf c5 c3 fe 3b f3 0e 60 bf
       -0.08893618435320512 -0.001960253779508455
000450 70 aa ac 76 e1 0a de bf 4e e1 e8 f2 f3 a2 ef 3f
       -0.4694141062670161 0.9886417145089952
000460 9c ea 0b ce dd 3e de 3f ca 18 46 62 38 66 d0 3f
       0.4725870620892836 0.2562390289025528
000470 ac e6 cc 4e 87 ea aa bf e5 ef 37 95 a2 e6 b0 bf
       -0.052570560807408157 -0.066019212179469
000480 00 00 00 00 e7 aa bd bf 00 00 00 00 8f f0 b4 bf
       -0.11588901281356812 -0.08179563283920288
000490 00 00 00 a0 47 8d d3 bf 00 00 00 80 4f d6 c5 3f
       -0.30549803376197815 0.1706027388572693
0004a0 00 00 00 80 99 c6 b6 3f 00 00 00 80 2a 3d d2 3f
       0.08896788954734802 0.2849832773208618
0004b0 00 00 00 40 7f dc d5 3f 00 00 00 00 ce 33 a2 3f
       0.3415830731391907 0.035551488399505615
0004c0 00 00 00 00 35 d3 d6 3f 00 00 00 80 b2 67 b6 bf
       0.3566410541534424 -0.08751979470252991
0004d0 00 00 00 c0 e1 1c da 3f 00 00 00 00 fb 25 c0 3f
       0.4080128073692322 0.12615907192230225
0004e0 e3 92 b2 48 87 e9 a3 3f 99 97 ad cb 50 af ac bf
       0.03889105570241271 -0.05602505194001068
0004f0 90 1d 01 15 7e 26 93 3f 40 b6 88 a1 40 c5 bb bf
       0.018701524765018684 -0.10847858375265051
000500 55 f7 d0 48 0c da a3 bf bd 6e 57 5b 3c 7f c3 3f
       -0.03877294911261112 0.1523204275134641
000510 31 29 f5 48 36 77 b4 bf e2 0e eb 76 47 48 bd 3f
       -0.07994403153603426 0.11438414243007913
000520 2f f7 a5 33 a5 63 c7 3f 3e 65 c5 a8 1e b7 97 3f
       0.18272843381776613 0.02315948395821476
000530 fb ca 07 08 62 ce cf 3f 7e a6 2b fa 91 a8 b7 bf
       0.24848580734359146 -0.09241592748335312
000540 c5 94 98 b7 43 f1 90 bf 0f 70 0c c1 d4 6f 9d 3f
       -0.016545351105510493 0.02874691417956404
000550 12 dd 48 20 a6 2f ba 3f dc 69 46 d7 7a 78 a3 3f
       0.10228956497381983 0.03802856328839585
000560 3e f8 21 86 ac c3 c8 bf 62 13 13 85 16 a3 c1 bf
       -0.19347149419258075 -0.13778954980639485
000570 c1 e5 f8 56 92 8e de 3f 84 58 15 22 42 d9 b4 3f
       0.477451882299274 0.08144009906877342
000580 e2 fd 00 27 83 36 cb bf 8e 85 8c e3 93 80 b6 bf
       -0.2126010837982753 -0.08789943986314183
000590 0f c1 87 92 79 bf ca 3f 36 54 a5 fb 14 28 b6 bf
       0.20896834997939392 -0.08654910224625287
0005a0 e4 2b f3 77 8a 95 bc bf 4e e2 94 95 42 c5 ce 3f
       -0.11165681293930124 0.24039490035808558
0005b0 74 6a 21 ea 6d 44 da 3f b8 c9 75 7d eb 88 c1 bf
       0.4104265963011706 -0.1369909632299604
0005c0 fd 9c 82 65 93 2b ce 3f e6 75 db 29 af b5 8d 3f
       0.23570482689431307 0.014506691422350348
0005d0 c1 04 24 9a 30 08 e4 3f 4b 24 71 73 7d 88 d9 3f
       0.6259997377930163 0.39895569108609114
0005e0 db b4 cb 5f 33 d9 cc 3f db 8f bf c0 52 71 aa 3f
       0.2253784387352543 0.051645837811321114
0005f0 ab 62 c5 8d 71 97 ab bf 47 ce f3 8b 00 2b 7f 3f
       -0.053889797740969435 0.007609369407180439
000600 0b d4 d5 1b 93 cb ab bf 50 18 89 84 89 71 93 bf
       -0.05428752627168628 -0.01898779746468221
000610 70 8f 58 3e e0 ba da 3f 57 95 a8 01 93 6c c2 3f
       0.4176560028883989 0.1439384229753766
000620 ee 45 18 3e f6 1e be bf 07 11 a6 30 33 57 d0 3f
       -0.11765994087206597 0.2553222632489142
000630 00 00 00 80 a2 f3 d5 3f 00 00 00 00 85 34 b7 3f
       0.342995285987854 0.09064513444900513
000640 00 00 00 00 a7 24 ae bf 00 00 00 00 ec 10 c9 bf
       -0.058873385190963745 -0.19582891464233398
000650 00 00 00 80 64 2b ca 3f 00 00 00 80 33 27 c1 3f
       0.20444923639297485 0.13400882482528687
000660 16 70 1d 78 ba f9 da 3f 69 69 a8 95 0a 1d b7 3f
       0.42149221162776607 0.09028688577419576
000670 a6 f9 f1 91 77 dd cb bf d7 a4 14 1e 87 88 be bf
       -0.2176961386321185 -0.11927074894323951
000680 cb 66 63 e1 8c ea 9c bf f4 e4 a0 a9 dc 24 b7 3f
       -0.028238488442048387 0.09040621892281192
000690 b8 b3 30 69 7b 14 c5 bf fa aa 55 e5 5d 85 aa bf
       -0.16468756328813838 -0.051798757786704244
0006a0 2b 24 b6 be f4 df cc 3f 79 45 b8 a2 a5 ce b5 bf
       0.22558459579548304 -0.08518443319942105
0006b0 e4 f9 60 aa 95 96 d0 3f 56 5e f8 4c d7 bb c2 3f
       0.25919095648342094 0.14635745294866592

bias f8 [36]
000000 b1 1f cf 83 76 20 df bf db 3e 94 1b fe ab da 3f
       -0.48635638114910323 0.4167475957228654
000010 03 52 6e 4b 67 2e d4 3f 00 00 00 00 39 fc c5 bf
       0.3153322445516837 -0.1717597246170044
000020 28 4c ed 90 b6 19 de 3f 68 a4 a0 b6 d3 c1 db bf
       0.47031940606138045 -0.43370526156156197
000030 16 66 a4 5e e9 45 cd bf b2 c9 e2 7f 1b c3 c1 bf
       -0.22869603272629097 -0.1387667059367011
000040 fa 14 12 36 af d8 de bf 8a 18 30 dc 35 d0 e6 bf
       -0.4819753673585435 -0.712916307501261
000050 18 dd bd 97 29 8e ce bf 4c bf 0b db 05 53 aa bf
       -0.23871345433483593 -0.0514146642580032
000060 a6 04 f1 aa d2 6e e3 bf 7e b6 7a a1 0d a7 d7 3f
       -0.6072781885815359 0.3695711209246396
000070 00 00 00 00 54 55 c0 3f 89 91 00 98 6c db dc bf
       0.12760400772094727 -0.4508925899883925
000080 4d cb 25 f1 95 26 b3 3f 00 00 00 00 e8 c9 d6 3f
       0.07480752122300523 0.35607337951660156
000090 80 ea de 45 d8 54 e8 bf 61 5f 1e a5 bc f1 c8 3f
       -0.7603570332206147 0.19487722456392034
0000a0 fb e1 ff 9f 9d e3 c1 bf 92 25 0e cf a8 eb c8 bf
       -0.13975878059842714 -0.1946917544376388
0000b0 5f 23 14 7a 21 53 da bf e4 8b 36 fd 05 b2 cb 3f
       -0.4113238994764767 0.21637034286422285
0000c0 00 00 00 c0 90 72 ce bf 00 00 00 c0 1f bf d8 bf
       -0.23787125945091248 -0.3866652846336365
0000d0 24 24 9d 65 ba 5a d1 bf 55 15 81 7f a8 9d c4 3f
       -0.2711626045534692 0.16106134630005423
0000e0 47 25 44 7d 7b 65 ec 3f 75 38 78 73 93 56 e2 bf
       0.8873879858594272 -0.5730683570161675
0000f0 17 c2 f5 82 91 d1 90 3f b3 d0 cb 78 cc bb e9 bf
       0.01642444001976359 -0.8041746482181423
000100 63 46 d2 94 f3 eb d1 3f 00 00 00 00 78 8b bf 3f
       0.2800263360341885 0.12322187423706055
000110 54 59 11 a9 5b b5 f3 bf 52 39 24 34 c2 fe c2 3f
       -1.2317768673143137 0.1483996157262007

weight f8 [72, 36]
000000 24 da 60 ae 39 ef ae 3f a1 6d 4b bd 4c 25 d7 3f
       0.06041889432565409 0.36165159688763465
000010 2a 88 dd e8 4f c2 bb 3f 00 00 00 60 33 c6 b3 bf
       0.10843371806325366 -0.07724305242300034
000020 4e 1c ff c9 08 e7 b9 bf ef b8 ef 4e 97 39 c7 3f
       -0.10118155414157678 0.18144503931348008
000030 7b 69 d2 95 76 22 bb bf 42 f7 34 b2 ba f3 bb 3f
       -0.10599461705934303 0.10918776369814245
000040 c3 62 87 73 8d 09 b4 3f 8c 92 17 ff 33 52 c5 3f
       0.07827076025513251 0.1665711398665234
000050 8c 9d 2e 2e 6e dd b6 3f a2 24 b7 dc 70 f7 9a bf
       0.08931625964634388 -0.026334537001990406
000060 47 e0 4e f7 08 0b 93 bf ad 8c db 03 ef 72 cd 3f
       -0.018596782774438016 0.23006999672279474
000070 00 00 00 60 41 c6 c0 3f 8a 90 42 de ad 5d c0 3f
       0.13105027377605438 0.12785886147060338
000080 31 4d 8c 1b 15 95 c0 bf 00 00 00 a0 82 01 c3 3f
       -0.12954963536376732 0.14848358929157257
000090 8c 7b 5e f2 eb a1 b0 3f ff 6b 43 73 c1 57 c0 bf
       0.06497072856153191 -0.127678090363446
0000a0 3a 09 26 ce ea fc 6a 3f 60 06 43 fe 06 cd d2 3f
       0.0032944284477604254 0.29376387434249374
0000b0 46 4f 97 63 f8 82 a2 bf 40 ee 29 b5 d1 7b 6c bf
       -0.03615547385893918 -0.003477010331435243
0000c0 00 00 00 20 f6 5d c2 3f 00 00 00 40 4e 04 bb 3f
       0.14349247515201569 0.10553444921970367
0000d0 51 1d b1 c4 fa 8d bc 3f 33 4e 74 b5 83 d1 be 3f
       0.11154143621489722 0.12038443737065378
0000e0 4d e0 2c d8 fd 23 af bf 85 3c af e2 5e e4 c3 3f
       -0.06082146896227467 0.15540681904392187
0000f0 a4 b6 f4 88 53 6f c0 3f de dc 14 7f 83 f3 97 bf
       0.12839740931797394 -0.023389868384779848
000100 04 c2 db 2f b4 c4 b8 3f 00 00 00 00 6e 5b be bf
       0.09675146263521844 -0.11858260631561279
000110 20 89 91 64 3f fa b2 3f 14 fa ac f2 06 ef bb 3f
       0.07413097577367411 0.10911601471614346
000120 29 ac 7f 6a 78 16 4e 3f 81 02 92 5e 93 15 92 3f
       0.0009182060211946386 0.017660429617992527
000130 7e 15 68 73 f2 9a bc 3f 00 00 00 00 ba 15 86 bf
       0.11173930470984847 -0.01078362762928009
000140 a2 4a d6 13 1f 33 d1 bf 30 72 ad c3 b0 fe 68 bf
       -0.2687452024194191 -0.0030511333874712263
000150 0b dc bc a8 7a 5f ab 3f 21 46 14 a9 48 03 c3 3f
       0.05346282300745749 0.1485377145368583
000160 d9 8f d2 93 a5 84 c9 bf b3 ae 77 b8 39 6d c1 bf
       -0.199360558680495 -0.1361457968445073
000170 2d e7 d9 46 17 14 bb bf ac 01 ef ea d4 a3 be bf
       -0.10577531318440654 -0.11968737350162567
000180 07 8a 76 48 3f e9 d0 bf 13 e7 8a 9a fc 04 b8 3f
       -0.26423627926320176 0.09382609150898373
000190 00 00 00 80 51 d9 a5 3f 63 05 05 9d 86 44 9e 3f
       0.04267363250255585 0.029558280309406892
0001a0 b7 1a ec 85 a2 1d bc bf 00 00 00 c0 47 aa b1 bf
       -0.10982719201647738 -0.06900452077388763
0001b0 c2 b2 2b b3 2c 0e c1 bf 8e aa 89 8d 0d 9b a6 bf
       -0.13324507473534736 -0.04415171005969852
0001c0 f0 0a 39 6e ec 6d 9f 3f 17 42 f5 7c cf cc a9 3f
       0.030692762591807587 0.05039070511213966
0001d0 df ac 4f da 52 24 c0 3f d6 c1 a1 02 69 f1 c8 3f
       0.12610850963333228 0.194867254529085
0001e0 00 00 00 80 68 6e ae 3f 00 00 00 00 a2 4f bb bf
       0.059436097741127014 -0.10668385028839111
0001f0 b5 eb e5 3e 73 8f 71 bf 71 b5 fb 4a c2 02 98 bf
       -0.004287195375918641 -0.02344802458440171
000200 90 b6 8a 5d 3b 0c b1 3f 3f 6c d8 46 39 bd c8 bf
       0.06659289392220047 -0.19327465018509035
000210 d0 00 71 e6 4e 37 c0 3f 38 ee a8 c8 69 5a aa bf
       0.12668787242910762 -0.05147104811154829
000220 60 6c 88 8e 83 2a c1 bf 00 00 00 00 f8 91 b7 bf
       -0.13410992107023656 -0.0920710563659668
000230 0c 5d b0 20 fd 72 b4 3f 31 e6 9c ac 99 29 b2 bf
       0.07987958953923541 -0.07094727005178282
000240 ee af 4e 22 10 df 05 3f d3 51 51 b8 6d 5b c5 bf
       4.171627032376045e-05 -0.16685267925153244
000250 a3 4f a2 b1 c6 91 c2 bf 00 00 00 c0 32 5c be 3f
       -0.14507373498474604 0.11859433352947235
000260 d8 91 ea c6 32 9a 7e bf 1c b8 12 6c 9a be bb bf
       -0.007471273753854445 -0.10837712419990492
000270 31 54 ad 6f d3 ed bc bf 35 d9 72 0d a6 ef a5 bf
       -0.11300393558970324 -0.042843999044111326
000280 93 40 15 8d 3d c7 bd bf ea 92 ba 3b 08 d1 be bf
       -0.11632141775521836 -0.12037707765791664
000290 e3 ae 4d 9a bf 45 69 bf 00 00 00 c0 f6 0b b9 3f
       -0.0030850164643448793 0.09783880412578583
0002a0 4e 90 73 43 e1 7d ca bf 00 00 00 e0 99 90 c4 bf
       -0.2069665507652893 -0.16066287457942963
0002b0 00 00 00 00 d0 03 5f bf 00 00 00 c0 e0 f2 b7 bf
       -0.0018929988145828247 -0.09354977309703827
0002c0 1c 87 f3 79 63 8b b7 bf 00 00 00 00 06 0c 8a 3f
       -0.09197065093351536 0.012718245387077332
0002d0 a8 88 76 79 5a 47 b4 bf 00 00 00 00 99 5a bb bf
       -0.07921376672178104 -0.10685116052627563
0002e0 2b 98 ad 0b 12 40 b2 bf a6 08 2a 67 7d de c6 bf
       -0.07129013810262623 -0.17866485154451545
0002f0 00 00 00 20 1f 29 c0 3f 20 d5 e5 f8 e7 21 b7 bf
       0.12625493109226227 -0.0903611166630367
000300 00 00 00 00 82 3f b0 3f 00 00 00 00 a2 78 8c 3f
       0.0634690523147583 0.013901963829994202
000310 22 c6 71 fc 09 0b c5 bf ac c1 c1 74 eb 60 b0 bf
       -0.16439938379657898 -0.06397887802609742
000320 de 62 2d 64 61 b4 a6 bf f0 e3 0f 15 22 c7 b8 bf
       -0.04434494350306804 -0.0967885304852556
000330 15 09 6d 7c 34 7b c6 bf a3 17 84 a6 ee bf a0 3f
       -0.17563491893276564 0.03271432669320908
000340 00 00 00 00 64 1c bf bf 00 00 00 20 90 e3 c3 3f
       -0.12152695655822754 0.1553821712732315
000350 57 cb cd 1d f8 af ac bf 00 00 00 00 c8 2e 61 bf
       -0.05603003848854964 -0.00209750235080719
000360 1f d8 9e 15 40 9d bd bf 4e 06 51 37 8b dd 91 3f
       -0.11568069961398962 0.017446685076953287
000370 5d 4d 29 97 c1 27 9b bf 00 00 00 60 16 5b c0 3f
       -0.02651884541621762 0.1277797669172287
000380 4d a5 7a 4a d3 ab 9b 3f 77 1e f1 b9 cc b4 bd bf
       0.02702264921268709 -0.11604003467174971
000390 a6 1d 70 72 76 ed 93 bf 4f 08 bc 07 55 1a c2 3f
       -0.019460535750139528 0.14142859342251987
0003a0 e9 b6 ca 9c 00 f6 e8 bf 08 5e f7 3e a2 c3 a9 3f
       -0.7800295889225853 0.05032069224006014
0003b0 3b 22 79 81 49 b4 c6 bf 00 00 00 00 bf a6 9b 3f
       -0.1773769266312842 0.027003273367881775
0003c0 02 fd 65 7b 77 83 8a bf 4a 0d 6e 18 98 4b 87 bf
       -0.012946065381355346 -0.011374653096715055
0003d0 00 00 00 60 cc 2d c5 3f 91 e6 0e 62 88 1d ac bf
       0.16546015441417694 -0.05491281697272855
0003e0 76 8f b3 b8 39 fe b6 3f 00 00 00 00 00 3f 90 bf
       0.08981667289077486 -0.015865325927734375
0003f0 90 26 59 91 cd 71 b4 bf 52 44 82 5b a0 cf b4 bf
       -0.07986149595776681 -0.08129312738516717
000400 81 25 90 61 0a 4e ce 3f bb 2a 3d 0e 42 e2 c4 3f
       0.23675660861799133 0.16315484709988035
000410 00 00 00 c0 57 a0 b2 3f 0c 94 b8 58 48 2f b7 3f
       0.07275913655757904 0.09056522527733096
000420 00 00 00 00 70 12 89 bf 00 00 00 60 03 2d bc bf
       -0.01224219799041748 -0.11006184667348862
000430 90 8d 6e 0c 98 e9 a9 bf 5a 9b 7d cc 37 49 bd bf
       -0.050610305326041716 -0.11439846746871521
000440 fd 29 4b df ad 9f ca bf 52 f6 73 e3 b4 4b 82 3f
       -0.2079980221081569 0.008933461371721272
000450 3c ea 0e c6 8c 11 b3 3f 3e 05 ca b2 90 da 95 bf
       0.07448654017836359 -0.021341572678015945
000460 00 00 00 00 cc 91 70 3f 00 00 00 00 c5 6a bc bf
       0.0040452927350997925 -0.11100417375564575
000470 47 58 84 e6 99 be b0 bf 00 00 00 00 3a 6c ab bf
       -0.0654083431039406 -0.053560078144073486
000480 c2 53 19 2f 0a 5b ac bf 00 00 00 c0 c9 55 b5 bf
       -0.05538207840860522 -0.08334027230739594
000490 18 70 dd b6 78 ec b5 3f 00 00 00 c0 cf 46 be bf
       0.08563951935269676 -0.11826799809932709
0004a0 6a 67 e2 02 eb 7f b0 bf 03 07 7a cb fb b5 b1 bf
       -0.06445187397403421 -0.06918309896175505
0004b0 03 41 2a b1 00 23 af bf 4d 0e a0 ea 83 0a 93 3f
       -0.060813924433320586 0.018594800181757788
0004c0 d3 da 56 d9 a7 c1 c3 bf e3 8c 53 21 ea ca b9 3f
       -0.15434740173596725 0.10075248063690227
0004d0 c7 20 a1 a9 e3 1c b4 bf 00 00 00 00 bf c7 94 3f
       -0.07856581584303789 0.0202932208776474
0004e0 aa d2 a4 c6 48 7b ad bf 00 00 00 80 3c c5 a4 3f
       -0.057581209419742166 0.040567293763160706
0004f0 00 00 00 60 e8 b9 bd bf bf 0a 3c 83 97 25 b1 3f
       -0.11611797660589218 0.06697985605209576
000500 a5 32 b7 d5 ad 0f c5 bf 00 00 00 c0 48 6f b9 bf
       -0.1645409863980564 -0.09935431182384491
000510 45 a2 fc b2 18 24 a2 bf f7 31 30 46 79 ef 39 3f
       -0.03543164429567417 0.00039574347300755326
000520 00 00 00 40 23 15 c5 bf ef a6 59 5f 39 40 c7 bf
       -0.16470757126808167 -0.18164746433040288
000530 00 00 00 40 d7 85 b8 3f 00 00 00 00 14 f5 96 3f
       0.0957922488451004 0.022419273853302002
000540 00 00 00 c0 e3 8d c2 bf 00 00 00 80 9b f9 ae 3f
       -0.1449551284313202 0.06049810349941254
000550 9a 36 f5 be aa 7b 92 bf a8 98 db 2a 83 e0 98 bf
       -0.01804987707628545 -0.024293946734268573
000560 1e 98 1c 53 b8 27 af bf b5 9e 71 cf fa 47 9f 3f
       -0.06084991468951294 0.03054801837097783
000570 20 67 c3 fd d9 6d be bf 96 76 3e e6 10 45 b2 bf
       -0.11886370129959944 -0.07136636372748692
000580 00 00 00 e0 95 9a c2 3f 00 00 00 00 24 ba ab 3f
       0.14534257352352142 0.05415451526641846
000590 b8 ca 37 a6 7c 09 c3 bf 00 00 00 00 d5 77 b2 bf
       -0.1487270175562878 -0.07214099168777466
0005a0 bc 8e 22 36 01 0f b7 bf 45 cf 06 94 71 68 9e bf
       -0.09007270404486695 -0.029695295963122054
0005b0 84 77 57 fa 6f f0 ac 3f 00 00 00 80 31 e3 a5 3f
       0.05652189188889081 0.04274897277355194
0005c0 b7 7d d0 05 37 ef 99 3f 89 62 26 1d 48 ba c5 bf
       0.025326595048793723 -0.16974736617409672
0005d0 e1 1b f9 87 00 13 ba bf fe 65 c4 15 8a db cc 3f
       -0.10185244865088762 0.22544981062746666
0005e0 01 4a cf a8 7c 0a c4 bf a2 9a d6 eb 09 59 c4 3f
       -0.1565700363413072 0.15896724715749594
0005f0 5c 1c bd d7 01 67 bf bf eb 3b fd 84 cb f4 b7 bf
       -0.12266551510866591 -0.0935790252380994
000600 e9 71 f2 48 79 ce a1 bf db 2c ea 58 ec df 76 3f
       -0.03477839484660079 0.005584643584948891
000610 00 00 00 80 52 db a5 3f 3a a9 d6 ef fe 3b 99 3f
       0.042688921093940735 0.02464292849405434
000620 87 82 d5 70 59 57 c9 bf 00 00 00 80 6e 21 a5 3f
       -0.1979781914660814 0.04127068817615509
000630 73 0f ac d7 ca 1b b5 bf ba 92 87 94 ac a4 81 bf
       -0.08245532765800849 -0.008614872248423711
000640 31 1e 6d 34 33 55 af 3f d5 a4 14 0a 9b 06 bf bf
       0.06119689955681585 -0.12119454380139712
000650 f8 0b da c7 d0 e4 bb 3f 8e fd ca 1f e3 08 c7 bf
       0.10896019820397373 -0.1799587159384654
000660 00 00 00 00 c0 ee a9 3f 00 00 00 c0 f9 78 c2 bf
       0.05064964294433594 -0.1443168818950653
000670 dc b0 d1 67 2a 01 cd bf ee 6d 6c ea 06 c4 8d bf
       -0.22659807271282417 -0.014534048108138155
000680 a2 26 45 48 b1 4d d3 bf 9c bf c9 58 3f 30 c4 bf
       -0.3016169744265459 -0.15772239528041332
000690 9c aa a0 5d 5e 2e b2 bf 29 a5 a5 bd cf 72 a4 3f
       -0.07102002893285903 0.039938442135119274
0006a0 ac 7c 3d 9d 3b f5 c3 3f 00 00 00 c0 ef 00 b3 3f
       0.1559214132093748 0.0742330402135849
0006b0 c8 23 32 d8 06 1f b2 bf da 0b 02 de 4e 93 b4 bf
       -0.07078593042582704 -0.08037274284474397
0006c0 08 10 58 36 5a 2d bc bf ab b3 01 91 a5 63 c8 3f
       -0.11006702257878953 0.19054097729113315
0006d0 9f d1 0f 52 22 c6 be 3f 00 00 00 c0 7a a6 a8 bf
       0.12021078589879729 -0.04814513772726059
0006e0 bc bc b6 22 57 a4 cf bf f0 5a 75 da 19 58 bb 3f
       -0.2472027701855718 0.10681306441743366
0006f0 17 ea ea dd 28 f2 83 3f 83 f5 f2 94 80 a2 c0 bf
       0.00973922660101771 -0.12995917580512292
000700 e5 17 0b c5 c2 d8 b8 bf 77 a7 3c 5d 57 5b a5 3f
       -0.09705750761631256 0.04171250355859873
000710 0a 77 42 82 d0 ac b9 bf 00 00 00 40 94 0f be 3f
       -0.10029318981329652 0.11742521822452545
000720 82 0d 94 fe 65 0d b0 3f 00 00 00 c0 90 32 bc 3f
       0.06270444360057151 0.11014656722545624
000730 00 00 00 40 36 74 be 3f 2c ea 78 78 70 13 be bf
       0.11896075308322906 -0.11748412076205089
000740 32 cd 02 cf d8 68 c8 bf 00 00 00 00 ec 84 a0 3f
       -0.19069967372852542 0.032264113426208496
000750 1d 7c 5d 29 57 77 c2 bf e3 00 d1 b9 7f 07 96 3f
       -0.1442669822672266 0.02151298114427015
000760 47 df 1a ce ff e9 a0 bf fc 5d 15 b7 ce b7 b4 bf
       -0.03303527251176646 -0.08092967958270231
000770 00 00 00 60 ad 1c c0 bf 46 88 09 3e 4c d9 93 3f
       -0.12587516009807587 0.019383612905933732
000780 00 00 00 20 4a bd c4 3f 00 00 00 40 fb 09 b9 3f
       0.16202665865421295 0.09780855476856232
000790 47 42 83 7e fd 4a 9a bf 0d 87 2d c6 f5 61 b5 3f
       -0.025676689955448386 0.08352600181890697
0007a0 e5 e8 6a 6e 68 01 a9 3f 96 26 d2 b8 c3 e7 c4 bf
       0.048838866690361894 -0.1633228924222762
0007b0 13 a8 7c b8 d2 12 aa bf a2 96 2d 37 6c 91 7e bf
       -0.050924859066370363 -0.007462904660177879
0007c0 00 00 00 a0 34 de c2 3f 00 00 00 60 82 a5 c0 bf
       0.1474061757326126 -0.13005094230175018
0007d0 d6 b9 ea 0d d9 14 83 bf 00 00 00 40 a0 da b6 3f
       -0.009317107903680826 0.08927346765995026
0007e0 ad 50 3e cd 8b a5 b6 3f c9 e0 77 43 13 47 c3 bf
       0.08846353302789352 -0.15060654444073965
0007f0 ac 1d 2b f7 19 9d be bf 00 00 00 00 16 e4 a5 3f
       -0.11958467754731456 0.04275578260421753

bias f8 [72]
000000 cf ad d2 f8 9c c4 b5 3f 3a 16 36 69 77 fc b5 3f
       0.08503132891444597 0.08588358229288753
000010 c5 db 3d a0 36 40 d0 bf c8 1c 53 1b fb 52 ba bf
       -0.25391927383992324 -0.10282868783098131
000020 54 f5 c5 63 6c 71 b2 bf 93 74 6e 97 d4 f7 bf bf
       -0.072043203695974 -0.12487534234101565
000030 5b 8a d3 6c 93 c2 b7 bf 99 e5 a9 01 a8 10 c9 bf
       -0.09281274229901142 -0.19582080918534642
000040 ee 87 a3 11 f0 37 a5 bf 94 a1 f5 09 58 98 9b bf
       -0.041442396310017546 -0.026948333366279068
000050 bc 0a 5f a5 b1 42 aa bf 1b b8 de 82 16 80 a2 3f
       -0.05129008430187329 0.036133483386365316
000060 bb 68 40 ff cf 4f d4 bf b2 8c 0c 71 3b f4 e1 bf
       -0.3173713677111995 -0.5610635002125461
000070 a3 4b 6c 0d c5 a0 d0 bf dc 18 a5 e1 82 3c d3 3f
       -0.25981260596125305 0.30056831393848227
000080 69 e7 68 5f 82 1e a4 bf 3e b5 fd f1 a2 fb b3 bf
       -0.039295267245008265 -0.0780584183500723
000090 a3 e3 bb 5b 94 f9 bc bf 7f d8 92 ca 55 39 cc bf
       -0.11318328132246207 -0.2204997290734276
0000a0 e5 fe cc 77 77 48 c2 bf f4 31 d0 b0 8e 63 c0 bf
       -0.1428365073170347 -0.1280382502885825
0000b0 a6 0b 49 7a 99 d8 a7 bf 71 ba 07 e4 17 24 d9 bf
       -0.04657439820996183 -0.3928279616219817
0000c0 15 e5 64 79 04 a2 a8 bf d9 c8 82 c3 6b 95 cc 3f
       -0.04811109525548766 0.2233099655764537
0000d0 da 9e 73 95 15 ae af 3f de 35 82 37 07 5d c1 bf
       0.061875032895668716 -0.13565149507887403
0000e0 c1 52 cd 83 0d c0 e2 bf 2a 8b 40 91 d2 68 a8 bf
       -0.5859439443834945 -0.047674732428524116
0000f0 4c 55 02 48 29 1f b6 3f 63 3e 4a a1 f2 18 c8 bf
       0.08641298301730166 -0.18826134562958705
000100 7b c5 5e c6 32 5d c0 bf 70 e3 2d 30 d6 82 c7 bf
       -0.1278441876034256 -0.18368031837942622
000110 0e 05 f3 e0 b1 f1 b3 3f 85 54 1d 0d bb 99 98 bf
       0.07790672056127709 -0.02402393596215237
000120 57 85 dd ca fc fa 92 bf 76 5b 36 89 83 3b c5 3f
       -0.018535566217342616 0.1658787174207778
000130 5f 4c 22 e2 09 b0 ca bf 9f 04 14 28 99 57 d0 bf
       -0.20849727193544518 -0.25534657396208077
000140 f6 58 00 60 0c 09 b4 bf b7 70 88 59 68 3a d1 bf
       -0.07826306670935765 -0.2691899179788026
000150 6e f2 0a 1b 10 73 aa bf 15 7d 18 db 22 06 ca bf
       -0.05165911035644376 -0.20331226060896115
000160 4b b8 27 79 32 13 c0 3f 37 0c 50 a8 6f 4d d3 bf
       0.12558585086611837 -0.3016013282469347
000170 07 db b5 b7 bf 75 cb 3f 0f ea c8 d5 5c e1 b1 bf
       0.21453091116173814 -0.06984501094203942
000180 2a 87 b9 6c cd fb d8 3f d7 4f b7 47 43 70 d8 3f
       0.39036880128525075 0.3818519783355873
000190 63 c3 5a da 34 96 bc bf f7 2d 75 46 f8 3b b8 bf
       -0.11166696864053231 -0.09466506691131103
0001a0 33 0d 17 c2 cb 9a 8f bf 0f 08 ed 7c 55 94 89 3f
       -0.015431968556078068 0.012489955782829324
0001b0 e2 3b 29 66 ef b1 d0 3f 22 a4 ac 25 7e b8 c2 bf
       0.260860299841566 -0.14625527228898344
0001c0 3a bd 47 7d e4 68 c1 bf 8f 5e 15 a2 a8 22 c5 bf
       -0.13601356618117127 -0.16512020029289373
0001d0 d5 68 9f dd 39 23 b6 bf 35 21 49 84 9a b7 c7 bf
       -0.08647500668249404 -0.18529063662777792
0001e0 28 9e c7 3f 37 98 c6 3f 4f 40 a6 9f cf 97 c4 bf
       0.17652025808568905 -0.16088290496236587
0001f0 96 81 6d f5 e6 ab ae bf 0e 8e 13 8d 4e f3 b4 bf
       -0.05990525957054442 -0.08183756775138581
000200 fc d4 6c 46 0c 3b d0 bf 23 41 b9 ec ad 1a d6 bf
       -0.25360400083020784 -0.3453783809427639
000210 2a 95 95 9c e8 75 b7 3f 33 5a 0c 7b 2d 5c c2 3f
       0.09164289305552545 0.1434380389043369
000220 27 48 fe 48 00 cd cf 3f 2e 80 c6 2d 50 cb cf 3f
       0.24844363750577367 0.24839212641836766
000230 6a 6e a0 93 52 35 c5 bf 4f f7 58 2e 76 d1 dc bf
       -0.16568977554640024 -0.450284524213079

weight f8 [120, 72]
000000 7b f1 d0 e0 22 19 b7 bf 7e 8f d6 50 0c 51 b1 3f
       -0.09022729862858185 0.06764294599139295
000010 69 94 f7 c1 c5 12 bd bf 88 8b 8d 17 1c ff 8b bf
       -0.11356769547963243 -0.01367017695310381
000020 89 5f 52 43 02 c0 b4 bf 7c 56 ee b4 bb 13 b7 bf
       -0.08105482238386065 -0.09014485518704335
000030 c8 d0 30 12 2d 84 a2 bf 33 c8 07 cb b9 1b b4 3f
       -0.03616467330030698 0.07854806143566932
000040 3e 54 10 86 b4 84 87 bf 00 00 00 00 3c 8c 98 bf
       -0.011483583775808378 -0.02397245168685913
000050 37 10 25 50 42 f0 b8 3f 69 0e 02 9c a5 86 ab bf
       0.09741606194171558 -0.05376164941210677
000060 ad 0e a6 7b da c6 aa 3f a0 1e 01 52 82 d1 9a bf
       0.05229838141806673 -0.026189838652753594
000070 aa 9f c6 bf ed 78 b9 bf f3 de c7 ad b9 35 87 bf
       -0.0995014756396119 -0.011332941642634852
000080 d4 06 e6 59 06 fd a0 3f 00 00 00 80 55 ee b6 bf
       0.03318042609590824 -0.0895741879940033
000090 00 00 00 e0 de 9f bb 3f 00 00 00 00 0c 1e 7b bf
       0.10790818184614182 -0.006620451807975769
0000a0 3e 0e 70 ed fd 5b b1 bf 8c 40 96 b5 3d d4 8c 3f
       -0.06780993506259222 0.014076692680447665
0000b0 09 97 a5 5e 53 13 b5 3f 00 00 00 00 46 36 b2 bf
       0.08232613621438757 -0.07114064693450928
0000c0 e4 c7 cb a6 04 c8 91 3f fb 17 94 ad b1 67 ab 3f
       0.01736457126657588 0.053525497854977254
0000d0 07 a5 2b 7d 56 a8 bf bf 00 00 00 00 95 5d 80 3f
       -0.12366238170547571 0.007990993559360504
0000e0 2e 14 1d 56 80 07 b2 bf 7d d8 08 0d 87 ac b8 3f
       -0.07042696096785114 0.09638256138063812
0000f0 9f fb 33 9d 14 50 b5 bf d5 a2 81 71 c5 00 ad bf
       -0.08325318181958473 -0.0566465092713934
000100 d7 89 99 96 d6 68 ba bf 44 ee 4d 41 53 0b 2f bf
       -0.10316220452072088 -0.00023684874818373687
000110 e6 dd f3 f6 13 67 c2 bf ad 1b f1 ba e1 73 96 bf
       -0.14377069051964425 -0.021926428828262057
000120 51 00 8a ce 78 4f c9 bf 9d 61 9e 1c fe b4 c0 bf
       -0.19773778996386907 -0.13052345654865585
000130 07 78 00 6d df 40 ab 3f d8 61 10 e8 e3 d7 c0 bf
       0.05322931485737575 -0.13158844786882073
000140 36 79 82 e8 9f 90 aa 3f ee 8c 06 04 04 44 ae 3f
       0.05188464844944678 0.059112668506054664
000150 b2 e3 3a f8 d2 d6 bf bf 58 94 74 60 81 4c 7a 3f
       -0.12437170563033709 0.006420617464106014
000160 d9 34 e9 b4 7e af a4 3f ab 98 32 6c 8d 14 bd 3f
       0.04040142019639754 0.11359485522788997
000170 e0 74 f7 ff 88 b5 c0 bf 9a 25 51 3b 01 89 c8 bf
       -0.130540013297753 -0.19168105503403582
000180 52 cf 8f f2 c1 53 b3 3f 92 2d 9c ba 56 e8 bb bf
       0.0754967896644392 -0.10901395851049347
000190 86 85 6d 16 4b 7b be 3f 00 00 00 40 93 36 a7 bf
       0.11906880662492911 -0.04533825069665909
0001a0 41 f8 fe 41 9b c2 b9 bf 60 ce e4 d4 1e 48 a2 bf
       -0.10062570916395065 -0.03570648526001885
0001b0 07 64 b1 bc 5b 46 b1 3f 79 5b f3 b4 dc f0 c2 bf
       0.0674798331905465 -0.14797552905539726
0001c0 7d e5 6d 06 fd 9c aa bf 8a 2e 28 32 c6 b5 b1 3f
       -0.05197897628290613 0.06917990421805534
0001d0 00 00 00 c0 fe c8 b0 bf a1 c6 ec 8c 96 b9 80 bf
       -0.06556694209575653 -0.008166481185614418
0001e0 da 2a 2f 6b bf 7d 90 bf 2d 4e 54 8f 5d 14 9a bf
       -0.01610468951893549 -0.02546831309616786
0001f0 e5 7e 17 bc b5 60 a6 bf b8 5a 28 fb 9c ff a8 bf
       -0.043706587992117275 -0.04882517400635805
000200 f9 a4 60 63 7a 78 a2 bf 98 f4 b8 95 17 21 75 3f
       -0.036075424796146956 0.00515851223786714
000210 ed dc 99 57 3d 15 7e 3f 8b 10 6e cd ed c1 a4 3f
       0.007344474428115461 0.0405420602101297
000220 a9 52 40 c5 6a d5 bd bf 3b 8c 6a 4a fd d0 ba bf
       -0.11653773608879682 -0.10475142542650044
000230 fd ae 94 8b 64 2b 9b 3f 92 54 5b 98 da 45 b1 bf
       0.02653271772321285 -0.06747213573119584
000240 bb 3d 01 09 33 b2 a6 bf ad ba ef af 60 62 b2 bf
       -0.04432830319330657 -0.07181362433741852
000250 00 00 00 40 b5 05 b3 bf d9 3e 99 02 af e4 b3 3f
       -0.07430584728717804 0.07770818532412295
000260 00 00 00 e0 78 d5 b6 bf 33 b6 50 9d 43 94 b6 bf
       -0.08919482678174973 -0.08819983092026788
000270 00 00 00 e0 c2 03 b8 bf 00 00 00 40 bc 97 a4 3f
       -0.0938073918223381 0.040220148861408234
000280 6a a1 bc e5 f9 eb aa 3f 00 00 00 60 e6 44 b6 3f
       0.052581605238006215 0.08698882907629013
000290 b6 85 da ae 9d d1 70 bf 00 00 00 80 28 90 97 bf
       -0.00410615534716057 -0.02301085740327835
0002a0 00 00 00 40 30 56 af 3f 00 00 00 c0 90 0e a9 3f
       0.061204440891742706 0.04893925040960312
0002b0 00 00 00 80 89 91 ab bf 3e 69 06 99 ff 72 a8 3f
       -0.05384473502635956 0.047752368383231034
0002c0 00 00 00 c0 a6 fe a3 3f 00 00 00 80 80 0b 9c 3f
       0.03905221074819565 0.027387626469135284
0002d0 00 00 00 00 e7 b2 81 3f 00 00 00 40 95 ec a6 3f
       0.008642010390758514 0.044773735105991364
0002e0 d3 32 6b f7 dc 49 93 3f 00 00 00 c0 fa 39 a2 3f
       0.01883645305751964 0.035598598420619965
0002f0 8b d4 5a 4d 5c ab b2 3f 00 00 00 80 dd 08 a0 bf
       0.07292725456757602 -0.031317636370658875
000300 00 00 00 80 54 bf 9d bf c4 f3 d2 ef c0 f7 b1 bf
       -0.029050178825855255 -0.07018667082861813
000310 89 27 dd 5a b2 87 a3 bf 00 00 00 00 5a 36 7f bf
       -0.03814465865305212 -0.007620193064212799
000320 21 7e c2 9d ff f2 bc bf 31 10 22 26 37 3c a7 bf
       -0.11308286286884385 -0.045381282238878724
000330 70 67 d8 01 30 da 96 3f 00 00 00 40 f7 ad b7 bf
       0.0223166943670558 -0.09249825775623322
000340 50 dc 64 71 e0 8b 9e 3f 00 00 00 00 94 5f 70 3f
       0.029830462380428024 0.003997400403022766
000350 00 00 00 80 0b 3e bd bf 00 00 00 80 90 b8 98 bf
       -0.11422798037528992 -0.02414155751466751
000360 00 00 00 a0 31 8a bc bf 7d 87 78 5c f9 e4 be bf
       -0.11148367077112198 -0.120681366992839
000370 86 2c 4e 7e 20 52 93 3f 62 a0 52 f9 4e d7 a2 3f
       0.01886797686487942 0.036798923430354305
000380 f0 f0 7d 0e 29 28 9f bf 62 c5 e6 c6 68 77 ae 3f
       -0.030426637181776905 0.059504770545923305
000390 0d f3 48 61 d8 f2 bb bf 00 00 00 a0 46 5d b4 3f
       -0.10917427420731603 0.07954827696084976
0003a0 00 00 00 80 75 fa b6 bf 75 19 49 ae d6 ae a9 bf
       -0.08975920081138611 -0.05016203763493624
0003b0 00 00 00 c0 55 6f bd bf f7 af d8 71 82 3b c0 bf
       -0.11498008668422699 -0.12681608733089408
0003c0 00 00 00 e0 76 d3 b0 bf 00 00 00 40 71 0f a3 bf
       -0.06572668999433517 -0.037227191030979156
0003d0 00 00 00 e0 6f ad b7 3f 00 00 00 60 0b fd b8 3f
       0.09249018877744675 0.09761115163564682
0003e0 f3 cc fb 53 8d f8 80 3f 00 00 00 40 36 eb a8 3f
       0.008286575437046006 0.04866952449083328
0003f0 b9 f1 d8 53 d7 96 bb bf 2a 9d 93 cc 38 b9 bf bf
       -0.10777040288025476 -0.12392001146837531
000400 00 00 00 00 de 1e 70 bf 14 09 3c e2 62 bc 72 3f
       -0.003935687243938446 0.004574190392079087
000410 00 00 00 80 d7 bf 96 3f 3f 5c 7e e2 cd 31 b6 bf
       0.02221619337797165 -0.08669745235089098
000420 f6 2b 54 d1 d1 f8 af bf 71 35 63 fb 59 2c af bf
       -0.06244521789820816 -0.0608852500314282
000430 c3 22 35 7a d8 71 a8 3f 00 00 00 e0 08 d0 bc 3f
       0.047743573110499614 0.11254935711622238
000440 e9 1b 8a 3d 19 78 aa 3f 00 00 00 c0 be f6 a3 3f
       0.05169752956594904 0.03899189084768295
000450 00 00 00 40 c4 64 b5 bf eb fb 35 62 ea 13 be bf
       -0.08356882631778717 -0.11749138734556623
000460 4a 68 e1 06 c4 24 b4 bf f3 c4 1f ad b4 5b b5 bf
       -0.07868600051861666 -0.08343056894934246
000470 d5 2c 78 3b 79 47 b5 bf 00 00 00 60 4a b8 b1 3f
       -0.08312185003176194 0.06921830028295517
000480 81 f0 e9 c6 37 5a a5 bf e1 23 15 4a e1 f1 c8 3f
       -0.0417039327921609 0.1948815929156629
000490 b7 75 dc b8 d1 e7 a0 bf e3 33 34 13 92 90 c9 3f
       -0.033018640342770515 0.199724444748795
0004a0 66 c6 b5 78 7d f1 7a 3f f9 9e 50 e6 26 5e 68 bf
       0.0065779591781037535 -0.002974582649148402
0004b0 da 5c 17 58 e3 e7 b9 3f c4 66 f3 38 a6 3f c0 3f
       0.10119458103814641 0.12694242268371714
0004c0 2a 9c 40 7e 9f 38 8d bf 76 5a 7d b2 d4 a8 b1 3f
       -0.014268156090180357 0.06898240430505517
0004d0 45 67 fc 7a ed 75 b0 bf 55 9f b0 eb 51 2b d0 3f
       -0.06429943325602235 0.2526440431270108
0004e0 ec 91 04 6f 5a 30 a8 3f 64 76 0a 73 b5 48 bd 3f
       0.047243906070693814 0.11439069803824392
0004f0 d5 46 9c 7a 72 09 c0 3f 29 25 af b5 38 ee dd 3f
       0.12528830515707648 0.46766488783449006
000500 2e b2 23 1d 88 59 93 3f 45 b8 7f 27 06 7e c9 3f
       0.01889622381070149 0.19915844849259848
000510 2d aa b7 f1 d3 17 b5 3f 19 67 d7 76 1c df 73 3f
       0.08239483500771234 0.004851447285057175
000520 a4 0b 56 29 91 43 b3 bf 47 c4 20 c1 be 4a b7 3f
       -0.07524974116499422 0.0909842702392477
000530 8a ca 70 40 94 f7 b5 3f 36 81 dc d8 1a 97 c9 3f
       0.08580900738960842 0.19992385472233715
000540 3b 9f 3d a7 24 af c2 3f f7 03 9a 9a ca 50 b2 3f
       0.14596994558382356 0.07154527925924002
000550 b0 58 23 f1 fe c0 b5 3f 00 f6 fe 92 75 f1 a4 3f
       0.08497613322410547 0.04090468806633041
000560 d3 ca e0 68 40 74 8c bf 34 87 38 62 c2 7b b5 3f
       -0.013893607330918744 0.08391966722458905
000570 1a e0 f8 d1 93 03 b5 bf eb 50 c2 da 65 f2 9a bf
       -0.08208583713792486 -0.02631529948901427
000580 3b 52 e9 71 c4 df bd 3f a9 f2 3f 7e 2d 0d b9 3f
       0.11669566899338062 0.09785732586164876
000590 ba ae b6 bd b7 82 d1 3f 5c 11 69 b6 47 a0 c3 3f
       0.27360337759703734 0.15332886130102963
0005a0 c0 5f 29 3b 75 a9 c1 3f 22 ad 9e 24 bc 04 d6 3f
       0.1379839457392773 0.3440389974227448
0005b0 92 26 72 0b 5e 4a 8d 3f 26 5a 84 62 c0 ac bf 3f
       0.014302000736523799 0.12372972874832353
0005c0 d5 ec 62 95 31 f5 43 3f 0e 04 ec d1 d6 01 b1 3f
       0.0006090633494503459 0.06643431305930411
0005d0 e1 81 98 8f 89 80 a6 bf c4 f1 16 50 dc 88 b6 3f
       -0.043949412134910444 0.08802582698166989
0005e0 c8 1c a9 52 35 30 be 3f 42 db 82 7c 10 77 7d bf
       0.11792310016709273 -0.007193626785172937
0005f0 06 68 a7 7b 31 a4 c7 3f 78 88 5e c4 cb 34 6d bf
       0.1846982816485367 -0.0035652141404663405
000600 87 a9 c0 71 1b 41 d4 3f 2d d3 10 13 e3 97 d2 3f
       0.31647382839823773 0.2905204473675436
000610 20 15 88 b2 ef 53 a8 3f 47 33 9b 1c 54 e4 c4 3f
       0.04751538328495486 0.16321803471364602
000620 83 58 59 d6 b2 de ae 3f e7 8b 26 e7 82 5d cc 3f
       0.06029280535283112 0.22160373961113963
000630 fc f6 b3 46 28 2f d5 3f 97 51 03 e1 1b b6 bd 3f
       0.33100325493420235 0.11606001132469711
000640 21 93 5f 8b cb 32 cf 3f c1 85 0a c8 b7 09 b8 3f
       0.24373764329279715 0.09389828332725526
000650 b0 6e be fb a4 4c a0 bf 18 37 39 8f 70 55 c2 3f
       -0.03183475087209098 0.14323241227469263
000660 49 b6 5a 8b 53 8b cf 3f 01 0f 33 49 30 c4 46 bf
       0.2464394026223309 -0.0006947742243927636
000670 0a 8b 7a b2 61 48 9e 3f 35 14 e3 20 2a 34 b7 3f
       0.029572989004587526 0.09063971808343825
000680 24 c4 a1 70 a0 ab bd 3f db 57 9a 4c c4 38 c1 3f
       0.11590006589700913 0.1345448850667584
000690 2e dc c7 88 18 88 a2 bf 31 80 f6 c1 08 c0 c1 3f
       -0.036194578835356914 0.1386729189953271
0006a0 05 64 96 b9 71 dc d8 3f 49 65 90 d8 c3 b3 81 3f
       0.38845484851623296 0.0086436558213331
0006b0 ed 86 2c 11 bf 56 c5 3f 3a 9d 4b 8f 6e a5 b4 3f
       0.16670978869029032 0.08064929006979052
0006c0 bb dc 42 23 c4 c8 53 bf e0 b8 6c c4 b0 6d b1 bf
       -0.0012075343520743648 -0.06807999415898136
0006d0 00 00 00 a0 9e d8 b7 3f af 61 10 ab 40 17 b1 3f
       0.0931491032242775 0.06676105667464215
0006e0 00 00 00 c0 d3 53 a4 bf 66 8b 75 0d da a6 94 bf
       -0.039702050387859344 -0.02016773898266013
0006f0 f4 9a 17 55 5b 89 b8 bf 00 00 00 00 e8 ba a4 bf
       -0.09584589793631065 -0.040488481521606445
000700 00 00 00 00 71 c6 89 3f ec 64 17 2a c6 cc 92 3f
       0.012585528194904327 0.01835927612214487
000710 c8 77 74 25 33 e2 9e 3f 5e ce b4 10 d1 a0 9e 3f
       0.030159758721417324 0.02991034187762264
000720 00 00 00 a0 6a fa bb 3f 5e df ca 07 95 ef ba bf
       0.10928980261087418 -0.10521823349233503
000730 00 00 00 60 f3 92 bc 3f 73 23 f9 ab 0d 6c aa 3f
       0.11161728948354721 0.05160563205988113
000740 00 00 00 40 09 83 ac 3f 00 00 00 00 37 e8 90 bf
       0.055687226355075836 -0.01651082932949066
000750 00 00 00 60 e9 f6 b6 bf 00 00 00 40 47 38 ae 3f
       -0.08970507234334946 0.05902311950922012
000760 c3 df 32 e4 16 18 b2 3f 00 00 00 c0 cc 71 a5 3f
       0.07068007537134151 0.04188384860754013
000770 00 00 00 40 a1 fb b2 bf 00 00 00 40 a1 67 b8 bf
       -0.07415206730365753 -0.09533126652240753
000780 00 00 00 00 c9 12 8f 3f 01 98 ad 13 8a 2e 5e bf
       0.015172548592090607 -0.001842150536242482
000790 1e 37 44 4a d4 f8 c0 bf 00 00 00 00 18 54 7f bf
       -0.13259366632740294 -0.007648557424545288
0007a0 24 31 8e e9 b1 77 a7 bf 4b f8 02 20 8f 0f c5 bf
       -0.04583507514971277 -0.16453732550684416
0007b0 4c 6c f5 2b 5d 3f ac 3f 92 83 95 ba 94 d9 ab 3f
       0.05517092858891512 0.05439438607823556
0007c0 cc 56 ca f1 6a 2e 95 bf 00 00 00 00 00 fc 62 bf
       -0.02068488217135815 -0.0023174285888671875
0007d0 6b 03 1b fe 37 b3 b4 3f 06 ec 34 c6 2d 48 bd bf
       0.08085966066120213 -0.11438261117011458
0007e0 00 00 00 00 58 38 66 bf 30 5d 21 f9 2d e1 78 3f
       -0.0027124136686325073 0.0060741229845782535
0007f0 55 3b 0d 6f 5b 14 b7 bf ba d7 65 5a 79 89 94 bf
       -0.09015437566016023 -0.020055671827740908

bias f8 [120]
000000 ea fb fc e9 8b 8f 94 bf 22 27 5d 73 30 8e a0 3f
       -0.020078836590297224 0.03233481796503514
000010 ff 1f e2 25 5e 0c c6 3f c8 2b a8 c7 1a d8 b3 bf
       0.17225243425150435 -0.0775162446445129
000020 4a 9a 43 f5 d9 9c a7 bf 78 93 50 68 8e 80 c5 bf
       -0.04611855620332912 -0.16798572629445707
000030 cb 49 f2 58 fa 74 bf bf 27 84 9d 8e fc 7a c3 bf
       -0.12287869140190037 -0.15219075168263993
000040 ea e4 bc 6b e8 1e c1 bf 42 0e 4f 0f e0 35 8a bf
       -0.13375573406828006 -0.012798071353137822
000050 9a b1 f4 e5 d3 42 aa bf 86 68 19 b6 30 e3 be bf
       -0.05129110509946884 -0.12065414853842257
000060 93 4e 6b 16 05 98 c1 bf 07 63 b4 40 e1 d5 c7 bf
       -0.13745177836118624 -0.18621459636121804
000070 ea 1a ed a3 75 63 c6 bf e3 2f 50 4e 6d 3a c1 bf
       -0.174910264055334 -0.13459554981125085
000080 2e 08 36 fb a4 55 af bf f4 6d 00 63 e7 1d c8 bf
       -0.0612002903608445 -0.18841259321275994
000090 5e b3 6b 4f 94 c4 ba bf 4a 5e e2 d1 13 b9 a9 3f
       -0.10456206263525078 0.05024015366614927
0000a0 d0 d6 66 4d 9b ef 9d bf e3 07 fe 73 8b 2c c7 3f
       -0.02923433933184222 0.18104689754187495
0000b0 cd b0 15 e3 08 9f bb bf 7d f3 08 b6 19 13 c4 bf
       -0.10789542717037932 -0.15683289898325006
0000c0 09 31 aa d6 21 67 c2 3f 13 de 6c a9 10 e7 d2 3f
       0.14377234441452227 0.2953530935805883
0000d0 c2 0e c2 e5 ff 35 c6 bf 19 91 27 dc f1 af bf bf
       -0.17352293699888405 -0.12377845406405576
0000e0 52 53 d6 9f 7d 70 b2 bf d1 48 75 32 45 b1 ca bf
       -0.07202897217059714 -0.20853486026550752
0000f0 43 05 35 c1 93 36 8f bf 18 0d bf 53 8d bf 8c 3f
       -0.01524081643458664 0.014037231558069282
000100 3e 06 1a 8a 77 cb b7 bf 20 80 db f0 50 75 b9 bf
       -0.09294840928671363 -0.09944635277088354
000110 ca cb 1a 6c a4 f2 be bf ee c0 3a 86 d2 51 b8 bf
       -0.12088992728494855 -0.0949985101422077
000120 a0 d0 f1 c6 51 6b a4 bf 4d 4c 68 d4 f0 e2 90 3f
       -0.03988128236315558 0.016490710224456518
000130 48 a8 24 0f 91 be c2 bf ec 30 cd 5e a4 9c c5 bf
       -0.1464406322423335 -0.16884283665638777
000140 a4 b7 e4 35 67 d1 95 3f d7 3e 8c ed be 6e a9 bf
       0.021306622185128923 -0.04967304849389869
000150 d5 1b c1 60 d0 e4 a3 3f 93 4f 89 c8 39 4b a5 bf
       0.038855087099868214 -0.04158955166772595
000160 c2 2a 52 e5 40 ed b0 bf f0 5d 84 de f4 56 c1 bf
       -0.066120201098026 -0.13546620240298024
000170 19 b4 38 df c1 fb 7d bf 2c 1b b8 4d 8d ab c0 bf
       -0.007320172607745889 -0.1302353505600079
000180 5e 33 39 3f 4b ca c5 bf 64 c3 b4 09 f5 0e 7f bf
       -0.1702360209186748 -0.0075826236527952486
000190 1b 1e 49 5d bd 51 b3 bf 7e 9d ce 77 0c 47 b8 bf
       -0.07546599891167498 -0.09483411717393683
0001a0 b3 cc 22 25 58 00 c1 bf f7 54 46 c7 2a ce a2 3f
       -0.13282300771024821 0.03672918016961007
0001b0 f4 ce af d1 b5 79 a4 bf 8d be 3e b1 a7 a9 c1 bf
       -0.039991075369384094 -0.13798996119065912
0001c0 50 de 83 4e 7e 11 d9 bf 41 1a 50 07 12 de c0 bf
       -0.3916927115201121 -0.13177705151629662
0001d0 1e 95 74 67 7f b9 8a bf 95 e2 9b 4c 72 59 bb bf
       -0.013049121231754553 -0.10683359499297247
0001e0 2e 96 8c 91 bf 3b ba bf 46 70 29 cd e7 a0 ba bf
       -0.10247418693014573 -0.10401772269091322
0001f0 2d f9 a1 45 69 c3 ba bf bd 9c 1f 03 99 4a bf bf
       -0.10454423856751723 -0.12223202062851875
000200 e7 e7 0b 13 f2 83 c1 bf 97 e4 d1 e5 5b 52 94 bf
       -0.1368391602516674 -0.019845424558728366
000210 dc fc c9 07 c9 ef bf 3f db 4c 23 ec 8b 04 a5 bf
       0.12475258293305863 -0.04105031259100552
000220 31 fb cb 13 d9 4b c8 bf 1d d8 6e 59 f9 3a ca bf
       -0.18981469599381165 -0.20492474428982713
000230 fe 49 ea ac 71 fe c4 bf f4 43 fd a4 d2 e3 d2 bf
       -0.16401501601337992 -0.2951552020286379
000240 00 00 00 80 d8 f5 b8 bf 93 92 df a1 16 76 bc bf
       -0.09750130772590637 -0.11117688610063174
000250 56 97 dd e9 96 72 81 bf d8 7b 45 9c 90 64 bd bf
       -0.008519343387614658 -0.11481574835987318
000260 0b 02 d4 13 32 d2 bd 3f 40 b1 18 1b 58 ad c4 bf
       0.11648858055196613 -0.1615400440508754
000270 7e 64 77 88 d3 04 b5 bf 34 21 a4 29 1b b2 c7 3f
       -0.08210489350985203 0.18512286694773084
000280 4d 01 83 22 1a e0 ae 3f 8e b5 77 52 ae 00 a8 bf
       0.060303513253077236 -0.04688019520458929
000290 c9 ac 6d cf bd ee 9a bf c4 65 66 6b f9 98 84 3f
       -0.02630135134260739 0.010057400312507243
0002a0 fd d8 56 ce a2 f8 b2 bf b5 28 8a 13 93 b9 86 3f
       -0.07410638368205365 0.0110961428010977
0002b0 d2 50 59 35 71 a9 b0 bf a0 87 32 a3 01 fc 83 3f
       -0.06508548309767839 0.009758007805718283
0002c0 c5 30 79 9d e3 34 b3 bf a3 de bb 46 67 19 bc bf
       -0.07502577395024719 -0.1097626254739859
0002d0 f4 5d 1a 53 0e 14 ac bf 26 fe d9 a1 68 b6 bd bf
       -0.054840514797600465 -0.11606458617642854
0002e0 5f 79 aa 80 b3 6e a2 bf fd b9 74 2c 22 17 bb bf
       -0.03600083299282874 -0.10582173905707033
0002f0 e0 cd 39 7f 9c bc a5 bf 2c 9d b8 38 5a 7f bb bf
       -0.04245461514519966 -0.10741199383538874
000300 ae bc 87 9c 45 3e bb bf 93 f4 bf 23 68 b4 be bf
       -0.10641894408739702 -0.11994028923796156
000310 2b 2b 27 6c 7d a4 b1 bf 28 c6 45 59 95 0a b9 bf
       -0.0689161671681801 -0.09781773976808295
000320 65 e0 e4 a6 5e 93 a9 bf c2 8b bd f2 16 8a ab bf
       -0.04995246684342262 -0.05378791535510842
000330 0e 89 7f 73 4c dd d5 3f 49 8e ec c7 3d a1 b1 bf
       0.3416319969093288 -0.06886659747083813
000340 7c 4d 59 db 77 f5 d6 3f 0c 1f 6e bb ec 28 99 3f
       0.35873218937668816 0.02457017797453802
000350 08 d1 59 d7 4c 60 d2 bf 5c 3a b1 bb 29 b2 b1 bf
       -0.2871276953731159 -0.06912480194407905
000360 c5 b2 b0 66 4b 3e c9 bf a7 3f 32 b5 aa d3 aa bf
       -0.19721357835932998 -0.052396139734923346
000370 e0 46 b3 e2 d0 72 c5 bf c7 1b 7f e2 38 df ae bf
       -0.1675664050040302 -0.06029680027818745
000380 7e a0 d0 50 0d 45 b7 bf 6b 19 34 56 dd ec 80 bf
       -0.09089740012189115 -0.008264283364508093
000390 ee 9d 66 26 cc 80 bb bf 3c 9e ac d7 06 e3 6e 3f
       -0.10743404328842818 0.0037703641550199934
0003a0 0a 2b af 1d 10 72 c1 bf fa d9 e0 1d fd a4 c7 bf
       -0.1362934250776891 -0.18472255667593612
0003b0 90 b6 62 b5 43 d7 ac bf d4 82 bd 8e b2 02 b1 bf
       -0.05632983769588151 -0.06644741043920571
