Sphere/NeuralNetworks/models/net6_anls_loss.pt (torch_old, 207618 bytes, 10 tensors)

weight f8 [36, 6]
000000 15 b5 39 c4 69 c7 91 3f 4f 78 0b 4a 6f a5 dc 3f
       0.0173622632996074 0.44759733420312825
000010 58 98 7c e3 01 ba dc 3f 59 ca de bb 2d 61 de 3f
       0.44885298934457785 0.47468131396013785
000020 e8 84 82 05 1e fb ca bf 10 09 72 b1 cb db cc bf
       -0.21078849095378094 -0.22545763172463085
000030 00 00 00 00 3f 01 b0 bf 00 00 00 00 80 31 ae 3f
       -0.06251901388168335 0.058971405029296875
000040 00 00 00 80 bc f1 c9 3f 00 00 00 80 00 03 c3 bf
       0.20268970727920532 -0.14852911233901978
000050 00 00 00 c0 ab 06 d8 3f 00 00 00 00 30 0a 7e bf
       0.3754071593284607 -0.007333934307098389
000060 bf 2f 89 31 79 cf bf bf f9 c1 a7 45 4f c5 b7 bf
       -0.12425954303142726 -0.09285445643013891
000070 7b 44 62 b3 95 ed d1 3f ce 1b 9b a3 9c d7 a2 bf
       0.2801260234637721 -0.03680123803274392
000080 91 12 ce 57 66 f4 da 3f 47 5e b4 d6 64 12 ca bf
       0.42116697859481983 -0.20368633731480854
000090 ee bf 5b ad 38 dc d5 bf 34 37 5a e1 87 b5 d7 3f
       -0.34156624726801865 0.3704547596652106
0000a0 55 f3 95 1f da 17 d6 bf cf d4 06 a0 ac 19 b8 bf
       -0.34520581326051075 -0.09414175898457987
0000b0 43 bd c0 16 c4 7b d3 bf 42 81 43 c0 e4 d9 be bf
       -0.30442907545053205 -0.12051229185045023
0000c0 42 41 91 1b fa f6 ca 3f b2 13 92 cb 76 e8 c7 bf
       0.2106621393782096 -0.1867817396161207
0000d0 14 a3 6a 77 34 76 c9 bf b6 c7 6f 9c e5 da 74 bf
       -0.19891982870947145 -0.00509156886890765
0000e0 e2 5e 9a be 9d 25 d4 bf 12 e0 eb e4 93 9e d4 bf
       -0.3147959100110552 -0.3221788154182842
0000f0 ad d7 6a 26 87 52 d0 bf 93 3c 13 0f 09 c9 97 3f
       -0.25503710509962724 0.023227826638330184
000100 42 63 65 20 db df cd bf 03 df d4 7a a3 0c dc 3f
       -0.233394041841871 0.43827139849916835
000110 ef 6d 0b ae 18 1e d7 3f 16 3f bc 2c 7e 04 d5 3f
       0.36121193882510644 0.3283992230289966
000120 50 6e a2 11 c6 07 c9 bf e3 cf d1 c0 f1 59 f7 3f
       -0.19554973469790804 1.4594590694441585
000130 19 e8 2c d9 cd c0 9f 3f 66 db 31 8a e6 38 93 3f
       0.031008926754317743 0.018771745857942966
000140 4a 20 44 67 13 e1 89 bf db 7d 00 f4 6f c3 b3 3f
       -0.012636329258853735 0.07720088679388175
000150 00 00 00 c0 8f 01 d6 3f 00 00 00 40 5e 0b d3 bf
       0.34384530782699585 -0.2975688576698303
000160 00 00 00 00 e6 e8 ab bf 00 00 00 00 89 27 cf 3f
       -0.05451124906539917 0.24339401721954346
000170 00 00 00 00 4c 1c da 3f 00 00 00 00 c0 f5 ca 3f
       0.4079771041870117 0.21062469482421875
000180 4b d4 2e 53 85 a7 c8 bf 14 98 04 dc 07 98 d6 3f
       -0.19261232911745405 0.3530292175877332
000190 89 7a d2 0a d1 a2 d9 3f b6 71 2a 8f eb ae d4 3f
       0.40056253487447485 0.3231762788871281
0001a0 05 ff 4d 0f c6 9f d1 bf d0 b2 8c 00 90 dc c4 3f
       -0.27537681097599914 0.16298103358112437
0001b0 53 66 53 d3 0a 23 b0 3f 99 35 6f a9 2b f7 bc bf
       0.06303470286675265 -0.11314652334768595
0001c0 df e7 6b 06 8f e3 b8 bf 0f 05 0a c9 e6 6c d6 3f
       -0.09722227007651395 0.35039682038048253
0001d0 44 af f6 cc 41 76 d6 3f 05 d9 91 29 ec 4a df bf
       0.3509678365323803 -0.4889479070619845
0001e0 34 f6 71 b3 62 39 c4 bf 77 34 f5 53 e3 f0 b2 3f
       -0.15800126802416659 0.07398815917732003
0001f0 1b 92 bf 1d ba 75 cc 3f 99 c8 d6 44 25 cc 97 3f
       0.2223427434211239 0.023239691092108748
000200 c6 05 a4 bd 5c c7 ad 3f 90 48 24 37 2d 9d b7 3f
       0.058161638402463064 0.0922420749305124
000210 00 00 00 00 ea 88 d7 3f 00 00 00 80 68 05 b7 bf
       0.36773157119750977 -0.08992627263069153
000220 00 00 00 c0 ef bc d8 3f 00 00 00 80 25 d5 c0 3f
       0.3865317702293396 0.13150471448898315
000230 00 00 00 00 fd 1b b3 bf 00 00 00 00 45 35 d6 3f
       -0.07464581727981567 0.347001314163208
000240 5d 12 8f e5 66 89 d6 3f f3 79 45 85 9b 86 b3 bf
       0.3521363488946799 -0.07627269748397918
000250 9b 40 86 16 b6 8c e0 3f 24 2e 61 05 96 56 c6 3f
       0.5171766700678008 0.17451739561725887
000260 62 d0 06 8f f0 b1 b0 bf 9a 88 fe a0 f7 5b c7 bf
       -0.06521514407978793 -0.18249411927269393
000270 ad 9b b5 d9 cf e5 b2 3f db 0b 9d 76 9c 31 b7 bf
       0.07381915154620229 -0.0906007566054962
000280 26 cd b1 ab eb 19 cd 3f 1f fc 9d b0 dc b2 d3 bf
       0.22735353358766835 -0.307791874387421
000290 db 37 c9 73 a9 c8 d8 3f 24 89 bc cc 83 73 a6 bf
       0.38724743182399174 -0.0438500583097883
0002a0 00 00 00 00 72 72 cc 3f 00 00 00 80 0d df d1 3f
       0.2222425937652588 0.27923905849456787
0002b0 00 00 00 c0 1c 62 d0 3f 00 00 00 80 85 b7 b4 bf
       0.25598829984664917 -0.08092531561851501
0002c0 00 00 00 40 e1 52 c6 bf 00 00 00 80 fe 2a d0 3f
       -0.1744042932987213 0.25262415409088135
0002d0 ee 6d 6f 53 8c c8 c2 bf ee c2 4c b1 7c 04 d7 3f
       -0.14674524377811288 0.3596488696521608
0002e0 5f 63 fd d8 c6 98 b8 3f d8 54 a3 92 26 9e ce bf
       0.09608118817903975 -0.239201375580399
0002f0 b0 40 3f 97 c3 14 da 3f 52 1a 36 69 bf 9d c8 bf
       0.4075173356077455 -0.1923140777327768
000300 e1 8b e5 03 11 6a d7 bf b8 b4 02 6b fe 45 b2 bf
       -0.3658487833073974 -0.07138052094042535
000310 6e 11 4d 96 19 d0 d9 3f 15 ba b0 aa ee 79 c9 3f
       0.4033264129432358 0.19903357824792126
000320 e4 43 eb 53 e7 3b a6 bf 27 1e 2c b5 b6 04 cd bf
       -0.043425778383273245 -0.22670635076814102
000330 00 00 00 00 ea 6a b1 3f 00 00 00 80 05 b0 d5 3f
       0.06803762912750244 0.33886849880218506
000340 00 00 00 00 6c 9e b7 3f 00 00 00 60 71 1d d1 bf
       0.09226107597351074 -0.26742205023765564
000350 00 00 00 80 a1 44 d7 3f 00 00 00 00 03 25 ab 3f
       0.3635638952255249 0.05301675200462341
000360 0c e8 82 d2 d3 88 ab 3f e7 7b 51 4a 51 c9 c8 bf
       0.05377828545302074 -0.1936437237627324
000370 b2 b6 05 f2 75 28 c0 3f 17 b0 d2 9c b5 00 e4 3f
       0.12623476331230205 0.6250865996312339
000380 ff 37 93 13 94 79 de bf bc a2 0b 5a df 60 40 3f
       -0.4761705580866646 0.0004998293480556674
000390 45 01 dc 27 c3 a8 d6 3f 36 c8 e6 13 b4 1c 95 bf
       0.3540504349948786 -0.02061730739087172
0003a0 06 c4 e4 f7 1d cf a9 bf 2e c1 9e c8 1c 86 d3 3f
       -0.05040830279393309 0.30506057349977567
0003b0 8c 4c a2 df 7a dc d1 3f 98 0d 1f 97 37 d3 ca bf
       0.2790820297170249 -0.20957083586663994
0003c0 70 86 ae ad 1e 33 94 3f 4a 83 12 22 01 06 c3 3f
       0.019726256704990452 0.148620740544198
0003d0 b5 88 d5 dd 29 e6 d4 bf ca 81 a9 2c c9 12 e1 3f
       -0.32654806769836436 0.5335431930835111
0003e0 70 d5 8e 90 c5 fe c0 bf 7e c5 61 50 8e 07 c1 bf
       -0.13277501638882994 -0.13304308819673943
0003f0 6b e2 c6 90 20 cc a3 bf 41 32 82 8f 1d ce 9f bf
       -0.038666742012939924 -0.031059705623692094
000400 01 79 12 20 5c ea c1 3f 6f 15 e0 e6 3a ff d5 bf
       0.13996459547065146 -0.3437030081407419
000410 0f 18 14 eb 63 a2 94 3f 75 90 52 0c 54 4b c9 bf
       0.020150719855358597 -0.19761133767781627
000420 00 00 00 80 68 e2 b5 bf 00 00 00 00 5f 27 a4 bf
       -0.08548596501350403 -0.03936287760734558
000430 00 00 00 80 b5 78 cd 3f 00 00 00 40 bf 1d d6 3f
       0.23024624586105347 0.3455656170845032
000440 00 00 00 c0 dc 41 d7 3f 00 00 00 a0 ec de c8 bf
       0.36339491605758667 -0.19430311024188995
000450 31 d6 c0 31 a3 d8 c5 3f d0 f9 e3 af 52 45 c3 3f
       0.17067375115736774 0.15055306995777906
000460 8c 7a c5 ae 28 a9 c0 3f d2 99 fc 5f 4e da d5 bf
       0.13016232045898268 -0.3414493501062711
000470 71 cc f0 85 6d 7a ca bf 0e 2b 50 0e 7e 21 d0 3f
       -0.20686120071477235 0.252044214227383
000480 d8 e4 32 c7 ff c9 ad 3f b7 7c 56 cf 05 81 b6 3f
       0.05818175608278303 0.08790623008688923
000490 66 07 17 ee f9 03 e7 3f 78 92 ad 7d ca 4f ce bf
       0.7192353868669954 -0.23681002747175106
0004a0 08 33 f2 43 cc e7 cd bf 6b 41 f5 85 ce 0c bf bf
       -0.23363641088180764 -0.12128916521510795
0004b0 a7 97 c9 db e3 6d d8 3f 2f b5 a1 16 f1 9e ef 3f
       0.38170715774173875 0.988152069284899
0004c0 ec 80 6b 17 19 86 cf bf 79 61 99 1a 9d a6 b8 bf
       -0.2462798466067463 -0.09629232310670045
0004d0 45 c1 11 a5 e9 78 b1 3f 56 ed 8a 71 f4 01 cb bf
       0.06825123100293691 -0.21099715751720777
0004e0 cf 78 65 0c e4 cd db 3f 1a b5 c0 e3 14 09 cd bf
       0.4344415780123087 -0.226839648444561
0004f0 a8 81 cf 49 53 72 c6 bf 42 4d 61 19 79 99 c5 bf
       -0.17536393264800876 -0.16874612559568375
000500 4b 17 12 e0 1c 74 b6 bf 8f 27 c4 ad 0c 23 d3 bf
       -0.08770924063182155 -0.29901425332411063
000510 ab 46 3d 1c 53 91 d8 3f d2 c1 a1 18 58 8b dc bf
       0.3838699126982685 -0.44600489049392167
000520 e3 5c dc 9e 89 7c bc bf 31 83 6e 93 58 35 bc 3f
       -0.11127529266774476 0.11018899535566785
000530 f1 72 98 35 ae 42 c4 3f f4 74 97 05 6a 69 7f bf
       0.15828492752998316 -0.007668890140363194
000540 8f 9c d9 51 7d 99 b8 bf ea 16 d7 7b 42 ab a4 3f
       -0.09609206436435812 0.04036910783501731
000550 ec c2 24 d6 01 3d 9b bf c9 5f f1 63 1c c9 dd 3f
       -0.026599911399162332 0.4653998352055138
000560 9e f2 4d f0 a4 a0 c0 3f 14 e0 39 82 9a 41 bc bf
       0.12990247472398136 -0.11037603072497887
000570 07 06 d3 19 f1 6d c8 3f 60 e2 c7 65 04 08 ce 3f
       0.1908551574797885 0.2346196648575356
000580 fb 65 62 7e 19 81 cf 3f d7 11 a4 17 c4 62 ab bf
       0.24612730666267155 -0.053487899671413146
000590 ee 3a 5a db f9 41 b7 bf ed 6f a9 89 99 01 c5 3f
       -0.09085046391758642 0.16411132070322712
0005a0 29 2e ad 45 ea c3 ba bf 7f e9 b3 94 ec 10 d4 bf
       -0.10455192757688593 -0.3135329677749254
0005b0 11 97 00 ae 3c bc cd 3f ea 30 71 10 20 75 cd bf
       0.23230703827101043 -0.23013687899436458
0005c0 f1 6f 8e c0 26 21 c7 3f ad 84 a8 da d1 ae db 3f
       0.18069919969718698 0.43254515031191937
0005d0 89 b8 15 4d 00 ce 96 3f 06 3f 13 14 d1 9e 96 bf
       0.022270207123647388 -0.02209021267918756
0005e0 5a 5b 90 68 31 1e d0 3f c7 45 a1 b8 1a 1b d5 3f
       0.25184283458059087 0.32977932005186655
0005f0 e3 4d f6 16 e1 8d a5 bf c4 20 63 08 64 64 bb bf
       -0.042098077824586765 -0.10700059132352907
000600 b1 e9 05 f2 3b 66 cc bf 49 9c e3 4f ed 8d d8 bf
       -0.22186993901762045 -0.3836625366370226
000610 6d c2 b7 a3 fb 45 ca bf 97 ab 41 37 cb 12 c3 bf
       -0.20526071065934862 -0.14901104162285314
000620 b9 8a 6e c2 af 78 a3 bf 03 38 3b 8a 5f c5 d1 3f
       -0.03803014038500891 0.27767170428421667
000630 00 00 00 80 24 e7 d3 3f 00 00 00 40 cf cb d3 bf
       0.3109828233718872 -0.3093145489692688
000640 00 00 00 00 24 21 9e bf 00 00 00 40 f2 8b d4 3f
       -0.029423296451568604 0.32104164361953735
000650 00 00 00 80 e2 c7 d6 3f 00 00 00 00 96 2e bc 3f
       0.3559499979019165 0.11008584499359131
000660 b2 3a d1 c9 d2 41 b2 3f bf 0d 5c 21 41 dc 6f bf
       0.07131688525371763 -0.003889205176962312
000670 62 fb 4e 4c 43 ac c9 bf bb 0c 44 15 56 e5 d4 bf
       -0.2005695459938251 -0.32649757458439027
000680 1e 6d b2 83 30 81 e2 3f 87 01 fc 34 8e 6b bd bf
       0.57827020380083 -0.11492241662563717
000690 a3 c0 d4 23 87 d2 be bf 75 aa 22 88 49 b4 c4 3f
       -0.12039990067273947 0.1617519297336291
0006a0 d6 c9 a4 71 19 bd e2 3f b7 e4 86 75 4d cd cf 3f
       0.5855834216693505 0.24845283735866072
0006b0 97 40 23 f1 67 74 c5 3f df 42 90 f1 dc 23 d3 bf
       0.16761492990781754 -0.29906390752971207

bias f8 [36]
000000 d1 66 05 d2 ed d1 e2 bf 00 00 00 80 a1 e4 d0 bf
       -0.5881260969137775 -0.2639545202255249
000010 b1 2b c5 25 db f1 e0 3f 7c ee 4e a7 c2 9b bc 3f
       0.5295234430026224 0.11175171456027927
000020 aa ff a1 29 6f 2b e3 bf 72 5c e8 1e 49 da d6 3f
       -0.5990520299092073 0.35707309740377646
000030 f2 d1 de 97 76 31 d5 3f 00 00 00 c0 34 d0 d6 3f
       0.33114399748890755 0.3564578890800476
000040 d6 d3 c0 2f 1d 06 da bf 0b cb 3d ae 28 94 d1 bf
       -0.40662316954995725 -0.27466790214309417
000050 4e 61 3d aa a7 53 c3 3f 00 00 00 00 36 30 d3 3f
       0.15099044620979857 0.2998175621032715
000060 f8 4f 93 a4 fb f0 d7 bf 60 b8 88 20 b4 a6 d2 bf
       -0.37408343383617604 -0.2914247815814459
000070 00 00 00 00 81 4a bb bf a6 2e 58 0c 15 28 e1 bf
       -0.10660558938980103 -0.5361428490736742
000080 09 1c 8d 71 0e 09 e0 bf 00 00 00 80 93 25 bd bf
       -0.5011055200383235 -0.11385461688041687
000090 80 ce bb ca 54 37 dd bf f2 5c 72 09 18 2c aa 3f
       -0.4565021495647912 0.0511176597148565
0000a0 a6 4a e4 6e 51 d6 ce bf 5a 57 5c 1f 5a 73 ef bf
       -0.2409154693092052 -0.9828310596956087
0000b0 00 00 00 40 8a 7a cd bf 58 24 86 46 34 b4 c5 3f
       -0.2303021252155304 0.16956189578584957
0000c0 4e fe 51 c0 d6 cc ed bf e9 21 5e 71 63 32 da bf
       -0.9312547451263045 -0.4093254668337339
0000d0 8a 04 cf 97 6c 37 b3 bf 6f c8 aa c0 60 61 e5 3f
       -0.07506445604578196 0.6681369555501656
0000e0 6d dc e2 9b 04 e4 c3 bf 78 69 1c e9 33 e6 a7 3f
       -0.15539605723981556 0.046678182798319534
0000f0 e3 bd dc b1 5a 83 dd bf db 35 90 bf 54 71 e0 bf
       -0.46114222878801864 -0.5138343564482811
000100 da ff 54 6b 73 a4 d2 bf 00 00 00 00 e8 65 bc bf
       -0.29128728372233825 -0.11092996597290039
000110 df 8b 89 aa e4 74 d4 3f d3 2c c8 92 0c 03 dd 3f
       0.3196345963862636 0.45331110319302786

weight f8 [72, 36]
000000 63 da b1 3f 64 2f b8 bf 00 00 00 00 30 7b 5d 3f
       -0.09447313838050202 0.0017993897199630737
000010 1d 45 9d a0 f7 31 9b 3f 1f 50 62 03 99 80 c5 bf
       0.026557797601815303 -0.1679869905971154
000020 2f 5d d5 de 06 eb aa bf 00 00 00 00 6c 0c ae 3f
       -0.052574362470006235 0.05868852138519287
000030 8c 2b 47 5b 79 79 b3 3f 00 00 00 80 c3 2a c5 bf
       0.07607229689089773 -0.16536754369735718
000040 a0 83 93 43 2e f8 c2 bf 33 ef f2 37 fb 01 c0 bf
       -0.14819887446995228 -0.1250604651630681
000050 3c 00 dc 61 92 b9 9d 3f 00 00 00 00 50 71 99 bf
       0.029028212759840452 -0.024846315383911133
000060 cb 8e 84 d6 90 05 b3 bf f6 28 c7 17 0e 26 a7 3f
       -0.0743036769604785 0.045212211992820814
000070 00 00 00 00 62 f9 88 bf f8 8b 0f 15 4c 19 94 3f
       -0.012194409966468811 0.01962775114578716
000080 41 a6 d1 1a de d5 c7 bf 00 00 00 c0 04 7b a7 bf
       -0.18621422109144883 -0.04586043208837509
000090 8d c0 52 88 79 7c 99 bf 03 20 6e e5 87 be bd bf
       -0.0248888959364995 -0.11618851996729522
0000a0 43 c7 df 90 62 cf a4 bf a8 4d d0 ee 0f 89 ca bf
       -0.040644722161131706 -0.20730780754875622
0000b0 00 00 00 c0 6e 7a b3 bf 28 a4 dc 80 63 4b b1 bf
       -0.07608692348003387 -0.06755659004251469
0000c0 b1 4f b5 04 b6 b6 92 3f 93 2e ff 01 04 52 d4 bf
       0.01827511218773709 -0.31750583834648544
0000d0 20 3f e5 4c 3d 43 b4 3f b6 a6 ad 9d 9d ed 88 3f
       0.07915099265414627 0.012171965956173519
0000e0 dc 2d 78 24 93 a4 66 bf cc d0 cc 5f a6 ca c1 3f
       -0.00276402224313242 0.13899688413369515
0000f0 88 97 2e 48 ea 8e c4 bf 7b f0 f7 64 62 2c bc 3f
       -0.16061142467986778 0.1100522514825019
000100 a3 89 72 e5 21 70 b9 bf 00 00 00 00 b9 27 9a bf
       -0.09936725475066636 -0.025542154908180237
000110 c7 88 31 fc 77 57 d5 bf 49 8f 14 98 98 72 a7 3f
       -0.3334636652781566 0.04579617363404382
000120 ef 9e cb 0a 71 6e 9d 3f 00 00 00 80 3d 54 a2 bf
       0.02874161365880828 -0.03579895198345184
000130 ac 79 a9 05 b1 d8 72 3f a9 00 e0 2a 08 da ab bf
       0.004601184361119708 -0.0543978264176997
000140 a1 4c 9c c1 88 85 c1 bf 13 ac a9 0c de 2a c1 bf
       -0.13688764051093918 -0.1341207086400976
000150 fb c1 4f 28 b5 af c6 3f 00 00 00 c0 31 6c b5 3f
       0.17723717182481366 0.08368216454982758
000160 ca 18 4d 80 aa 73 b6 3f c8 14 28 6b 23 c0 c7 bf
       0.08770242340424086 -0.18555109722379926
000170 f1 e8 01 93 03 25 b9 3f 00 00 00 40 eb 61 be 3f
       0.09822103823708851 0.11868162453174591
000180 12 ad 25 4b c4 e9 ac bf a4 86 79 4b 62 cf b7 bf
       -0.05647099892925146 -0.09300817816395096
000190 00 00 00 60 7e 40 b3 bf c8 51 02 0b bf 32 91 3f
       -0.07520284503698349 0.01679514412588093
0001a0 84 75 11 36 49 1f b5 3f 00 00 00 00 de bd 8a bf
       0.08250863618873977 -0.01305745542049408
0001b0 75 41 a6 85 25 4e 92 bf 6d 5f ae a4 b3 61 c3 bf
       -0.01787623050910399 -0.1514191202265879
0001c0 95 a9 32 9f a1 ea d0 bf 38 76 4d 05 6a 79 d3 bf
       -0.26432076021833356 -0.304285531214052
0001d0 00 00 00 e0 c8 2c c0 3f 18 69 8b 4e df 01 95 3f
       0.1263667196035385 0.020514954728107687
0001e0 56 c3 56 86 0e 7d b3 bf cd 2d 2a 55 19 22 6e 3f
       -0.07612696437605612 0.003678369024162831
0001f0 30 a7 00 10 15 d6 a2 3f bb 2a a6 ee 88 96 aa 3f
       0.036789568141399775 0.051929740077942786
000200 ac 7f c0 11 03 6b bc 3f 12 25 40 cd 40 fe be bf
       0.11100787337681933 -0.12106709490776194
000210 30 f4 b2 27 22 f5 b3 3f d2 31 7a c7 47 45 c0 bf
       0.07795918912138755 -0.12711426963904998
000220 ac ca 99 cb b8 69 d3 bf 00 00 00 00 fe 76 87 bf
       -0.30332775004277823 -0.011457428336143494
000230 a4 c2 bf 50 98 cb d4 bf f7 16 17 f1 12 d7 a9 bf
       -0.32492645154619937 -0.05046900933261427
000240 71 ae 9c ab eb f2 a6 bf 00 00 00 00 b3 14 9a 3f
       -0.0448220870005941 0.0254695862531662
000250 ce fe 1e bc c1 c3 cf bf b6 5d c7 7c 03 e6 83 3f
       -0.2481615227279605 0.009716059918828939
000260 fe f6 fc 1d b8 c0 c9 bf 00 00 00 00 a8 9b b3 3f
       -0.201193823473595 0.07659387588500977
000270 32 8f 90 9f 66 26 d7 bf 00 00 00 e0 a0 26 c5 3f
       -0.3617188032387616 0.16524134576320648
000280 23 53 ca d3 cd 08 b1 3f c2 5a 0e a7 0e 63 b5 3f
       0.06654058857595806 0.08354274347798721
000290 51 52 f3 78 64 fe 3e 3f 00 00 00 c0 a1 9e b7 bf
       0.0004729266447161306 -0.09226427972316742
0002a0 0b 30 44 28 94 1a c4 3f 07 79 a5 20 93 89 ba bf
       0.15706111875658765 -0.10366172358542168
0002b0 00 00 00 40 b6 24 b8 3f 2f a4 2b 8e 9c 10 c6 bf
       0.09431017935276031 -0.17238194410245586
0002c0 fb 7b a1 21 37 16 b3 3f 00 00 00 a0 5e 49 c4 3f
       0.074557729445118 0.15848906338214874
0002d0 d2 a5 fd 88 ef c7 c0 3f 3f 74 8f d2 73 f2 c5 bf
       0.13110155285839525 -0.17146156102436014
0002e0 b7 cf 4d da 8f 23 cc bf 99 89 79 31 b4 72 dc bf
       -0.21983526381847948 -0.44450096923369525
0002f0 00 00 00 80 73 6d a4 3f 55 ab cc a2 c1 1a 93 3f
       0.03989754617214203 0.018656755029194134
000300 1f 90 c0 b7 a1 25 cc bf b4 a8 dc d6 5a 04 c7 bf
       -0.21989842865252826 -0.17982039920145143
000310 04 c6 80 c0 aa c3 cc bf c7 54 af 4d 17 42 b7 bf
       -0.22472128295480343 -0.09085221907237716
000320 97 62 c8 9b 3e 1e 93 3f 04 30 d6 ab a6 5e d1 bf
       0.01867006135771251 -0.2714020422070009
000330 88 bb 88 f6 6d 40 95 bf 56 31 88 91 24 17 41 bf
       -0.020753591701744095 -0.000521557670312182
000340 f1 69 51 7f 96 55 b8 3f 00 00 00 00 15 58 9a 3f
       0.095055967410566 0.02572663128376007
000350 4a c8 a8 60 c7 7c d4 bf 74 e5 70 95 eb 3e b0 bf
       -0.3201158946932351 -0.06346008680784171
000360 c0 39 d2 26 c7 ba d0 bf 00 00 00 60 27 2f c4 3f
       -0.2614000205147953 0.15768902003765106
000370 3f 6d e7 97 2d 93 c8 3f 6e 3e 3c ea 3f b9 c2 3f
       0.19199151913822196 0.14627837121269088
000380 23 1f 52 ea 15 ad c3 bf 54 1e f4 32 e4 63 be 3f
       -0.15371965352482517 0.11871172183975293
000390 ed 9b 4e b5 95 8a c6 bf 00 00 00 c0 21 b3 b3 3f
       -0.17610427239307516 0.07695208489894867
0003a0 d3 9f 7a b0 7d ab 8c bf aa 8c c8 82 ce 3c d0 3f
       -0.013998968075000484 0.25371134540382434
0003b0 68 ea b7 ab a1 82 ce 3f 00 00 00 00 cf 87 b1 3f
       0.23836155781448842 0.068478524684906
0003c0 be fb ff e9 10 0f de bf 59 37 35 06 7b e3 a5 bf
       -0.4696695599704376 -0.042751163966939294
0003d0 00 00 00 80 9f 13 aa 3f 92 44 32 c6 5f 8b 9a 3f
       0.05093096196651459 0.025922295066781738
0003e0 db a6 9f 48 1d da b4 3f 00 00 00 40 1a 22 b1 3f
       0.08145316145933228 0.06692661345005035
0003f0 17 6c 8f 55 f6 10 82 3f 50 0a d1 26 5d 1d d6 bf
       0.008821415411082651 -0.3455422286098484
000400 e3 26 65 d1 54 24 bf 3f c8 4b c5 1f 9f 56 d5 bf
       0.12164812195001277 -0.3334119615803357
000410 00 00 00 c0 dd a2 b4 bf 23 62 0d a7 6e 15 d6 bf
       -0.08061014115810394 -0.34505811990450946
000420 e3 a8 19 26 40 3d e2 bf 60 d8 a1 d9 a4 37 ce 3f
       -0.5699768776078397 0.2360731184632554
000430 cf 3f 7e 6d a7 38 ba bf d6 98 b5 32 22 9d e4 bf
       -0.10242697165654067 -0.6441813459794286
000440 0e 2f 46 4b 9b 45 c2 3f f9 10 a4 27 e3 7c d1 bf
       0.14274922538276552 -0.2732475173109062
000450 2d 10 f3 39 6d 55 be bf 46 65 9d f6 03 58 bb bf
       -0.11849100746900439 -0.10681175967092313
000460 c5 ba 9f 63 32 4d e3 3f 00 00 00 80 ec e1 ac 3f
       0.6031734414844655 0.05641116201877594
000470 bd 32 b7 2f 00 5c cc 3f bb 9d 62 f3 8d 8e c2 bf
       0.22155763940681608 -0.14497541793865118
000480 c3 25 42 6f 57 69 b1 bf 00 00 00 40 8b 04 be 3f
       -0.06801363436002021 0.11725683510303497
000490 4d 93 32 84 1f 99 b2 bf a9 d6 5e 11 30 15 b5 3f
       -0.07264897325019355 0.08235454963763779
0004a0 26 d0 7c c1 a3 78 c1 bf 00 00 00 80 f7 13 a6 3f
       -0.1364941305888589 0.043121084570884705
0004b0 a8 c5 64 3a 2b 29 b8 bf 00 00 00 40 a8 08 b8 3f
       -0.09437818694711686 0.09388209879398346
0004c0 00 00 00 00 b7 29 b5 bf ef 2d 9b d9 87 1d b1 3f
       -0.0826677680015564 0.06685685217524172
0004d0 e9 ad f8 53 2b e3 ad bf 00 00 00 20 f9 29 c2 3f
       -0.0583737888340144 0.14190591871738434
0004e0 47 b5 8f 62 30 5e c5 bf 00 00 00 00 a6 d9 aa 3f
       -0.16693692028585813 0.05244177579879761
0004f0 00 00 00 00 f8 57 96 3f 96 f3 fe 4d fc f7 c6 bf
       0.02181994915008545 -0.179442918857515
000500 68 bc da 27 78 35 84 bf 00 00 00 00 70 3a 53 3f
       -0.009867609707127481 0.0011736005544662476
000510 d7 c6 7a 51 78 61 a0 bf 76 16 fe 86 5f 67 b3 bf
       -0.03199363703369123 -0.07579609914508886
000520 81 01 bc d1 0f 34 b1 3f fb 0f 83 06 37 9e c2 bf
       0.0672006499335165 -0.14545333688704418
000530 00 00 00 00 a8 c1 85 3f 61 95 6b 01 d9 c3 a0 bf
       0.010623276233673096 -0.03274419920289052
000540 a7 a8 6e e9 47 a6 94 3f 99 5d 37 ce 35 ab ba bf
       0.020165561316084404 -0.10417495998932792
000550 41 66 c2 64 0d 20 b7 bf 90 42 0e 80 dc da b5 bf
       -0.0903328295702517 -0.08537080885276738
000560 84 01 44 1d aa 13 b3 bf 9e aa 54 16 2f 16 83 bf
       -0.074518806595739 -0.009319656247119664
000570 50 b2 ac 82 1e 26 bb 3f d6 40 22 bc e8 05 c0 bf
       0.10605040254876852 -0.12518033205242912
000580 11 44 fb 1b 08 e4 be bf 00 00 00 00 ae 92 8c bf
       -0.12066698725836057 -0.01395164430141449
000590 9e 83 8c 1e b0 04 8f 3f 4e ad 09 2b c1 39 bf 3f
       0.01514566033580583 0.12197501469352298
0005a0 0b 95 47 fc 11 fb bc 3f 00 00 00 60 fc 97 b4 bf
       0.11320602807207451 -0.08044411987066269
0005b0 82 be cd 60 7a c7 a1 bf 54 05 e3 92 21 57 c9 3f
       -0.03472502166448256 0.19797153160292658
0005c0 c6 02 91 ca 07 b9 bd 3f 83 40 f2 72 83 6d 9d bf
       0.11610459037275253 -0.02873807324482459
0005d0 ba 79 72 ed d0 c4 72 3f 00 00 00 00 da 9f 89 3f
       0.004582229731708793 0.012511923909187317
0005e0 e7 5e 02 4a 3c 03 b7 3f 8b 42 30 8e 43 f5 ae bf
       0.0898931198774978 -0.060464964968678
0005f0 19 45 78 8c ba 4f c1 3f 00 00 00 c0 24 bf b5 bf
       0.13524562701108137 -0.084947869181633
000600 77 5b 4e ba 5c 1e b2 bf 1e 23 5b 18 91 24 a8 3f
       -0.07077579067695959 0.04715398237528333
000610 00 00 00 60 58 e2 b0 bf ad 06 12 73 63 e6 a2 bf
       -0.06595375388860703 -0.0369139745680632
000620 84 44 8c 92 ce 23 c2 3f 00 00 00 00 1b 15 93 bf
       0.14171774058971576 -0.01863519847393036
000630 7e ac 29 62 5d da d0 bf 84 85 e0 75 3e 62 ab bf
       -0.26332792841157715 -0.05348391713074377
000640 29 30 26 be fb 67 75 bf ea 8f 02 6a bf 93 c1 3f
       -0.005226119394489395 0.1373214023234362
000650 00 00 00 00 4f 7a b3 3f 1f 22 3b 0a 0f 10 a5 3f
       0.07608503103256226 0.04113814353837974
000660 8c 74 6b 3d d2 00 a3 bf 28 54 c6 f6 74 9b b6 3f
       -0.03711564063790104 0.08830958390019872
000670 5a e7 3e d9 37 d9 c3 3f 70 1d 9a 54 1a bf c0 3f
       0.15506647212697083 0.130831996259285
000680 07 f0 ad 6c e9 d9 b7 3f 83 3a 2e 6d 3f 19 b2 3f
       0.09316882041270001 0.07069775023976814
000690 d0 9c e4 14 70 1c b4 3f 1c 32 76 fe 9a f1 b4 3f
       0.07855892667849962 0.0818116065258398
0006a0 40 15 0c f9 4e d1 b2 3f 00 00 00 00 d8 55 62 3f
       0.07350629406217468 0.0022381991147994995
0006b0 be 95 3b c0 2a 90 cc bf fc f6 e5 19 2d b0 93 3f
       -0.22314962755551265 0.019226746278483184
0006c0 c0 f6 4f 0e 85 27 cd bf 00 00 00 40 30 9c b6 3f
       -0.2277685470470967 0.08832074701786041
0006d0 50 6f aa fe 48 36 8b bf 46 0d 2e e0 2a 5c b9 bf
       -0.013287134429723985 -0.09906261418477866
0006e0 3e 85 2d e9 4c 55 8a 3f 00 00 00 60 c2 19 c4 bf
       0.012858010164282004 -0.15703611075878143
0006f0 04 62 79 b2 8f f1 ad 3f 00 00 00 00 e2 20 81 3f
       0.058483591591258516 0.008363500237464905
000700 a6 cf 31 b6 45 aa c0 3f ab 9f 7a 1d 24 11 38 bf
       0.1301962985631892 -0.00036723262517534644
000710 c7 c2 96 4d c0 a9 a4 bf 00 00 00 60 f8 90 c1 bf
       -0.040357598754217565 -0.13723663985729218
000720 51 03 a5 0f 58 39 c0 bf 7b e3 fe 0f d5 57 c4 bf
       -0.1267499996556816 -0.15893042832410828
000730 00 00 00 60 d5 13 bc bf 1d f7 50 bb bf 1c c4 bf
       -0.10967763513326645 -0.15712734838773992
000740 9e 59 2f 04 26 dd 84 bf 00 00 00 60 6b cf b9 bf
       -0.010187432291712647 -0.10082121938467026
000750 72 00 37 f1 fe ca b7 3f a6 03 76 3d f9 df a0 3f
       0.09294122113260686 0.032958782913744586
000760 4f f2 9e 0d b7 29 c2 bf 89 8e 86 17 e8 bb ca bf
       -0.14189804234583156 -0.20885945461951774
000770 00 00 00 c0 37 30 b5 bf b1 68 7c 8d 81 8d b0 bf
       -0.08276699483394623 -0.06465921119925856
000780 8a bf d2 76 fc 37 82 bf 13 58 79 da b9 fa 9f 3f
       -0.008895847679326403 0.03122988124808763
000790 19 26 f7 72 dc df 90 bf 83 e2 27 41 a0 c9 b8 bf
       -0.0164789624375655 -0.09682656851499342
0007a0 ea 89 2e 7b 76 04 bf 3f ad a6 b6 25 a7 33 a7 bf
       0.12116184718482939 -0.045315955499359496
0007b0 b6 52 89 df 1d b0 c6 bf d3 7d 86 d2 a6 15 c8 bf
       -0.1772496549116533 -0.18816075591619938
0007c0 c9 e1 3a 41 65 82 b9 bf 00 00 00 00 00 f0 b4 bf
       -0.099645927834792 -0.081787109375
0007d0 e6 0a e0 a1 78 34 b5 bf 4d 2f 90 6e 50 7e ab 3f
       -0.08283189727812221 0.05369807576798156
0007e0 f7 ba 70 3b 4d 51 b4 bf 00 00 00 c0 97 b6 bf bf
       -0.07936556531124582 -0.12387989461421967
0007f0 4c f1 d9 3a 83 55 93 3f 56 c5 64 cb 69 2d c2 3f
       0.018880892245293254 0.14201090270357025

bias f8 [72]
000000 21 f9 4a 8b cc 11 97 3f 13 bd cc e3 28 a7 c7 3f
       0.02252883529831096 0.18478880999598654
000010 c1 cd bd 1f 6d ea ab 3f fe d0 85 91 59 46 c0 bf
       0.05452290546864048 -0.12714690785981725
000020 36 e1 27 d4 f4 17 a9 bf f3 e0 4a cb f7 80 ab 3f
       -0.04901089753906478 0.053718322339990986
000030 ec dc cf 25 a8 d2 95 3f 82 7f fa 4b 18 a1 bc bf
       0.02131140452180784 -0.11183311324066206
000040 6d 73 de 65 f1 09 c0 3f 53 38 3b 19 f8 4a d2 3f
       0.12530343507833255 0.2858257528686227
000050 dd 0a ef ad 68 fd c2 bf c7 16 d2 c1 8e 28 c3 3f
       -0.14835842602595664 0.14967522109889428
000060 87 76 3b d0 43 ba d0 3f 77 bd c9 68 f5 e1 c0 bf
       0.26136870703872045 -0.13189571014980192
000070 66 4a 6f 06 d0 fc ce bf c4 9e 22 8f 6d 8f b1 bf
       -0.24209022821613074 -0.06859478706848693
000080 cb a5 a2 3a 8b 59 b4 bf 42 f6 80 a3 07 d9 bc bf
       -0.07949133092429077 -0.11268661252776105
000090 92 24 07 45 31 00 93 bf 5c 4d 42 67 26 fa a3 bf
       -0.018555421674851198 -0.039017868141992124
0000a0 37 8a 88 d3 ec 0a d7 bf c0 81 a5 bc 73 42 47 3f
       -0.3600418153529605 0.0007098260041793966
0000b0 45 77 6c a4 05 41 aa bf aa c6 e2 22 d3 a4 cd 3f
       -0.05127732879758055 0.23159255221758218
0000c0 00 00 00 60 1f f4 c1 bf ed c4 60 ae 76 19 a0 3f
       -0.14026252925395966 0.03144427183759455
0000d0 56 c4 ea 74 3e 35 b0 bf 48 4f f5 27 64 91 b9 bf
       -0.06331243853016252 -0.09987474418204301
0000e0 eb 3f 75 b5 4b 9b af bf f8 72 a6 5b c7 fe 88 3f
       -0.06173168745101506 0.012204701885644806
0000f0 99 51 17 39 62 78 de 3f 4f 22 40 e1 14 3c 81 3f
       0.4760976369409718 0.008415377735233735
000100 00 00 00 c0 49 0c be 3f 00 00 00 60 36 42 be bf
       0.11737500131130219 -0.11819782108068466
000110 a0 06 26 80 a3 57 99 bf 70 11 69 ba 10 6e a3 bf
       -0.024748377510610653 -0.03794910693662501
000120 c1 1c 6d f6 43 43 a5 bf c5 ea b4 3c 10 46 bd bf
       -0.04152881987698143 -0.11435033304307314
000130 58 46 c6 21 7e 86 9a bf 46 c5 d7 0d 30 23 bf bf
       -0.02590367394583945 -0.1216306718631773
000140 b6 d4 df 5c 88 67 87 bf 00 00 00 00 80 f5 6e 3f
       -0.011427941641139899 0.003779172897338867
000150 e8 8f d5 9e e8 bc 6e bf 75 1a f1 f9 58 0d 9d bf
       -0.003752188050087913 -0.028371229415166305
000160 1c a3 d4 0f 7f f9 dc 3f a0 12 e0 e8 27 3d c0 bf
       0.45272804780920395 -0.1268663298689221
000170 81 6c f2 74 13 db e4 bf a3 17 d0 6f c4 0a a6 3f
       -0.6517426761742088 0.04305089821723065
000180 00 00 00 c0 16 1e b9 bf 21 ad 5b 13 c2 0e cf 3f
       -0.09811536967754364 0.2426378817102455
000190 00 00 00 00 5e 4d b5 bf c4 93 5f be a7 1b c9 bf
       -0.08321177959442139 -0.1961564712102285
0001a0 25 05 63 32 79 e0 9f bf df 97 99 b6 b4 bd 8a 3f
       -0.031129735660902064 0.013057147810467682
0001b0 d8 f6 14 52 69 35 bb 3f 5e 80 d0 d2 34 cf ad bf
       0.10628374341919355 -0.05822148393076597
0001c0 d4 fb e0 5b 40 64 c0 3f 69 b3 52 0a 37 d8 e8 bf
       0.12805942999145137 -0.7763934327718803
0001d0 41 88 43 45 c7 fc b6 bf d6 c7 88 76 31 ae be bf
       -0.08979459229479493 -0.11984547752288618
0001e0 d8 91 36 5b df f7 a2 bf 15 4e dd 12 9e 00 a4 3f
       -0.03704736698572092 0.039067210963050915
0001f0 78 ad fe c4 22 d0 88 3f e8 7b 7f 0b ef 7d 39 bf
       0.012115737568669557 -0.000388975964140613
000200 5b 5c df c8 75 41 cc bf 00 00 00 00 9b f4 99 bf
       -0.22074768360355077 -0.025347158312797546
000210 62 16 26 34 a0 f8 72 3f 00 00 00 60 29 75 b3 bf
       0.004631639285781116 -0.07600649446249008
000220 60 df 7f ab a2 bf b4 bf 4a 36 cd 4d 47 b2 bc 3f
       -0.08104912459373059 0.1120953144975029
000230 ab 96 01 f6 36 ef 95 bf b1 2b e2 10 91 24 c8 bf
       -0.02142034412863462 -0.1886159260214675

weight f8 [120, 72]
000000 15 a1 da 84 be 66 b4 bf 7e 1d c3 b6 cb 6e b1 3f
       -0.07969275229936941 0.0680968590923978
000010 60 aa 66 0e 75 38 c0 bf 7a af 7e ec 8f 25 af 3f
       -0.12672293856788297 0.06083345186138352
000020 6a 72 c2 4b 2e a9 92 bf d9 17 3c 59 a0 d4 c6 3f
       -0.018223498701092224 0.1783638416019915
000030 38 db ef f8 f5 06 c1 bf 3b e3 dd b6 b3 fe a4 3f
       -0.1330249276649853 0.04100572211513628
000040 fd 9c 93 f3 c4 ab 87 3f 99 6d 65 6c 23 7e b5 3f
       0.011558092769020418 0.08395596882239999
000050 dd f2 92 3c 2d 6c 6f 3f 9a c4 cd c6 fb eb a8 3f
       0.0038357623603516426 0.048675411241569225
000060 e1 a0 6c dc bc ae a8 3f 0a c7 7e 71 07 25 ad bf
       0.04820814314581568 -0.05692313442649606
000070 10 bd f1 64 5f 60 b4 3f ef 76 c3 3b ef e7 b3 3f
       0.07959552969417794 0.0777577896983208
000080 18 e6 4f 66 9b cf ac bf 3b 25 32 77 f8 d8 98 3f
       -0.05627141593863544 0.024265177035464474
000090 fe 89 55 80 50 38 b9 bf 69 de 9f 88 62 25 9d bf
       -0.09851554043920172 -0.02846292456521696
0000a0 3e da 02 11 7d 14 87 3f 57 32 1e ab 8e d9 be 3f
       0.011269547540320276 0.12050716092762435
0000b0 e7 03 08 d7 4c 64 8c bf d1 70 f8 7c 72 ac ad bf
       -0.013863182365641392 -0.05795629287260485
0000c0 00 00 00 e0 89 8e b4 3f 24 c8 6b 69 a1 bc 7c 3f
       0.08029996603727341 0.007015829577300212
0000d0 26 1c 15 20 a9 79 a3 bf 02 97 19 c1 f7 92 74 3f
       -0.038037572065654765 0.005022971906873288
0000e0 b6 5b 6b 81 08 ef aa bf 42 d9 47 9f af 18 b4 bf
       -0.052604928777945245 -0.07850167883575401
0000f0 70 3c bc ee 74 ab c4 bf 6d 21 06 2c 51 99 93 3f
       -0.1614824453067487 0.019139545738228337
000100 00 00 00 80 f3 e4 98 3f 00 00 00 20 75 10 b8 3f
       0.024310879409313202 0.09400112181901932
000110 d8 35 13 be 06 0e ad 3f 98 ed b9 74 33 a9 ba bf
       0.05674763746501882 -0.10414430236590133
000120 95 89 71 48 b0 9e be bf 41 e3 3d 3f 83 ab b1 bf
       -0.1196088959564235 -0.06902332586277017
000130 94 31 b4 7b 93 3d c0 bf 1b 5c 82 d7 15 7b 90 3f
       -0.12687915363529767 0.016094533232344426
000140 e7 09 66 4f 6a ff 73 bf 00 00 00 00 b8 28 92 bf
       -0.004882254861856761 -0.017733454704284668
000150 30 71 96 55 c5 cb 84 3f a6 e6 36 9c c1 f8 be bf
       0.010154287027767411 -0.1209832197554542
000160 5c 88 c7 cd 7d be 8a 3f 88 93 af 0e df 6d ad 3f
       0.01305864605177847 0.057478876631456066
000170 aa 5b eb 9e 98 88 86 3f 98 0d cd 64 4d 10 bc 3f
       0.011002724027475558 0.10962375365220678
000180 00 00 00 c0 c2 db b3 bf 93 57 3c 45 75 18 c0 bf
       -0.07757203280925751 -0.12574640160226788
000190 00 00 00 40 50 3a a7 3f 53 0e b4 1b 19 7b c0 3f
       0.04536677151918411 0.1287566552419884
0001a0 7d cf 57 47 b1 6f bb 3f 6d 1e 1b ba 62 a4 af bf
       0.10717304221890163 -0.06180103799630108
0001b0 17 e6 99 5e 42 03 b3 3f 4c f9 4d 3c 0b 81 8f 3f
       0.07426848229979331 0.015382850435113803
0001c0 86 8d 49 ed b6 df 9d 3f ce 52 f3 4e 5e ba c1 3f
       0.029173715813511268 0.13850001196865097
0001d0 c1 cc e3 64 db 2a a6 3f d4 57 7d d9 9b 77 a6 bf
       0.04329572302403895 -0.04388129262831311
0001e0 f9 fb f3 4c be 2c 9c bf 92 74 a4 bd 20 a8 9b bf
       -0.02751443237957216 -0.027008544516423934
0001f0 46 62 6c 3a 3d 73 c1 bf de 4d 73 5b 22 fd b6 bf
       -0.1363293204565414 -0.08980002148319197
000200 e6 d5 c8 79 30 ff ac 3f 00 00 00 40 c0 99 b2 bf
       0.05663444029452673 -0.07265855371952057
000210 61 76 70 2a 55 33 ab 3f 00 00 00 60 19 29 b3 3f
       0.05312601225908221 0.07484587281942368
000220 e2 a2 22 e2 d6 74 b9 bf b1 00 61 a0 f6 7f c0 3f
       -0.0994390775764589 0.12890513258935735
000230 d4 7d 9b 92 56 88 af 3f c2 57 4e e5 f0 25 bd bf
       0.061587052723321684 -0.11386018369952836
000240 ed 39 1e 28 19 54 a4 3f 0e f9 a6 07 3c 11 9f bf
       0.03970411886904288 -0.030339181868606117
000250 c9 84 80 10 19 e0 b5 3f ea bb b2 2b 5e cc bd bf
       0.08545071270829675 -0.11639965597963423
000260 33 8b ec af e1 25 95 3f 68 50 a0 cf 50 00 9b 3f
       0.02065231930022122 0.02636839167833252
000270 63 03 4e 83 0f b7 aa 3f bd 7a e5 fe 55 47 b5 bf
       0.052177891519938034 -0.08311974976593724
000280 3a 82 51 0c 78 64 a5 bf 14 ab 6e c7 fc fe a6 3f
       -0.04178214216586125 0.04491414961315435
000290 cb 8d c2 99 9f 75 84 3f da 14 68 b2 87 aa a6 3f
       0.009989973907358249 0.04426979115309289
0002a0 c0 2c 3c cd b2 cc b6 bf 81 ce f4 0f 89 0b a8 3f
       -0.08906095038053063 0.04696300811556587
0002b0 d4 4e 4f e0 8f e4 b0 bf 86 7e 4c 35 7b f5 8d bf
       -0.0659875795966472 -0.014628374637651886
0002c0 e2 da 44 7a 14 a7 b0 3f ed c9 21 a5 e3 d3 b7 bf
       0.0650494383342948 -0.09307692319433843
0002d0 66 31 f8 73 50 e9 c1 bf ab 57 0c 4a b6 0f 9d bf
       -0.13993268644879747 -0.028380249280494912
0002e0 ed f0 9b 18 08 a2 b3 3f f2 d2 dd 17 b3 79 9c 3f
       0.07669115639504627 0.027807997066207464
0002f0 e1 c9 1b 0b df 0c a2 3f d3 9a 13 9a 8a 51 b2 3f
       0.035254449945472784 0.07155672322879107
000300 00 00 00 00 fb 3e b4 bf 12 c8 8a 59 14 f8 a8 3f
       -0.07908600568771362 0.04876769631427193
000310 b3 ff d5 1b 76 1b be bf 40 2d 7a e9 5b f9 56 bf
       -0.11760652713382917 -0.0014022252634358773
000320 01 28 b2 d7 68 dc ac bf 1e 11 26 5a 4e 75 b0 3f
       -0.0563690913487136 0.06428994847198452
000330 a3 97 57 89 51 66 ab bf 86 7b ec 79 a0 1c ae bf
       -0.053515003219032374 -0.05881215561225077
000340 00 00 00 80 0d c3 b0 bf 00 00 00 c0 31 d8 b7 bf
       -0.06547626852989197 -0.09314261376857758
000350 80 16 78 a6 ee ec 73 bf 74 48 48 5f ed 77 b7 bf
       -0.004864628055207043 -0.09167369438390144
000360 a0 7e b2 6e a8 8c 8d 3f bb 3a 47 af b8 0e ab 3f
       0.014428439977847873 0.052846690555829544
000370 b6 aa 92 58 8e f9 ba bf 9c d5 2c 3a 55 21 c3 bf
       -0.10537042295860996 -0.1494547399576448
000380 c5 31 92 ad 73 39 08 3f 00 00 00 80 9e ff 9b 3f
       4.620441695477347e-05 0.0273422971367836
000390 b9 01 bb d3 e7 8b c1 bf 42 65 90 1a c6 96 74 bf
       -0.1370820792999561 -0.005026601641497765
0003a0 2b a0 8c 71 3a 1d cd bf c0 e7 c5 b8 4d 6b 9e bf
       -0.227454476779941 -0.02970620575204186
0003b0 54 cc cc e8 55 e3 c8 bf c2 24 e1 7a fe c1 bc 3f
       -0.19443773142993115 0.11233511447894087
0003c0 00 00 00 40 0e 5f ad 3f fb 88 e4 18 9d 87 c4 bf
       0.057365842163562775 -0.16038860049690826
0003d0 00 00 00 e0 40 7b b8 3f 41 a0 19 c7 38 d9 a3 bf
       0.0956306979060173 -0.038766645721637356
0003e0 1e 79 3e c2 3c 6f 86 bf 68 c0 27 1d 69 b2 a7 3f
       -0.010954355886323482 0.04628303986453447
0003f0 a3 bc 56 4e 6f 5a 9d 3f 2f 89 00 cf 38 82 92 bf
       0.028665293842717997 -0.018074882158665758
000400 de 7f cb f9 b9 51 b6 bf 00 23 3e 45 21 46 ab bf
       -0.08718454693325792 -0.05326942415474001
000410 a9 6f b3 d2 0d 20 c1 bf 1c 44 f6 57 96 29 93 bf
       -0.133790710336027 -0.01871333038213062
000420 1f 4f 3c 6b 61 fb b1 3f 54 47 4b 1f d6 11 9c bf
       0.07024201267296036 -0.027411790523564974
000430 7c c4 fa ec 37 ef a1 3f 7b a8 94 0d be 45 ae 3f
       0.03502821700875189 0.059125842244910985
000440 e8 ea 50 bd 7f 55 8f bf 00 00 00 e0 5f aa b9 3f
       -0.015299795117348094 0.10025595873594284
000450 82 a5 6a cc ae d1 92 bf 00 00 00 e0 73 65 b0 3f
       -0.01837800142917479 0.06404804438352585
000460 cd 0e 32 23 5e ec a6 bf 98 1c 46 6f 08 97 b5 3f
       -0.044772092624979366 0.08433582989356336
000470 ce c6 bf 3c 58 dc b3 3f 4f b7 b4 c4 d4 9a c1 bf
       0.07758094294674864 -0.13753757099896766
000480 00 00 00 e0 e4 15 bb 3f 8d a2 13 51 1e c8 b2 bf
       0.10580282658338547 -0.0733660648289833
000490 00 00 00 80 16 f5 96 3f 00 00 00 60 90 40 b3 3f
       0.022419311106204987 0.07520391792058945
0004a0 00 00 00 00 9a 9f 9d bf a2 8c bf 41 e1 7f a9 bf
       -0.028929144144058228 -0.04980377128210846
0004b0 00 00 00 a0 40 8b b6 3f 79 e7 41 8c 97 61 a5 3f
       0.08806232362985611 0.041760192748326604
0004c0 00 00 00 c0 b0 44 b9 bf 8d f2 95 1b fd ec a8 3f
       -0.09870438277721405 0.04868308030834099
0004d0 00 00 00 20 9c c6 b5 bf da e9 48 62 bd 13 a4 3f
       -0.08506179600954056 0.03921310257688378
0004e0 00 00 00 20 1e b4 b3 bf 00 00 00 00 a9 51 8d 3f
       -0.07696712762117386 0.014315910637378693
0004f0 00 00 00 40 f8 14 a7 3f 00 00 00 00 bd e8 93 bf
       0.045081861317157745 -0.019442513585090637
000500 00 00 00 a0 1e ab bc 3f 00 00 00 a0 18 53 b3 3f
       0.11198607832193375 0.0754866972565651
000510 5e 4a 5a 67 5a 6a 9e bf 00 00 00 00 6d 4c 91 bf
       -0.029702580030582452 -0.01689310371875763
000520 1a 50 85 9d 9d b2 a4 bf 42 d9 26 46 6f 78 5d bf
       -0.04042522952900658 -0.001798733392758559
000530 00 00 00 40 ff 16 a8 3f ac fb 97 ec 69 42 b0 bf
       0.04705045372247696 -0.06351339365208614
000540 00 00 00 40 73 68 a8 3f 00 00 00 00 69 c5 98 bf
       0.04767189174890518 -0.02419055998325348
000550 30 77 e0 a8 15 05 a1 3f 00 00 00 60 05 20 b0 3f
       0.033241917481275585 0.06298860162496567
000560 00 00 00 40 0f e8 b3 bf 00 00 00 80 ba 57 9a bf
       -0.07775969803333282 -0.025725282728672028
000570 68 5e a4 20 38 17 c2 bf 00 00 00 60 81 e8 b0 3f
       -0.1413335952172361 0.06604775041341782
000580 00 00 00 00 8c 83 a8 bf 00 00 00 20 21 6f b8 3f
       -0.04787862300872803 0.09544569998979568
000590 00 00 00 20 67 c9 ae bf 04 11 e3 e8 15 0d 97 bf
       -0.06013033166527748 -0.022510855044644465
0005a0 00 00 00 40 15 da a7 3f 00 00 00 40 21 aa b9 bf
       0.04658571630716324 -0.10025222599506378
0005b0 00 00 00 e0 8a 48 b8 3f 00 00 00 00 3d 82 99 bf
       0.09485691040754318 -0.024910882115364075
0005c0 05 84 c8 c5 55 a0 90 3f 00 00 00 40 87 06 a0 bf
       0.01623662967370267 -0.031299807131290436
0005d0 00 00 00 00 2b b9 8d 3f 00 00 00 80 a1 5e 9f 3f
       0.01451333612203598 0.030634425580501556
0005e0 00 00 00 80 f6 08 93 3f 00 00 00 00 e3 2a a9 bf
       0.018588878214359283 -0.04915532469749451
0005f0 f6 a6 6d 3f 8f 91 b6 bf 00 00 00 40 78 f9 a8 3f
       -0.08815856264632402 0.04877830296754837
000600 00 00 00 00 aa e4 9f bf 00 00 00 60 c5 67 b2 bf
       -0.031145721673965454 -0.07189591974020004
000610 00 00 00 00 af f7 84 3f 00 00 00 00 5d f5 92 bf
       0.01023804396390915 -0.018514111638069153
000620 d1 99 65 90 b4 33 bc bf 00 00 00 00 52 49 9f bf
       -0.11016396069826519 -0.03055313229560852
000630 00 00 00 20 ad d0 ad bf 00 00 00 00 80 df b5 bf
       -0.05823269858956337 -0.08544158935546875
000640 42 18 bc e3 09 b2 bd bf 4e c5 31 5e 19 58 97 3f
       -0.11599790391855527 0.022797008871241524
000650 26 1e c1 f8 24 4d 9f bf 00 00 00 80 88 1e a0 bf
       -0.030567720110665907 -0.03148294985294342
000660 00 00 00 c0 84 10 ae bf 00 00 00 c0 57 e9 a7 bf
       -0.05871977657079697 -0.04670213907957077
000670 00 00 00 00 b0 d1 54 bf 00 00 00 40 8d 42 ae 3f
       -0.0012706965208053589 0.05910149961709976
000680 00 00 00 00 ac 2b b7 bf 00 00 00 e0 5e bd b1 3f
       -0.09051012992858887 0.06929581612348557
000690 00 00 00 00 d9 c5 89 3f 00 00 00 c0 1a 6b a9 3f
       0.012584395706653595 0.04964526742696762
0006a0 00 00 00 80 11 d3 b3 bf 00 00 00 40 07 c8 a2 3f
       -0.07743939757347107 0.03668234497308731
0006b0 ab 67 15 b4 22 9e c1 bf 00 00 00 80 e2 19 be bf
       -0.13763841431756182 -0.11758247017860413
0006c0 00 00 00 c0 af 15 bb bf 00 00 00 00 04 43 b2 bf
       -0.10579966008663177 -0.0713350772857666
0006d0 00 00 00 c0 e6 e9 ad 3f 00 00 00 c0 44 2e aa 3f
       0.05842515081167221 0.051134251058101654
0006e0 00 00 00 80 57 92 97 3f 00 00 00 00 13 fa 8f 3f
       0.02301918715238571 0.015613697469234467
0006f0 00 00 00 00 8b 37 ab bf 00 00 00 00 21 2f af bf
       -0.05315813422203064 -0.060906440019607544
000700 00 00 00 80 1e f5 9d 3f 00 00 00 00 d0 aa 58 bf
       0.029255367815494537 -0.0015055686235427856
000710 00 00 00 a0 3a 8e b6 3f 00 00 00 80 a1 47 99 3f
       0.08810774236917496 0.02468731254339218
000720 00 00 00 80 4e c6 ba bf 00 00 00 80 a8 8d 99 bf
       -0.10458841919898987 -0.02495444566011429
000730 00 00 00 80 c8 39 bc bf 00 00 00 00 ed e9 b0 bf
       -0.11025670170783997 -0.06606942415237427
000740 00 00 00 20 b6 44 b9 3f 00 00 00 e0 20 86 bb 3f
       0.09870470315217972 0.10751538723707199
000750 00 00 00 00 f5 f0 86 bf 00 00 00 80 e3 e9 92 3f
       -0.011201776564121246 0.018470339477062225
000760 00 00 00 c0 b3 3c af bf 00 00 00 e0 bd a5 b4 3f
       -0.06100999563932419 0.08065401762723923
000770 00 00 00 60 33 fc b1 bf 00 00 00 20 4f e1 b7 bf
       -0.07025452703237534 -0.09328169375658035
000780 00 00 00 a0 7e b0 b9 bf 00 00 00 00 97 47 9f bf
       -0.10034934431314468 -0.030546531081199646
000790 00 00 00 80 c2 34 b5 bf 00 00 00 80 76 7f 92 3f
       -0.08283630013465881 0.018064357340335846
0007a0 00 00 00 a0 18 a3 b5 3f 00 00 00 80 68 2a 93 3f
       0.0845199003815651 0.018716461956501007
0007b0 00 00 00 80 82 b8 9b 3f 00 00 00 80 7e 40 b7 bf
       0.027071036398410797 -0.09082785248756409
0007c0 00 00 00 00 c2 da 7c 3f 00 00 00 40 86 86 a8 bf
       0.007044561207294464 -0.04790133982896805
0007d0 00 00 00 80 67 8a ae bf 00 00 00 20 33 19 be bf
       -0.059649690985679626 -0.11757201701402664
0007e0 00 00 00 40 bf 55 b5 bf 00 00 00 60 40 b2 b6 bf
       -0.0833396464586258 -0.08865740150213242
0007f0 00 00 00 80 50 2c 9b bf 00 00 00 00 0e 08 ab bf
       -0.026536233723163605 -0.05279582738876343

bias f8 [120]
000000 a4 f6 de c3 b8 df d6 3f dc 7c 50 b0 e8 ec bf 3f
       0.357404891281343 0.12470869354773434
000010 45 5d f7 ac 5e 7d bf bf 00 00 00 00 75 6b b0 bf
       -0.12300674174126865 -0.06413966417312622
000020 68 4d 0d 4a e7 9d d4 3f 54 9a e4 f0 83 42 b0 bf
       0.3221376631892867 -0.06351494437385813
000030 67 9b fb 4d 9d 39 b6 bf 9d 69 a8 7d 3e df 9a bf
       -0.08681662706258707 -0.02624223367647859
000040 00 00 00 40 2a dd ba bf 5f bc c0 bd 23 67 6a bf
       -0.10493721067905426 -0.0032230089255090156
000050 f6 9c 09 40 de 27 75 bf e2 c9 c4 e3 d1 c9 91 3f
       -0.00516497436965512 0.017371444250963715
000060 eb eb 57 9d 78 70 a2 bf 81 ba e1 c5 c9 6d d7 3f
       -0.036014336783374144 0.3660759384573922
000070 e7 be 2b 67 e2 7c d9 3f 88 81 2d f6 23 02 a4 bf
       0.3982473380592481 -0.03907883052920896
000080 a4 a5 53 e5 80 ca d8 3f de cb 0e ee 2f 69 a6 bf
       0.3873598327178007 -0.04377126484850867
000090 da 72 2f a8 df fc c4 bf 84 06 d8 2d fd b1 d4 3f
       -0.16396709167647466 0.32336358525217457
0000a0 00 00 00 c0 c3 d4 b3 bf f6 a1 bb 48 84 7a c3 3f
       -0.07746528089046478 0.1521764140263852
0000b0 5b a4 5f df 8c 1c c9 3f bd 15 3a 1c 4e 24 c1 bf
       0.196183785504476 -0.13392044428125685
0000c0 00 00 00 40 66 a2 b6 bf c8 26 9b 87 81 51 c0 bf
       -0.08841551840305328 -0.12748736497296975
0000d0 30 ec 50 61 a5 15 cc 3f 32 23 9f b3 1a c6 cd 3f
       0.2194105839897431 0.23260816355311814
0000e0 00 00 00 c0 f9 7f b3 bf f7 d9 f7 27 ac c6 d9 3f
       -0.07617150247097015 0.4027510061563641
0000f0 8c 2d b9 34 ef 67 d0 bf 26 01 da 48 9c d9 c9 3f
       -0.2563436522366025 0.20195344502645546
000100 00 00 00 c0 56 fd ac 3f fb 86 73 ff 5c 8e c8 3f
       0.05662032216787338 0.1918445823021598
000110 7d b0 75 83 9d da c5 bf 6e a4 af 5d ab 4e a4 3f
       -0.1707341091054139 0.0396626998770636
000120 00 00 00 00 79 bf 9b bf 0e 5d 6f ed d4 7f b5 3f
       -0.02709759771823883 0.08398180767777694
000130 84 76 52 5e 98 a3 ce 3f ba 5c 1a f0 24 ac d4 3f
       0.23936752896854696 0.32300685355717074
000140 13 2f 5c 7c 97 8d c5 bf d0 e0 d0 7c 81 72 bf 3f
       -0.1683835370280283 0.12284097001327443
000150 13 bd ef 78 8e e5 b3 3f 2a 9d c1 ad e3 0c d2 3f
       0.0777215047125888 0.2820367047156248
000160 43 e2 6d 42 ee e1 b5 bf 75 b5 7c 60 f5 b8 78 bf
       -0.08547867891128029 -0.006035765174414611
000170 67 1b 68 38 d5 e1 b1 3f 17 10 ab 99 84 05 a6 3f
       0.0698521864616005 0.043010848768546044
000180 c0 13 cf 51 f4 04 a8 3f 9e 72 ab 29 8f 6d e7 bf
       0.04691279886859645 -0.7321239293920205
000190 eb 9b 22 a8 e4 bd de bf e7 9c c0 5d f4 47 b5 bf
       -0.4803401605553847 -0.08312918938519297
0001a0 ab cf 02 49 46 66 b0 bf 5a be aa b0 0c ac de 3f
       -0.06406058580870304 0.4792510724318838
0001b0 93 00 d5 f2 90 3c 53 bf 2e 8c 3a 90 f2 21 b5 3f
       -0.0011741080773646536 0.08254924794395954
0001c0 f4 c1 c4 45 d9 89 ce bf 3c 89 c0 68 97 2d cd 3f
       -0.2385818091074864 0.22795384039734212
0001d0 65 75 85 a8 ac 67 91 3f 30 9f df a9 d0 c5 83 3f
       0.016997049127316716 0.009654646095398428
0001e0 43 32 59 49 48 cf 58 bf c8 1d a9 37 56 01 86 3f
       -0.0015142637179394048 0.010744737218501124
0001f0 9c 10 77 e0 f8 62 b8 bf 00 00 00 e0 b3 5b bd bf
       -0.09526019554238235 -0.11468052119016647
000200 d3 33 22 27 31 a4 d6 3f d7 d4 03 eb c2 cc c9 3f
       0.35377148458138413 0.20156132197704466
000210 b9 96 a3 41 28 81 c4 3f 62 07 29 01 70 59 ad bf
       0.16019156651525693 -0.05732297910846175
000220 00 00 00 40 d7 d3 b3 bf 2e 84 a1 29 0a 3f d1 3f
       -0.0774511843919754 0.26947263780135955
000230 d5 7f 2d e2 4b 65 b7 bf cf c2 3a 02 c5 7a ad bf
       -0.09138941070477753 -0.057577282449874916
000240 9d 96 7c 42 0c 06 b1 3f 4a 5a 74 63 a8 a4 82 3f
       0.06649853347024721 0.009103122267828518
000250 00 74 94 92 46 d8 d5 3f c6 7d 6d 7d a9 f0 a1 bf
       0.3413254195637023 -0.03503923088168963
000260 f0 e5 b1 38 e5 6c eb bf cf f2 0b 3c ae 7a c0 bf
       -0.8570428950617366 -0.12874391490904322
000270 ca 0f cf 49 3e f8 a8 bf 3e 6e 88 9b ab 96 bf 3f
       -0.04876894618021728 0.1233927969664643
000280 66 7a 4e 5f f3 15 d4 3f 88 2d 79 23 df 3d b3 bf
       0.313839762757118 -0.07516283622788056
000290 8c 42 0b 82 74 12 d1 bf 8f ac 3b e8 f5 ce c4 3f
       -0.26675141048057394 0.16256593551165507
0002a0 00 00 00 c0 bd bc a6 bf f8 f1 8e cd 43 7e da 3f
       -0.044408731162548065 0.4139565951734592
0002b0 e3 e9 49 93 a6 7b b9 bf 10 96 77 28 1d ef e4 3f
       -0.09954300971904888 0.6541887083409978
0002c0 5a 54 c9 96 68 49 cd 3f 7e 29 25 8e b8 a6 c8 3f
       0.2288027511846476 0.19258791866952757
0002d0 4a c7 58 2a ac 7f c4 3f 78 ea 94 2c b8 55 aa bf
       0.1601462561389389 -0.051435237352468854
0002e0 1b 37 d7 49 d5 d0 c0 3f 47 b5 25 69 ff a3 e9 bf
       0.13137308221342256 -0.8012692502649451
0002f0 8e be 0a ab be e6 77 bf 9a cf 60 6c d7 5e a5 bf
       -0.005835289761918395 -0.04173920820213013
000300 63 19 12 80 e7 b7 86 bf eb f6 41 02 e0 63 b4 bf
       -0.011092957111270512 -0.07964897208327286
000310 07 d8 22 fa 08 c6 a0 3f 63 89 8c 8f f9 05 7f bf
       0.03276088765544221 -0.0075740574327788105
000320 bc 4b 8a b3 00 5f 66 bf 79 3c b5 94 d8 29 a0 3f
       -0.002730847711356314 0.031569259789301314
000330 2e 57 b7 63 92 c9 9f 3f 42 89 39 9f 6a 22 bc bf
       0.03104237302417017 -0.10990015399287237
000340 49 59 04 38 79 b4 aa bf d0 7e 61 23 fd 2c b3 3f
       -0.052158153617869525 0.07490522493162222
000350 86 c0 3a 18 c8 13 78 3f 00 00 00 e0 eb a8 b8 bf
       0.005878240222657044 -0.0963275358080864
000360 bd 70 fc 8f 4c bd 88 3f d3 95 1a 38 96 83 d5 bf
       0.012079809326273833 -0.336156420506396
000370 f3 93 9b c8 06 58 6f 3f 32 d8 a4 ee 93 1d b5 bf
       0.003826153992906084 -0.08248257232921288
000380 5c 98 9a 36 0b 86 bd 3f 56 a1 32 30 51 71 b0 3f
       0.11532659609892576 0.06422908236220812
000390 dc 81 3b f0 ef 96 ca 3f 95 76 b5 9f 5e aa a0 bf
       0.20773123960590467 -0.03254981708117303
0003a0 de 0c f3 f9 97 bf ac 3f 00 00 00 20 ce fb b6 bf
       0.05614924360409089 -0.08977974206209183
0003b0 42 03 c0 e4 61 5e ad 3f 3e a8 89 94 15 aa b9 3f
       0.05736070554121976 0.10025153042229903
