Sphere/NeuralNetworks/models/net7_anls_loss47.pt (torch_old, 207618 bytes, 10 tensors)

weight f8 [36, 6]
00000000: 0000 0080 32c4 cabf 0000 0040 0737 d43f
00000010: 0000 0000 b215 be3f 0000 0080 cd5d d13f
00000020: 0000 0080 2daf c7bf 0000 0000 3e62 cc3f
00000030: 7023 57fa 17e5 a1bf 0d13 c8b5 17ce d13f
00000040: 2406 0e91 b532 cd3f 592f 43cd f5a6 a6bf
00000050: 8762 6e0d 148c d5bf d2d1 9d5e 3f77 d1bf
00000060: 69bf b407 8f3e d13f 43ac 4058 fcfd debf
00000070: f36f 5730 dc5f d93f f0d0 b3f8 dea4 98bf
00000080: 669d 9605 b45c d5bf ea0b 10dd b2d8 c53f
00000090: 1f90 0f4a f02a bcbf 45f0 cd9e 224d e03f
000000a0: ece2 5a79 c073 c9bf e293 fad9 9962 d0bf
000000b0: e67e 4c01 9984 c83f 7f77 7c79 388c b23f
000000c0: ba3b 1e5b 8390 d1bf 8b44 3a0e 149c dfbf
000000d0: 3cec 19eb aac9 73bf 979f 4229 cb47 e03f
000000e0: e940 ceac df03 a1bf 0ed6 b911 45c2 df3f
000000f0: 9061 8001 d854 843f f956 c262 b066 cd3f
00000100: 3b03 522f fb9f dcbf 7f35 e69e 70ef d63f
00000110: 7891 481f cead a63f 2952 e597 9352 a1bf
00000120: 0000 0080 f6bf cd3f 0000 00c0 a359 cabf
00000130: 0000 0080 9b3b ca3f 0000 0000 6d52 bc3f
00000140: 0000 0020 bab0 cdbf 0000 0040 d2a9 d93f
00000150: 2b94 d2dc a968 babf ae05 2c9f 3f3f d0bf
00000160: 8354 371a 953d d0bf edfe b3f1 8a3c d8bf
00000170: a593 c71b d137 9fbf 5f97 97b3 2187 bf3f
00000180: d221 00bd 26b8 a8bf a884 9052 4a05 e03f
00000190: 914c d7d2 745c 67bf 554b ffe8 d3f1 ccbf
000001a0: 91c1 56fd d31d bdbf 2e2c 1843 bd0f c0bf
000001b0: 1660 bd30 e7d3 dbbf 07e5 b5c8 01fa d33f
000001c0: 19af 3cc4 98df db3f 1459 4ec2 184d d4bf
000001d0: 9116 2f1a c723 723f 3ad1 a565 c97f 71bf
000001e0: f8fe 5e77 b6a1 cabf 3a2a c359 0a06 e33f
000001f0: eaee 3bba 01cc e83f aff8 6a7f 7004 ca3f
00000200: 9c53 46ae 4a3b aabf a3a9 c2e3 0b90 d0bf
00000210: 0000 00c0 3a59 d63f 0000 0000 22b1 cb3f
00000220: 0000 0000 5ced be3f 0000 0080 aff2 c63f
00000230: 0000 0000 0895 8e3f 0000 0000 0e9f 963f
00000240: 0000 0000 d32d babf 0000 0000 ac47 8a3f
00000250: 0000 0080 1e60 d93f 0000 0000 90d3 873f
00000260: 0000 0000 0969 d43f 0000 0080 3f2d d63f
00000270: 0000 0060 b07a c6bf 0000 00c0 dfb3 d13f
00000280: 0000 0000 d451 b0bf 0000 0080 fdcf c73f
00000290: 0000 0040 f33d d13f 0000 0080 ac87 d93f
000002a0: 1444 a265 f3eb b3bf 5a25 7633 baaf cabf
000002b0: 9178 dbe4 ace2 d63f a5e0 3dfb b1c9 bcbf
000002c0: 6d53 4102 9a47 c73f bd0d 11bf ad3f d3bf
000002d0: 88f4 f208 27f5 d03f c1fd 02b1 0b80 85bf
000002e0: b50f 6c50 ec8a a4bf 9870 cd9c 9c67 d3bf
000002f0: b39d 56d7 c8d9 cc3f d187 b899 2147 d8bf
00000300: 0000 0000 d7ac d83f 0000 0000 97d6 cbbf
00000310: 0000 0000 a413 d3bf 0000 0080 2e3f c73f
00000320: 0000 0040 4801 d03f 0000 0000 ea9e d13f
00000330: 7d8e d778 ad04 c2bf 966c 20db f4b9 bebf
00000340: 3752 4741 8b67 cf3f a400 59b1 21cb db3f
00000350: 25b2 84a3 ec8e b4bf 2dab 0fab af13 d6bf
00000360: fea9 5956 018d cbbf be54 97db 558e c33f
00000370: 9811 dfa7 350e bc3f b945 3ac3 a702 b5bf
00000380: 987c f736 514e bcbf e290 df9a ed3a d23f
00000390: 3339 83e2 6a00 b43f a868 12c2 467f cabf
000003a0: 19be ac64 250d d83f d800 f29f 9805 a43f
000003b0: 00c2 2d4b 07cf 90bf 311a 7a48 5d90 c23f
000003c0: 35da b475 6c7d c7bf 8366 a06f 05d2 69bf
000003d0: f0b2 39d7 9e67 c33f f28c 620a c1c6 d73f
000003e0: 1a19 6a31 e78c d4bf 3c6c 8115 3372 cdbf
000003f0: 0000 0000 ec81 b2bf 0000 0000 df84 c83f
00000400: 0000 0080 7f59 b4bf 0000 0000 f482 d63f
00000410: 0000 0080 8a6d b03f 0000 0080 f213 d23f
00000420: 89f8 472d 8381 a63f 44c0 2d1c 01b2 a8bf
00000430: 6825 b1b6 6696 d93f 2ba1 616a c803 e1bf
00000440: edf2 e023 a2d5 b73f 4120 bfdc 3c6a c33f
00000450: 0000 0000 16b0 c83f 0000 0040 1ee5 d23f
00000460: 0000 0080 8af0 d53f 0000 0000 078b b7bf
00000470: 0000 0080 8a7a c93f 0000 0040 991d d13f
00000480: 0da2 2bc4 2bc5 bc3f f695 38c2 19f1 b1bf
00000490: 7c5a 2420 9910 c0bf 4c5f 4923 006f b5bf
000004a0: c2a0 f5fc e4c7 c0bf 0a26 01fe ed85 d8bf
000004b0: c38e 8160 2f45 cbbf cdbc a0ca 4d2b c2bf
000004c0: 49f9 e393 5b64 d83f e6c4 f4bb f404 ca3f
000004d0: b00e 23c3 7d64 cb3f 1fed e29c 5a52 92bf
000004e0: f1a0 9bb7 b856 dbbf ab7c ac8d 7277 d1bf
000004f0: c8c6 0560 b85b a5bf 7fd8 586c 28b1 92bf
00000500: 472e 9733 5f5a ca3f a316 a58c 2df8 bc3f
00000510: 18b9 7006 952c c03f 9304 5d67 43a2 c7bf
00000520: 2213 1193 75a5 c23f 4893 0d7a 1905 ddbf
00000530: ed44 e93d 5b81 df3f 13bc 6319 0b09 cbbf
00000540: 3bc4 f096 986c e03f bfa5 84df 3cc2 d1bf
00000550: 2f18 7ff1 d5a4 c4bf 14ed 125b 3bd5 e03f
00000560: 5d53 1d69 f21d c43f 41be 9d8a b6c1 d9bf
00000570: e408 16a2 cd60 cbbf 6afe 4fcd ddf7 d53f
00000580: 281d 00a6 4a71 d3bf 7260 b1ea e66b 8f3f
00000590: 1b0d 2d40 76ef d23f 04cc bc5f 82e7 c43f
000005a0: 28c3 1415 d340 e23f 4a28 30c3 ee43 b0bf
000005b0: 36eb f71b 3856 d8bf 5246 f14e 6ddc d1bf
000005c0: 8a6e a502 ad58 c13f b445 62f4 c9b1 c1bf
000005d0: 0000 0080 c6a4 d53f 0000 0080 32d1 bebf
000005e0: 0000 0000 084a 87bf 0000 0080 a359 c13f
000005f0: 0000 0000 5656 d1bf 0000 0000 8824 d33f
00000600: 0182 05f0 cb74 cfbf 0a21 ce15 db6d d93f
00000610: 9178 1d15 0dfc d3bf d4a2 80d5 0b19 cb3f
00000620: 1996 8027 a689 d63f 5170 9c8e fc9f d2bf
00000630: 3486 2186 47de aabf e8bc d8bc ade5 ad3f
00000640: aa9c 8e87 49e1 c3bf 7470 e3d4 d099 b5bf
00000650: 9fb5 150b 7d34 c8bf 476a 788c 9552 aabf
00000660: 505e 83f8 bbf0 c43f d303 6d81 f881 be3f
00000670: 6f40 d502 7d45 c7bf dde5 5883 9fb9 dbbf
00000680: 342b 94c3 1c2f d8bf 6ec6 b4b9 9f4c ca3f
00000690: 0000 0080 59c7 d13f 0000 0000 832a bc3f
000006a0: 0000 0080 1133 c23f 0000 0080 2a38 b6bf
000006b0: 0000 0080 b4a5 d53f 0000 00c0 75bb d33f
-0.20911246538162231 0.3158586621284485 0.11751854419708252 0.27135026454925537 -0.18503350019454956 0.22174811363220215 -0.03495097094452759 0.27820389511207183
0.22811002333405483 -0.04424255495686564 -0.33667470275535333 -0.2729032920826998 0.26944328072112583 -0.4842520582048488 0.396475836952731 -0.024066432885732902
-0.33378315492378474 0.17067561906887302 -0.11003019149899317 0.5094159223222127 -0.19884496617830594 -0.2560181263636975 0.19154655993860742 0.07245209661456718
-0.2744453801942047 -0.4939012659970749 -0.0048309971331220135 0.5087638669838154 -0.03323267921871482 0.49623228770300976 0.009927451654264258 0.22969631979201902
-0.44726447697762567 0.3583642532110715 0.044294778174193306 -0.033833133975950176 0.23242074251174927 -0.20586058497428894 0.20494407415390015 0.11063271760940552
-0.23195578157901764 0.4009900689125061 -0.10315953866172893 -0.25386038345467454 -0.2537586933152129 -0.3786952362424774 -0.03048636180928423 0.12315569529127178
-0.048279963084556635 0.5006457913006175 -0.0028517038069622654 -0.22612999798601643 -0.11373639044791718 -0.125480325470876 -0.4348085380529495 0.31213421440732286
0.4355222622277651 -0.31720561003875614 0.00442865156487006 -0.004272257525702644 -0.2080600817553131 0.5944873574420122 0.7749031674752278 0.20326048108649306
-0.05123360993744727 -0.2587918972227731 0.3491961359977722 0.21634316444396973 0.12080931663513184 0.17928117513656616 0.014932692050933838 0.02209112048149109
-0.10226172208786011 0.012832015752792358 0.3964916467666626 0.011633992195129395 0.3189108371734619 0.34651172161102295 -0.17561917006969452 0.276603639125824
-0.06374859809875488 0.18603485822677612 0.26940613985061646 0.398905873298645 -0.07781907302184293 -0.20848777306336325 0.3575851664480832 -0.11245262512045658
0.18187260732761548 -0.3007616392025872 0.2649629199402814 -0.01049813398310462 -0.04012239915576236 -0.3031989604257972 0.22539625658576554 -0.37934150707053244
0.38554930686950684 -0.21748626232147217 -0.29807376861572266 0.1816156506538391 0.2500782608985901 0.27532434463500977 -0.14076774979104192 -0.12002497052928826
0.24534741103583865 0.4342731696997453 -0.0803058528151231 -0.34495155053325527 -0.21524063793488318 0.15278123113845327 0.10959182117864541 -0.0820717670087764
-0.1105700263210444 0.28484668850275174 0.07813137083141868 -0.20700916744391873 0.375802372279368 0.03910519554574571 -0.016414751018091422 0.14503065146364372
-0.18351512668023565 -0.003151903741138552 0.15159974583675462 0.3715059853950172 -0.3211000425875611 -0.2300475935943228 -0.07229495048522949 0.19155490398406982
-0.07949063181877136 0.3517427444458008 0.06417146325111389 0.28246748447418213 0.04395685127018207 -0.04823306530931906 0.39980476227773076 -0.531711776519875
0.0931035363764285 0.1516796186317624 0.19287371635437012 0.2952342629432678 0.34280645847320557 -0.09196513891220093 0.19905215501785278 0.2674315571784973
0.11238359011952799 -0.07008515350079123 -0.125506535238589 -0.0837249838017417 -0.13110029555833164 -0.38317441754460957 -0.21304886066638148 -0.14194652933063026
0.38112534944948046 0.20327624490304358 0.21400424984141386 -0.017892280412280855 -0.42716806345425967 -0.2729154952557546 -0.041715394708160825 -0.018253928769091928
0.2058829309374792 0.11316189464295205 0.12636053862065277 -0.184639382810961 0.14567441636077044 -0.45343624991646836 0.49227028890625385 -0.21121348132825854
0.5132563541466263 -0.27748033359474883 -0.16128038684672805 0.526029279593248 0.15716390736147448 -0.4024483064340281 -0.2138917008815674 0.343253565311875
-0.30378977023106524 0.015342525517709957 0.29586559550462405 0.16331510233575852 0.5704131519069948 -0.06353657021841844 -0.3802624009255625 -0.2790787955210351
0.13551867131433354 -0.13823818619543504 0.33818209171295166 -0.12037959694862366 -0.0113716721534729 0.13554805517196655 -0.27089452743530273 0.2991046905517578
-0.24575185031700644 0.39733006600774046 -0.3122589784815171 0.21170185017515186 0.3521514306797556 -0.29101480414261 -0.052477107165725206 0.05839293413407082
-0.15531272047994565 -0.08437829205962705 -0.18910182038545728 -0.05141131725050179 0.163596626610103 0.11917069587526834 -0.181808115371044 -0.4332045347869931
-0.3778755102109017 0.20546337669070475 0.2777923345565796 0.11002367734909058 0.14218348264694214 -0.08679452538490295 0.33823883533477783 0.3083166480064392

bias f8 [36]
00000000: 0000 0080 0531 ccbf a7ed 6139 9a71 c1bf
00000010: 5265 e0c8 44fc e03f d1f8 54d6 9de2 d83f
00000020: 420d 8cee 8b91 c33f 6a69 81f5 edc0 a13f
00000030: 0000 0040 a524 d53f 00be 06d6 f19f ebbf
00000040: 0e21 9f64 436b f9bf 2917 905b 8512 e0bf
00000050: 41e7 1ca5 7a07 bb3f 0000 0040 b82e d4bf
00000060: 0000 0040 1268 d93f 0000 0000 3824 9cbf
00000070: 9da9 3fa1 bcf5 dbbf 484f 0a9e a42d cebf
00000080: 0000 0080 0b48 b6bf b08a 99a0 7d44 e0bf
00000090: d07d ad77 30bd c53f c5c8 1890 3f01 c23f
000000a0: e210 815c a4f6 bbbf 0000 00c0 cfc8 d53f
000000b0: 1a86 694f cff5 dc3f 0000 0000 b6f6 a03f
000000c0: 8e13 8cfb d2e4 e1bf e453 6555 7a9e d2bf
000000d0: 07b0 eb7a bce0 c63f 2b39 d2b8 dd94 d5bf
000000e0: e605 47ca 08b8 b9bf 3a7c fa90 787b d7bf
000000f0: 1187 b231 e76a e2bf 0000 0040 be34 c7bf
00000100: 5322 810b 6a5a bbbf a549 2b43 c2e1 e9bf
00000110: d184 78dc 5091 debf 0000 0000 0823 d2bf
-0.22024601697921753 -0.1362793712795398 0.5307945178384819 0.388831576641576 0.15287923000151166 0.03467506048100939 0.33036166429519653 -0.8632744960977448
-1.5886873178988625 -0.5022608555161457 0.10558287173344373 -0.31535154581069946 0.3969770073890686 -0.027481913566589355 -0.4368735861486586 -0.23576791493234794
-0.08703681826591492 -0.5083606850351625 0.16983610004079575 0.14066309486367437 -0.10923220880892218 0.34038156270980835 0.4525030398855009 0.03313225507736206
-0.559182635596345 -0.29092272128519725 0.17873340608582586 -0.33721106575912313 -0.1004643911210433 -0.366911069469953 -0.5755496950771165 -0.18129709362983704
-0.10684836178655503 -0.8088084518333757 -0.47761937647198943 -0.2833881378173828

weight f8 [72, 36]
00000000: 0000 0000 5b35 92bf 1330 730e 3a21 a9bf
00000010: 3849 8c25 05a2 bdbf 7801 988b 7553 d7bf
00000020: 027a eaac 73bd cfbf 6eae c227 e39e a6bf
00000030: 0000 00c0 2cfa c4bf 8f0b a2ac 01ef 9e3f
00000040: d989 9a4f c698 bfbf fb6b 06f8 ac4c d3bf
00000050: 8017 3245 229c ccbf 0000 0040 ed65 b63f
00000060: 0000 00c0 a554 bd3f 0000 0000 465d c0bf
00000070: 1a25 bbba f060 b63f a8d9 eca7 1342 b9bf
00000080: 0000 0060 5785 b9bf 78dc 775b 0dc3 b2bf
00000090: c689 baa3 c43a d2bf 3ece 9495 924a babf
000000a0: 2ec3 4780 574e d2bf 0000 0000 4eda 8e3f
000000b0: 5c26 8903 16ed d7bf 0000 00e0 af95 c1bf
000000c0: 8a5a fed8 44f3 8ebf 7675 4227 433c c33f
000000d0: 80a3 a4ba 0857 a53f 5107 948e 0335 cebf
000000e0: a139 cded a89b cb3f 7e94 1449 c9de c03f
000000f0: 13b2 f3bd ee82 c7bf 0000 0020 3b4b c33f
00000100: 8e4a b34c a903 7c3f d8cf cc1a 6e73 a0bf
00000110: 8ff7 5057 435a ae3f 0000 00e0 771f c4bf
00000120: 0000 0000 c80d b5bf 1960 d31b 3593 97bf
00000130: 6a29 7293 e80c c4bf f89d 6eb6 efcf 543f
00000140: 749b ba3c 0676 8e3f ae31 8784 6dc4 c0bf
00000150: 0000 0000 963d 893f 2cf2 ba2b 18fb c6bf
00000160: ba7f 5bb5 4f2a c43f 841a b802 c613 813f
00000170: 7733 e97a dc9c 9e3f 0000 0000 527a 863f
00000180: 0000 00a0 972a c53f 0000 0000 3486 9dbf
00000190: dc3e 145e f903 6bbf bd4b 83a0 488d b7bf
000001a0: 0000 0060 2c37 c3bf 1804 4980 9106 aabf
000001b0: 6685 6ad1 3c1b b03f ee27 f691 851f c5bf
000001c0: 7935 6133 2560 b73f 0000 0000 5ced a8bf
000001d0: e073 8ed3 d5fc c3bf 0000 00c0 5630 b93f
000001e0: 9b5b 0730 f9e1 c5bf bf9a d455 55bd bdbf
000001f0: 09f1 0bbc 4d8c 9f3f 1741 4252 8cf0 b1bf
00000200: 97f4 c41d ff49 c5bf 0000 00c0 9010 be3f
00000210: bf0c e27c 4065 b73f 0000 0000 26d4 a13f
00000220: 8c3d fd6d 578c bfbf fd3a 99b9 46a4 cbbf
00000230: 00f4 3aff 3b3b c1bf 0000 00a0 cd31 c43f
00000240: 0000 00c0 50c1 aabf 3fe9 f5f5 4073 bc3f
00000250: 15de 3827 b24f 423f e5a0 f145 85e2 aabf
00000260: e99d 04f4 393c d3bf 42a3 7cd8 f41f 7a3f
00000270: 0000 0060 629b babf 81b3 0a63 c033 cb3f
00000280: 22ed 367f b570 bd3f 61f2 a009 bc66 b53f
00000290: 65c2 77a3 d5cf bbbf 0000 0060 8d4c b3bf
000002a0: 0000 00c0 aabc b03f 0000 0000 1a01 ab3f
000002b0: 2031 2127 4e7c 1c3f 220e f70f f35d b63f
000002c0: 0000 0080 2811 a2bf feda 08ec a7f9 b7bf
000002d0: 863b f346 c6af b0bf 2010 37a9 c156 c0bf
000002e0: a89b 8327 72a3 cd3f 0000 0000 2ae9 aa3f
000002f0: fc2f 1d09 fce2 bebf 0000 00c0 8a09 b4bf
00000300: dd96 6166 833a d53f 5089 db8c 3b3f afbf
00000310: 857b 28a9 ef93 a33f 1e1d a586 0ade b0bf
00000320: 7273 50bd 5b4b d2bf b425 3163 efdf c0bf
00000330: 56af 7fa3 a678 b1bf 0000 0040 f1fa b83f
00000340: b523 fe1b 6640 be3f b37e 2a7c 1a97 a3bf
00000350: 5867 ce32 8fef b03f 0000 00a0 f4e8 c23f
00000360: 0000 0080 afda a6bf 941f 17e5 bb43 973f
00000370: 124e a1dc 92de c0bf 48b0 892a 4271 be3f
00000380: 2b12 9b1b 1072 c7bf 0881 3028 aa84 b63f
00000390: 0000 0000 510b b2bf 82a4 b066 f47c d0bf
000003a0: c5d2 73a9 c09b cf3f 9a6e a048 81fa bdbf
000003b0: 2097 3171 2694 c53f 0000 0000 4bbf b4bf
000003c0: 0000 00c0 7c8d adbf 0000 0080 44e8 c1bf
000003d0: db4b 2722 5044 7e3f 162d b2f1 7b05 c2bf
000003e0: 0000 00a0 5eb2 c03f 14a9 6ab8 686e 95bf
000003f0: d814 688f 61f4 b0bf 7468 23d0 181e c43f
00000400: 4a63 22a4 8ad9 9c3f 0000 00c0 54ac bebf
00000410: d361 a23f 2b80 b1bf 0000 00c0 654a c2bf
00000420: 0cc4 7b5f fa0c cbbf 32b9 68b4 1d24 a63f
00000430: 3ab9 2bdc 0b66 adbf 3cdc 643b 952b be3f
00000440: b5c0 d653 5edc 8fbf 5273 41b2 0c04 c4bf
00000450: 4603 02ec 592d c3bf 0000 00c0 d208 b0bf
00000460: eaaf c33d aaf1 c53f 25b6 a142 187c 66bf
00000470: ab56 6c06 f36d b03f 0000 00e0 75e5 c13f
00000480: 0000 0040 ef8f be3f a649 ae4a a40a bcbf
00000490: fa3f 10e8 2a06 bebf bc17 267f 4b2c d5bf
000004a0: 1249 a1da 8d3b c4bf 86b8 866d 568a adbf
000004b0: 0000 0000 be10 823f 0e19 66a3 b67d b8bf
000004c0: 9c7d 384d 7165 d3bf b6fe d9b6 efab ccbf
000004d0: 5a55 2ff1 e753 ce3f 0000 0040 3f1f c1bf
000004e0: 0000 0000 47ad b9bf 0000 0040 3716 c3bf
000004f0: f037 aa89 3e3d b43f 75f1 ed69 d4d3 b1bf
00000500: 0000 0080 4306 c5bf b39e e593 4ea8 a63f
00000510: d10c 6a7d db1d 98bf d27d 7ebb 76d6 a7bf
00000520: 4f55 1dee dd55 a3bf 0000 0080 e1ef aa3f
00000530: 9cde 7767 6e00 b33f 0000 0020 bb76 c33f
00000540: 8a19 f4f6 106c 90bf 85ea a39b 4b51 b03f
00000550: de07 b976 4602 c9bf 3ae8 4627 ccd2 bcbf
00000560: b067 6922 7184 c7bf f1fb 564a b218 b73f
00000570: 335c 138a 1d89 bbbf 0000 0000 2879 963f
00000580: cf4a 546a 9f42 d2bf 7141 043a a9b0 d1bf
00000590: 7891 b091 fbf8 6bbf 0000 0080 e844 ac3f
000005a0: 0000 00e0 a2fe c1bf eec3 2974 e89e c8bf
000005b0: 2101 0dac 519c b8bf ddef 47ce 7e7e a2bf
000005c0: e5f0 8e62 9387 9fbf 9324 b543 797a c33f
000005d0: 0000 0060 4c04 bebf dd68 c706 06bf b9bf
000005e0: f840 1a57 86ac b4bf 41cc a25a dfa3 9cbf
000005f0: 98a3 fa67 1e05 c13f 0000 0000 4af7 ab3f
00000600: 0000 00c0 e590 b43f 0000 0080 b40f a5bf
00000610: b054 f029 e400 c9bf 9a6e 8186 2b07 d3bf
00000620: 0000 0000 46ad a0bf 0543 2400 d5d7 a5bf
00000630: 19b3 7fdd d179 c1bf d719 e6d2 da78 a4bf
00000640: 538e 7766 53cf 853f 0000 0060 a7c7 bebf
00000650: 9c46 ac27 9b0a b5bf 0000 0000 20d0 41bf
00000660: 85ee e4af e91f c4bf 89b4 f5a4 d839 c6bf
00000670: b4e8 10bf 29c7 6dbf 001b be8d 1307 c53f
00000680: 87bc 5557 0323 b03f 0000 00e0 ca4f c2bf
00000690: bce8 04b1 5565 84bf 0000 0000 a64d b0bf
000006a0: 6d5a 5385 ea97 c53f 925e 8093 7708 cebf
000006b0: 9ad0 5210 6c66 9dbf 0000 00a0 1f4d c43f
000006c0: 0000 00c0 8089 ba3f b15c 352d b697 d2bf
000006d0: 0b94 de27 fe70 c43f e4fe ffea fb75 bebf
000006e0: 1ff9 54e6 75b7 483f 0945 af6e 882f a7bf
000006f0: 0000 0020 9194 c33f e633 e66e 7635 c43f
00000700: 5bf1 3965 03ff b0bf a4c3 de85 b016 c8bf
00000710: 97a6 b0cc c8e5 bb3f 0000 0020 e9de c03f
00000720: 0000 0000 48d4 64bf 0000 00c0 6b71 b0bf
00000730: 260a 0ee7 ae6a 94bf c008 6fe4 1285 a53f
00000740: 0000 0000 dc2c b1bf 8ff0 9665 9357 1ebf
00000750: 5655 95fe 928e cebf 0000 0080 c181 ab3f
00000760: 01f1 5909 3d1f cabf 0000 0000 ffae 973f
00000770: fe58 0bdc 4c22 cbbf 0000 00c0 28d2 bcbf
00000780: 8d80 5559 9eef 5a3f 0000 0060 c310 b7bf
00000790: 53ce b08a b325 88bf 42df b8c5 f576 c23f
000007a0: c683 2da2 e8d1 bc3f 0000 0000 3409 b3bf
000007b0: 3ff0 5339 33c5 afbf 0000 0000 86da 80bf
000007c0: cef8 8309 38ec b2bf 6b6f 84ea 564a c2bf
000007d0: aad8 6d3e 2e36 babf 0000 0080 ea8f aa3f
000007e0: 0000 0040 a99a b83f 1328 ca48 b9a1 bcbf
000007f0: 41c7 564e e235 cbbf 1b91 2e7a fbff a6bf
-0.017781659960746765 -0.049081625236425584 -0.11575348059367208 -0.3644689429493364 -0.2479691118541752 -0.044180964091847894 -0.1638847291469574 0.030208612596208047
-0.1234249061913383 -0.30155491086196634 -0.22351482752509 0.08749277889728546 0.11457286775112152 -0.12784647941589355 0.08741669234145313 -0.09866450166450724
-0.09969087690114975 -0.07328876002417128 -0.2848369215882055 -0.10270038749586605 -0.28603160407424155 0.015064820647239685 -0.3738455805329062 -0.13738058507442474
-0.015112436172598071 0.15027655999157802 0.04167964247091671 -0.23599285566165887 0.21568786250504693 0.13179889744165857 -0.1836832454204261 0.1507333666086197
0.006839429213146743 -0.03213066174649243 0.059282402428365015 -0.1572103351354599 -0.08224153518676758 -0.02302248937925819 -0.15664393615254407 0.0012702790206534625
0.01487355110960007 -0.13099450083826752 0.012324497103691101 -0.17953779349581234 0.1575412402662531 0.008338496168119443 0.029895253183258554 0.010975494980812073
0.16536231338977814 -0.02883225679397583 -0.0032977934321321966 -0.0919995681645522 -0.15012125670909882 -0.05083136263829874 0.06291561234185891 -0.16502446772602702
0.09131081108463047 -0.04868590831756592 -0.15615341977982578 0.09839384257793427 -0.17095866055634876 -0.11617024751158576 0.03080865345235487 -0.07007672317763923
-0.16632069543439762 0.11744026839733124 0.09138873146916902 0.03482168912887573 -0.12323519168170644 -0.21595081388883122 -0.13462018930832187 0.15776987373828888
-0.052256129682064056 0.11113363270661568 0.0005588168991783072 -0.05250946501547719 -0.30055092649351295 0.006378132274939942 -0.10393347591161728 0.21251683078790154
0.11500105243515127 0.08359885439944882 -0.10864005318559007 -0.07538684457540512 0.0653788298368454 0.05274277925491333 0.00010866381652014203 0.08737105502864798
-0.03528715670108795 -0.09365319740832587 -0.06518210632496677 -0.12764759790854985 0.2315504734935676 0.05256015062332153 -0.12065100882063001 -0.07827059924602509
0.33169636724629276 -0.061029301590468266 0.03823803844374311 -0.06588807856779907 -0.2858495091220937 -0.13183395713194346 -0.06824723712605638 0.09757907688617706
0.11817014869133298 -0.03826220288942519 0.06615538587939562 0.14773423969745636 -0.04463718831539154 0.022719322068752115 -0.13179240963891964 0.11891568697473176
-0.18316842410981002 0.08796180230320172 -0.0704851746559143 -0.25762662914582546 0.2469406917004077 -0.11710365317451946 0.16858368422543268 -0.08104389905929565
-0.057720087468624115 -0.13990074396133423 0.007389367123738356 -0.14079236318171046 0.13044340908527374 -0.0209289896544443 -0.06622895957123676 0.1571684852886538
0.028173605220760657 -0.11981706321239471 -0.06836195281574158 -0.1428954303264618 -0.21133355772283868 0.04324429347285487 -0.05741917669898773 0.11785252285049891
-0.015557038243827351 -0.15637358383073746 -0.14982151054212006 -0.06263463199138641 0.17143753066864004 -0.002744719870910089 0.06417769343201012 0.1398150771856308
0.11938376724720001 -0.10953738044034952 -0.1172816101609441 -0.3308285466849801 -0.15806744742673878 -0.057696057195571845 0.008820995688438416 -0.09566823472241401
-0.30306656399803855 -0.22399708202646246 0.23693560864073043 -0.1337660849094391 -0.10030025243759155 -0.14911547303199768 0.07905951367339958 -0.06963851534050554
-0.16425365209579468 0.0442528300798676 -0.023551396875075185 -0.0465581039309161 -0.03776448756858974 0.052611395716667175 0.07422533060150233 0.1520608812570572
-0.016037240097853046 0.06374046850025124 -0.1953819350911194 -0.11259151419554395 -0.18372930698643364 0.09022058787284927 -0.10756096478449777 0.02194654941558838
-0.28531632789342337 -0.2764075342720594 -0.003414622636699057 0.05521322786808014 -0.14058338105678558 -0.19234948799160584 -0.09613523912867496 -0.03612133281782779
-0.03079061783840666 0.15217510038408885 -0.11725308746099472 -0.10057103791715201 -0.08075751902129358 -0.027968873888948535 0.13296871258833387 0.05462104082107544
0.08033595979213715 -0.04113544523715973 -0.19533969924728956 -0.2973126233607474 -0.03257197141647339 -0.042662292735377284 -0.13653014483806983 -0.03998454880188589
0.010649348797364377 -0.12023397535085678 -0.08219308584764423 -0.0005436092615127563 -0.15722390259348998 -0.17364032797505427 -0.0036350074156220272 0.1642784540274178
0.06303425676536466 -0.14306007325649261 -0.009958905663200894 -0.06368482112884521 0.16869861135519973 -0.23463339521616838 -0.028711021896655177 0.15860362350940704
0.10366062819957733 -0.29050974287879244 0.15969826647520366 -0.11898779380134844 0.0007542920763297412 -0.045284522544202295 0.15297140181064606 0.15788154997826992
-0.0663911935934655 -0.1881924298918679 0.1089749812823818 0.13180269300937653 -0.002542629837989807 -0.06423066556453705 -0.019938214161365896 0.042030897507645104
-0.06709074974060059 -0.00011574589861757161 -0.23872601919962716 0.05372433364391327 -0.20407832104309168 0.02312849462032318 -0.21198426002838028 -0.1125817745923996
0.0016440435768672352 -0.09009953588247299 -0.011790659589770025 0.14425537256624393 0.11257795295161008 -0.07435917854309082 -0.06205139231494216 -0.008229300379753113
-0.07391691429436095 -0.14289366198579087 -0.10238923095843924 0.051879242062568665 0.09610994160175323 -0.11184270884601259 -0.21258190941949276 -0.04492174021223346

bias f8 [72]
00000000: 17ad 742f d6ea c3bf 1295 e5a1 6580 c3bf
00000010: 7c7b c291 85e9 86bf 2943 2850 4862 b73f
00000020: 1384 5bfd ed6e 9bbf c57a 5d55 c302 b03f
00000030: 61cc d8dd a437 b7bf 33cd 0d6c 0514 943f
00000040: 67c9 50ae d0ae b2bf 7240 5c7e 18b7 c4bf
00000050: 2e61 53db e7e6 b0bf ce53 6567 48df 7dbf
00000060: db62 5a46 080f e2bf 48f5 6814 5161 ba3f
00000070: 2d25 5309 abb4 b43f 44e9 49bd a68c c3bf
00000080: 81aa 667f 2f47 d63f 2496 8751 900d c7bf
00000090: 93f7 8e44 be81 e2bf 1092 8a6b b125 85bf
000000a0: b96e 970f 13a3 b5bf 3ff0 2b68 98ab c33f
000000b0: 372b a374 f02e dabf 78ca 192b 03fe c5bf
000000c0: 449a fcb3 e48c a43f 0000 00c0 0b5f bbbf
000000d0: a12a 1212 6534 ccbf 667a 51ca dd75 b0bf
000000e0: ed9c 75f7 9095 b43f 5003 b0f8 a9a7 a53f
000000f0: 8a14 6287 2efc c0bf ed64 0839 1fb2 c8bf
00000100: fb7f a9d0 b1de c1bf 6e14 c6dc 3d10 bcbf
00000110: 4783 812b 7f95 babf c898 0694 dbf2 95bf
00000120: d9ae 8939 b005 b13f 884c 9add 8e19 b33f
00000130: 160f e391 99b9 e6bf b077 23d0 486c cfbf
00000140: 637c f09d 83dd c6bf 8885 bfb9 c554 d6bf
00000150: 7966 4c91 0157 bc3f 14e3 c24b d61b cbbf
00000160: 5e5c 8256 ea2d aebf 4a77 9400 bdd4 b3bf
00000170: 3e2d 304f b251 df3f 5c2d e845 f4a1 c2bf
00000180: 3c69 5bc6 7634 efbf d0a5 f035 b223 c4bf
00000190: 739f 40dc db6c e23f 09c4 bb67 de4d aa3f
000001a0: 0128 f70c eabc b1bf d7b1 2d3f 4959 c4bf
000001b0: 8e31 6c33 aae2 e0bf 0000 00c0 6ac8 c1bf
000001c0: 354b 777a a9db e0bf e964 175e 89c2 c1bf
000001d0: da04 8191 3121 d9bf 6d0e 5ded 490b ca3f
000001e0: 9b74 bbb2 0639 a5bf 289c b128 7440 c2bf
000001f0: 3685 79d8 d373 94bf bd88 f450 576a d2bf
00000200: b33b 3282 0c3b af3f d891 ea0a 6f1f a43f
00000210: 89fb 861f d0d9 b0bf 6710 fafe bd06 b23f
00000220: 1beb 3668 6419 b63f 46e7 12a6 ee46 853f
00000230: ed99 dfb5 8ed8 c7bf cf20 4301 2c2e c2bf
-0.15560414616752702 -0.15235586552731967 -0.011187594900830204 0.09134342152561871 -0.026790350521768213 0.06254216035948008 -0.09069281021292987 0.01960762474068396
-0.07297996764899538 -0.16183763666095136 -0.06602334122306239 -0.007293017223067145 -0.5643350004275719 0.10304743526736104 0.08088177659660252 -0.1527298378239924
0.3480948204184316 -0.18010143261851497 -0.5783377970726512 -0.010325800032043225 -0.08451956873562495 0.1536741741800842 -0.4091149462735077 -0.17181434254196737
0.040137431117092365 -0.10691903531551361 -0.2203489626156925 -0.0642984980527018 0.08040720025529753 0.0422947994302435 -0.13269597635750002 -0.1929358509521885
-0.1396085995538668 -0.10962282791122543 -0.10384363948970786 -0.021434241208816457 0.06649304775936161 0.07460873518202693 -0.7101562356333229 -0.24549207842841048
-0.17863507472881954 -0.34892409457651086 0.11070260808301126 -0.21178702067643285 -0.05894405656834388 -0.07746487869414156 0.4893613599130794 -0.14556744969773205
-0.9751542925035106 -0.1573393596056989 0.5757884313397724 0.05137534157064045 -0.06928885284938248 -0.15897479615104146 -0.527669048724009 -0.13892874121665955
-0.526814212027921 -0.13874928564363323 -0.3926509781777675 0.20346950616850581 -0.04145070010938775 -0.14259197222711006 -0.019973096931044064 -0.2877405443742978
0.060997382062047655 0.03930232055907695 -0.06582356233319166 0.07041537737865299 0.08632495445537496 0.010389198725863868 -0.18629630928553756 -0.14203405439025693

weight f8 [120, 72]
00000000: 5d33 d330 9bb6 9c3f 56fb 9e17 5ae3 b1bf
00000010: fa23 3d7b eebb c0bf 1be7 def2 ce17 ad3f
00000020: 7bb5 fe5c 2442 b5bf 89f0 a3aa 8bb4 a6bf
00000030: 0000 00a0 7a6d b7bf f336 14bb 1510 ae3f
00000040: 794f 3d99 4f56 b13f 4df6 78e9 5fb2 bcbf
00000050: 7611 75be 4bf9 b5bf c7dd 21c1 91af b93f
00000060: cfe5 914a 6598 c03f 1ab4 b26e 39fe 94bf
00000070: 0000 0080 b460 a7bf 5f73 295e 7aff b33f
00000080: 5812 726a caaf d6bf 59ee 4edb 3f04 b9bf
00000090: 245c 0e7a 5fdc 923f 0000 00c0 210b a43f
000000a0: e9e5 48cd e9ad 673f 179e 7000 84d5 bb3f
000000b0: 5ffb 3c2c b2ba bd3f e60a 8e0a 398c b1bf
000000c0: 1ca6 3ab3 094b 9a3f 0000 00c0 04e1 a4bf
000000d0: e803 6ad9 4a46 b03f a868 a0de 5630 bebf
000000e0: 8289 6638 ee19 8c3f 0000 00a0 1282 b63f
000000f0: f257 2be7 f967 b53f 5800 ced5 6db4 a63f
00000100: 1ae6 5400 71ee 5cbf 0f98 2f43 a0e5 b13f
00000110: 61cf c5a4 5a50 b43f c38a a65c 7941 95bf
00000120: 0000 0040 1912 aebf c81c f1f8 5290 a33f
00000130: bb2e 4ea8 0dd8 b1bf 82cf 61a6 1fc7 a7bf
00000140: 007a 3a07 d0a9 9bbf f40c 3b91 da8a adbf
00000150: eb21 ca2d e6dc b63f e627 1528 1121 bd3f
00000160: 934f 168d 192a d0bf 0000 0040 5e3f a53f
00000170: 3b0e aa62 db4e 90bf b491 fd06 73e3 b83f
00000180: 03d3 3444 199d b03f 73bb b8b5 02f7 b1bf
00000190: 54fa bba5 6033 cebf 5cad f83b 5d6a c8bf
000001a0: 9ce4 e059 f1d7 9a3f 25fb a2d4 cbd7 b8bf
000001b0: becb b69a e5e7 95bf 0000 0040 e7cf b8bf
000001c0: 1945 9c03 dfbc c53f 8bb4 a573 9d8f b63f
000001d0: fa7b da96 709a bdbf 792c e06c 4bc5 d2bf
000001e0: 335c 173a b57b c6bf f37e 47ce 07af a8bf
000001f0: f859 77eb c87c a43f 6514 b645 24e9 c1bf
00000200: ebf3 4717 c0ce 893f 0000 0020 f25a b23f
00000210: 0000 0020 4195 bb3f 2fd8 ae55 aa6d acbf
00000220: 39ec ddb5 2dad b4bf af7e 6270 e483 ac3f
00000230: c478 741b cf8d a0bf 7a21 9e10 1e64 c3bf
00000240: 0000 0080 c327 b3bf 0000 0060 3ea1 b2bf
00000250: 0000 0000 63cc 8dbf 0000 0080 d539 973f
00000260: 0000 00a0 fac8 bb3f 0000 00e0 dfc3 ba3f
00000270: 0000 00e0 fa54 b1bf 0000 00e0 1aca bd3f
00000280: 0000 0060 a22f b73f 0000 00a0 6097 b13f
00000290: 0000 0000 3194 85bf 0000 0060 68c6 b93f
000002a0: 0000 00a0 fd9f b93f 0000 0000 6435 7cbf
000002b0: 0000 00e0 936a bb3f 0000 0060 eeda acbf
000002c0: 0000 0000 d098 b7bf 0000 0080 30a7 983f
000002d0: 0000 0000 4bd5 853f 0000 0040 cd53 b5bf
000002e0: 0000 0040 caff ab3f 0000 0040 b4ad b9bf
000002f0: 0000 0000 ae0f bdbf 0000 0080 fc67 b7bf
00000300: 0000 0000 cbef 9bbf 0000 0080 80b1 a4bf
00000310: 0000 0080 a809 b5bf 0000 00e0 5090 bc3f
00000320: 0000 0000 e149 bbbf 0000 0040 d4c5 a9bf
00000330: 0000 0040 71bb af3f 0000 0000 505e 89bf
00000340: 0000 00a0 c2ec bc3f 0000 0060 9fba b0bf
00000350: 0000 0000 7839 743f 0000 0000 d8ba 56bf
00000360: 0000 00c0 6caf babf 0000 0000 4c04 bebf
00000370: 0000 00a0 a309 bbbf 0000 0080 4068 933f
00000380: 0000 00c0 0327 b2bf 0000 0080 03a4 94bf
00000390: 0000 00c0 37ac a63f 0000 00e0 6c99 b23f
000003a0: 0000 0080 5751 9b3f 0000 0060 f3e7 bb3f
000003b0: 0000 0080 76f8 993f 0000 0000 a8c6 8dbf
000003c0: 0000 00c0 4c02 a03f 0000 00e0 d520 b4bf
000003d0: 0000 0040 109b b6bf 0000 00c0 470e b5bf
000003e0: 0000 0000 90ae a7bf 0000 0020 fb6a b53f
000003f0: 0000 00c0 b60d b7bf 0000 0080 4c5d a3bf
00000400: 0000 00e0 9d2f bc3f 0000 0000 18da 74bf
00000410: 0000 0000 f6bd 98bf 0000 0020 1afe b43f
00000420: 0000 0000 e47d 91bf 0000 0080 9d76 933f
00000430: 0000 00c0 d035 aa3f 0000 00c0 c057 a2bf
00000440: 0000 0080 3c5c bcbf 0000 0040 a14d a53f
00000450: 0000 0080 9d8a bbbf 0000 0060 dabf b6bf
00000460: 0000 0040 ab19 ad3f 0000 0000 c545 8abf
00000470: 0000 0000 9cec b8bf 0000 0080 e851 943f
00000480: 0dbb 4f4a d258 9dbf 7040 3ffb c02f b4bf
00000490: 6b3c 857d 4ef4 bd3f f3cd bf9f 2103 ba3f
000004a0: 2649 7da3 689e b93f 2c36 15b0 014b c03f
000004b0: 9156 ee01 9354 8c3f a6c6 ab68 1024 cc3f
000004c0: a8f0 7dcd 9b4c 773f 9e0c cf11 77a1 a6bf
000004d0: b63e bce3 b312 d73f 1d81 52ca 71e2 933f
000004e0: 46b5 f19d 74b2 ca3f 0852 e508 3f81 7e3f
000004f0: a9e3 40b4 7e53 b43f 6131 2e28 e33f bbbf
00000500: ecb5 6c58 ad7b cbbf 84d6 4c45 d3b2 753f
00000510: 4a63 bd4f 7f47 de3f fc3e f478 b913 b63f
00000520: 0000 00e0 5f2d bd3f 9a6c 7752 fd22 bdbf
00000530: 4cb8 0bea a582 bebf 8b90 74b2 dd20 b33f
00000540: 52b4 22ee 652e c13f 0000 0020 6deb b23f
00000550: 86fb 314b e197 c03f 8ff9 2bc9 1316 cb3f
00000560: a4ec ab9b 36c0 a9bf 0000 00c0 65c5 a53f
00000570: e073 c80f b765 bf3f 965b bd40 4ce3 d03f
00000580: 5615 d5d6 bd51 b5bf cf4a d794 d1e5 9fbf
00000590: 38b0 c798 0ab4 93bf 1128 161e c0a0 b8bf
000005a0: 0000 0000 ea7e 7ebf 283e 11ca d9f7 b43f
000005b0: 12be 0bd1 7649 ae3f 8401 67b0 3185 dabf
000005c0: 149e de0a 046d b23f bc14 10bb 653c c33f
000005d0: 40f1 3165 e16a a63f 1c13 0b6c 3653 d13f
000005e0: 0ade 3529 6fea dabf 658f 98b9 4542 b4bf
000005f0: 75df 8c35 6c25 d7bf 57ee 6fb0 8abb a7bf
00000600: 0c39 cde6 fe2f e13f 5548 6522 988e c6bf
00000610: 3d2d 29d8 a460 d3bf 8e17 568d 8b4b aebf
00000620: 68cb 2580 c751 c5bf 74a7 ed7a 3c42 c13f
00000630: c1a6 2d48 8330 f1bf 0000 0060 0f10 b7bf
00000640: c3d6 3bec 9cfb a53f 77ac 0bd2 ea41 a7bf
00000650: 5e28 4b4c 81fe dcbf 2cfd d1c6 fb31 c2bf
00000660: b14d 7e58 feac aa3f 3f20 151b 6f19 c23f
00000670: 44fa c13d cb39 b93f f8d3 f1aa 9239 bcbf
00000680: 1be4 c97c 4e45 cc3f 7df0 c289 4020 9ebf
00000690: a06d 0eba 1d54 b1bf 0000 00c0 c2e9 aebf
000006a0: 2789 04c6 9132 b3bf 28c8 0efe a095 36bf
000006b0: b14f ecf1 1e4c b83f 1ff5 d847 f58c c1bf
000006c0: 6a65 0a59 9d1d a13f cd54 df70 25ba ac3f
000006d0: b9a2 f65f be3b bd3f 5b62 59d5 e954 a93f
000006e0: a4e1 83f8 387a c3bf f639 b3ca aec8 c1bf
000006f0: 7d3b 462b f281 93bf 44aa 0fa5 b2ad b03f
00000700: 7e7d ae69 583f a4bf ff55 7c11 a9f7 b13f
00000710: 860a 8c8f 40d1 cabf 88cd 76fd 1964 b1bf
00000720: 17cb 7591 076d 8cbf af4a 32ec 4076 bdbf
00000730: ab6a f814 4600 a0bf dd52 49de 7de2 a2bf
00000740: dbd1 d55e 703e a4bf bc73 dacb c5df c1bf
00000750: 8d52 8956 461b a2bf 5c86 016a 344c bf3f
00000760: 152a 648f 1025 af3f fc45 2473 f87a cabf
00000770: 59fb d667 ae10 bb3f 2cb7 1398 b996 bfbf
00000780: c2a3 3551 8e93 c13f 0000 0000 592c bdbf
00000790: 1f0f d0e8 bb85 97bf ca9e a5a7 a860 c1bf
000007a0: 4533 79f1 6478 a0bf 4de2 0ed0 9486 abbf
000007b0: 7040 4b58 132a c2bf 7e6a 030f 4deb a63f
000007c0: 9bdf e7e8 a4f2 903f d35e 9f80 6c28 a43f
000007d0: 989e 97ec 7cde 66bf 5a58 56dc c879 a33f
000007e0: 2d02 916e baf3 74bf 324a 143f cf21 97bf
000007f0: e42c 9008 e32a 7bbf c35f c468 fbb7 ccbf
0.028040337424317986 -0.06987536503491518 -0.1307352163078404 0.056822268626502935 -0.08304049749741253 -0.044346203403592695 -0.09151426702737808 0.05871646794012788
0.06772325030516226 -0.11209678125393303 -0.08583520316921586 0.1003352257265454 0.12965074673756624 -0.020501038915131976 -0.04565967619419098 0.07811703490137976
-0.3544794120319117 -0.09772109131056918 0.018418781113350616 0.039147429168224335 0.0028905455058321106 0.1087267399858479 0.11613000469240607 -0.0685458803909956
0.02567687183787913 -0.04077925533056259 0.06357257659875837 -0.11792509970874454 0.013721333595474009 0.08792225271463394 0.08361780065328597 0.04434531435890737
-0.0017658332374835884 0.06991006508141616 0.07935110590716256 -0.02075757625574216 -0.05873183161020279 0.03821048058358084 -0.06970296248453682 -0.04644106775313529
-0.027014971200168603 -0.057699995258667786 0.08930815332326573 0.11378581265049056 -0.2525695684246269 0.04149908572435379 -0.015925815484037136 0.09722060127894033
0.06489713587945904 -0.07017533241808653 -0.235942917752214 -0.19074597767153534 0.026214381323573663 -0.09704278889965375 -0.021392428939815515 -0.09692235291004181
0.169826390040307 0.0881288916913993 -0.11563781435914669 -0.2932919085730599 -0.17565026604163023 -0.04821037667329433 0.04001453279822792 -0.13992741969937864
0.012601376257402172 0.07170022279024124 0.1077461913228035 -0.05552418037352457 -0.08076749506101145 0.055693758696404465 -0.03233191690581941 -0.1514928418294053
-0.07482549548149109 -0.07277288287878036 -0.014549992978572845 0.02268155664205551 0.10853544622659683 0.10455130785703659 -0.06770294159650803 0.11636512726545334
0.0905705913901329 0.06871608644723892 -0.0105365589261055 0.10068371146917343 0.10009751468896866 -0.0068868547677993774 0.10709499567747116 -0.05635781213641167
-0.09217548370361328 0.024075277149677277 0.010660730302333832 -0.08330996334552765 0.05468589812517166 -0.10030676424503326 -0.11352050304412842 -0.09143045544624329
-0.027281925082206726 -0.04041673243045807 -0.08217862248420715 0.11157708615064621 -0.10659605264663696 -0.05033744126558304 0.061976946890354156 -0.012386918067932129
0.11298767477273941 -0.06534763425588608 0.004937618970870972 -0.0013873204588890076 -0.10423927009105682 -0.11725306510925293 -0.10561583191156387 0.018952377140522003
-0.07090781629085541 -0.02015691250562668 0.044282667338848114 0.07265358418226242 0.026677481830120087 0.10900803655385971 0.02536187320947647 -0.014539062976837158
0.031267546117305756 -0.07862602919340134 -0.0883035808801651 -0.08224914968013763 -0.04625368118286133 0.08366364985704422 -0.0900530070066452 -0.03782118856906891
0.11010157316923141 -0.005090802907943726 -0.02416214346885681 0.08200228959321976 -0.017081797122955322 0.01900716871023178 0.05119182914495468 -0.03582575172185898
-0.11078241467475891 0.041607894003391266 -0.10758385062217712 -0.08886494487524033 0.05683646351099014 -0.012828387320041656 -0.09736037254333496 0.019843704998493195
-0.02865913942872127 -0.07885366567575303 0.11700907291855038 0.1016102805149826 0.10007337562027327 0.1272890195636348 0.013833187576703739 0.21985058890236536
0.005688294033344622 -0.04420063106911097 0.3605165218332148 0.019418504689952976 0.20857103073232447 0.007447477559555889 0.07939903164596153 -0.10644359332053945
-0.21471182649240406 0.005297494198023171 0.47311384951676827 0.08623847201328866 0.11397361010313034 -0.11381514800398165 -0.11918103183754275 0.07472024542636484
0.1342284596225079 0.07390481978654861 0.12963501140253814 0.21161124537315998 -0.050294596197965974 0.0425216481089592 0.12264579902007666 0.263873160574286
-0.08327852721148096 -0.031150126180203238 -0.019241490912392772 -0.09620285734686741 -0.007445253431797028 0.08190690215382601 0.05915423681096511 -0.41437952257913246
0.07197594895716747 0.1502806819336565 0.0437841831235084 0.27070389319514887 -0.4205587294049741 -0.07913623601103621 -0.36165909986038197 -0.046352705037830226
0.5371088512272606 -0.17622663192247737 -0.3027736769624488 -0.05917011356636613 -0.16655820615013828 0.1348338699565904 -1.0743439502206658 -0.09008880704641342
0.04293527969086377 -0.045424783840496134 -0.45303375673814184 -0.1421503754427048 0.05210108595124597 0.1414011842955478 0.09853811509854277 -0.11025349305585042
0.22086506932444724 -0.02941990700559004 -0.0676897601355706 -0.060377202928066254 -0.07499037823121012 -0.0003446119354136878 0.09491151243520225 -0.13711420067003474
0.03342906677171238 0.056107683208816185 0.11419286578041977 0.04947596291885211 -0.15216743597535498 -0.1389368524309728 -0.01905039204717295 0.06515041856588605
-0.03954578676279662 0.07018524815460835 -0.20951087006695363 -0.0679336780365728 -0.013879832388487707 -0.11508565680041259 -0.0312520886038404 -0.03688424433190616
-0.03953887136131914 -0.13964149907851986 -0.03536433988907559 0.12225654209171338 0.06082965612775496 -0.20687776205208752 0.10572328601027205 -0.12339363062684744
0.1373155495196255 -0.11395794153213501 -0.02297109230495586 -0.13576229272734103 -0.03216853568719683 -0.05376114883205627 -0.1419090443728268 0.04476395424145084
0.016550614085616294 0.039370909405702335 -0.002791637413554881 0.03803851785339481 -0.005115249871835687 -0.02258991072182876 -0.006632696961797555 -0.22436468711452848

bias f8 [120]
00000000: 8805 7dfe 7a83 90bf 0000 0060 a14f b6bf
00000010: 0fe4 47b4 9ede a53f 7cc2 8e99 89de ca3f
00000020: 41c5 b3a4 2630 aa3f 00ec 3522 e3fc c43f
00000030: 3fc0 995a e768 aebf 14d7 57ee d7db bb3f
00000040: 2287 79de b53a b7bf 55bb fbfd a4ac c63f
00000050: 4cee bdc8 e6c3 c3bf 1484 d051 08ad 903f
00000060: d6da 8fd6 95a3 9c3f 9d6a 8eb6 f087 b3bf
00000070: 343e 22d6 e4c6 c0bf 2d1e e7ab 2522 9dbf
00000080: 1e31 1558 b5a0 ebbf 7835 0102 fdc6 903f
00000090: b660 eb91 b30a c1bf 0927 2871 e6b8 c1bf
000000a0: 98d7 6d03 c570 963f a890 793b c400 963f
000000b0: 765a 78bd 8eec 8e3f c069 5d99 b08d bfbf
000000c0: c476 05e0 12da c1bf 0000 0000 0e07 8ebf
000000d0: e0b7 1f31 bec8 b83f 7675 db56 734b c03f
000000e0: 6ddf 6677 3ac1 b93f a73c 4060 fda5 bbbf
000000f0: e359 bb4a 8ca7 c03f 489f 8e83 2ef8 a2bf
00000100: a46d 0f49 1975 aa3f ee57 5008 889b 813f
00000110: 9f25 7906 811f bebf 4b18 b84e 2f82 a6bf
00000120: 2b1b 69c1 0776 f6bf f364 5fda 247d cc3f
00000130: 6af6 b1be 12d1 a33f 8984 56b8 2757 87bf
00000140: 07ac f613 179d c1bf 0132 89f2 ab07 b6bf
00000150: ef96 e66e d2e8 c23f a4fb 294f c7ae a1bf
00000160: e792 b4b4 29d7 d13f 030e 1e7f 10f9 c2bf
00000170: e64a ac10 fb96 b2bf 7747 6f03 d35a c03f
00000180: 20ad 1f1f da18 ab3f c38f 820b 051a d03f
00000190: 98c5 c648 1db0 9f3f f516 90cb a2bc 933f
000001a0: be12 011c c07b af3f 5f13 586f 42b9 9abf
000001b0: 0000 0000 3635 afbf 3fdd 9e8b 19e2 98bf
000001c0: 9caf 65ae f6f8 93bf ade4 ee9a 7344 b6bf
000001d0: 92b7 96c3 be27 b8bf 938b b8d5 526e db3f
000001e0: 0291 1da4 67f6 bc3f 92ab 7a12 1235 e6bf
000001f0: dd18 9681 f09a 853f c62d 4e66 d8f8 5c3f
00000200: 950e 2e33 b9f3 d53f 8589 701e 103c 71bf
00000210: 0803 e08b 1ffb c7bf 0c9c 9a0d 703b c0bf
00000220: 3257 cd0d 6a9e afbf cafe 9a3b c166 a3bf
00000230: 494e 641a 4e6f a73f 587a a47d ecef b7bf
00000240: a9f6 c97a fec3 f1bf db75 e01a edec b4bf
00000250: 57eb 5464 bcaf c7bf 8141 2073 2314 b3bf
00000260: bb68 f927 ab05 a03f c485 f79d 2ca5 aebf
00000270: 0000 0040 ed6e b9bf aa09 49fc 23db a63f
00000280: bdcd 44de 0bb7 bbbf 3b3b 9159 8f07 babf
00000290: 077c 8b39 f063 773f 3317 f20a 4137 b83f
000002a0: 0c4c 1319 22f3 e23f 8ba0 5307 0b65 acbf
000002b0: 2cca 70ba f9e8 99bf 1484 37ba 8883 a83f
000002c0: 8493 14fb 73a3 a53f 0bf3 850e 0de7 a73f
000002d0: 99ae b321 594e 90bf 0000 0040 50a6 bdbf
000002e0: 0000 0040 c935 a43f 5a57 f6cc eb57 cd3f
000002f0: e4f7 9f51 3250 c5bf 1e69 7bda 3684 c53f
00000300: 6040 d291 413d d23f 5d6a 0ed0 1a41 dbbf
00000310: a383 f839 1a77 c23f 1fcb b331 4b13 d33f
00000320: 77bf 4a5c f3f7 d03f 06d5 3659 9122 c4bf
00000330: 3aff db09 966f a63f 4b76 f6ef 0f59 b53f
00000340: faaa 1a94 599f 953f 8860 4cd0 6d4d c4bf
00000350: fcd6 96a2 e95b bebf dd12 4591 4504 b03f
00000360: 60a5 3aa7 b4b6 dabf 7a34 ca6b a68e 9ebf
00000370: 89f7 afeb 3f8f c03f eac9 ca7c 3afb 8dbf
00000380: c14f 941a 2369 8ebf 0947 3a67 1fc2 97bf
00000390: 6613 ba40 a872 773f 0be1 96c9 ccd3 d53f
000003a0: 4cf1 abef 165b a73f 34fe e488 ce5d b4bf
000003b0: 752e 5b83 96ce b0bf 450e 54c1 18fe b83f
-0.01612655809663502 -0.08715256303548813 0.04271408034032486 0.2099163055222738 0.05114861259961368 0.16396750612679512 -0.059394101915018364 0.10882329529689755
-0.09073960000526118 0.17714369203118943 -0.15441593934871134 0.016285066598474243 0.027967778416462995 -0.07629303414288775 -0.13106975990057068 -0.02845057355605556
-0.863367721592599 0.01638408016906598 -0.13313908219311593 -0.13845520520435908 0.021914556822103387 0.021487299089486683 0.015099635274095063 -0.12325576538334015
-0.1394675821165291 -0.014661893248558044 0.09681309413255645 0.12730256787373734 0.1006046811588683 -0.1080015525806056 0.13011315964713707 -0.03704972606584406
0.05167464272355041 0.008597433809011758 -0.1176682129672799 -0.04396198116232649 -1.4038159899807379 0.22256909048773074 0.038704477098673376 -0.011396704018638697
-0.13760651087554285 -0.08605456038748828 0.14773016371798728 -0.03453657952649472 0.2787575020504804 -0.14822584349541054 -0.0726162830072031 0.1277717367907447
0.052923980998310194 0.25158811687492405 0.030945260588571694 0.019274276422968268 0.06149101583335924 -0.02609733395185587 -0.060952842235565186 -0.02430000223804751
-0.0195044082587824 -0.08698198826359045 -0.09435646319499671 0.4286086165540663 0.11313483959890294 -0.6939783440515035 0.010549429850254583 0.0017683137204781304
0.34300069807088934 -0.004207671131583606 -0.18735117273174517 -0.12681389488463457 -0.061755479988887876 -0.037893332029396 0.045771065446527155 -0.09350469653552673
-1.1103501125757396 -0.08174020677730402 -0.18505053423890658 -0.0745260387486777 0.031293247823400226 -0.05985392978960705 -0.09934885799884796 0.04464065985350214
-0.10826181580050949 -0.10167785584165483 0.0057105430393837925 0.09459311024883447 0.5921793451074122 -0.05545839752613898 -0.025302793507032614 0.04787852547793406
0.0422626728052711 0.046684654257637424 -0.015923874551772774 -0.11581899225711823 0.039472855627536774 0.2292456389229141 -0.1665099047240225 0.16809735935277897
0.2849887775455553 -0.4258486778068454 0.1442597182331414 0.2980525956510735 0.26513370526207986 -0.15730492454682848 0.043820084289107844 0.08339023216691392
0.021115684189378016 -0.15861294432466289 -0.11858997554267242 0.06256518170000498 -0.41740146952596113 -0.029841041878672737 0.1293716336076012 -0.014639336522439945
-0.014848970650326867 -0.0232014567141681 0.005724580037740212 0.3410522431036191 0.04561683345488862 -0.07955637781287167 -0.0656522818273347 0.09762720794611209
