Sphere/NeuralNetworks/models/net7_anls_loss.pt (torch_old, 207618 bytes, 10 tensors)

weight f8 [36, 6]
0.09225911686660304 -0.2727770301182906 -0.1823140123606596 0.23172403387260274 0.2276136620881224 -0.3223182955573699 0.2885372344746799 -0.0801912999968908
-0.19752808327866908 0.2988129967744026 0.3576942298788835 -0.4397332231022449 0.23033653805015797 0.3685158832842577 0.25332914936879797 -0.3328574754632602
-0.11237899506029625 -0.0566966594593172 0.058677324870622806 -0.23776630696311538 0.6124022369984287 -0.400532396488516 0.3575977282958315 -0.20287334414233016
-0.05838973985431175 0.08228904323211449 -0.12684229232634542 -0.5012858669463285 -0.1307750328999718 0.1783064618471748 -0.47773144418385377 -0.14505102211598764
0.22037201213791954 0.2832288557039647 0.21073504332782064 0.1107628178389945 -0.34888034202254325 0.31458346740179466 0.34030945734691526 -0.07758733255433733
-0.2544543674223898 -0.14123707786831696 -0.04828340911916889 -0.19746572261061246 -0.03884614234019336 -0.05189625687983641 0.34606362716940764 0.1965458925605828
-0.02798121079367157 0.2448124370291867 0.29961172427856314 -0.2653173853080662 -0.02000085162296667 0.2318917436925891 0.07412040822023526 -0.022375173018607874
-0.3739855790378211 -0.4552310696774003 -0.07366524397270961 0.1428831646970923 0.16097488697353826 0.10791323705740216 0.33541899379618473 -0.40316940577244875
-0.2713859739844075 -0.19623726999568886 -0.07181856036186218 0.2288474440574646 -0.2027461975812912 0.3911536931991577 0.1418370008468628 0.1143418550491333
-0.03977305139029149 -0.014514792082808887 -0.023299483443038928 0.363207189449147 -0.5332971016848125 0.31998664024025086 0.2339521050453186 0.17258840799331665
0.02931252121925354 0.16488957405090332 0.2126942276954651 0.010593056678771973 0.0749601148510837 -0.5091204145375178 0.3746421345232378 -0.18495777496467233
-0.40281926626354214 0.32491309301528737 -0.05208300041985957 0.15727315140306536 -0.06372906253771878 0.3445297989068058 -0.2981358563084148 -0.22396558571212752
0.12718162781887024 -0.16997544069606824 0.16303496657152353 0.11308102080173894 -0.35549739724354146 -0.3615908302539674 0.4123851688789202 -0.24717694292111042
0.38499690106112083 -0.10725742719358392 -0.17651683076638927 -0.22579755646806757 0.6224143999989488 -0.10936110730518894 -0.44461049379018036 0.10295859818629789
-0.006102008817991844 -0.20828364868350674 0.17152810096740723 -0.18330198526382446 0.22824889421463013 0.4043465256690979 -0.10227105021476746 0.031168133020401
0.2218491159812173 -0.3164616352357002 0.3862152749529217 0.5441104875806689 -0.42178905681731427 -0.026317352605941525 -0.007055194117144849 -0.09523090415002064
-0.3361210587248376 0.35924406432687683 -0.3350505268197021 0.09501181049687152 0.032351529091553484 -0.18417477042391128 0.39468826734244555 0.37576634525635094
0.23095029434247616 -0.1163426105735182 -0.07628805045398475 -0.19118880165411847 0.009062334976425022 -0.10645492433488121 0.49384011455526317 -0.2751705829687032
-0.2987666104072043 0.3330273589031634 0.22389342200440385 -0.06794395389090722 0.38319440290815504 -0.23593800866002496 0.25301651366006994 0.5810130019357636
-0.23532147781483273 0.3041030958224387 -0.0111945246520649 -0.11496169136419927 -0.34794183743610885 0.2809716809276454 0.4643506640298837 0.3316879446632133
-0.2152710122961275 -0.40581538113241206 0.1308110124068509 0.21925003698035622 0.2431984285148654 -0.21670369797241137 -0.2663307911515469 -0.09427265864010788
-0.4085102108418613 0.2058954323192092 -0.018700905182450055 0.40223778895576556 -0.2272649603099775 0.002739031661415623 0.20557045936584473 -0.17863237857818604
-0.24152925610542297 0.1603441834449768 0.33294039964675903 0.1871788501739502 -0.08808928728103638 0.27279967069625854 -0.08977517485618591 -0.08969029784202576
0.05000689625740051 0.18077009916305542 0.3534617708578913 0.19721671360056336 -0.39498437605800485 0.1359476182618591 -0.3185208395746171 -0.10448318723652698
-0.0674908962408647 0.02542821486316167 -0.2763474298455498 0.196281951960677 -0.04033860007358005 -0.28049092763619593 -0.0032565580856934173 -0.15921781482822236
-0.13774191540587571 -0.256713367157913 -0.07657886900537751 -0.29848810750614985 0.12066706513227943 0.5046313788642458 0.1253695818491009 -0.10472626157469606
-0.2900690272604723 -0.06484822959671724 0.11048638820648193 0.37329238653182983 -0.10393810272216797 0.09682822227478027 0.1800345778465271 0.26913708448410034
00000000: c82c b321 4b9e b73f f050 ddc9 2d75 d1bf
00000010: 7585 58c8 1056 c7bf 0f0b 9715 22a9 cd3f
00000020: b048 65c9 7122 cd3f 4291 94ea dca0 d4bf
00000030: 67cf 6fe0 6477 d23f 110e e9c2 6a87 b4bf
00000040: f399 dca8 9948 c9bf 1303 318c c01f d33f
00000050: b10d d356 76e4 d63f 8515 0cd1 9624 dcbf
00000060: ace8 ffec aa7b cd3f d1cb b0a4 c395 d73f
00000070: 2d66 ea76 8b36 d03f 3b01 d670 894d d5bf
00000080: d093 8aac dec4 bcbf 9b26 5734 5807 adbf
00000090: 4d14 ac4e f40a ae3f cba6 3f58 206f cebf
000000a0: cbf9 7c93 cc98 e33f 1207 faa1 52a2 d9bf
000000b0: 2ae3 0995 e1e2 d63f a425 29f5 c0f7 c9bf
000000c0: 5343 318e 42e5 adbf 9745 800d e510 b53f
000000d0: 264a a544 5e3c c0bf 5a68 8fa8 880a e0bf
000000e0: 6b27 b87c 3cbd c0bf 8048 2603 bfd2 c63f
000000f0: 9397 42e8 2693 debf 3ca9 1e2a 0891 c2bf
00000100: a704 8b6c 2635 cc3f ce0c 22ec 6b20 d23f
00000110: b368 9bab 5df9 ca3f 9c35 3bb8 f35a bc3f
00000120: 4410 cd36 0e54 d6bf 6497 16b2 2222 d43f
00000130: bdc4 7451 a1c7 d53f 069e e76f c3dc b3bf
00000140: 78d3 99f8 fa48 d0bf d0a8 367b 0e14 c2bf
00000150: 4762 365e 9ab8 a8bf 80c7 588a 8e46 c9bf
00000160: 8291 da3d a4e3 a3bf 59dc 2a6c 2592 aabf
00000170: 8ac6 410e e825 d63f 92fc 5a72 6a28 c93f
00000180: a592 0b45 1ba7 9cbf a2e2 5891 0356 cf3f
00000190: 0393 51a7 d62c d33f 0556 3dc5 f5fa d0bf
000001a0: 527f 736e 1a7b 94bf 77a0 afef a0ae cd3f
000001b0: 09a7 4519 8ef9 b23f 33d6 6d71 84e9 96bf
000001c0: f927 c935 61ef d7bf 51cd 187f 8122 ddbf
000001d0: 3bf3 b6b5 b9db b2bf 71f1 c2db fe49 c23f
000001e0: 95aa 8339 d39a c43f c68f f7af 33a0 bb3f
000001f0: 31f5 333a 8177 d53f 4296 220d 87cd d9bf
00000200: f3ca b646 635e d1bf 9ea3 7188 4d1e c9bf
00000210: 0000 0080 b362 b2bf 0000 0080 df4a cd3f
00000220: 0000 0060 96f3 c9bf 0000 0080 a908 d93f
00000230: 0000 0000 b727 c23f 0000 0000 8245 bd3f
00000240: 0b84 f725 225d a4bf 2a65 6e6a eeb9 8dbf
00000250: ca2e 9bdd d1db 97bf 5ecb 165e c93e d73f
00000260: 1e36 5915 c510 e1bf 6b48 bf3e a97a d43f
00000270: 0000 0080 24f2 cd3f 0000 0080 6017 c63f
00000280: 0000 0000 1a04 9e3f 0000 0000 1a1b c53f
00000290: 0000 0080 9039 cb3f 0000 0000 d0b1 853f
000002a0: e230 ca09 9630 b33f 6b44 45e5 b64a e0bf
000002b0: b4c7 de00 23fa d73f f39d 4e45 b2ac c7bf
000002c0: 843d b375 cac7 d9bf 4ebe 2249 60cb d43f
000002d0: 1e32 f67e 9faa aabf a652 e8d0 8621 c43f
000002e0: 557c 673f 8c50 b0bf 0a57 b3b6 c60c d63f
000002f0: a303 276a a814 d3bf c312 0881 e7aa ccbf
00000300: e929 11d2 7c47 c03f a6d6 7457 c1c1 c5bf
00000310: 15bb c36c 54de c43f ad4a 24b6 e0f2 bc3f
00000320: 2a58 be27 78c0 d6bf 8f5a 9edd 4d24 d7bf
00000330: 802f 6cc3 8464 da3f 5af1 157b 7ea3 cfbf
00000340: 6e9b c70a caa3 d83f eaae 0c06 3975 bbbf
00000350: 1de8 aa7f 1a98 c6bf 2d06 4630 efe6 ccbf
00000360: 21c2 919a d1ea e33f 9c83 54eb 16ff bbbf
00000370: 1262 9292 7f74 dcbf fd59 0da4 7e5b ba3f
00000380: 8dc7 0285 6bfe 78bf 4290 b1e1 09a9 cabf
00000390: 0000 0000 a2f4 c53f 0000 0080 7076 c7bf
000003a0: 0000 0080 4237 cd3f 0000 0040 d0e0 d93f
000003b0: 0000 0080 6f2e babf 0000 0000 8aea 9f3f
000003c0: 6196 e444 8d65 cc3f 35aa 714d e840 d4bf
000003d0: 4fdc c845 c0b7 d83f 0f3a b265 5a69 e13f
000003e0: c6d3 3587 97fe dabf 0d0e 0aa3 eff2 9abf
000003f0: 0f48 0040 e8e5 7cbf c691 e472 0d61 b8bf
00000400: ad15 aee6 0183 d5bf 443a e4d0 dafd d63f
00000410: 2baf ccc3 7771 d5bf 2c5c d1aa b152 b83f
00000420: 41fe d82e 6190 a03f 6c08 dcf3 0993 c7bf
00000430: 0272 1694 9242 d93f ed0f f448 8e0c d83f
00000440: d0eb 997c c78f cd3f f565 8b1b a1c8 bdbf
00000450: b584 c619 9d87 b3bf 9da1 3be9 df78 c8bf
00000460: 2c0b cb02 468f 823f 5637 8442 a140 bbbf
00000470: 99ef 5d91 139b df3f 58ff aa13 659c d1bf
00000480: 5e7c 35fd fd1e d3bf cc63 cafb 5150 d53f
00000490: 5333 a626 8aa8 cc3f ff20 ec63 c664 b1bf
000004a0: ab0c 20d1 4186 d83f 8a01 8a77 3733 cebf
000004b0: e425 e12c 6c31 d03f 2cad 3b94 a897 e23f
000004c0: 996b a1a1 031f cebf d5dc cad4 6c76 d33f
000004d0: a8f6 32aa 27ed 86bf 9dbb b320 216e bdbf
000004e0: e6af 2cd7 ad44 d6bf b7ed 2ba5 70fb d13f
000004f0: 4a97 f8d8 ebb7 dd3f d494 b312 603a d53f
00000500: ea59 cb22 008e cbbf eb5b 8b13 e1f8 d9bf
00000510: d83d 1f4e 6abe c03f 1e1c 3d9d 6210 cc3f
00000520: f078 7448 2021 cf3f c35c db5f f2bc cbbf
00000530: 107a 7a4d 900b d1bf fd27 c4c1 4022 b8bf
00000540: 8576 e902 0825 dabf ee77 1a12 c85a ca3f
00000550: 4329 a880 5426 93bf 78f1 3191 43be d93f
00000560: 8a6f 07aa 0417 cdbf c856 126d 2a70 663f
00000570: 0000 0000 2250 ca3f 0000 0000 6ddd c6bf
00000580: 0000 0040 6eea cebf 0000 0080 2886 c43f
00000590: 0000 0040 e54e d53f 0000 0000 7af5 c73f
000005a0: 0000 0000 058d b6bf 0000 00c0 8c75 d13f
000005b0: 0000 0080 81fb b6bf 0000 0080 f1f5 b6bf
000005c0: 0000 0000 819a a93f 0000 0080 7923 c73f
000005d0: 0c23 8e1e 1e9f d63f 58cb 91b3 653e c93f
000005e0: fa67 668c 6c47 d9bf f9ae 3347 bb66 c13f
000005f0: fc50 443b a562 d4bf 8ba8 2900 69bf babf
00000600: b1da 2158 1547 b1bf f487 ee9c da09 9a3f
00000610: 714c 6121 adaf d1bf d4aa 3b5a c41f c93f
00000620: d236 2ad0 42a7 a4bf 236b 4138 90f3 d1bf
00000630: 80ee 374f 7fad 6abf b75b d0d5 3f61 c4bf
00000640: 0273 faee 86a1 c1bf e9e9 18e7 fd6d d0bf
00000650: 0359 f139 ac9a b3bf 54f7 fedc 6d1a d3bf
00000660: 908b 726a 09e4 be3f fa3b 98b4 f025 e03f
00000670: 2e40 fa46 1c0c c03f a4e3 7e1c 57cf babf
00000680: 05a4 6aae 7d90 d2bf 4247 52c1 e499 b0bf
00000690: 0000 0000 d648 bc3f 0000 00c0 05e4 d73f
000006a0: 0000 0000 b09b babf 0000 0000 bcc9 b83f
000006b0: 0000 0080 5f0b c73f 0000 00c0 8a39 d13f

bias f8 [36]
-0.658721442516057 -0.3344325048686376 0.5826895939135884 0.2544803891337133 -0.36996919275625106 0.21458772241239146 -0.417774401995594 0.5512091921367397
-0.22624964500948402 -0.4759939239830777 0.10362659235152628 -0.31457042694091797 0.3857571002929826 -0.38505175709724426 -0.04639746526707821 -1.216190883904616
-0.318105580818573 0.19377961614666367 -0.815039394401528 -0.3925234079360962 0.7386371434967607 -0.3187308095220164 0.0506657471603629 -0.794438409230109
0.5338767515258136 0.6605418428037049 -0.2562062004952697 -1.0412302243962606 -0.11490976730427332 -0.1482492983341217 -0.386484295129776 0.3315082547821399
-0.16692593894983815 -0.4797799899257779 -1.7973770321219582 -0.2129296213388443
00000000: 1cf9 98fd 3e14 e5bf 8854 c897 5767 d5bf
00000010: 1d82 b2a5 64a5 e23f a85e 331d 6849 d03f
00000020: 7e99 da43 93ad d7bf 4d32 f148 9c77 cb3f
00000030: 8454 6bd8 d0bc dabf 8a6b af75 81a3 e13f
00000040: 5a0f 0695 bff5 ccbf a487 2638 af76 debf
00000050: 814e 25b9 4587 ba3f 0000 0000 ec21 d4bf
00000060: 5e52 7d8c 3eb0 d83f 0000 0020 b0a4 d8bf
00000070: 9ff8 e097 68c1 a7bf bf04 8192 8475 f3bf
00000080: 629d 9282 d75b d4bf 029d fd3c c5cd c83f
00000090: a8ff fc7e cd14 eabf 0000 0080 1a1f d9bf
000000a0: 06be dd5c eaa2 e73f 86fa c7e8 1566 d4bf
000000b0: 448e 295e dcf0 a93f f18b 4a19 0a6c e9bf
000000c0: 22bd 7cb2 8415 e13f 5468 8fa5 2823 e53f
000000d0: ed36 0ab1 ae65 d0bf 0938 1606 e1a8 f0bf
000000e0: 3c15 90fc b96a bdbf 0000 0040 d5f9 c2bf
000000f0: 0000 00a0 28bc d8bf 432c 2966 6e37 d53f
00000100: 0a63 5244 d45d c5bf 4769 8021 b7b4 debf
00000110: c3b9 386b 0ec2 fcbf 0000 0020 4741 cbbf

weight f8 [72, 36]
-0.13221585750579834 0.13527192175388336 0.03407343284293909 -0.12800117729587598 0.03539774858712384 -0.062149010598659515 -0.11438997188709048 0.06171141564846039
-0.09193001687526703 -0.104378440289041 0.04455523897536329 0.04780544340610504 -0.027177722177987952 -0.11920791864395142 0.058653831481933594 -0.12829610394294
0.11737723417857676 -0.06462335480045799 -0.08310256765742162 0.11992253363132477 0.1274314259888257 -0.15608277337110885 -0.11967700719833374 -0.1503528207540512
0.047013244056735556 0.09801985376425629 -0.03410059749507129 0.05756646150719874 -0.03845369386823866 0.09146477282047272 -0.0022338777780532837 -0.057911613794136306
-0.14461686162464038 -0.05695426473134744 -0.00707249665411097 0.1535772830247879 0.0925148241904512 0.222411946116493 -0.1290294427932366 -0.1746249130223922
0.22381412149473978 -0.4058625054829962 -0.23301834966688256 -0.7164886089979224 -0.18715185016342192 0.15729837893355866 -0.017033631778092657 0.003055274486541748
0.21321578457661233 0.005138620734214783 0.1019668641519762 0.46454435684754813 0.005826799989681007 0.0156772848201968 0.19881327102501312 -0.03676705062389374
-0.3221760780066205 0.09492153492482086 0.10278653892821107 -0.1250940749809916 -0.41923444327008647 -0.1567102945945453 -0.10585181767542196 -0.08309758343300278
-0.43076527912111584 0.00975710153579712 -0.10531827062368393 0.13470904136749245 -0.041731517703881484 0.12872401638375916 0.9112519873404739 -0.14440862834453583
0.10091247829904712 -0.011215757224592404 0.024534955620765686 -0.07414222188604024 0.1206122374021815 0.10608215637507734 0.10716920593845976 0.11233155584145431
0.040604591369628906 0.035118723321983 0.09365225079336842 0.14634515345096588 0.0925897766510584 -0.003841683268547058 -0.14913305640220642 0.004489109364192583
-0.15549117131749637 -0.13516516375149434 -0.16264043960615923 -0.15587884187698364 0.10083208978176117 -0.08947093459494872 0.07915551960468292 -0.017036577544611894
-0.08906140178442001 -0.16577235671872642 -0.0388105683194513 -0.10625892877578735 0.14794266266421918 0.030784904956817627 0.04413129389286041 -0.16869077855201456
-0.17210803955317147 -0.18163061846878042 0.14820660650730133 -0.10668234527111053 0.0423203050949183 -0.10974654321384789 -0.3535762478836159 -0.20728437430343316
-0.015768944924044362 -0.058867009658054234 -0.24878496533807262 0.04877812401451889 0.09946271336442195 0.14403331985068232 -0.18604105175400965 -0.12999078631401062
0.2695355337598099 -0.14133577048778534 0.26342930955932636 -0.4232454501258709 0.15842608694667307 -0.09992007746672749 -0.09525516648527525 0.008662700653076172
0.4781111913760405 -0.07580722647885088 0.1352705883036529 -0.013809825135835794 0.19324658016108867 0.1509539241746914 -0.24476763473863616 -0.3845772430708647
0.19030869064752676 0.15897946059703827 0.0033120661973953247 -0.15046290020603667 0.08187375944951085 0.21243705298278284 -0.04591899087944247 0.03386138379573822
0.0003843456506729126 0.045619234442710876 -0.06295669078826904 -0.09514163434505463 0.09146668016910553 -0.011411979794502258 -0.1028745025396347 -0.1372113823890686
-0.09224434942007065 -0.1411706656217575 -0.035067781805992126 -0.10585838556289673 0.08976836502552032 -0.09760504961013794 0.053842052817344666 0.0021377354860305786
-0.09694592654705048 0.15468783676624298 0.005882099270820618 0.11817492544651031 -0.11800180375576019 0.03727556765079498 -0.12021344900131226 -0.08218120038509369
0.01295037567615509 0.06709814071655273 -0.12333216518163681 -0.11467369645833969 0.08307977020740509 -0.04310476779937744 0.017912864685058594 -0.0905216783285141
-0.1328945755958557 -0.07845740020275116 0.019239485263824463 -0.0801348090171814 0.013033199374360229 -0.10846520895400427 -0.09894746673303059 -0.1566073310005979
0.07013456214405299 0.06220159381572319 0.04162235229948183 -0.09417027630654703 -0.12005816400051117 -0.18267101519207277 -0.07244973499904972 0.14611069858074188
-0.230608971231955 -0.0927758440375328 -0.09681252983001203 -0.14754237530821643 -0.21868163279971645 0.009577839039001276 0.02047743798741069 -0.14090940356254578
0.06714747846126556 -0.002210763750454442 -0.13449911773204803 -0.24599998027401723 0.03446909560863461 -0.010822191924922243 -0.16143718387745795 -0.12016586439387852
0.01674906146543499 0.11294986307621002 0.08500118553638458 0.08103366213031422 -0.17005784781544728 0.03434664947889432 -0.09691503053390448 -0.06498633325099945
-0.08548193722505949 -0.20866612822418024 0.03299795724227991 -0.12540914007982848 0.10801068194141182 -0.16730419210258712 0.1022332225390889 0.08720611640672994
0.11197090730047102 0.0064258162335591625 0.020151754330640717 -0.15416304767131805 -0.29211939370705114 -0.007837891578674316 -0.29191609308612854 -0.10610307407167993
-0.17585701773354573 0.026188853606176732 -0.050389838754320015 0.07986454665660858 -0.022288634252475858 -0.09895611472093936 -0.14514359254892 -0.2882638726707337
-0.09131415214027665 -0.23992129734445078 -0.031250579318575805 0.1034103265305185 -0.23940341122430625 -0.03299696743488312 -0.09521788358688354 -0.10095884670789633
-0.04172127913730865 -0.08475687148791672 0.24505251111111237 0.1016540676355362 -0.12430170559139864 -0.0245702862739563 0.07801957428455353 -0.06740319728851318
00000000: 0000 0000 73ec c0bf 0000 0020 9750 c13f
00000010: c31c 72af 1272 a13f 9fea 2ab3 5762 c0bf
00000020: ae44 1159 a71f a23f 0000 00c0 fed1 afbf
00000030: 63d3 3e44 a948 bdbf 0000 0080 a398 af3f
00000040: 0000 00c0 b988 b7bf 6aec 72a3 8bb8 babf
00000050: 3080 87bc f1cf a63f 0000 0080 f479 a83f
00000060: 5aa7 bc0f 7ad4 9bbf 0000 0000 6984 bebf
00000070: 0000 0000 e007 ae3f 78cf 51b9 016c c0bf
00000080: 1c88 1736 6f0c be3f 5fff 6cfb 278b b0bf
00000090: 7760 4dba 3546 b5bf 0000 0040 3eb3 be3f
000000a0: 3365 8d47 ac4f c03f bb87 8c33 85fa c3bf
000000b0: 0000 0000 27a3 bebf 0000 00e0 c23e c3bf
000000c0: 0eb4 67b3 1e12 a83f f2b3 4642 d417 b93f
000000d0: 4be1 072e a275 a1bf 482b 0aeb 5979 ad3f
000000e0: 5822 26db 33b0 a3bf 0000 0040 3c6a b73f
000000f0: 0000 0000 c84c 62bf 0bda 9b4e 97a6 adbf
00000100: e861 9029 ce82 c2bf 1d19 c700 1c29 adbf
00000110: 3fa1 49dd 0cf8 7cbf 0000 00a0 6ba8 c33f
00000120: b00d 4b30 0daf b73f c6af 67a1 fe77 cc3f
00000130: 994f 826a 0984 c0bf 16bf 3ff1 1b5a c6bf
00000140: e8f7 19ee f0a5 cc3f b636 eeba a6f9 d9bf
00000150: a2f4 9797 8bd3 cdbf 9148 f384 79ed e6bf
00000160: af3c eb81 97f4 c7bf afe1 9d70 5a22 c43f
00000170: 1512 adad 4371 91bf 0000 0000 6007 693f
00000180: 1aaf dfa2 a74a cb3f 0000 0000 3c0c 753f
00000190: 20f4 ce1a 801a ba3f 92e6 0c41 18bb dd3f
000001a0: cb11 56b6 d7dd 773f dc0c 5fc6 b40d 903f
000001b0: 7417 8898 b672 c93f 0000 0080 21d3 a2bf
000001c0: 00e3 a569 889e d4bf ac2f 3018 c74c b83f
000001d0: 266b 2af7 3750 ba3f d5bd 7b28 1503 c0bf
000001e0: 1bea ccb3 bcd4 dabf d773 1d3b 150f c4bf
000001f0: 005a 23cf 1a19 bbbf 40ac 381b e245 b5bf
00000200: d4f5 8488 a891 dbbf 0000 0000 88fb 833f
00000210: 0000 0060 23f6 babf de0e 9357 253e c13f
00000220: bd50 805f d55d a5bf 5bfc 4950 077a c03f
00000230: dc5a 81ed f928 ed3f 0000 0060 fb7b c2bf
00000240: de7e 0d72 66d5 b93f 2604 d673 49f8 86bf
00000250: 0000 0000 b11f 993f 77d9 4012 fcfa b2bf
00000260: 26c7 238f 71e0 be3f 10f3 5140 3328 bb3f
00000270: 75db a4ea 706f bb3f 1bd9 a5c6 c2c1 bc3f
00000280: 0000 0000 20ca a43f 4656 4ad0 14fb a13f
00000290: e4b3 5a0a 98f9 b73f 0000 0020 70bb c23f
000002a0: 8105 a9ae f6b3 b73f 0000 0000 9878 6fbf
000002b0: 0000 00c0 ca16 c3bf 1f9b 841e 2c63 723f
000002c0: 750c d07b 22e7 c3bf f081 ef92 174d c1bf
000002d0: 43c9 8ee4 66d1 c4bf 0000 0080 d6f3 c3bf
000002e0: 0000 00c0 21d0 b93f d121 0732 91e7 b6bf
000002f0: 0000 0040 8943 b43f ac3b 8f5d 0972 91bf
00000300: 0000 0060 bacc b6bf 0a09 5851 0738 c5bf
00000310: c2a9 5793 fade a3bf 0000 0000 c933 bbbf
00000320: c4b9 e900 c9ef c23f 0000 0000 1486 9f3f
00000330: 0000 0080 6098 a63f 5d43 82d0 a897 c5bf
00000340: cd38 a1e0 a207 c6bf 0249 230f ac3f c7bf
00000350: 0000 0020 6ff8 c23f 0000 00c0 884f bbbf
00000360: f8c7 adcc 01ab a53f d6d8 f375 5918 bcbf
00000370: 7b5c 5345 fea0 d6bf e072 4d5c 4b88 cabf
00000380: 04fc f6fa bb25 90bf 8edd 9612 d123 aebf
00000390: ad87 ee8c 2fd8 cfbf 6420 ce3e 72f9 a83f
000003a0: 5255 126d 6376 b93f a380 250f af6f c23f
000003b0: e89a 7f74 31d0 c7bf 0000 00c0 89a3 c0bf
000003c0: 2eee a6f7 1140 d13f 0000 0060 4a17 c2bf
000003d0: e55e 579b 06dc d03f a82b 9e15 7416 dbbf
000003e0: 9575 2257 4e47 c43f 10f2 eeb8 5c94 b9bf
000003f0: 834c d480 a462 b8bf 0000 0000 c0bd 813f
00000400: c0f2 b3ae 5f99 de3f faf1 8636 1a68 b3bf
00000410: b8fb 6ff0 8b50 c13f e53c 935a 5348 8cbf
00000420: 2d88 edce 4dbc c83f b23e c44b 7552 c33f
00000430: fc2d 29bd 8b54 cfbf fc9c 71de e99c d8bf
00000440: 04e4 3c01 095c c83f 0000 0060 7059 c43f
00000450: 0000 0000 e821 6b3f f7b7 d249 5e42 c3bf
00000460: eb78 3cbf adf5 b43f 9984 8229 2331 cb3f
00000470: ca5f 2fa8 b182 a7bf 0000 0080 4756 a13f
00000480: 0000 0000 4030 393f 0000 0080 675b a73f
00000490: 0000 0000 ee1d b0bf 0000 00c0 335b b8bf
000004a0: 0000 0040 5c6a b73f 0000 0000 2a5f 87bf
000004b0: 0000 00c0 fb55 babf 0000 0080 2490 c1bf
000004c0: 0000 0060 539d b7bf 0000 0060 e111 c2bf
000004d0: 0000 0080 67f4 a1bf 0000 0000 8919 bbbf
000004e0: 0000 0040 0ffb b63f 0000 0000 a5fc b8bf
000004f0: 0000 0080 2f91 ab3f 0000 0000 2883 613f
00000500: 0000 00c0 72d1 b8bf 0000 00a0 cfcc c33f
00000510: 0000 0000 d417 783f 0000 0040 b640 be3f
00000520: 0000 00c0 5d35 bebf 0000 0080 c815 a33f
00000530: 0000 0000 4fc6 bebf 0000 00c0 d309 b5bf
00000540: 0000 0000 ba85 8a3f 0000 0000 582d b13f
00000550: 0000 0060 b292 bfbf 0000 0060 415b bdbf
00000560: 0000 0040 b744 b53f 0000 0000 d411 a6bf
00000570: 0000 0000 c057 923f 0000 00c0 6d2c b7bf
00000580: 0000 0080 b002 c1bf 0000 00c0 c815 b4bf
00000590: 0000 0000 84b3 933f 0000 0000 b783 b4bf
000005a0: 0edb 9968 26b1 8a3f ca14 363d 60c4 bbbf
000005b0: 32f2 a305 9f54 b9bf a50f 7b82 b50b c4bf
000005c0: 5f5d bab2 56f4 b13f bd2c 6526 e3d8 af3f
000005d0: bc56 d163 864f a53f 5eed fd10 8b1b b8bf
000005e0: 0000 00c0 21bc bebf 49aa 168a c361 c7bf
000005f0: b8be 6cda 108c b2bf 0000 0060 c1b3 c23f
00000600: 707f cd42 9884 cdbf 0000 0060 28c0 b7bf
00000610: 5382 76b9 b4c8 b8bf 8b89 5c26 abe2 c2bf
00000620: 352a 8e7e c2fd cbbf 5eca 82cb 8b9d 833f
00000630: 4ee1 d899 09f8 943f 0000 00c0 5109 c2bf
00000640: 0000 00c0 9330 b13f a77d 3cc0 4e1c 62bf
00000650: 0000 0060 4437 c1bf 6bf9 0b67 ed7c cfbf
00000660: 9b3b b9ec eea5 a13f e7cd 1b03 f229 86bf
00000670: af56 8e40 f9a9 c4bf ced2 aaa9 30c3 bebf
00000680: a352 ee7c aa26 913f 0000 0040 48ea bc3f
00000690: 0000 0040 a3c2 b53f 5d8d b940 9fbe b43f
000006a0: a7d2 659f 74c4 c5bf b061 7a50 e295 a13f
000006b0: 474b a266 6ccf b8bf 0000 00c0 f1a2 b0bf
000006c0: 61c5 c7ec 24e2 b5bf f2bd 405a 92b5 cabf
000006d0: ec7b 61b6 1be5 a03f 8f94 a11d 680d c0bf
000006e0: f798 8e8a 96a6 bb3f 6a3b c848 396a c5bf
000006f0: 5cbd 5edb f42b ba3f 1163 fad9 2353 b63f
00000700: 1a7f f518 20aa bc3f 5400 2ce9 f451 7a3f
00000710: d47f 3a57 a9a2 943f 0000 0060 9dbb c3bf
00000720: cbf1 9f8a 15b2 d2bf 0000 0000 500d 80bf
00000730: eec8 3ed6 c0ae d2bf 1e97 2431 9229 bbbf
00000740: 9a05 f895 7b82 c6bf 8075 0837 40d1 9a3f
00000750: e043 006b b2cc a9bf 0000 00c0 0072 b43f
00000760: e35f bfec d4d2 96bf 6935 771c 3055 b9bf
00000770: 1a5c 9cb3 1094 c2bf 924d 6f50 ea72 d2bf
00000780: abbd 1a41 5d60 b7bf d4a9 dab6 bdb5 cebf
00000790: 4405 4f70 1300 a0bf 076b 8462 1979 ba3f
000007a0: 9a2e e15e c5a4 cebf 0000 0080 fae4 a0bf
000007b0: 0000 0000 3360 b8bf cf2f da60 70d8 b9bf
000007c0: 7651 e2d2 7d5c a5bf 6ce1 2657 a0b2 b5bf
000007d0: 1030 8374 e15d cf3f 0000 0040 0006 ba3f
000007e0: c021 5a90 3cd2 bfbf 0000 0000 f428 99bf
000007f0: 0000 0040 17f9 b33f 0000 0000 5641 b1bf

bias f8 [72]
-0.003159544249352235 -1.107131101729575 -0.09012430242567204 0.3337168663952723 0.07104676961898804 0.07851982177305164 0.027360859640290693 -0.17867172110170912
0.04107332376239489 -0.12908669539237663 -0.02750402546752782 0.061510788071652625 0.11763852844346442 0.06741538598534651 -0.26113852468650706 -0.09011469038843631
0.02958992341328093 -0.30889441037552207 -0.06822188943624496 -0.1619755902667176 -0.18701963268342298 -0.058884301980158725 -0.0483507024805334 -0.06742243468761444
-0.06110201369859828 -0.20935202684468224 0.06395967075006366 -0.2175283482557046 -0.11263627046981034 -0.13169585168361664 0.19160644541815453 0.06837658055889603
-0.16438751984978406 -0.16709882804227505 -0.00015564226083633278 0.14046913555706114 0.06743955194188529 -0.027427777145624308 0.21997383364844525 -0.5418241703836447
-0.028298288468517802 -0.05490814183254262 -0.2635717908273404 -0.3459721826587936 0.03358065218881576 -0.08089590701366739 -0.028786045258267952 -0.026786873260046338
-0.19404377436251982 -0.25348750206878423 -0.014226379687060677 0.11040553800791586 0.03394336849660001 -0.17532848913700533 -0.11249111592769623 -0.7943008451324711
-0.1179387377001408 0.1113358147746775 -0.5617567544676276 0.5342713313145339 -0.044423506449671156 -0.6688725235712393 0.09273353061050227 -0.20028110581889405
0.054367125199776066 0.659313293914341 -0.13044924417523296 0.07569887854440352 0.1344478577375412 0.12760017812252045 0.13320760716563065 -0.13970491290092468
00000000: a356 1467 0be2 69bf f101 251a cfb6 f1bf
00000010: 283a 7ee3 6212 b7bf 98a4 d2fc 9d5b d53f
00000020: 0000 0000 1f30 b23f 925e 9a02 e019 b43f
00000030: 67c9 6135 7c04 9c3f 330a 6d07 b7de c6bf
00000040: ac52 980c 9007 a53f 618c 87af e985 c0bf
00000050: bbc6 90e7 032a 9cbf 0ae5 3c8e 577e af3f
00000060: fe0b 6a00 8f1d be3f 4be5 0d7e 2242 b13f
00000070: 6945 d05b 7eb6 d0bf 1685 1ba0 c111 b7bf
00000080: 619d 6725 d24c 9e3f 79b9 9e0f edc4 d3bf
00000090: 0000 0060 fd76 b1bf 8c11 79bb 9dbb c4bf
000000a0: f6e8 0a63 42f0 c7bf d350 814e 1526 aebf
000000b0: fef7 c85b 6cc1 a8bf 0000 00c0 9842 b1bf
000000c0: 4546 1c5d c348 afbf c819 5316 0ccc cabf
000000d0: 656b 2236 a95f b03f f606 db0a f8d7 cbbf
000000e0: 04e1 020a bbd5 bcbf 0000 00e0 68db c0bf
000000f0: 500b 635c 8f86 c83f 8e11 50a9 2081 b13f
00000100: 3c0c d076 a60a c5bf a41c d290 7e63 c5bf
00000110: 8433 20d7 7c66 24bf e250 a883 e4fa c13f
00000120: 3d1b 0cee b743 b13f a9a6 5ef7 0616 9cbf
00000130: ec76 bf42 1a28 cc3f dd5c 7fa4 9f56 e1bf
00000140: e52d 05fe 39fa 9cbf a9e8 e882 eb1c acbf
00000150: e219 7037 5cde d0bf b018 7682 6824 d6bf
00000160: 1ccf dbb5 7b31 a13f 6c03 011b 98b5 b4bf
00000170: 729b dccb 167a 9dbf 59bb 74a2 046e 9bbf
00000180: 0791 7028 6dd6 c8bf 5a21 d5a4 2339 d0bf
00000190: d4a2 f85b b822 8dbf 9091 0a8f 8943 bc3f
000001a0: 68cb 3773 0661 a13f 8a44 73f7 2971 c6bf
000001b0: 0000 00c0 37cc bcbf 96ee 209b e96a e9bf
000001c0: 4c87 5aad 3b31 bebf 42ac 5403 8180 bc3f
000001d0: a6db 174d e9f9 e1bf 33f6 e530 c018 e13f
000001e0: bbfd bf86 adbe a6bf 89ce bd59 6767 e5bf
000001f0: 08f8 3679 62bd b73f d1da bfaf cfa2 c9bf
00000200: 93d0 6b01 02d6 ab3f a1c3 6531 1819 e53f
00000210: 30a1 c292 8fb2 c0bf c22c b16f 0061 b33f
00000220: 0000 0060 9635 c13f 0000 00e0 3355 c03f
00000230: 0d6a 2d66 f20c c13f 0000 00c0 d9e1 c1bf

weight f8 [120, 72]
0.10690647188159717 -0.15777469120375842 0.004362274602369075 -0.06255509163232008 0.033422090113162994 0.11227154001380958 -0.052963348627288506 -0.06557008632248403
-0.04997819403623806 0.0974194384556303 0.016273951073901297 0.0453980863557927 0.017092389291416654 -0.1911483697302309 0.032961816525587995 0.025197748021091364
-0.03151026900145022 0.04385822613033797 0.09774313122034073 -0.11301239736292733 -0.1523417848092468 -0.09544722746614483 -0.021999721184024174 -0.051559388637542725
0.1012143567830797 -0.10532372052937208 -0.09105296406022444 -0.08872250501677272 -0.0008106434350647612 0.08102909475564957 0.10041237872281521 0.05911079084441042
-0.12452587459888435 0.019974664870844573 -0.15683768532257744 -0.06272565298530351 0.04256540963508469 -0.08126446871687351 -0.039441021837245245 -0.10212734003774311
0.11915871191148673 -0.04019229906764382 -0.02783615972331358 -0.16331932040629885 0.015567210900964946 -0.042754165477676985 -0.04752648668816699 0.11875935280194386
-0.12660396310892572 0.021618697407144075 -0.011550023403835118 -0.019132957101869387 0.10102911755493675 -0.22306500301663468 0.10894408077001572 -0.0842336911049906
0.002190537753127071 -0.07104528785229225 -0.07489917296018771 -0.023042255006677986 -0.24453572729459658 -0.09528771468482894 -0.10653824231562081 -0.2388184842312193
0.058366765129567975 0.11572663419292849 0.1665976639891447 -0.09311562134174274 0.10803108662366867 0.04292093962430954 -0.03985491929626656 -0.08065915107727051
0.030662617222719787 0.1334113952670183 0.058137544148479686 -0.012532972541761209 0.08883175998926163 0.043881732465502275 -0.057054864332779974 0.012019164860248566
-0.09963776321036315 -0.04271576549283081 -0.09133984025519865 -0.04733167172133246 -0.08828119540328153 0.006424229070993203 -0.12950505905298385 -0.03776447883967502
-0.06514454183507538 -0.028033628007220854 0.03695108741521835 -0.043367844692096195 -0.12268446571853507 -0.0707154740264535 -0.0226362072470273 0.0654689148068428
-0.07784990966320038 -0.08452880815486469 -0.009090443209690952 0.0016516632002263922 0.03130205720663071 -0.04133649170398712 7.112495539518274e-05 -0.11646980858122906
0.049533007881374935 -0.05738340609918931 0.01785187306107267 -0.07988491261553657 0.03929776449370803 0.04419817477224045 -0.1235551975598392 -0.1281534587827526
-0.017239797234236465 -0.013732464817842127 -0.13329932498629254 -0.07712346899904357 -0.07981975077478086 0.03389538596946665 -0.12182713630206259 0.07355357745902463
-0.03435279182101827 0.005486133655269259 -0.06429213468024175 -0.010512646810049797 -0.03901552859847722 -0.20975391705442112 0.016154609620571136 -0.03707240752421924
-0.09978730729008257 -0.10510670702972305 -0.2811803287865288 -0.10680965207769719 0.0037552496713504 -0.16064919494319674 0.049839028741067624 -0.04599457155285367
0.09884216636419296 -0.11000262420680919 -0.04535369880134618 -0.05240127444267273 0.07925043255090714 -0.06356807053089142 -0.035170719027519226 -0.03052208572626114
0.05415281260124854 0.09846883806973236 -0.09672994693082361 0.0395125847207346 -0.050419881939888 0.08370668450756859 0.08073860496397747 0.043884677251749875
0.06707966578729829 0.019051893006885697 0.05426981272039875 -0.08447698575844557 -0.2411835448993602 -0.11429101153614377 -0.020573236819588073 -0.23923622239558287
0.1014916026530894 -0.07739672882564753 -0.10997506231069565 -0.07863530040977654 -0.06917292786232122 -0.017597285695265998 0.11705713531698676 0.07423675805330276
0.06466224044561386 -0.09045608630387635 -0.06835135061008857 0.04570720127656117 0.0012397244572639465 -0.10461363196372986 0.02723021999960195 0.08646320124560983
-0.3488967183656321 -0.007579651835942444 0.037019879138760585 -0.18508575574216896 -0.05010645042644078 -0.051163634409558345 -0.06578249182666182 -0.36499223363151156
0.08656432000076733 -0.11382989620014065 -0.3015953532317313 -0.10705117801327516 0.058162053765562494 -0.1324634604743296 -0.11082089903806304 -0.007682879150721457
-0.1616017436585742 -0.03451109510041837 0.03620582252703919 -0.022074324669278944 0.009355216905095774 -0.08777495068266682 0.021986477077007294 -0.10618351067387796
0.07123643720265074 0.06150851820730899 -0.21928955644645295 -0.06119601475004496 -0.12133200594671459 -0.12974831159716024 0.07251566482739233 0.0754513280001543
-0.06855070482041462 0.18184166814169775 -0.049630445285534563 -0.14055605131879542 0.03867044299840927 -0.03816162794828415 -0.048418179102895566 0.07719095796346664
-0.042594894766807556 -0.09865299048494794 -0.0971772707459264 -0.05249784435576863 0.10155279189348221 0.025035456424379543 -0.08310193936790972 0.019950084388256073
0.11157787591218948 -0.02327191935488704 -0.09545712198107333 -0.103205802535923 0.036759505880965916 -0.07624559790732166 -0.03266630023233204 0.030715525234909065
0.0638892874121666 0.025137593421429755 0.04924236983060837 0.016791246831417084 -0.187937021789511 -0.025730818510055542 0.02420622855424881 -0.09476935118436813
0.0545157715678215 -0.03206298255504533 -0.05904816187103463 0.07055510199956493 -0.05632008984684944 -0.10057714581489563 -0.073267124894642 -0.020983590625868763
-0.13092652252202366 -0.0025321245193481445 -0.04769999866116961 0.030010614711340894 0.08873409777879715 0.05901467055082321 -0.11067852405610944 -0.05762946390001115
00000000: f752 76f8 385e bb3f 6ca6 6d09 f631 c4bf
00000010: 25b5 0d2c 2dde 713f 3f54 c248 9c03 b0bf
00000020: 0000 0040 b31c a13f 8980 a1e0 d3bd bc3f
00000030: c650 7b14 031e abbf e5d8 5980 33c9 b0bf
00000040: 822d cce9 bd96 a9bf b95f 29f6 7af0 b83f
00000050: e472 8e5e 1eaa 903f 33f2 6500 6b3e a73f
00000060: e08b 11d4 aa80 913f 4d68 56be 8c77 c8bf
00000070: 9801 fd07 5fe0 a03f aed6 bb3e 70cd 993f
00000080: 6ae3 b22d 1d22 a0bf 21df c7dd 9574 a63f
00000090: 0000 00a0 b105 b93f 5f61 b766 61ee bcbf
000000a0: 41f5 c883 ef7f c3bf cd01 76c0 3a6f b8bf
000000b0: 85a8 064c 1887 96bf 0000 0000 fe65 aabf
000000c0: 63dd 4420 2fe9 b93f a6ac 2acf 7ef6 babf
000000d0: dfaf d73e 3f4f b7bf 295b 77a1 84b6 b6bf
000000e0: fbbf 6a85 2b90 4abf 0000 00a0 52be b43f
000000f0: fb61 ba2a a0b4 b93f c3ed 0803 c543 ae3f
00000100: 0b73 e87e ede0 bfbf 8ab0 7911 3d74 943f
00000110: d7d2 9edc 4113 c4bf ff2e 31d4 c90e b0bf
00000120: fea5 a524 22cb a53f ce3d 778b bfcd b4bf
00000130: 29d6 d215 9d31 a4bf fd54 7d71 0425 babf
00000140: 7f7d b172 2f81 be3f 88d9 17c4 1594 a4bf
00000150: 29a7 a10e 1581 9cbf 9199 f9c1 a5e7 c4bf
00000160: d437 adad b3e1 8f3f 5321 fdbc dfe3 a5bf
00000170: 36f6 0944 6455 a8bf bae3 6050 0367 be3f
00000180: cf64 8c04 8f34 c0bf 641a 6239 3623 963f
00000190: 2cd0 4ce6 89a7 87bf aafa 1c04 9797 93bf
000001a0: f399 d753 0bdd b93f d456 6bde 648d ccbf
000001b0: 0000 0060 c2e3 bb3f d26d 84d4 5690 b5bf
000001c0: 29a8 5400 e4f1 613f d049 dc23 0630 b2bf
000001d0: 3b88 5c9a 972c b3bf bb16 b88e 6398 97bf
000001e0: f388 b75b f24c cfbf dc2b 4892 c664 b8bf
000001f0: 98d7 841a 1746 bbbf 4f08 baa5 9a91 cebf
00000200: f342 cfa6 3fe2 ad3f 2781 22bd 42a0 bd3f
00000210: 1931 367f 1253 c53f 4dd5 68e4 6cd6 b7bf
00000220: 0000 00e0 eca7 bb3f 0000 00c0 bbf9 a53f
00000230: 69a3 ec2d dd67 a4bf 0000 0000 14a6 b4bf
00000240: 3fb3 b968 0566 9f3f 0df4 cae5 9f13 c13f
00000250: 1c30 9345 34c4 ad3f 381c 8219 e3aa 89bf
00000260: 0000 00a0 adbd b63f fb8c a99b aa77 a63f
00000270: c325 c690 4b36 adbf 0000 0000 819d 883f
00000280: d362 6f46 dc81 b9bf ca70 a13f d7de a5bf
00000290: 14cb b73a 0c62 b7bf f05c 375c db3b a8bf
000002a0: 8adf 1baf 9899 b6bf b2db 30dc 4a50 7a3f
000002b0: 6149 a62c 9f93 c0bf 2d3f 22a3 dd55 a3bf
000002c0: 33ce b10c 50ad b0bf bcbe eaed d8b4 9cbf
000002d0: 0000 00c0 40eb a23f 3f16 4d65 4f34 a6bf
000002e0: ef03 fdc7 3f68 bfbf 00c7 43c8 681a b2bf
000002f0: 5e6a 5327 f22d 97bf 0000 0020 92c2 b03f
00000300: 0000 00c0 f8ed b3bf 0c52 9812 aea3 b5bf
00000310: 6a8a 55a2 029e 82bf 9064 74db 930f 5b3f
00000320: 0000 00c0 d206 a03f 0000 0080 0e2a a5bf
00000330: 3e9f ed6d 1da5 123f 03e8 d322 f7d0 bdbf
00000340: 8095 d8f1 635c a93f dae6 0e99 5b61 adbf
00000350: 11ec e0eb c247 923f f2a6 206f 5673 b4bf
00000360: a0de 9c2a d61e a43f c51b 61a6 24a1 a63f
00000370: 3d34 c53c 50a1 bfbf a7ac 2b21 5567 c0bf
00000380: 902c 3e35 4fa7 91bf 20f0 493a c41f 8cbf
00000390: 6e8f b2c8 f30f c1bf cade 1a19 5dbe b3bf
000003a0: cf0d 2733 116f b4bf a5c4 726c bc5a a13f
000003b0: fbc4 2e2e 1030 bfbf 64b8 b041 68d4 b23f
000003c0: 438e cb6a b096 a1bf 5f07 18ca a078 763f
000003d0: 6877 d707 7375 b0bf f3d0 f291 a787 85bf
000003e0: 9eb4 bbe6 d7f9 a3bf 0773 fa62 37d9 cabf
000003f0: 0000 0080 d58a 903f 1e0f cd93 27fb a2bf
00000400: 11e7 5d35 a98b b9bf 0a6d 48ed 45e8 babf
00000410: b3aa 1ac7 dbfe d1bf 1623 929a e057 bbbf
00000420: ae41 db50 54c3 6e3f f872 341f 2790 c4bf
00000430: 73bb 034d 8084 a93f 2de0 39b9 998c a7bf
00000440: 0000 0060 b84d b93f a942 71c9 2129 bcbf
00000450: 0c76 359a 9938 a7bf 0000 0000 57d4 aabf
00000460: 0000 00a0 c149 b43f 0000 0040 ff45 b0bf
00000470: 0000 0080 e501 a2bf 0000 0080 2e41 9fbf
00000480: e7b1 37de eab9 ab3f 4643 2ff7 4035 b93f
00000490: 9198 9c36 4bc3 b8bf 30dd 4f56 fe3a a43f
000004a0: 0000 0080 a2d0 a9bf 19a6 6a20 cd6d b53f
000004b0: 6a4e d803 49ab b43f e7fd 2e6b 0d78 a63f
000004c0: 6076 c80a 222c b13f 3fdc 90e5 5682 933f
000004d0: cd9b 96bd 40c9 ab3f e3e0 18a3 48a0 b5bf
000004e0: 6f8a d636 1adf cebf 6245 c6fc 2c42 bdbf
000004f0: 7481 408d 2611 95bf 0193 9ae3 4a9f cebf
00000500: 7eb1 368a 5afb b93f 19a0 1fa3 45d0 b3bf
00000510: 0000 0060 5327 bcbf 4a35 926b 7121 b4bf
00000520: c1ee ef26 51b5 b1bf 07f7 3cda 0505 92bf
00000530: f52c f3d7 74f7 bd3f 0000 0020 2e01 b33f
00000540: 0000 0060 b48d b03f af38 664c 2128 b7bf
00000550: 90fc 815f 797f b1bf a55a 592d ef66 a73f
00000560: 0000 0000 c84f 543f 0000 0080 f5c7 babf
00000570: fed7 7121 3de2 9b3f ca48 a8cd 7322 b63f
00000580: a6f9 c3e6 5254 d6bf 7dcc 014c d70b 7fbf
00000590: dfdb 6704 45f4 a23f 961c efd9 e3b0 c7bf
000005a0: 1ee8 cc7b 8da7 a9bf e82d 11b1 1e32 aabf
000005b0: 8e7e 0b13 1fd7 b0bf 0272 af62 085c d7bf
000005c0: c25d 674b 1429 b63f fb96 7cc1 f423 bdbf
000005d0: e95f b098 564d d3bf eab6 90bc b467 bbbf
000005e0: 4023 95ad 6ac7 ad3f 6a7c 530b 90f4 c0bf
000005f0: c1f0 1429 c25e bcbf b541 102b 1578 7fbf
00000600: 49bd fead 5daf c4bf fd62 9c31 70ab a1bf
00000610: 0059 5bcf 9189 a23f 00b3 24da a69a 96bf
00000620: bf27 3cf5 d328 833f 9f0e 974e 6b78 b6bf
00000630: 0000 0080 9f83 963f 7e01 b8b1 d72e bbbf
00000640: 3aa6 1118 8d3c b23f 846a 4064 0b7e af3f
00000650: b75b a520 ae11 ccbf bb73 fe83 1555 afbf
00000660: aacc 7f45 9d0f bfbf cfb0 82b9 979b c0bf
00000670: fe9f e1f8 6290 b23f 804f 333a c750 b33f
00000680: 4249 52fb 898c b1bf 9bfd db78 9646 c73f
00000690: a84a c666 2969 a9bf dba5 d59d bdfd c1bf
000006a0: 0000 00c0 9ccc a33f 0000 00c0 eb89 a3bf
000006b0: cdbf 8e7f 44ca a8bf 0000 0060 c9c2 b33f
000006c0: 0000 0080 ffce a5bf 4a13 c987 5241 b9bf
000006d0: bfae c40f 9ce0 b8bf 3daf 3c59 ffe0 aabf
000006e0: 0000 0020 5dff b93f 8023 550a e5a2 993f
000006f0: bcc0 d12f 2b46 b5bf 0000 0080 cb6d 943f
00000700: 0000 0020 5e90 bc3f 6074 2d12 98d4 97bf
00000710: dd38 14c1 e06f b8bf 7d33 a60a b26b babf
00000720: 35d8 2657 24d2 a23f 68d5 79dd d484 b3bf
00000730: eabd 5b26 a3b9 a0bf 621e 7401 e473 9f3f
00000740: 0000 0060 0c5b b03f 85ab 9456 abbd 993f
00000750: 0000 00c0 4b36 a93f 0000 0080 b931 913f
00000760: 5494 2501 520e c8bf 0000 0000 2e59 9abf
00000770: 0000 0080 84c9 983f 0000 00e0 cd42 b8bf
00000780: 0000 00c0 7de9 ab3f 1ce7 f82a 8f6a a0bf
00000790: 0901 4088 8f3b aebf 7f71 a72f e60f b23f
000007a0: 0000 00a0 fcd5 acbf 0000 0080 6cbf b9bf
000007b0: 1560 4b61 a2c1 b2bf 6689 f6ed b87c 95bf
000007c0: e59e 3446 33c2 c0bf 0000 0000 40be 64bf
000007d0: 14b6 895c 226c a8bf 984c df42 1abb 9e3f
000007e0: 0000 0020 47b7 b63f 0000 00c0 2b37 ae3f
000007f0: 2fc7 3081 6d55 bcbf 751e 79ed 9b81 adbf

bias f8 [120]
0.22320672111004458 -0.10413661941786595 0.1157269642121097 0.04948717354452382 -0.07745483623767752 0.13577085837934882 -0.25971304118133276 -0.09771885719888074
-0.12653825749875094 0.005182310774686317 -0.028738013399844303 0.18695434858317 0.5213744446506926 -0.02267808318103917 -0.7589845890246819 -0.1284299923066704
0.24979898679465387 -0.15207243498862674 -0.07274735746540809 0.12053904670980294 -7.966371000850013e-05 -0.009324483922787197 0.03085437732834271 -0.11643129685965412
-0.09776243567466736 -0.12539492208879582 -0.07823371179682813 -0.07475594399371123 0.04651222387008701 0.07379429213331654 0.05294273934735551 -0.08754198346693082
0.25943598970442794 0.01080487344801893 0.033273057151623084 0.25510358943561046 -0.022599955552406223 0.6712942406204456 -0.050425271014321246 -0.01591414213180542
-0.09579948372542259 -0.062184168309067776 0.0367602685840366 0.05253794962941537 0.1396026616180842 -0.09859342128038406 0.031219811541653944 -0.279877219754202
-0.10705803327723597 -0.14909166983535282 -0.126967912400071 -0.11530817521141012 0.2131243272734557 -0.15290567029289848 -0.4960336880139164 -0.06789493426523897
-0.02243362570390134 0.07478773157781221 0.03417158136142665 -0.060775276356124744 0.42559097538180907 -0.05909058367597696 -0.03302324716240068 -0.04690047620674997
-0.12211373157371085 -0.1492383158426665 0.04708231089619597 -0.01909116229043729 0.02231856890352234 -0.07921328534872124 -0.03190926519327429 -0.12480172545978328
0.04716891207674499 0.006379150671225784 0.04288570274561409 0.11314138877127279 -0.1886752575059017 -0.13033349755603976 -0.21598518824451085 -0.5592893086853565
0.08341804238457341 -0.06764709449693074 0.2597639276319821 0.04523370137487548 0.12633116025626007 -0.09048689708192635 -0.5327955909555298 0.16434722571548227
0.08520226631414426 0.09330298751592636 -0.6088632985337541 -0.16469482379205802 0.06662308068456892 0.08630930622353368 -0.030512609248422234 -0.05875710879395522
-0.154541450883702 -0.887915683266486 0.08589454046164566 -0.11217226598763073 -0.3346623304265297 -0.18680165822483222 0.026116283944716132 -0.019282327134081678
-0.10095453262329102 -0.08416182605678536 -0.1356677028153377 0.07192253636668432 -0.13367279042258604 -0.10260959240664258 -0.030148692429065704 -0.28370971249640026
-0.10443646918721378 0.004643756859609877 -0.07059778049600546 -0.08778202533721924 0.6835130643332091 0.04892326159344387 0.017171854729565512 -0.13384290691228937
00000000: d81f b5af 0992 cc3f 443a b78e b2a8 babf
00000010: 806e 8e46 48a0 bd3f 11f2 e3ff 6156 a93f
00000020: f4cf 8e84 14d4 b3bf 7e9c 3e82 f060 c13f
00000030: 52fc 8d72 239f d0bf e026 df5f 1a04 b9bf
00000040: f531 d3d6 6732 c0bf 6743 b8f4 0b3a 753f
00000050: c83e d16e 7f6d 9dbf d23d 81be 1eee c73f
00000060: 1dd6 9775 19af e03f 48e5 6466 ec38 97bf
00000070: a5ed 800c 9a49 e8bf e42e 64dc 6470 c0bf
00000080: 55b1 6dc7 69f9 cf3f 3b1a 730b 1c77 c3bf
00000090: 8231 2f21 929f b2bf 7576 829f a5db be3f
000000a0: e04e dd1d 24e2 14bf 4deb 000c b718 83bf
000000b0: 3a34 4136 4a98 9f3f 9e3a 3e04 71ce bdbf
000000c0: 0000 0080 f506 b9bf 2a59 bad8 f00c c0bf
000000d0: 5fb0 9ce1 1f07 b4bf f974 a29e 3423 b3bf
000000e0: 1ec3 c540 73d0 a73f 9e14 58c7 2ee4 b23f
000000f0: 7276 1d8c 4f1b ab3f fc76 04c4 2669 b6bf
00000100: f6e5 cb68 999a d03f b6f5 c590 dd20 863f
00000110: deba 9b88 2a09 a13f 4df6 6d01 9e53 d03f
00000120: 9c5d f457 7124 97bf aea7 2e0f 3e7b e53f
00000130: 2e01 cc53 57d1 a9bf 0000 0000 cc4b 90bf
00000140: 310a 93a1 5086 b8bf bbcc 6e72 9ad6 afbf
00000150: 53a2 b8ee 3dd2 a23f 9e1a ea0e 41e6 aa3f
00000160: ecc7 0a01 80de c13f 0000 0020 6b3d b9bf
00000170: 7418 3c16 16f8 9f3f 4a57 6f24 82e9 d1bf
00000180: a126 b3bf 2768 bbbf 6041 0693 6f15 c3bf
00000190: 4c29 b30b 7c40 c0bf e893 7e29 d684 bdbf
000001a0: 168d cf6f a847 cb3f 6cf6 a3ba 6992 c3bf
000001b0: 7bfa ee14 04bf dfbf a9b7 3bfa 8f61 b1bf
000001c0: d074 ea22 d7f8 96bf 7ccb 44ed 4925 b33f
000001d0: b5c3 cc00 f07e a13f cab7 b5e0 ef1d afbf
000001e0: 0535 2fee e13c db3f 5e9d c7f8 1e41 aebf
000001f0: f0f5 234d 6ce8 a0bf 3f1b f3d6 5603 a8bf
00000200: 8f69 8073 d842 bfbf 0a5c edba 3d1a c3bf
00000210: 40dd 0933 2c1b a83f c360 b836 a28c 93bf
00000220: 7df8 22ce adda 963f dc41 fb65 5247 b4bf
00000230: 0e96 e344 6956 a0bf 2f8a 5581 01f3 bfbf
00000240: 8ed9 830d 8626 a83f b190 2538 0621 7a3f
00000250: af4b 8465 1df5 a53f 49bd 9884 d5f6 bc3f
00000260: 5aaf 46c6 8226 c8bf 51ca c99e c4ae c0bf
00000270: 2c1d f713 67a5 cbbf 34cb 39b1 b2e5 e1bf
00000280: 5126 f083 e25a b53f 20a3 88ea 5151 b1bf
00000290: 2c08 77e1 f89f d03f b00b 2a28 df28 a73f
000002a0: 7a18 e294 9e2b c03f bff2 ae37 262a b7bf
000002b0: 7e6c d356 a90c e1bf 2673 d173 5409 c53f
000002c0: de44 5dd3 d0cf b53f 0000 0060 b4e2 b73f
000002d0: 34fd 5de2 ce7b e3bf 90f1 0051 b814 c5bf
000002e0: 31f1 b2d0 350e b13f 050e 92df 5d18 b63f
000002f0: fbb3 598b b23e 9fbf 0ee8 5a69 6915 aebf
00000300: 8100 b6a6 03c8 c3bf 8b85 a726 ce69 ecbf
00000310: 360e 3042 2ffd b53f df61 ef55 52b7 bcbf
00000320: 54a5 188d 1b6b d5bf 4905 75e2 1de9 c7bf
00000330: 690f be25 3abe 9a3f 9003 ba11 bfbe 93bf
00000340: 0000 0000 28d8 b9bf f14b 7c22 a18b b5bf
00000350: b08f 5b2d 8f5d c1bf c74f 8aed 8369 b23f
00000360: e772 9da3 301c c1bf a075 a44b 9f44 babf
00000370: 0000 0080 4cdf 9ebf cbb1 2ec8 4c28 d2bf
00000380: 2436 ab33 59bc babf 3a4a 7bfd 5405 733f
00000390: 2489 6636 b212 b2bf 0000 0000 e278 b6bf
000003a0: 6565 36ca 56df e53f e46f 1d41 780c a93f
000003b0: e28c e6a9 7f95 913f 93b3 fead c321 c1bf
