Sphere/NeuralNetworks/models/net_l2_sqrtsqrt49.pt (torch_old, 71351 bytes, 7 tensors)

weight f8 [36, 6]
00000000: 8b0a 2221 464f d43f 9218 fa98 dac9 d6bf
00000010: 06a4 b2d6 e1b5 cabf b988 e3c3 da59 cebf
00000020: daec a3aa 9932 a23f effe 444c 7297 c63f
00000030: 3fdb 7e1d fa5f e13f 9c6e e38e 1aa9 bc3f
00000040: a54d cac0 a6b5 d33f ae3e 9ac6 a1fc d33f
00000050: 9249 c01f efa4 cebf 6c79 9e1c 9855 d73f
00000060: fe6c 6ddf 6b0f 24bf 974d d018 9445 d83f
00000070: 1686 b183 4418 c13f 556c 47ee 0709 b2bf
00000080: 2ba8 1c3f 3f53 aa3f 7bed 3cb6 9507 b2bf
00000090: 0000 0000 5467 9a3f 0000 0040 4084 d5bf
000000a0: 0000 0060 ccb3 cdbf 0000 0000 a838 d13f
000000b0: 0000 0000 9fb4 b73f 0000 00c0 4071 d0bf
000000c0: 8a0a bb0b 2a4c d53f c082 16d6 e90d d0bf
000000d0: 635e 34bd f533 c43f 2bf9 a1d0 74b4 e03f
000000e0: d3ce 4d52 5266 a43f fca4 2d76 d3a8 e0bf
000000f0: 6bd0 cb8f cc9e 583f a25c e70b b6d0 be3f
00000100: b5fa d766 8d4c d33f 76ff 066e 6b90 e13f
00000110: 6218 c0b8 9320 d73f 726c dc2f b836 df3f
00000120: 5df8 9e46 1636 cbbf 9c92 2955 26d3 513f
00000130: 192d ada3 d813 d13f 389d 694e dba9 d23f
00000140: dc5d 106e 576a da3f 4bfc db44 33a6 e03f
00000150: 1ba1 5b50 db26 cd3f 55f4 9b01 aa7b c1bf
00000160: 2537 a354 320a d0bf dd25 017d 141e ad3f
00000170: 89b5 fd0d 3dfd d4bf 0a84 b529 520a d3bf
00000180: 0000 0080 d909 d1bf 0000 00a0 d1bc d6bf
00000190: 0000 0000 2f2a ca3f 0000 00c0 fe0f d4bf
000001a0: 0000 00a0 7934 cfbf 0000 0000 808f 54bf
000001b0: 98e4 909a da7d b13f 3c91 e4ad c89e a33f
000001c0: 73b2 3f8b 856e c43f 14a1 4354 b233 d33f
000001d0: 79c1 ec4e 9e62 c1bf 883a 4479 13f5 e2bf
000001e0: 0000 0080 6194 b53f 0000 0000 fff8 a6bf
000001f0: 0000 0000 68dc 70bf 0000 0020 4466 d8bf
00000200: 0000 0040 7192 c3bf 0000 0000 6ee4 bf3f
00000210: 1517 ad42 6cfc df3f a814 6b36 ba83 abbf
00000220: 382e 9569 ca7c b13f e975 7e85 900c e4bf
00000230: 3e09 b036 61ca debf 7a66 829e c9fd d83f
00000240: 0000 00a0 7e82 d5bf 0000 0000 7c12 d13f
00000250: 0000 0020 5db5 d9bf 0000 0000 fb37 bdbf
00000260: 0000 0020 3c08 c8bf 0000 0080 0af3 cb3f
00000270: b53e af80 d3ea b53f 1af5 d25f 1cbf bdbf
00000280: f4bd 6f6c 9ab0 9a3f e860 6317 0e69 d93f
00000290: 7165 5fdc 421e c73f 430d 8552 7549 d6bf
000002a0: d155 986e 8e2b d83f 013b 9f2d 563e d7bf
000002b0: 5cf1 4844 ceb4 c43f ae4a 0327 cc0a d53f
000002c0: 4d39 029e 6bdf c13f 8944 c217 94d4 d13f
000002d0: 0000 0040 b9f1 cebf 0000 0000 b80c 9dbf
000002e0: 0000 0000 5ced a63f 0000 0000 1908 bebf
000002f0: 0000 0040 a404 d4bf 0000 0000 0028 003f
00000300: de53 a821 b4f0 99bf 0417 ae6d a0af d53f
00000310: 06f5 5fe9 1bf8 c2bf 9660 b3e3 b370 d93f
00000320: 04b1 b4be e379 da3f 0254 a830 efa8 d2bf
00000330: 103a 8bae f3f7 903f e9a7 20b6 fbb9 a0bf
00000340: 2a41 25fc 6aac c4bf 0ad4 3e3f 52b0 c4bf
00000350: d9e5 47d3 3b74 db3f 73e3 71b7 1caa e13f
00000360: 13cc de00 1f65 84bf 82fb 6a5b 2d78 b43f
00000370: cc45 a1ed a712 c3bf 9fd0 6e1b 1391 bebf
00000380: 8e1a 2d13 c41b cabf 000b 3937 5ccc d1bf
00000390: b339 f8ec e246 d0bf 11f3 39ff cb6d d43f
000003a0: 8195 2628 5d8c c73f 763e bb06 550f dc3f
000003b0: 63e8 3531 d82d d33f e875 4cc3 f02e cd3f
000003c0: be46 1d66 4d34 a73f 81ac 26f0 5fe1 bdbf
000003d0: 1321 fb55 2113 863f 9406 3121 1dbb c4bf
000003e0: ad48 80f9 a62d e3bf ebbc 31da 5933 efbf
000003f0: 2dbe 473a 973a 9b3f 135a 8f30 8312 d1bf
00000400: 56c5 a4ad 068e c93f a509 d2fe 1c1e d7bf
00000410: 5f05 ea66 af13 bdbf 72a3 fa6b 5c77 dc3f
00000420: ab01 54a6 d16f 9fbf 334d 7e65 f712 9ebf
00000430: c0ee 0168 3ab2 c33f cd9e 326c 3c54 e03f
00000440: e2de ba48 f724 c5bf 5b66 cc77 1f8e debf
00000450: adeb 8b89 cdaf 993f 3d79 8287 a742 b73f
00000460: 94e6 1988 723c ca3f fbbd 84b4 219f cd3f
00000470: 8156 4956 f982 96bf 9165 4144 f3a0 f4bf
00000480: e228 afcd a4d2 bb3f e8e1 f119 5693 de3f
00000490: c1b5 6901 027c d33f 18b5 a22c 8d16 b6bf
000004a0: a71a 0c64 0fc4 b23f fbc8 1a6a 84f0 e2bf
000004b0: 9a8d 836c 2079 ccbf ab5a 615d 07df 833f
000004c0: e785 9fbb 6181 c1bf 9fee 27f8 3f44 dfbf
000004d0: 3fa1 15c3 3c48 e7bf 04a4 512b d575 cd3f
000004e0: 1857 003d 0432 bdbf 16c8 1837 8d56 d5bf
000004f0: 2161 5439 ad48 d3bf 1ad7 c55b 8cab b23f
00000500: 1165 0d9c e5d3 b33f a251 064c 8ffc d7bf
00000510: 18a3 f3ca 82e4 9cbf 5233 8a9a 9f7b d93f
00000520: be9a 989b a54d be3f a27e ba7f c6b6 d13f
00000530: aa22 ae7a d494 d8bf 1a7a 38a1 bd57 e0bf
00000540: 4e52 34bc d4a1 b13f 218f 5e56 e115 a83f
00000550: 980a 25e8 6aaf ae3f d208 cf2a 3c1b d0bf
00000560: 5218 1d05 cd5f cdbf 8d83 6db5 1d01 d23f
00000570: 0000 0080 ced5 d23f 0000 00e0 a91a dabf
00000580: 0000 0040 0662 d5bf 0000 0000 48dc 80bf
00000590: 0000 0020 024a cabf 0000 0080 a87b d33f
000005a0: 2fe4 875f a282 bdbf 294b 4fab 9eba d13f
000005b0: 801f 10fd fa72 c93f 8c23 ec55 0410 c5bf
000005c0: 9a81 e7a4 7ad5 e5bf 968d cd15 5c1e e4bf
000005d0: 0c6a 68cf 7ee7 ce3f c36f b2b8 efac d73f
000005e0: bba7 c8c2 8e41 d43f 73ca 3845 33f0 b73f
000005f0: 3985 3ce1 5a90 c4bf 1edc 73f2 719d d13f
00000600: 51af 69c6 f98c df3f 369a 8602 19ea d43f
00000610: 27c3 f26e 5e2d debf 37ee 826b 10a3 cfbf
00000620: 4a22 30a0 4058 a1bf 75f2 4be6 c47f ea3f
00000630: f828 a8ca 698d c7bf c48a 144d 7b4e c0bf
00000640: 6b77 9021 e7af d53f a995 1b30 30fd d63f
00000650: e17b 8920 d10c d0bf 8061 1a94 490d edbf
00000660: 0000 0080 8708 c2bf 0000 00c0 b39d d1bf
00000670: 0000 0080 6b51 c13f 0000 00e0 7ba8 d9bf
00000680: 0000 0080 8e72 c33f 0000 0040 df31 d53f
00000690: cf79 1ffa a89c db3f de6d 566b 72ba d23f
000006a0: 9bab f6e0 fa45 db3f eedf eb70 1a41 893f
000006b0: 072b 5444 769a c6bf d9dd e433 ceb2 e13f
0.3173384975017732 -0.35607018412736935 -0.20867560370723498 -0.23711714329608016 0.03554229934703708 0.17649677967164432 0.5429659439167621 0.11195531834112632
0.3079621203152903 0.3122944297292446 -0.23940838861797126 0.3645992545588317 -0.00015304748350328934 0.37924673484050103 0.13355308943123195 -0.07045030181272811
0.0514163746396011 -0.07042823504609956 0.025784790515899658 -0.3361969590187073 -0.23204950988292694 0.26908302307128906 0.09259980916976929 -0.2569124102592468
0.3327736963803224 -0.25084920794510523 0.15783569086555635 0.5220283579690536 0.03984315161406262 -0.5206086452646157 0.0015027043984306109 0.12037217894190858
0.30154738467528414 0.5488793515178105 0.3613633445933201 0.48771481203011213 -0.21258810470857528 0.0010879396765172472 0.2668363188174268 0.29161722810245605
0.4127405714839065 0.5202881188305438 0.22774831222273736 -0.13658642843793936 -0.25062235131632554 0.05687011743482249 -0.3279564510947571 -0.29750494073056244
-0.2662261724472046 -0.35527458786964417 0.2044123411178589 -0.3134762644767761 -0.2437889128923416 -0.0012549161911010742 0.06832662843307202 0.0383208000442061
0.15962285327204348 0.30003030995296 -0.13582209447623564 -0.5924165123449976 0.0842953622341156 -0.04486843943595886 -0.004116445779800415 -0.3812418282032013
-0.15290656685829163 0.12457931041717529 0.49978167067853124 -0.0537393752506799 0.06831040456489113 -0.626533756952708 -0.4811022790965075 0.39048996428900973
-0.33608976006507874 0.2667531967163086 -0.40169456601142883 -0.11413544416427612 -0.18775130808353424 0.21835452318191528 0.08561441318237935 -0.11619736995176702
0.02606431280940842 0.39703705104831366 0.18061099777586834 -0.34823353823249564 0.37765847015665793 -0.3631797261740957 0.1617677529737972 0.3287840252861923
0.13963074889438545 0.2785997612018681 -0.24175181984901428 -0.028368830680847168 0.04477965831756592 -0.11731106042861938 -0.31278330087661743 3.081560134887695e-05
-0.02533227401189097 0.33884440146390227 -0.1481966866994428 0.3975038264884544 0.41368955253234696 -0.2915609336062631 0.01657086136656899 -0.03266893957363932
-0.1615117770366024 -0.16163089836268824 0.42896934159179306 0.5520156462581397 -0.009958498205241672 0.07995875818140344 -0.1490068350126833 -0.1194011632895262
-0.20397234855973462 -0.27809815781454006 -0.25432656423154326 0.3192014687008831 0.1839710660980636 0.43843579919209874 0.2996731262752574 0.22799500976627418
0.045320910182125015 -0.1167201958948443 0.010778675495558809 -0.16196025963477167 -0.599322783762792 -0.9750184308631139 0.026590693409103295 -0.2667549108713569
0.19964679220860643 -0.3612129677277614 -0.11358162176658969 0.4447852186663602 -0.03069999292074647 -0.029369226045287532 0.15387659147733324 0.5102827180134796
-0.16519061137454744 -0.47742449473444076 0.025084697265792922 0.09086081560460442 0.20496970792355695 0.23141881288891838 -0.021984001056202466 -1.2892944971302749
0.10868291875445693 0.4777426961295803 0.30444383752805143 -0.08628160800681817 0.07330414001999462 -0.5918600151401557 -0.2224464921811034 0.009702737366905486
-0.1367609182480429 -0.4885406421087541 -0.7275680361026743 0.2301584683912382 -0.11404444207468278 -0.3334076917700498 -0.30131083105654183 0.07293011894747928
0.07745204028960397 -0.37479002403531514 -0.028215449940861864 0.398170376699274 0.11837229775174316 0.2767807242725927 -0.38408386211862455 -0.5107105397071934
0.06887559504350202 0.04704193286241166 0.05993208011434098 -0.2516622942022312 -0.22948611020746285 0.2813181182628391 0.2942997217178345 -0.4078774154186249
-0.3341079354286194 -0.008232653141021729 -0.2053835541009903 0.3044224977493286 -0.11527457077308222 0.2770153687426267 0.19882142407027104 -0.1645512980979017
-0.682309457854035 -0.6287060190046982 0.24143967749917328 0.36993020092790746 0.31650132200104125 0.0935089153288489 -0.16065536496993518 0.27523468663224715
0.49297947288754523 0.3267881893793033 -0.4715190967063329 -0.2471638226469268 -0.03387643771572309 0.82809681873148 -0.1840030898604892 -0.12739506972964965
0.3388612582947334 0.3592033834268827 -0.25078228166051814 -0.9078719990384769 -0.14088529348373413 -0.2752503752708435 0.1352972388267517 -0.4009084403514862
0.151933491230011 0.3311689496040344 0.43143677164144106 0.29262981874646055 0.42614623993966355 0.012331205912673195 -0.17658880554548537 0.5530768407397161

bias f8 [36]
00000000: f942 8d11 c1b5 ce3f d2cd 86bd a5c6 adbf
00000010: c90a a7bc 17f0 c53f 0000 0060 e937 d8bf
00000020: 805b 11ef 09ef b83f f91c 74d3 6802 91bf
00000030: 8b70 8cbb edc7 ba3f 7af3 c7a4 6edf d53f
00000040: 0000 0080 b234 c4bf 221d 379c 4a0d d93f
00000050: 0000 0000 befe c4bf fb84 ec7b cd8d c13f
00000060: 0000 00a0 526c d8bf a2ba a93f 30fe be3f
00000070: 9eb2 2b05 f89a d23f 0000 0080 374a d2bf
00000080: 9b1f f5ed 5ca3 c13f 6b2a 9dd0 3032 d73f
00000090: 4274 0115 a118 d63f d60d bb03 d7f0 b63f
000000a0: 496d a67e 54c8 d03f bc82 513c 723a d43f
000000b0: 69df 359c 0ae1 d13f ab8d 86db e235 8cbf
000000c0: d128 3514 9f99 a0bf 8718 1a2c bd6a d23f
000000d0: c174 b6b5 d1a6 d53f bd7b c465 a6e8 a0bf
000000e0: 05b9 e4ab 7918 d03f 0000 00c0 80d4 d7bf
000000f0: 865c f1d7 625e ad3f 540e c0cf 43a9 97bf
00000100: c0f2 8ba8 b126 90bf ae59 b2f2 3f8f c43f
00000110: 0000 0000 178b c1bf 29a0 9554 81d1 bdbf
0.23992169720670356 -0.05815618456417905 0.17138954841182955 -0.3784125745296478 0.0973974426900508 -0.016610753923512942 0.10461316899130872 0.3417622193517712
-0.15785819292068481 0.391436245492928 -0.16402411460876465 0.13713997412654763 -0.38161149621009827 0.12106610826752243 0.29070854668570145 -0.28577983379364014
0.13779794329661574 0.36243839619115786 0.3452532487042995 0.0896124252422433 0.26222717636274645 0.3160672749564062 0.2793604398243504 -0.013774654697789787
-0.032422038285021444 0.2877648287470795 0.33830683465368955 -0.033024978564064146 0.25149385248632 -0.3723451495170593 0.05736073385258415 -0.023106631808344893
-0.01577260581233264 0.16062163687156555 -0.13705718517303467 -0.1164780456070963

weight f8 [72, 36]
00000000: 6bce 5def 1860 c13f 601e fd5e c479 ae3f
00000010: 804d c74b 5e53 b33f 0000 0000 f0a5 b2bf
00000020: c6ea 91fb c88d b7bf f605 7d14 cceb c1bf
00000030: dffe 5c04 82a2 acbf 3336 0a86 7982 a9bf
00000040: 0000 0080 75cb a03f 327e 5b1b f32c be3f
00000050: 0000 00c0 0bf0 be3f 9c66 b5c7 ddb8 c33f
00000060: 0000 0000 8a69 c3bf 4e83 332d 2b79 c1bf
00000070: 8a97 c908 6314 b93f 0000 0060 660b c13f
00000080: b592 72c1 7288 c13f 41d1 91cc 3a4b abbf
00000090: c389 34e5 9d9c c2bf ee13 9aa3 1a61 ab3f
000000a0: 59a9 1c73 a496 a63f 90cf 8b95 17c1 b83f
000000b0: a502 1812 8c5f ba3f 7c3c ce86 bf80 aabf
000000c0: 3380 72d3 e454 b33f 24c4 5fa8 4745 b13f
000000d0: 4353 3072 7b6f b4bf c2b1 5640 9735 be3f
000000e0: 1916 c716 b5b4 bebf 0000 0000 4559 bfbf
000000f0: 4864 f962 d14d a23f b4a1 9bf7 2de9 b43f
00000100: eda3 5b13 468c bc3f e35d 8081 035f c4bf
00000110: 0000 0000 9618 863f 7993 57ef 7e23 c1bf
00000120: 0000 0040 e8a3 b93f 0000 00c0 4ed7 acbf
00000130: 0000 00a0 b00e c33f 0000 0080 3d39 af3f
00000140: 0000 0080 5319 adbf 0000 0060 fda4 c3bf
00000150: 0000 0000 2107 bdbf 0000 00c0 a403 bebf
00000160: 0000 0060 4aa7 c4bf 0000 0080 b374 a4bf
00000170: 0000 00c0 82c3 a7bf 0000 00c0 3b00 ba3f
00000180: 0000 0000 ac0f 94bf 0000 0000 f16d 9abf
00000190: 0000 0000 d71f c1bf 0000 00c0 7f2a b83f
000001a0: 0000 0000 4b01 91bf 0000 0000 f6de a03f
000001b0: 0000 0000 938b 9d3f 0000 0000 e4c2 b03f
000001c0: 0000 0080 203c a23f 0000 0000 1622 b1bf
000001d0: 0000 0060 b4fe babf 0000 00c0 52f5 adbf
000001e0: 0000 0000 a08d 95bf 0000 0080 2dac a7bf
000001f0: 0000 00c0 3ba3 b8bf 0000 00c0 46b3 b4bf
00000200: 0000 0000 51f3 b4bf 0000 00a0 bf4f c43f
00000210: 0000 0000 009e 633f 0000 0000 ec26 793f
00000220: 0000 0000 60c2 873f 0000 0000 ca12 b5bf
00000230: 0000 0060 92f4 c33f 0000 0080 8682 a23f
00000240: 7d09 6091 f33e a7bf d9c6 5845 9fd6 c33f
00000250: 9536 f639 0211 a33f 0000 00a0 3e80 c33f
00000260: 7976 784e 3ee8 c93f 84c4 c1af 08f3 c5bf
00000270: 1844 4591 6339 a7bf 7eea 274f 852e b7bf
00000280: 0000 00c0 410b b53f 32ed 53a5 e568 b0bf
00000290: 0000 0000 118a 94bf 5e38 2a0c f334 96bf
000002a0: 0000 0000 5115 b53f f44d f368 8fd9 bf3f
000002b0: eaaf e77f 539d b1bf 0000 0040 b652 bb3f
000002c0: 1546 dd96 152b b73f eac8 e548 0f0b 833f
000002d0: 6273 ecd1 dcfb 993f 7445 8f69 f777 a9bf
000002e0: d10b 4175 e99e 813f 67d7 9723 fdb6 b33f
000002f0: 12f0 8b08 3f91 ad3f b059 cb02 2f01 b1bf
00000300: 4fd9 8ffb d74f cb3f 8db7 7f8a 75c3 b2bf
00000310: 9b54 db21 abbc c6bf 8cf2 73e0 5138 c63f
00000320: 7c81 57a7 11f4 be3f 0000 0040 af67 bb3f
00000330: 91ed 9b4c 5e0b b03f 5c42 0114 3066 a23f
00000340: 96b9 340c 91bd c5bf 80b4 e26d a431 a0bf
00000350: 0000 0060 8ec4 c43f c559 22eb 91bb c5bf
00000360: dc8b 4616 8088 b2bf ef4e d22e b68b b7bf
00000370: e08a 671f 96ba babf 0000 0000 d410 90bf
00000380: 7853 7942 7f67 bbbf d9f7 ac67 0dce d43f
00000390: f9ca a866 f626 ca3f e395 aa07 612a c5bf
000003a0: 0000 00a0 786e c43f d15f 1247 c897 c3bf
000003b0: 0000 00c0 fe23 a7bf 16e8 1d53 e27e a83f
000003c0: 0000 0040 eb00 c1bf c614 aab7 5f55 9f3f
000003d0: f23f 66c7 a253 b43f 0000 0020 dff6 c13f
000003e0: 76da 0b4a ca40 b0bf 2548 22f6 8e6a c83f
000003f0: 1be7 db51 99eb 87bf ce18 e189 d999 c63f
00000400: aefe 8d54 aa53 d4bf 8b60 b0df b461 c03f
00000410: 8582 3bb5 a216 bfbf 1781 7f6e 5826 c6bf
00000420: 4fbb 63dc 192d c3bf e0cd 414d 470a c13f
00000430: fff7 f90f e521 c43f 79e0 6704 3c96 bbbf
00000440: 4cdb 9bd6 8a19 c3bf 0000 0040 ad63 b63f
00000450: dcfe 8fbe 1441 d7bf cb6d d9ca ccc9 b83f
00000460: 47fe 3671 2666 de3f 033d 1b01 0dc8 d6bf
00000470: 0000 0000 f687 a0bf 7e77 07f7 5566 a0bf
00000480: c552 a04a b117 bbbf 42d7 417c 5253 c43f
00000490: e7c4 d46d 8594 b03f 0000 0000 2809 89bf
000004a0: 54f7 7b5b c914 ab3f 2ac0 9b0f 9e0e 90bf
000004b0: 24da 0937 2573 a83f ae5f e1a2 77a9 bcbf
000004c0: 0000 0080 c90e aabf 301f f483 2a34 b43f
000004d0: 0000 0080 7b15 adbf 0000 00c0 fcd1 afbf
000004e0: 0000 00a0 5e30 c53f 28e6 6a71 094c c1bf
000004f0: 8449 4c2c f5b0 ab3f 0000 0040 792c b73f
00000500: 6c9a 7811 9611 c1bf 85ee 74e8 347c 45bf
00000510: db01 6e0d 6f1a c2bf a7b7 f546 5894 c23f
00000520: 0000 00c0 0028 c4bf d205 24cc 8759 c2bf
00000530: cedb 3484 e2c8 8bbf bd55 88f5 1fe3 b9bf
00000540: f4f6 ee17 29b5 b7bf 0000 00a0 167d c43f
00000550: 0000 0040 b1c0 b83f 81c7 2e47 5e60 9e3f
00000560: 1687 5d0b f07e b2bf 0000 0040 5e80 b63f
00000570: 59ec 85c6 6365 c53f f0a1 d4ba ae72 51bf
00000580: dee2 6544 b0ab 543f 2d93 72d9 dcb8 a6bf
00000590: 0000 0000 2d07 b23f 317f fe80 8975 c1bf
000005a0: d9d0 cbfc 04cb a73f cb06 6d07 da68 633f
000005b0: 7884 705b b8d1 bc3f 0000 0080 070f aabf
000005c0: 35a6 28c1 983b b5bf 5eeb 25d7 cb56 cd3f
000005d0: 346a 738f 70c8 7e3f e022 cbeb 40b3 a03f
000005e0: 0000 0040 6ffa b83f 3b67 ac50 458e c83f
000005f0: 0000 00c0 0c9f adbf 70e9 bde8 77bd c93f
00000600: 0000 00c0 094e b3bf 16bd b4d1 8254 c03f
00000610: f896 4b1a 0f7a b0bf 0000 0040 af13 bb3f
00000620: f6a4 8140 1e68 c63f b277 fd9e 3dc8 b63f
00000630: 4292 7234 14ca b83f cd8d 34c1 08c1 9d3f
00000640: f84e 5f6e bbb4 c3bf 45ef d3a8 f4a5 acbf
00000650: 62b2 20ed 1bde bbbf 6961 9044 2bd5 a93f
00000660: b1e6 2b6b 049d 88bf 5875 3318 f4d9 b5bf
00000670: 3143 94af c583 c3bf 2117 7538 f255 99bf
00000680: c8c5 7592 4650 a53f 0000 0020 8455 c13f
00000690: b6b5 b7fe 7ecb c3bf f1ec 85e4 b7c1 823f
000006a0: 28e6 2209 7cb2 95bf 4939 16fd 16ae c5bf
000006b0: 0000 0040 7ceb bf3f fbd8 ab80 3b33 b3bf
000006c0: 9aae d188 4654 ba3f ca55 1035 03e7 b43f
000006d0: 7dd5 bdab 5a93 c13f 0000 0040 1d6b b33f
000006e0: ec6e 1907 7892 bebf 8fc1 28c8 d313 a2bf
000006f0: a483 9c24 b583 c5bf fd6d 0edd 76a3 a4bf
00000700: 0000 00c0 5c84 b43f a09a 9f74 d964 c13f
00000710: 0000 0000 948f 733f a883 84a2 4527 b1bf
00000720: 0000 0040 bd87 b63f 4094 df70 1d7f b3bf
00000730: 62c7 95f5 9842 b5bf 0000 00a0 1b94 c43f
00000740: ef25 6de0 ef7a 8bbf 33f9 3903 7fa8 b5bf
00000750: dd55 d868 f3f1 c7bf a9f1 38b1 0eb7 c5bf
00000760: ab22 b90c 1efb c5bf cae3 04d3 c48c bdbf
00000770: f58b 5029 67a9 aa3f 9bbc 3f6a 6966 c33f
00000780: 8597 871a e126 bfbf 0efa d876 aa9a 8e3f
00000790: 8930 3f10 04d3 77bf f8ab 6a67 1727 c03f
000007a0: 3dea 0453 449f a63f 0000 0000 5f1f c4bf
000007b0: 0b62 3140 daac b23f f097 77f0 b875 c4bf
000007c0: 4239 da1c fe9e a3bf 25ec ead2 2160 963f
000007d0: 0000 0000 5e62 babf 7623 34bf 44c1 babf
000007e0: 0000 0000 01bd b3bf 0000 0000 f8de 91bf
000007f0: 0000 0080 7f68 aebf 0000 0000 9810 a2bf
0.1357451599866296 0.05952275905161453 0.07549084997235944 -0.0728445053100586 -0.09200721875996995 -0.14000845909508514 -0.055927336723923686 -0.04982356797436829
0.032802268862724304 0.11787337701707015 0.12085030972957611 0.15407917262455306 -0.151658296585083 -0.13651027400103505 0.09796732868707472 0.13316039741039276
0.13697657056504445 -0.053308331939577965 -0.14540456477796057 0.05347522017567728 0.04411806016135484 0.09669635201481541 0.10302043382399491 -0.05176352043701457
0.07551412737166245 0.06746337757773851 -0.0798260835438898 0.11800523110168284 -0.11994487577529646 -0.122455894947052 0.03574995358639704 0.08168303771129254
0.1115154073010129 -0.15914958785354746 0.010789081454277039 -0.133895747057206 0.10015727579593658 -0.05633016675710678 0.1488858014345169 0.06098358333110809
-0.05683384835720062 -0.15347258746623993 -0.11339002847671509 -0.11724309623241425 -0.16135530173778534 -0.03995285928249359 -0.04641350358724594 0.10156606137752533
-0.019591033458709717 -0.025810018181800842 -0.13378417491912842 0.09439848363399506 -0.016606494784355164 0.03295105695724487 0.02885274589061737 0.06547379493713379
0.0356149822473526 -0.06692636013031006 -0.10544898360967636 -0.05851229280233383 -0.02104806900024414 -0.04623548686504364 -0.09624074399471283 -0.08086054027080536
-0.0818377137184143 0.15868373215198517 0.0023946762084960938 0.0061406344175338745 0.01160120964050293 -0.08231794834136963 0.155901238322258 0.036152079701423645
-0.045402156349171975 0.15498724828790136 0.037239141059314175 0.15235121548175812 0.20240000564165309 -0.17147930700187797 -0.04535971782991782 -0.09055360014455435
0.08220301568508148 -0.06410060201954051 -0.020057931542396545 -0.021686360948074294 0.0823565125465393 0.12441345512643648 -0.06880685684853885 0.10673083364963531
0.09050116475307164 0.009298438465269194 0.02537484198829832 -0.04974339641160955 0.008603881731806514 0.07701093787167466 0.05774876574830058 -0.06642431085797429
0.2133741358117711 -0.07329496985741298 -0.1776327052417955 0.17359374484648915 0.12091169677251473 0.10705085098743439 0.06267346735324099 0.03593588108254117
-0.16984761329645143 -0.031628740705266445 0.1622484177350998 -0.16978668194924587 -0.07239532989346692 -0.09197558062652055 -0.1044095827742626 -0.015689194202423096
-0.10704799054049186 0.325076438184508 0.20431404125846322 -0.16535580515225864 0.15962131321430206 -0.15306952925015918 -0.045196495950222015 0.04784304871186877
-0.13284054398536682 0.030599113068565463 0.07940118187093484 0.14034642279148102 -0.06348861987849283 0.19075190561540115 -0.011679837999952583 0.17657012207400274
-0.31760652787486776 0.12798176691353932 -0.121439141508299 -0.17304520984090097 -0.14981387387475784 0.13312617561642437 0.15728438644504192 -0.10776114566385954
-0.14921699027010005 0.08745844662189484 -0.36334723100297395 0.09682922317863711 0.47498475128302114 -0.35596013172194335 -0.03228729963302612 -0.03203076019757044
-0.10583026954584358 0.1587927920078816 0.0647662537710577 -0.01222449541091919 0.05289296380759248 -0.015680761053715887 0.04775348946434502 -0.11196086622783127
-0.05089406669139862 0.07892099114917239 -0.05680452287197113 -0.06214895099401474 0.16553862392902374 -0.13513296163527966 0.054084455163450534 0.09052236378192902
-0.13334918835717546 -0.0006556757297526283 -0.1414316955160889 0.1451521250232279 -0.15747079253196716 -0.14335725276764194 -0.013566751155492354 -0.10112190002867912
-0.09260804018319019 0.1600673943758011 0.09669025242328644 0.02966449079003253 -0.0722494151828211 0.08789624273777008 0.16715666955483036 -0.0010649401040813099
0.0012616368636299484 -0.044379140418902764 0.07042199373245239 -0.1363994483808653 0.0464707907284791 0.002369333112626081 0.11257507545862377 -0.05089591443538666
-0.08294062343397786 0.22921131139068057 0.00751537293327913 0.032617596419702855 0.09757132828235626 0.19184175910123166 -0.05785407871007919 0.20109461654994787
-0.07540951669216156 0.12757907142211228 -0.06436247245764182 0.10576911270618439 0.17505243444183066 0.0889929307136004 0.09683347969491599 0.029056679527583108
-0.1539530075957527 -0.055953641518469634 -0.10885786570788406 0.05045447551691746 -0.01201823665677479 -0.08535695639462426 -0.15245886872482964 -0.02474192113483931
0.041628079775260896 0.1354222446680069 -0.15464770734199157 0.009158550893280966 -0.02118867688907336 -0.1693752990508506 0.12468697130680084 -0.0750004948748461
0.10284844246205652 0.08164997144225264 0.13730939279382062 0.07585318386554718 -0.119422437413444 -0.03530752008771564 -0.16808189666428774 -0.04030963371698346
0.08014468848705292 0.13589018053535984 0.004775598645210266 -0.06700549333301231 0.08800871670246124 -0.07615837102601208 -0.08304744716386162 0.16076989471912384
-0.013418077503632523 -0.08460229710360494 -0.18707125300777153 -0.16964896825255707 -0.17172599431275634 -0.11542921211083904 0.05207369212464378 0.15156285942018574
-0.12168700120636629 0.014943439247074 -0.005816474793345469 0.12619297551768205 0.044183859953097905 -0.15720736980438232 0.07295002047738579 -0.15984260312615062
-0.03832239248468962 0.021851089952843367 -0.10306346416473389 -0.10451154392297987 -0.07710272073745728 -0.017452120780944824 -0.05939100682735443 -0.03528285026550293

bias f8 [72]
00000000: dafb 023d efd3 aa3f 0000 0060 7d01 b3bf
00000010: fc15 542a d7c0 b93f dc9e 2b06 5755 be3f
00000020: 14f9 9264 4652 c0bf 4d0b adfb 2ee3 c03f
00000030: 3650 3aa2 0a25 b23f 0000 00c0 6944 b6bf
00000040: 0000 00c0 d25a bbbf 393e 683b d700 acbf
00000050: 4336 72e6 13f6 b4bf 0000 00e0 cd8f c3bf
00000060: 0000 0000 e089 b2bf e4f7 d42d 8500 66bf
00000070: e3d2 aee1 64fa a1bf 5424 3ed3 9d77 c33f
00000080: 0829 931d 8982 cb3f dfcf db35 e453 be3f
00000090: 5c2a 4584 ae03 c23f ecf3 36b7 9414 973f
000000a0: 3c8e 160c 1f3c b53f 82bd 7663 e4b9 b63f
000000b0: 5aea ad66 8b72 a83f c564 c5d5 7b15 c33f
000000c0: 0000 00c0 3eaf acbf 0000 0080 6a38 c5bf
000000d0: 0000 0000 141d 733f 3419 953b b11b a33f
000000e0: d0c3 26fe 25e0 a9bf 9eb3 c2ad 24cf babf
000000f0: 37ed 03ac d2f1 aa3f ca22 06b5 13d4 94bf
00000100: 7b80 b687 c502 c23f 7008 8b4d b63b b63f
00000110: 1573 35ca 61c7 c5bf 44b5 f095 72ca c53f
00000120: 718c 5480 4e33 a53f 0000 0040 72f4 c0bf
00000130: a6c4 c0fe 1115 c23f 6e75 b361 91ad 6a3f
00000140: 211b 8584 d609 8bbf 13ea c320 c57b b43f
00000150: 0000 0000 cfa8 b7bf 86cb c2c1 93a5 be3f
00000160: bc2a ffef 0eff 833f 1171 f26e 9868 b13f
00000170: 2a55 2c2e 1f19 86bf dd53 65f3 1f14 8abf
00000180: 4b10 41e2 74a3 c43f 91f0 cecc c42d 693f
00000190: df77 8b52 61e0 c23f 1a0a 97cd 7c8b ce3f
000001a0: 923c 74eb 1173 bb3f 8563 b80b 8c3a c7bf
000001b0: 0000 0060 3afb b8bf b518 d0b6 c15a a43f
000001c0: 4e38 50e5 1fa5 b13f 4dbb f039 b0b4 913f
000001d0: 6ac5 ccd5 8f0e ab3f 0008 7ba1 0707 c03f
000001e0: 2006 c31c e3ae c13f f6dc bc8a ac56 7b3f
000001f0: 9e37 e9b2 5185 b1bf 796d bf8f 55d4 8bbf
00000200: 3835 81d5 3c3f ab3f 4363 5e30 78c0 b93f
00000210: c2e0 d251 ff22 ac3f 57fc 1616 ae19 803f
00000220: b263 6121 62b0 acbf 1b13 0859 cab3 b2bf
00000230: 4265 c91b db3e 94bf 0aa6 4c6d 42a9 b83f
0.052398182103835914 -0.07424148172140121 0.1005987623539894 0.11848968411106447 -0.12751083288998954 0.1319330910574429 0.07087770901336019 -0.086981400847435
-0.10685460269451141 -0.054693914415221596 -0.08187984825254895 -0.15282605588436127 -0.07241630554199219 -0.002685794940275864 -0.03511348013799933 0.15208790602290156
0.21492113060077878 0.11846758189113825 0.140737356743858 0.02253944748166596 0.08294862790221996 0.08877398899379865 0.0477489054528248 0.14909313142815087
-0.05602451413869858 -0.16578418016433716 0.0046664029359817505 0.037320650599712485 -0.05053824164804832 -0.10472325555993087 0.05262621259495364 -0.02034025947935695
0.14070958258253427 0.08684863465444592 -0.1701471555087656 0.17024071046163602 0.041407063641849436 -0.13245990872383118 0.14126801432715758 0.003256591747784191
-0.013202358168781072 0.08001358079847191 -0.0924195647239685 0.11971400719157374 0.009763828944320145 0.06800224980037607 -0.01079010352763506 -0.012733697524405169
0.1612382988697639 0.0030735820532453236 0.14747253923900325 0.23863182104658237 0.10722457884206651 -0.18147421428946245 -0.09758343547582626 0.039754918638253235
0.06892585133047754 0.017290833984755328 0.05284547314512163 0.12521453270716165 0.13814963249574053 0.0066744556350422 -0.06844053857750373 -0.013588589143117545
0.053216839850032505 0.10059310131908909 0.054954508531808624 0.007861480759741619 -0.0560331979510872 -0.07305588410970325 -0.01977102620216909 0.09633269470636932

weight f8 [50, 72]
00000000: fe7a 3664 1d9c c63f 0000 0000 03e6 833f
00000010: 99ed 7e54 bb9d 9fbf 4897 5b00 7cc7 e5bf
00000020: c17a 5304 8e91 a43f d170 2133 ff50 b03f
00000030: 4a1d 9fe0 7040 c23f 0000 0020 c707 bc3f
00000040: 0000 00a0 1a3d bc3f 99e2 2d67 a136 b3bf
00000050: 7a99 eaf9 8415 9e3f 0000 0040 5e2b a0bf
00000060: 0000 0000 b385 87bf d2e8 bd4d d368 b13f
00000070: e7c5 ddc8 bb75 b4bf fc5b ed34 3d85 c73f
00000080: bd03 997d 7804 a43f bcf7 1174 5acb c83f
00000090: b3ec e6c5 f16a b23f 5de6 0ef0 bf0a d43f
000000a0: 8a23 65d8 3194 ce3f 252d 17f1 7969 7fbf
000000b0: 9da7 6292 e3b1 c93f 43d3 602c 49a5 b13f
000000c0: 0000 0080 dd13 90bf 0000 0000 5582 873f
000000d0: 0000 0000 0ec3 9ebf 1e7f 69ca a72a d2bf
000000e0: 2b4c f616 02f9 e9bf 16fe 33bf 7e9b bbbf
000000f0: 1749 3021 0d59 42bf 7922 0216 95b1 a03f
00000100: 652c 86d6 258b 73bf bccf 6d6b d71e e7bf
00000110: 882a bd11 ac44 babf 0acb 893a 2079 c43f
00000120: 377f 76d7 1afc 8dbf 0000 0000 c8de 61bf
00000130: 2ee1 a315 1876 c53f fafa a640 35c6 c73f
00000140: 789f 38f1 0e8d 97bf b818 4217 2222 8ebf
00000150: 0000 0060 fdb6 bb3f 83e1 5fa4 148f 663f
00000160: d939 306f 1300 cf3f 542b 4ead d31a c2bf
00000170: 816e 4d3b c987 cc3f ef09 c590 0f7c a1bf
00000180: 3406 7940 aa1d 90bf 3084 55ee 1518 9fbf
00000190: 946a 9484 c8ff c23f 9faf f0ec db7c cf3f
000001a0: 692e 9dbc b95a ac3f bd33 9ee4 8bb1 913f
000001b0: 0000 0000 6b3c 92bf 4848 0d93 8c7e c1bf
000001c0: d510 8581 9fc5 b63f b1d1 4ac2 6f2b 683f
000001d0: 9b32 d260 d305 8cbf d48b a7f4 cf80 b43f
000001e0: f6a6 bf65 0c53 c53f 547c ce8f 9849 bdbf
000001f0: b61a b827 fcf5 99bf 8571 557d 98ee af3f
00000200: 876a 5a13 6f7b cb3f 29ec c3b0 a39d b13f
00000210: 3363 692c 38bf a33f db2e 1d61 de48 a63f
00000220: 8ad0 3562 91bc e73f 733d b5e9 ffd6 a33f
00000230: 271d 6852 62f0 a43f 3fe7 f076 dd27 b23f
00000240: d257 c8c9 e247 c33f 0000 0060 6998 b0bf
00000250: 49b2 45ec 3398 a03f 17a4 16aa 73e3 e2bf
00000260: 24f8 954e 8301 b4bf 88ca 8948 f5f5 ba3f
00000270: 643c df2c 3dd6 afbf 0000 0040 d31f b4bf
00000280: 0000 0080 3fa5 9fbf 83b9 497c 11a5 4dbf
00000290: 7317 eea0 cf0a c03f 0000 00c0 254b b3bf
000002a0: 0000 0000 9ff4 85bf 8cf6 c673 991c 90bf
000002b0: 574b eba1 3b2c 803f 623a 78d9 3322 c43f
000002c0: 9179 5720 1f6f bf3f 8545 3932 cfd8 b63f
000002d0: ab2f 65d1 5ca4 a63f 5e3c 70cb 570a d33f
000002e0: c723 3e1d b80b cd3f d5fa 16a3 9c7e b03f
000002f0: 78f1 4818 06e1 c33f a2e1 46f1 149a ad3f
00000300: 0000 0080 a78e a6bf 0000 0040 317c ae3f
00000310: 0000 0080 cc37 91bf 1772 5e18 626a d7bf
00000320: 2d5e e4a7 3b2e e9bf 1908 a475 08bf babf
00000330: 3f57 b1c0 7744 ba3f 2aed ec9d 9f98 ba3f
00000340: ba9b 2b07 c193 a3bf 455e eac7 6992 dfbf
00000350: ebbe b5e0 9602 ac3f 8ee5 b1dc 4d77 b33f
00000360: 5721 5a8f a8c9 8a3f 0000 0080 d734 bcbf
00000370: ae7c d8a5 8e90 c43f 4609 cbf1 1c63 61bf
00000380: f026 1ff1 9aae a3bf 1210 3495 cd38 a4bf
00000390: 0000 0080 1575 a0bf 4cbe b737 c3e4 90bf
000003a0: ea72 2f2a e680 d13f 11a3 70f0 be31 a3bf
000003b0: 5193 d9a7 8662 cd3f 5b6d 2ca7 888f c0bf
000003c0: 56d2 bc23 eb74 a93f 2bbb b120 2015 b5bf
000003d0: c018 0c0f c1ab c73f 4477 0209 d66a d83f
000003e0: 3efc d0e7 426e a0bf bf03 4440 90f5 b8bf
000003f0: 0000 00a0 5fa1 ba3f 4c11 d592 31f0 8c3f
00000400: 054d ea9a 20fb 823f 7d8f 010e b1ce b8bf
00000410: 5ced 88fd 526c b73f 50fa c331 ee8d af3f
00000420: 7fc7 b880 dc8c b73f 6533 e0e3 0787 b73f
00000430: 3632 3cb9 0742 a8bf 9a43 c515 2039 b83f
00000440: 76ff ab8f 3599 d03f 32fc 8f83 eeca cb3f
00000450: 9f2d 1b85 9731 a33f 21aa ed1f abf3 c43f
00000460: a1f2 dd1c e0aa e73f f7b0 0863 5730 bc3f
00000470: a379 ce6d 3a27 80bf 8b91 f3a3 2fa5 c23f
00000480: 60d1 1439 ce2d 953f 0000 0000 00f8 54bf
00000490: ceb8 0363 e267 a53f a1ab b211 eb05 cfbf
000004a0: abd0 fa3c 6fb4 b4bf 9684 5237 8608 7fbf
000004b0: 8319 153b b9a4 b93f 0000 0000 1acc 7cbf
000004c0: 0000 0000 0609 89bf 104b 0b49 a6d3 7a3f
000004d0: dee1 2f88 0995 b7bf 0000 00a0 be4d b93f
000004e0: 0000 00e0 c262 b43f d539 b0e6 b211 a5bf
000004f0: b876 2df1 c343 9e3f dd4a 9f87 062b c93f
00000500: 9aab 268f a015 c63f a7a8 03d7 9c33 c73f
00000510: e854 ea87 b9a2 9a3f 029d 977f a3c2 cc3f
00000520: 1517 0960 ac77 723f bf1d da22 a5c6 8bbf
00000530: ac85 427c 0f0c c53f 2fc8 2c9e 9416 c83f
00000540: 0000 00e0 f6b8 b3bf 0000 0060 7821 b83f
00000550: 0000 0040 dc19 a33f 96a5 b614 0868 dbbf
00000560: dff3 9f23 dc78 ecbf da6c c5a9 26fc a1bf
00000570: 3137 7205 56c7 aebf 4168 c8cc e26c b03f
00000580: ea8a 9c55 6e89 9d3f e95b 6281 169c dabf
00000590: 58de 98f1 6503 bbbf de7a be40 98c6 bd3f
000005a0: 6c95 25b1 942d d13f 0000 00c0 62e5 b9bf
000005b0: 30a8 d401 905b c03f ff00 cac6 54a6 c43f
000005c0: c32a 4b30 d827 8fbf d8f8 6904 973a b23f
000005d0: 0000 0000 38e6 8bbf 0ccb 054f dd59 a73f
000005e0: dca7 f2c9 1290 d03f 3c76 a184 660e bbbf
000005f0: 3d32 1448 c619 c03f db18 5f26 e06f b13f
00000600: 3322 ecc1 0266 9abf abd5 6e12 f24c aebf
00000610: 4003 5189 7b80 81bf 284c 5170 06ef cf3f
00000620: 58b2 9d73 8b52 bb3f a125 0819 a54b b13f
00000630: 0000 0000 faa4 abbf 1e93 7e17 93c8 983f
00000640: 789c 7ba5 96d5 c43f ff10 9481 f490 ac3f
00000650: 16e7 7f95 6d4e b73f af2a 27a4 a363 c33f
00000660: 2e11 e962 22fd c03f f974 2299 46ea a3bf
00000670: 9b68 43cd c4b0 a7bf 20ef a8c3 bf8e b93f
00000680: e63f 7dd9 30c2 c03f 0db4 ab8e 8a32 c73f
00000690: 48bb 11b3 5590 833f 4498 10bb bad0 ab3f
000006a0: b1c0 c6c7 e81c e23f 77e3 9c72 7a61 a9bf
000006b0: f49a cdd5 62fd ac3f 760f 2a19 4265 b43f
000006c0: 02de 99a0 3b53 b53f 0000 00c0 0f5f bbbf
000006d0: db52 5799 d1d8 a53f 1c39 9577 a05a d13f
000006e0: ae0b 4761 4dc9 af3f 1a38 35d9 db77 c43f
000006f0: 0157 4932 3ac5 b0bf 0000 0020 80b8 bbbf
00000700: 0000 0080 6d3b 953f 4ead 9395 8083 a73f
00000710: 5857 71ca 598a a23f 0000 0000 c3e1 afbf
00000720: 0000 0080 65a0 a8bf 7b06 dcb4 6e3b 7fbf
00000730: f71d 697d 543a a3bf b255 b6ac 28c9 a5bf
00000740: 16ad f0c8 6cc8 c13f 12cd 36ee 08a5 b63f
00000750: 3f70 92ef 4841 b83f 9042 8475 5d9f bd3f
00000760: 2338 e69d b7d1 503f 1e4a d839 e290 91bf
00000770: 12e3 0d31 e6b1 bc3f a25e 8755 9b6b a13f
00000780: 0000 00e0 b117 b83f 0000 0080 a794 b1bf
00000790: 0000 0080 fac3 a1bf a9ae e0ec 42ff dfbf
000007a0: d6d8 53d8 75fe efbf f50d 1947 94d4 ab3f
000007b0: 58d8 e038 de03 acbf 2544 a1a3 c8a9 833f
000007c0: 1f97 9d25 90a5 c33f 4779 579b 92e1 d2bf
000007d0: 29e5 5603 bc12 98bf 8ba1 8300 27ac 923f
000007e0: 71a0 4bfd abf7 db3f 0000 0080 3bda aabf
000007f0: 7168 2acd af1e bd3f 68a3 2d1c 8d3e bd3f
0.17663924592212504 0.009716056287288666 -0.030875136406150003 -0.680601120661529 0.040172994640433675 0.06373591421419468 0.14259158103798547 0.1094936802983284
0.11030737310647964 -0.07505234498047243 0.029378965142905035 -0.03158087283372879 -0.011485479772090912 0.06800575874322881 -0.07992147115671565 0.18375363430342861
0.03909660847830974 0.19370585124482698 0.07194434243767737 0.31315611308273167 0.2388975435844965 -0.007668949446677763 0.2007412400028529 0.06892831166699147
-0.015700779855251312 0.011479057371616364 -0.03004094958305359 -0.28385348097616425 -0.8116465042570601 -0.10784141700786906 -0.000559932146986494 0.03260484594017483
-0.004771373562458246 -0.7225148294660282 -0.10261035378531791 0.15994646890938952 -0.01464100809135936 -0.00218142569065094 0.16766644531868152 0.18573632866715412
-0.02299903247163068 -0.01471354135015833 0.10826095193624496 0.0027537730375081794 0.24218981675262688 -0.14144369089293696 0.22289386172893802 -0.03414963381012003
-0.015738163170914102 -0.030365317031627537 0.1484308860170428 0.24599789685578075 0.0553796808950125 0.01727884848473925 -0.01780860126018524 -0.1366744726206568
0.08895298874000741 0.002950399665076563 -0.013682986633534447 0.08009052012452794 0.16659693687625293 -0.11440423499014801 -0.02535242073465823 0.062367215442210834
0.21470440335254556 0.06881163659629465 0.038568263455721306 0.04352469382737719 0.7417685430687169 0.038749692229084774 0.04089648490849589 0.07092079309304909
0.1506312833086541 -0.0648256167769432 0.03241121539290199 -0.5902651140251035 -0.07814808529471456 0.10531552334740912 -0.062181388595143244 -0.0786106139421463
-0.030903808772563934 -0.0009046874407212944 0.12532992704307908 -0.07536540925502777 -0.010720483958721161 -0.01573409814022013 0.007896867636565537 0.15729377859721
0.12278933086006406 0.08924574829258887 0.04422273689360109 0.297506283445676 0.22692014148586123 0.0644319437187549 0.15530468164241618 0.05781617589258593
-0.04405711591243744 0.059541262686252594 -0.016814418137073517 -0.36586811427858507 -0.7868936804906689 -0.10447743293846691 0.10260723547375238 0.10389134984591367
-0.03823664867905259 -0.4933113529491247 0.05470725529710115 0.07603918684062291 0.013079945444829972 -0.1101813018321991 0.16066153619701623 -0.0021224561045027094
-0.0384415072763441 -0.03949587293939784 -0.032143279910087585 -0.01649765994619505 0.2734923755613595 -0.03748890576418352 0.22956927486225223 -0.12938030398150144
0.049720142471788506 -0.08235359953117143 0.18492902025918134 0.38152075652930173 -0.03209122733868995 -0.0974970013521803 0.10402486473321915 0.014130008023706474
0.009268049934041853 -0.09690386383004852 0.09149664583030898 0.06162971837510567 0.09199312346097875 0.09190415681241644 -0.047378770219527785 0.09462166339404945
0.25935114889579525 0.21713048385569916 0.03748773097830881 0.16368617114069742 0.7396088184173842 0.11011263053723384 -0.007887321926145335 0.1456660795730723
0.020682546838729166 -0.0012798309326171875 0.04180819948838775 -0.24236811031491093 -0.0808782123447737 -0.007576488763477182 0.10016973202173145 -0.007030583918094635
-0.012224242091178894 0.00654950099188302 -0.09211787772063171 0.09884253889322281 0.0796319767832756 -0.041150656376078544 0.029555379481613214 0.19662553426913734
0.1725350092868581 0.181262593257377 0.026011370583167187 0.22468990068521327 0.004508660641084257 -0.013562479139422544 0.16443055693984598 0.18818910334954483
-0.07704108208417892 0.09426071494817734 0.03730667382478714 -0.42822458288954957 -0.8897534080311934 -0.03512688467409371 -0.06011456314545994 0.06416146754818987
0.0288445701363668 -0.4157768500821804 -0.10552060268752805 0.11631156521478256 0.26840703296178137 -0.10115639865398407 0.1277942665995524 0.1613260241174501
-0.015212716077617988 0.07120651109468967 -0.013622701168060303 0.045607486625973775 0.2587935421130376 -0.10568848360113575 0.1257865764568055 0.06811333596042195
-0.025779765211185256 -0.059180798292270374 -0.008545842292848271 0.24948196872955575 0.10672828266769707 0.06756049977425117 -0.053993046283721924 0.024202631291376446
0.1627682025930175 0.05579341966407191 0.09104046726124823 0.15147824778826677 0.13272504644022248 -0.03889675731009307 -0.04627051358848285 0.09983442808964726
0.13092623347847548 0.18122989622443733 0.009552640464077236 0.05432685407167573 0.566028967083204 -0.04957182549555388 0.05662068233396225 0.07967007746088747
0.08330128355907365 -0.10691927373409271 0.04266982075538347 0.27115642240541304 0.06208268940419913 0.15990779977659103 -0.06550945022294387 -0.10828400403261185
0.0207345113158226 0.04592515779389804 0.03621178241944162 -0.06226930022239685 -0.04809872806072235 -0.007625038573452532 -0.037554397877609995 -0.042550345500028355
0.13892898379831625 0.08845573249600516 0.09474616860319517 0.1157129680543767 0.0010265629894976667 -0.017154249935695025 0.11208952615369253 0.03402409953167519
0.09411155432462692 -0.06867453455924988 -0.03469832241535187 -0.49995492107948764 -0.9998120522639293 0.054356225661219705 -0.05471701092066955 0.009601180547322905
0.15349008404444306 -0.2950178639420255 -0.023508966163466347 0.01823483410490349 0.43699168907051616 -0.05244623124599457 0.11374949225356247 0.11423570573755415

bias f8 [50]
00000000: 8abd 86a3 de65 ba3f 53ca 4cff ed57 ac3f
00000010: e00e a2fd 2a80 90bf 079a 7104 7dff a23f
00000020: 0681 1080 43d1 b63f 3af9 047c 2aac 883f
00000030: 54ba 363d 89a2 a6bf 7361 8526 adf6 b93f
00000040: db59 e1cd 3ab8 96bf 664b 6bee 5a03 ad3f
00000050: 5a91 aa38 eb71 923f c819 90e8 c4cf 8fbf
00000060: 36f1 d248 7be0 acbf 9b48 e62e 5c1d af3f
00000070: d145 4293 ca29 86bf b8e8 9990 8b41 b43f
00000080: b58a fe0b 3c3c 96bf 699e bc32 58a2 8abf
00000090: da36 dd9c f466 a23f a395 6bbf 451d aebf
000000a0: 2476 0ea6 de55 9fbf 8859 f92f c3c6 9ebf
000000b0: 6d40 14d3 1aeb abbf b12a 0e09 8215 b4bf
000000c0: aa95 02e2 93f1 b73f 30b2 86ac 628d b7bf
000000d0: 018a deac 49aa b6bf 2db1 db42 082a a53f
000000e0: 3cce e6b9 6fbf 78bf 0cf2 a57d dcf6 a8bf
000000f0: ff4b 72e9 45bf 8b3f e425 f538 50bb 9f3f
00000100: e2eb 93a8 e5b6 95bf 95cb d615 64a5 853f
00000110: ac45 d49a 7e5d b53f 645e 4b8f 582f b8bf
00000120: d8aa 26e8 70e2 933f e845 a70b ae94 903f
00000130: 3108 f9c5 822d 9cbf 17f8 648a 16e9 793f
00000140: 209e e07a e399 b1bf 202e 1f9e 75f1 b1bf
00000150: c15c f14d 10bf 99bf 7391 3908 bddf b1bf
00000160: 0b34 d7ce ff96 b03f 7597 5690 8fde b33f
00000170: 79e5 9306 3b45 a53f 8ec0 87da 3653 86bf
00000180: aa05 1311 2fc5 50bf 5dac 9234 9cdb aebf
0.10311690800039322 0.0553583501954519 -0.0161139218621561 0.03710547141308856 0.08913061024259514 0.012047130498669224 -0.04420880195845159 0.1014202326817946
-0.022187155548033615 0.05666622314824714 0.018012690862307813 -0.015533006999260204 -0.05640015853848228 0.060770874714891586 -0.010821898097023304 0.07912514000227844
-0.02171415160376951 -0.01300496010624315 0.0359417382702369 -0.058817081085901245 -0.030601004491123032 -0.030055093577482178 -0.054528082148068126 -0.07845318528249369
0.09352993266892065 -0.09200112068237654 -0.08853588552896242 0.04133630577220724 -0.00604194300688082 -0.048758402192991296 0.01354841822311492 0.030987981296936598
-0.02120550958077761 0.010569364468073586 0.08345786361703372 -0.09447244165800722 0.019418491525054232 0.016192168675677993 -0.027517360051440846 0.006325805711012953
-0.06875440359055363 -0.07009062872310112 -0.025142912633182805 -0.06982022715380314 0.06480406570263157 0.0776147582424452 0.04154381232542454 -0.010900906127943946
-0.0010235747943599751 -0.06026924268493226

two_l_plus_1 f8 [50]
00000000: 83c8 c96d 305f b43f c4ac aea4 c88e ce3f
00000010: a43a 3c89 fc76 d93f 738f 1060 4ad3 e13f
00000020: 9301 837b 16eb e63f b473 f596 e202 ec3f
00000030: eaf2 3359 578d f03f fb2b ed66 3d19 f33f
00000040: 0b65 a674 23a5 f53f 1b9e 5f82 0931 f83f
00000050: 2cd7 1890 efbc fa3f 3c10 d29d d548 fd3f
00000060: 4c49 8bab bbd4 ff3f 2e41 a2dc 5030 0140
00000070: b7dd 7ee3 4376 0240 3f7a 5bea 36bc 0340
00000080: c716 38f1 2902 0540 4fb3 14f8 1c48 0640
00000090: d74f f1fe 0f8e 0740 5fec cd05 03d4 0840
000000a0: e888 aa0c f619 0a40 7025 8713 e95f 0b40
000000b0: f8c1 631a dca5 0c40 805e 4021 cfeb 0d40
000000c0: 08fb 1c28 c231 0f40 c8cb 7c97 da3b 1040
000000d0: 0c1a eb1a d4de 1040 5068 599e cd81 1140
000000e0: 95b6 c721 c724 1240 d904 36a5 c0c7 1240
000000f0: 1d53 a428 ba6a 1340 61a1 12ac b30d 1440
00000100: a5ef 802f adb0 1440 e93d efb2 a653 1540
00000110: 2d8c 5d36 a0f6 1540 71da cbb9 9999 1640
00000120: b528 3a3d 933c 1740 f976 a8c0 8cdf 1740
00000130: 3dc5 1644 8682 1840 8213 85c7 7f25 1940
00000140: c661 f34a 79c8 1940 0ab0 61ce 726b 1a40
00000150: 4efe cf51 6c0e 1b40 924c 3ed5 65b1 1b40
00000160: d69a ac58 5f54 1c40 1ae9 1adc 58f7 1c40
00000170: 5e37 895f 529a 1d40 a285 f7e2 4b3d 1e40
00000180: e6d3 6566 45e0 1e40 2a22 d4e9 3e83 1f40
0.07957747154594767 0.238732414637843 0.3978873577297384 0.5570423008216338 0.716197243913529 0.8753521870054244 1.0345071300973196 1.1936620731892151
1.3528170162811104 1.5119719593730057 1.6711269024649011 1.8302818455567964 1.9894367886486917 2.148591731740587 2.3077466748324826 2.466901617924378
2.626056561016273 2.7852115041081684 2.9443664472000637 3.103521390291959 3.2626763333838547 3.42183127647575 3.580986219567645 3.7401411626595404
3.8992961057514357 4.058451048843331 4.217605991935226 4.3767609350271215 4.535915878119018 4.695070821210913 4.854225764302808 5.013380707394703
5.172535650486599 5.331690593578494 5.490845536670389 5.6500004797622845 5.80915542285418 5.968310365946075 6.12746530903797 6.286620252129866
6.445775195221762 6.604930138313657 6.764085081405552 6.9232400244974475 7.082394967589343 7.241549910681238 7.400704853773133 7.5598597968650285
7.719014739956924 7.878169683048819
