Sphere/NeuralNetworks/models/net_l229.pt (torch_old, 58587 bytes, 6 tensors)

weight f8 [36, 6]
0	0x3fde2835f5321cc7	0.47120427079103105
1	0xbfe53b62e6d4832b	-0.6634993084336193
2	0x3fdfdfa8ddb3c817	0.4980261006413697
3	0x3fa6ffbff894f21e	0.04491996678777731
4	0xbf7d5a67a96d5c12	-0.007166294983867354
5	0xbfc1b8eb80afb92d	-0.1384558084823281
6	0x3febcb537b4096f7	0.8685700804969362
7	0xbfe64078b3abede5	-0.6953700551234162
8	0x3fd3663c60557406	0.30311498077009025
9	0xbf81cd541fa89f90	-0.008692414489885697
10	0x3fa2e58c78954268	0.03690756771050446
11	0xbfc1d1462785cf03	-0.13919903688258026
12	0x3fc2a971698216c1	0.1457959904839097
13	0xbfdc1ad6ffd3d59a	-0.43913817389633325
14	0x3f946770024fad68	0.019925832882944944
15	0x3fc52c71f41ee95e	0.1654188577648012
16	0x3fd95196a2064429	0.3956047613401688
17	0xbfd0a48e0eb2d2ec	-0.2600436347523061
18	0xbfea7e708c890d1c	-0.8279345269042184
19	0xbfdb02801d00241e	-0.4220276148994929
20	0x3fb161fa94a79838	0.06790128831161801
21	0x3fa1f348a3330e6c	0.035059232637220855
22	0x3fca93c8e9b3cb55	0.20763503466840896
23	0xbf93eb58b7ac7977	-0.019452463350825035
24	0xbfb23ec79a8d72ec	-0.07127044223075146
25	0x3ff0cc822016cb9c	1.0499287847021384
26	0xbfaa06743a188600	-0.05083049019982511
27	0xbfb89c999dd12ac8	-0.09613952734904807
28	0x3fd041ba8bc11356	0.25401176116820545
29	0x3f417d1a4675c51b	0.0005337122246783817
30	0x3fe08fccb7d8cee3	0.5175536719093227
31	0xbfd21f6a52b6ca73	-0.283167439246575
32	0xbf743e14f7c84eca	-0.004942018419132397
33	0x3fc3ddf77bd11c2d	0.15521138711685137
34	0xbfcc1985d0606a90	-0.21952889132156317
35	0x3fd016ec7cb6acdf	0.251399156370736
36	0xbfef231c3b0d7e81	-0.9730359223721764
37	0x3fd1ada689487f3b	0.2762237873703161
38	0xbfb1e80e19ae5fa3	-0.0699471295068848
39	0x3fbb4b3ccc63f4d6	0.10661678304673514
40	0xbfd223babfe0cb0e	-0.2834307550248675
41	0x3fd20d79bbcf7151	0.2820724805913147
42	0xbfe3d5e0b92f50c8	-0.6198581330195561
43	0xbfbaa3b5ef1f1d8d	-0.104060526732715
44	0x3fe3a2e34b421449	0.613633772839088
45	0x3fd1840beb729057	0.27368448250695593
46	0x3fb805e0f3a8c809	0.09383970211709437
47	0xbfd1ef5bb68838ec	-0.28023426843073085
48	0xbfd44592b5039977	-0.31674640347627964
49	0x3fc8fa8cd73b65d8	0.1951461840570079
50	0xbfb5467d695e4389	-0.08310684034792194
51	0xbfc4bc911b8d96d3	-0.1620046028648888
52	0x3fd2245d828eec01	0.28346956014473795
53	0xbfd2c74e068e40e0	-0.2934145988483703
54	0xbfcd99bac0000000	-0.2312539517879486
55	0x3fc57bb680000000	0.16783791780471802
56	0xbfcdae4020000000	-0.23188020288944244
57	0x3f9c1a0c00000000	0.027443110942840576
58	0x3fc0853a00000000	0.12906575202941895
59	0x3fd873f240000000	0.38207679986953735
60	0x3fe162ff7829652f	0.5433347079189498
61	0xbfc2cc2b2554aa1c	-0.14685572932042212
62	0xbfcc3fd22445daf9	-0.22069765826355317
63	0x3fa1e6534685f768	0.034960367544939086
64	0xbfd479345945a04e	-0.319897734813371
65	0x3fd4388a67f5da50	0.3159509673345484
66	0xbfec95ca0a1c6192	-0.8932848165014085
67	0x3fdc82c792a0746e	0.4454821521665683
68	0x3fd5ad1899340db4	0.338689946758872
69	0xbfbaa7386077d1da	-0.10411407809426212
70	0x3fc233c218cfa7db	0.14220453464014224
71	0x3f8c4ef28df27040	0.013822455365065989
72	0xbfc4211b40000000	-0.15726032853126526
73	0x3fd8a49480000000	0.3850451707839966
74	0x3fd8a889c0000000	0.38528674840927124
75	0xbfc8340c60000000	-0.1890883892774582
76	0x3fd6d5b740000000	0.35679417848587036
77	0xbfa770ca00000000	-0.045782387256622314
78	0x3fe4000a6bf0e6cd	0.6250049694274026
79	0xbfc658c2e8a50e17	-0.17458378181082487
80	0xbfd9b846eae935e6	-0.4018723768284346
81	0xbfd087045ab0e118	-0.25824078423058117
82	0xbfb5f637022d467d	-0.08578819087167662
83	0x3fcb775ff3970cb1	0.21458053010983272
84	0x3fe52f01dcb229a2	0.6619881926028948
85	0x3fe115456a9f3903	0.5338465769252995
86	0x3fd52c85c706e4c5	0.33084244190429174
87	0xbfd684274263b4d5	-0.35181600077960457
88	0xbfd40702c08edc7a	-0.3129279022645687
89	0x3fd6247c1ed444f3	0.34597685824071717
90	0x3fdd992368b02eb0	0.46247182105501405
91	0xbfb86c969e5c13e7	-0.09540692678645223
92	0xbfa4750d02b7cf14	-0.039955526906764544
93	0x3fd0f54cc3642a00	0.2649719150655585
94	0xbf8de41d5ea26a6b	-0.01459525055934315
95	0xbfc49a4f84ee905b	-0.16095918646635962
96	0xbfda4aaf393f1e4e	-0.41080837812885285
97	0xbfeefd2038039305	-0.9683991521856973
98	0x3fcac7e011502a93	0.20922470898979792
99	0xbfb59c568977b5ef	-0.08441677909987509
100	0xbfa1e72fa5863ddb	-0.034966935115445096
101	0x3fca0db6e10d8ae9	0.20354352940474676
102	0x3fd7564245a54b99	0.36463982392631916
103	0xbfc3f444abc27b9e	-0.15589197527603188
104	0xbfd4179e747db7c0	-0.3139415872200253
105	0x3fc59dd886fea46b	0.16887957183397204
106	0xbfb6c3898f55f9f7	-0.08892116307649887
107	0x3fb247b917e76bd1	0.07140690644830207
108	0xbfe1ae4af37523b7	-0.5525259737997804
109	0xbfd44b2c97ebc817	-0.3170882686237077
110	0xbfe77a806bfeb5be	-0.7337038144375396
111	0x3fb08b8029ad8058	0.06462861077807369
112	0x3fb5ee934a6040bb	0.08567162099666607
113	0x3fc9ab1331740fff	0.20053329386439597
114	0xbfdcd919d5b7ab69	-0.45075078841062194
115	0xbfb4c9132b6b9f9a	-0.08119315919941386
116	0xbfe6a0deb8e1c9e5	-0.7071374522186572
117	0x3fc0f5fca351f9fa	0.13250692343349596
118	0x3f9b16d7b33743f3	0.026454325021237634
119	0x3fca9cf3c7a50122	0.20791480301159831
120	0x3fe10a62ec3b0564	0.5325178731801938
121	0x3fd8db47790fa518	0.38838373968481354
122	0xbfd0ceeea13576b5	-0.2626301359467605
123	0x3fd05348e752d2de	0.2550832995432709
124	0x3fd85c96ca1aa8c7	0.3806511853860112
125	0xbfd47ec657317e41	-0.32023771777128124
126	0x3fcf6741b584faa3	0.24533864367727629
127	0xbfbd01f5afe9aa8f	-0.11331115288491332
128	0xbfd757b89d2b834f	-0.364729073988248
129	0xbfc2d4805fd51332	-0.14711002997696593
130	0x3fbcfe4ef89c8c6d	0.11325543946854717
131	0xbf742f08e0db4d90	-0.004927668267288424
132	0x3fa9dc126ae01a17	0.050507140680611844
133	0xbfc20aaa1e77c499	-0.1409504555481689
134	0x3fd55bdb46c61e6b	0.33373147880090553
135	0xbfce81dcca23695b	-0.23833808774981943
136	0x3fd3bb79fcbfc28e	0.30831765825772883
137	0x3f799af2d806771d	0.006251286133559989
138	0xbfb9dbe5b8700ca4	-0.10101161721108781
139	0xbfd1164ef6c46183	-0.26698659990645285
140	0x3fd6ea63713a074f	0.3580559354523886
141	0x3fc7088f1a692b7d	0.17994869985190212
142	0xbfc941339bafc354	-0.19730229474910266
143	0xbfcd337facb77431	-0.22813411649159002
144	0x3fc6490e80000000	0.1741045117378235
145	0x3fc44b5e00000000	0.15855002403259277
146	0x3fd9a24380000000	0.40052878856658936
147	0x3fbc239d00000000	0.10991841554641724
148	0xbf9e77c400000000	-0.02975374460220337
149	0x3fc12c2b80000000	0.13416045904159546
150	0x3fb59285247e392c	0.08426696911758275
151	0x3fb5ad0d1ff8d1f1	0.08467180281224508
152	0x3fd13a9239f301d7	0.2691999021444906
153	0xbfaba1747c5f44a7	-0.05396617906775108
154	0x3fd89df2255d7c43	0.38464025162642573
155	0xbfc6119e4dee7165	-0.17241267018551834
156	0x3fe40591b475b8df	0.6256798290831077
157	0x3fe3335abd393f4f	0.6000188537382004
158	0x3fbdd66d2a341bf8	0.11655313759193564
159	0xbfc2c3486e8b23b4	-0.14658456227905747
160	0x3fb991233971cbb3	0.09987087395147291
161	0xbfd0ec5741215fd0	-0.26442509994876406
162	0xbff1f9300b54ff4b	-1.1233368342072534
163	0xbfd36468c0592ef5	-0.3030034902956083
164	0xbf83a8935c6f8404	-0.009598876245890516
165	0xbfa95258630033f5	-0.04945636948114177
166	0x3fd4110487b99b44	0.3135386777343465
167	0xbfd27ac869aeda19	-0.2887440712032983
168	0x3fc4129980000000	0.15681761503219604
169	0x3fcb548b00000000	0.21351754665374756
170	0xbf84b36400000000	-0.01010778546333313
171	0x3fd8030e40000000	0.3751865029335022
172	0x3fcb4bc780000000	0.21325010061264038
173	0xbfc2936300000000	-0.14512288570404053
174	0x3fbce01200000000	0.11279404163360596
175	0xbfce7bd100000000	-0.2381535768508911
176	0xbfd258e280000000	-0.2866750955581665
177	0x3fc4293200000000	0.15750718116760254
178	0x3faccbc900000000	0.05624225735664368
179	0x3fd7131cc0000000	0.36054152250289917
180	0xbfc21ba5aec6b3b3	-0.1414687255286516
181	0xbfdbe78b9a46e47f	-0.43600740495782725
182	0x3fe5917e2f8a6f76	0.6740103653460057
183	0x3fe2d5e376fd7137	0.5886094402335748
184	0xbfc3b26c4754465a	-0.15388253672476787
185	0xbfd30d2e81f95e45	-0.29767954533369717
186	0x3fd4b1f680000000	0.32336199283599854
187	0x3fc2198e00000000	0.1414048671722412
188	0x3fca36ef00000000	0.20480144023895264
189	0x3fbf2bbf00000000	0.1217612624168396
190	0x3fd13d0680000000	0.26934969425201416
191	0x3fc928b400000000	0.19655466079711914
192	0xbfbf13a680000000	-0.1213935911655426
193	0xbfcc1be1c0000000	-0.2196008861064911
194	0x3fd35d4740000000	0.302568256855011
195	0x3fd1ca8d40000000	0.2779877781867981
196	0x3fd07eee80000000	0.2577472925186157
197	0x3fd841afc0000000	0.3790091872215271
198	0x3fc7e815d1f0df05	0.18677017928143172
199	0x3fe2973710b63c16	0.5809588743594556
200	0xbf84bc8b349b7fe6	-0.010125243704749164
201	0xbfce7edfaeb7c2b6	-0.23824687987464238
202	0xbfc50b5f73bd8e5a	-0.16440957213773083
203	0x3fdf454dbc044b38	0.4886049591161057
204	0xbff4da643dbe5731	-1.303318253694169
205	0x3f96405660bcedc1	0.021729802755755537
206	0xbfcd27c837f0cbe6	-0.2277765534541622
207	0x3fd153a2eb7a37d0	0.27072976108399605
208	0xbfcc156d59a11890	-0.21940390469007243
209	0x3fa8278f576c5dae	0.04717681829623231
210	0x3fb1be8900000000	0.06931358575820923
211	0x3fd6877ec0000000	0.3520199656486511
212	0x3fae6d9f00000000	0.059430092573165894
213	0x3fd259d140000000	0.286732017993927
214	0x3fcac56280000000	0.20914870500564575
215	0x3fd864cf40000000	0.3811529278755188

bias f8 [36]
0	0xbfe5945f2b2c95df	-0.6743617861981724
1	0x3fd24bd6d2d3d608	0.2858788546430735
2	0x3fea7c2daaf84cf6	0.8276584948784194
3	0xbfe33521e785c400	-0.6002358934330232
4	0x3fe58f8aa5fbe451	0.6737721673845362
5	0xbfc64822aa22f629	-0.17407639796685828
6	0xbf922a376c075ac7	-0.017739168137121532
7	0x3fe5ab8f99983725	0.6771924972433437
8	0xbfe9d7c9cad130be	-0.8075913392326795
9	0xbfa0e96900000000	-0.03303077816963196
10	0x3fe35b5e0e3d6d02	0.6049032476543348
11	0x3fe4166d6459b47f	0.6277377090424493
12	0xbfc59ae200000000	-0.16878914833068848
13	0xbfab85814a0e1f76	-0.05375293759340043
14	0xbfcc820945b54122	-0.22271839050018466
15	0x3fd3bd1cca7ef365	0.3084175088404691
16	0x3fd4747b1103cb45	0.31960941945651583
17	0x3fe51ae5a882888a	0.6595333377083687
18	0x3fcf97714c8c11f2	0.2468091605916381
19	0xbfb59a9751688511	-0.08439012277132842
20	0x3fd972779c8e32ba	0.3976115254270486
21	0xbf8d55b59fdf7b51	-0.014323634091793077
22	0xbfd5aa05118474a7	-0.3385021849697502
23	0xbff16d84b82516e4	-1.0892378991279026
24	0xbfd315f240000000	-0.29821449518203735
25	0xbfd01b242494fb1b	-0.25165656635719963
26	0x3fe322b408692597	0.5979862369796817
27	0xbfd4776c2fcbd3c3	-0.319788977313973
28	0xbfd5d77bc0000000	-0.3412770628929138
29	0x3fa8bdb100000000	0.04832223057746887
30	0x3f80c6d693e5b553	0.008191753757922504
31	0xbfd395ebe0000000	-0.3060254752635956
32	0x3fd22a0680000000	0.28381502628326416
33	0xbf95b3538ea2ee6e	-0.021191888409460118
34	0xbfe0c1ce721c87f9	-0.5236580113162282
35	0xbfd2252b80000000	-0.2835186719894409

weight f8 [72, 36]
0	0x3f8a9365fec6509d	0.012976452672582456
1	0xbfc7ac7a651f8a8b	-0.1849511140599883
2	0xbf85d0ea11b61016	-0.010652378716947946
3	0xbfd7e0f175ff65b3	-0.37310444377143454
4	0xbfd1c8732a9a99aa	-0.27785948906457725
5	0x3fc5727b228be4c0	0.1675561827358134
6	0xbfb1c509d1d6b397	-0.0694128167439899
7	0x3f9f25bc0b997a02	0.030417383392313375
8	0x3fb0782575c0c804	0.06433328747587558
9	0xbfc2dd3000000000	-0.14737510681152344
10	0xbf886742826761a0	-0.011915702442750142
11	0xbfcc3a0f5ceeeb24	-0.22052185094602195
12	0xbf8780f600000000	-0.011476442217826843
13	0xbfc4e889027422b8	-0.1633464109402405
14	0x3f9aa3427bde0d98	0.02601341134096699
15	0x3fba2e3b8b525aa8	0.10226795340927686
16	0x3f9eea42f722ffa9	0.030190512022045066
17	0xbfcad5d812117d19	-0.20965100176088283
18	0x3f9a500b3bf7b201	0.025695968184594523
19	0x3faf3ec43d01353f	0.06102574581800945
20	0x3fa906ad6d89a0bf	0.04887906992081658
21	0x3f899ceb93ec8200	0.01250633282830993
22	0x3fbb81694c4cc6c4	0.10744341004172059
23	0x3fb39f339a1d54b3	0.07664797318041643
24	0xbfb5c831c0000000	-0.08508597314357758
25	0xbfa10a95077b1aaf	-0.03328386036223684
26	0xbfb73ff0930be484	-0.0908193930626045
27	0xbfa1c11bcb482529	-0.03467642647235387
28	0xbfa7512000000000	-0.045540809631347656
29	0xbfb6921360000000	-0.08816643804311752
30	0xbfc42e9f9202d323	-0.15767283086247472
31	0xbf970a5700000000	-0.022500380873680115
32	0xbfbf7211c0000000	-0.12283430993556976
33	0x3f65fcdb97151a17	0.0026840485449242213
34	0xbfd4ab735411de0c	-0.32296450815144406
35	0x3f61dfd800000000	0.0021819323301315308
36	0xbfcb939b8b8298ce	-0.21544212638872867
37	0xbfd57a2846283e19	-0.3355808911446459
38	0x3fd390f8ba586c5d	0.30572336385529814
39	0xbfc8b9097e70afb6	-0.19314688371502847
40	0xbfef140c776124fe	-0.9711973506574905
41	0xbfa60c1ace04d2e8	-0.04306110157850701
42	0x3f8f6f284320cb75	0.015348734425151037
43	0x3fb6081550d77319	0.08606084083244205
44	0xbfb9aad04d3ba14e	-0.1002626598889311
45	0x3fac18b680000000	0.054876044392585754
46	0xbf9a2150f44a7a7e	-0.025517716322264843
47	0xbfbcaa32ca710c1e	-0.11197202150746974
48	0xbf906c4300000000	-0.016037985682487488
49	0xbfb3fee4b2db9f1b	-0.07810811392448296
50	0x3facf8f4cece44e4	0.05658688568576922
51	0x3fa8dcab46ca8cd8	0.04855857123518498
52	0x3fd90a157ca45fa8	0.39124047443464827
53	0x3fb0356d478d444e	0.06331522938605014
54	0x3fb3f089a8e8eed7	0.07788906453873366
55	0xbfcf1ce0b00a16b8	-0.24306877704309726
56	0xbf9ad84ecec23d0d	-0.026215773934890985
57	0x3fa9236a65ec585f	0.049098324720191704
58	0x3fa258ab89c6f383	0.035832748955249925
59	0xbfd885ed0150f766	-0.3831741822103737
60	0x3fb1362440000000	0.06723238527774811
61	0x3fc6dfb12dc0aeb8	0.17870154127137083
62	0xbfa1b3a3f32613e2	-0.03457367270588187
63	0xbfb910897aa749af	-0.09790858501882015
64	0xbfb96d7a00000000	-0.0993267297744751
65	0x3fba3ba440000000	0.10247255861759186
66	0x3fa75cc8764cb6e3	0.045629753533246185
67	0x3fc3b30920000000	0.15390123426914215
68	0x3f5f25c000000000	0.001901090145111084
69	0x3fb5e0db2b05bf9f	0.08546228218415174
70	0x3fa0f6a63dde8225	0.033131785442723584
71	0xbf87eb9600000000	-0.011679813265800476
72	0x3fa9744b4fcfbcf7	0.04971537923108287
73	0xbfd52f25208852d9	-0.3310025041294416
74	0x3fb080bfd198e4d3	0.06446455828781276
75	0x3fa7ae1ad3adee96	0.04625018915154759
76	0x3fdfdb56685ce437	0.4977623004120377
77	0xbfa34b4c9b088dca	-0.037683862614609945
78	0xbf829f66cba22c99	-0.00909309681835273
79	0xbfe4bad6f8967781	-0.6478075843076426
80	0x3fc0ab837212ee03	0.1302341753961259
81	0xbf432f8000000000	-0.0005854964256286621
82	0x3fb470f465fd3a48	0.07984855165452942
83	0x3fc84596c0d2ce26	0.18962368407447733
84	0x3fc0fbb720000000	0.132681742310524
85	0x3fca1a43170a28c0	0.20392645478233895
86	0xbfcc5e868420fc99	-0.2216346879158422
87	0xbfa6b44b78744d85	-0.04434429021253109
88	0x3fe4d7be7db51f79	0.6513359503960451
89	0x3fb8647e159c167d	0.09528339412289628
90	0x3fd3065aabf97f9d	0.2972628287734496
91	0xbfd0ea1bc4c83e79	-0.2642888471318439
92	0x3fd751798d06e42d	0.36434782764587476
93	0x3fba1ec7066fb028	0.10203212649474891
94	0x3fbb13e70079c199	0.10577243577586727
95	0xbfb29c13f16bb613	-0.07269405979214864
96	0x3fb44aa100000000	0.07926374673843384
97	0xbfc77cfc698c4ece	-0.18350176957812042
98	0xbfc0a739a12f83ea	-0.13010330553427646
99	0x3fa9de4980842be9	0.050524041116737646
100	0x3fc0cf5720000000	0.1313275247812271
101	0x3fa7d96d80000000	0.0465807169675827
102	0xbfb1a95f84f8c3c0	-0.06899067875271125
103	0xbf9dcac100000000	-0.029093757271766663
104	0xbfba905f00000000	-0.10376542806625366
105	0xbfa27b108ccdbc72	-0.03609515875620496
106	0x3fb24d0309015e2b	0.07148760766846667
107	0x3fc2cf7ca0000000	0.14695699512958527
108	0xbfca1c4900f5a1ac	-0.20398819491243836
109	0xbfce68186ba4ffcd	-0.2375517392738388
110	0xbfcce1ef6d35c6d4	-0.22564499695322715
111	0xbfa7eaa599081095	-0.046712088518718144
112	0x3fd4a6bd7a6a24c3	0.32267701105645247
113	0xbfc5bf92a7ed6595	-0.16990884017540667
114	0xbfd152f961c627ab	-0.27068934009786955
115	0x3fc211a958ed7040	0.14116398660815044
116	0xbfc2fc1412b9e041	-0.14831782259330065
117	0xbfb9b32400000000	-0.10038971900939941
118	0xbfc5d678a961830d	-0.1706076457076268
119	0x3fbac30ae5596d6c	0.10453861331318642
120	0x3fbbe058c0000000	0.10889200866222382
121	0xbfc1ce5e847c904e	-0.13911038846083773
122	0x3fc1f2a7d80877ce	0.14021776245584622
123	0x3fa7d3451ed56bf2	0.04653373719585109
124	0xbfd218e6752f36d9	-0.282769789159699
125	0x3fbbaa75b742cfed	0.10806976055283686
126	0xbfe97808142d79f7	-0.7959022897810532
127	0xbf914940a76fea56	-0.016880998820833014
128	0x3fc5ac5a6077aa72	0.16932229719471398
129	0xbfcb578a05cdd653	-0.21360898288155514
130	0xbfae3cbec0000000	-0.05905719846487045
131	0xbfe61979b586269d	-0.6906097932234904
132	0xbfc1975fc0000000	-0.1374320685863495
133	0xbfa264498f8f8268	-0.03592138173531084
134	0xbf79390eceffbbba	-0.006157930227330627
135	0xbfd94e1815f19467	-0.3953914846700343
136	0x3f8fbb0e00000000	0.015493497252464294
137	0x3fa2622400000000	0.03590500354766846
138	0xbfc871d1f59d2265	-0.19097351544248223
139	0x3fa948bd80000000	0.04938308894634247
140	0x3faccd4400000000	0.05625355243682861
141	0xbfbcf540d7d02d75	-0.1131172682655029
142	0xbfe579024d9c2a20	-0.6710216060467395
143	0xbf381f4000000000	-0.00036807358264923096
144	0xbfd93eef68399c01	-0.3944662587950348
145	0x3fd658d54f47a943	0.3491719507425339
146	0x3fc53b0b22b95cd4	0.16586436458121645
147	0xbffb78ad1655bf17	-1.7169619438608998
148	0xbfdd419c0d14c535	-0.45712949063734537
149	0xbfb17cea4e0d4d73	-0.06831230550351623
150	0x3fbff9b63f90e40f	0.12490405132201964
151	0x3fcaf0578db3f7d8	0.21045965594379257
152	0xbfd11b9549b27d7c	-0.26730854222292755
153	0x3fa2ef4b80000000	0.03698192536830902
154	0x3f821dc35bd5845a	0.008845831146290607
155	0xbfefd7917172513c	-0.9950644698861093
156	0xbf8b3b8600000000	-0.013297125697135925
157	0xbfc0806f46ad950d	-0.12891951514317448
158	0xbfc0aaf6d55de440	-0.13021741312312152
159	0x3fba0cd766c50555	0.10175844439529176
160	0x3fe4f9e5b8188ce7	0.6555050464270636
161	0x3fd28bd3bb6fca0c	0.2897843676029488
162	0x3fd24adf7c5e697e	0.28581988473310804
163	0xbfc57285b3b07707	-0.16755744241611856
164	0x3fd7360d28ecbf40	0.36267403599321213
165	0xbfbbaee33b485eed	-0.10813732335406785
166	0xbfc4b94c60000000	-0.16190485656261444
167	0xbf9f2fdc14a43689	-0.03045600772843796
168	0x3fb64c6fc0000000	0.08710382878780365
169	0xbfbe4b3871bf5c35	-0.11833527352369873
170	0xbfad6631c3b5baec	-0.057420306339613564
171	0xbfe0af5a5a496df2	-0.5214053882040715
172	0xbf9e772700000000	-0.029751405119895935
173	0xbfab6fa0c0000000	-0.05358602851629257
174	0x3fcbee0c8e9a4826	0.21820218050976442
175	0xbfc42154e0000000	-0.15726719796657562
176	0xbfbd887060000000	-0.11536314338445663
177	0xbfc23c6bcb599eb5	-0.142468904773741
178	0xbfcf39dad087f700	-0.24395308668311344
179	0x3fbc6511c0000000	0.11091719567775726
180	0x3fbb10f916c51838	0.10572773748307973
181	0x3fc5a2d5b6459eaa	0.16903182411191625
182	0xbfce3d9d211789da	-0.2362553035337232
183	0xbfea083dcfd45ce1	-0.8135060366793391
184	0xbfdeb8a491d63fcb	-0.48001970521818
185	0xbfa646a436867c05	-0.04350770154564291
186	0x3fc6f9b8889e9ec7	0.17949587508086592
187	0xbfa8a258bb4302f6	-0.04811360631857113
188	0x3fc2731a1e7d7ae1	0.14413763512398872
189	0x3fc421ac20000000	0.15727759897708893
190	0xbfc685b4506ba9b4	-0.1759553330114848
191	0xbfd626e80c99af8d	-0.34612466078282794
192	0xbfba066b00000000	-0.10166043043136597
193	0x3f9aa6120d9b91d4	0.026024133759067272
194	0x3f81e3236d0c7171	0.00873401333370147
195	0x3fa6e38e95ae2bd2	0.044704871913459635
196	0x3fea17abc0a2086d	0.815389515148366
197	0xbfe1e514a162416f	-0.5592139389064367
198	0x3fdedf6072669129	0.48238383457125394
199	0xbfebf3ba44fa8261	-0.8735019061314909
200	0xbfd259a9c48c8144	-0.2867226046964968
201	0xbfae595656bffcc2	-0.05927533921203
202	0xbfc39f7240000000	-0.15330341458320618
203	0x3fbaf685bd2a2ac5	0.1053241335704725
204	0xbfa5ca9e00000000	-0.042561471462249756
205	0x3fba5df207ebeb3b	0.10299599355122961
206	0x3f757abe8c9fda57	0.005244011243112987
207	0xbfc41716be988ae9	-0.1569546156543631
208	0x3fb34b31c0000000	0.07536612451076508
209	0x3fb936be40000000	0.09849156439304352
210	0x3fcd57fd507b6217	0.229247726724467
211	0x3fb7493c40000000	0.09096123278141022
212	0xbfbd474b60000000	-0.11436911672353745
213	0x3fa687aa43be2ec2	0.044003792542836276
214	0xbfd574c9bf4d2ef2	-0.33525317842280267
215	0x3f40a16000000000	0.0005075186491012573
216	0xbfa85aaee77069a7	-0.04756685805496668
217	0x3fc04630a342ab81	0.12714202853871018
218	0x3fc9ce4658a28b36	0.20160750701787727
219	0x3f9db22ae4662952	0.028999967756626895
220	0x3fc28027e2b295b2	0.14453600472658718
221	0xbf932bb900000000	-0.018721476197242737
222	0x3f61b8f4e5c314d0	0.002163389506764625
223	0xbfbf609fe7fca992	-0.12256812490219307
224	0xbfb05f0f2fcfe033	-0.0639504901627113
225	0xbfb5005260000000	-0.08203615993261337
226	0x3fa898d3638761de	0.048040967845455404
227	0xbf9c9a2b24e7e09e	-0.027931856277036198
228	0x3fbb4d7840000000	0.10665084421634674
229	0x3fbb93c40cfb1c94	0.1077234775249159
230	0xbfba0cb764d2b7ff	-0.10175653659345583
231	0xbfc18fb913b5f910	-0.13719857656901313
232	0xbfb46961398679ed	-0.07973296789575786
233	0xbfa6b4e07c56581e	-0.04434873121060455
234	0x3f81b0df7eb1bd31	0.00863813977613734
235	0xbf8ebff0ca1c4b0e	-0.015014535110400764
236	0x3fae49d48702aad1	0.059157029610408814
237	0x3fb5ded8a80db9e1	0.08543161490317842
238	0xbfaa5e3180000000	-0.05149988830089569
239	0xbfa665c8859cd662	-0.043745294866693
240	0x3fc42b3220000000	0.15756823122501373
241	0x3fa0981661d30223	0.03241033500808423
242	0xbfcf58690354ab95	-0.24488556540140097
243	0x3fc0746fe64dc91d	0.1285533785372274
244	0x3fb82fb640000000	0.09447802603244781
245	0x3f9f483100000000	0.0305488258600235
246	0xbfc4f82cfe2f0591	-0.16382372294723926
247	0xbfadff16c0000000	-0.05858679860830307
248	0x3fc438b7a0000000	0.15798087418079376
249	0x3faab2ad345ec9fc	0.052144444125037354
250	0xbfd0b11cbdf7a642	-0.2608100752973749
251	0x3fb5bc0340000000	0.08490009605884552
252	0x3fcd63ab6621c6a2	0.2296041725817775
253	0xbff0bcaeffc457ae	-1.0460653296372402
254	0x3fa7319a4a99827b	0.045300313574220895
255	0x3fce20ca78494275	0.23537569878910217

bias f8 [72]
0	0xbfb5872e4d78b5b9	-0.0840939463748417
1	0x3fd44fa5507b9011	0.3173611913646264
2	0xbfcf3ed6c9022b58	-0.24410519423357857
3	0x3fd681975c0bdb73	0.35165962208650753
4	0xbfa4195de5129c81	-0.03925603314683546
5	0x3fc3759926506f12	0.15202631350336354
6	0xbfc01f50d6896b1f	-0.12595568156651724
7	0xbfcc09298badf19e	-0.21902961082731748
8	0xbfd3b6ba8366fd0f	-0.3080278666711402
9	0x3fd704e9af16f3f6	0.35967485521888365
10	0x3fdbeaf0886e7e83	0.43621457408333003
11	0xbfb58c5b62e05905	-0.08417292751287071
12	0xbfc58d2c0e5105e5	-0.16837073039100328
13	0x3fe52f9012a217ce	0.6620560039452756
14	0x3fcde01f7ea18973	0.2334021919551322
15	0x3fd78a94afdcaa3f	0.36783330129643227
16	0xbfc2fa3ca3cd19e9	-0.1482616233644898
17	0x3fcd2cc0900768d6	0.22792822868979695
18	0xbfd1888c4bea2a97	-0.2739592305521596
19	0x3fdb79b1ea7bb03a	0.42930267237420916
20	0x3fd25fc33a2f8732	0.2870948856562904
21	0xbf7b7407cac88938	-0.006702452123621243
22	0xbf823825255deea6	-0.00889615078244017
23	0x3fe263760c6820f8	0.5746412508315464
24	0x3fcd9dc4856b28f1	0.23137718691425094
25	0xbfe239ce5b11bc91	-0.5695564058968491
26	0x3fd1dccc9b8ff3ce	0.2791015166438314
27	0x3fb1eae34248d7af	0.06999035232806138
28	0x3faca5acf2a02c85	0.055951504342453474
29	0x3fdd98f5320ff766	0.46246080292609404
30	0x3f7e045b2399b129	0.007328372966736199
31	0xbfdc1a2f60e4db4e	-0.4390982099752606
32	0x3f83e3389561d33d	0.009710733469754035
33	0xbfdba75e65169b6c	-0.4320903765860098
34	0x3f6b2025639cc2cd	0.0033112268692082393
35	0xbfc819207a2a2d49	-0.188266811037787
36	0xbfc524087ac8a5cd	-0.16516214366246942
37	0xbf9473442854bd70	-0.019970955812082136
38	0x3fd864fda70c4cec	0.3811639911011315
39	0xbfc4d9079005d589	-0.16287321598398943
40	0xbfd3d3bb4fc919cb	-0.30979807654912567
41	0x3fdfcc781b555b9d	0.4968548075607318
42	0x3fde850220bf21b1	0.4768681831160633
43	0xbfe56b1480aaf75f	-0.6693212998431867
44	0xbfcacd7cbf26d064	-0.20939597447943747
45	0x3fb2fcc651701202	0.07416953552462505
46	0x3fa967602c4c5757	0.049616818816658075
47	0x3fd96f1b737e92cc	0.39740644720795326
48	0x3f9d487534ba756a	0.028596717208178836
49	0x3fdb45bfd5beed25	0.4261321627961528
50	0xbfd9a8b1c49dfcfb	-0.40092128945248334
51	0xbfe145a3d5a5646b	-0.539750973966091
52	0x3fde91ece1f9c3d8	0.4776565748971371
53	0x3fe1253af1bce890	0.5357947083896466
54	0x3f9a77e522c939d5	0.02584798836533671
55	0xbfc3ba387541b2a4	-0.1541204998533391
56	0x3fdf2992781e4bd9	0.486912362387725
57	0x3fe18b22edf17365	0.5482344291045648
58	0xbfc94ca792ef7401	-0.19765181231096565
59	0x3fdcb3979dfc000e	0.44846144130861
60	0x3fca099f36a757db	0.20341863793026857
61	0xbface4204d14c988	-0.056427964600874125
62	0x3fe5c2cb47e3fd3b	0.6800285724747605
63	0xbfc5fe45f9a4fceb	-0.1718223065345009
64	0x3fd22913e3669347	0.28375718314264414
65	0xbfd4ba4f7ed2159d	-0.3238714922411761
66	0xbfda1dc264ce97f9	-0.40806636661943646
67	0x3fa0537348ec49b3	0.0318866755025228
68	0xbf9234462d1cf888	-0.017777534965028013
69	0xbfc071b8fe7efc3d	-0.12847053934635425
70	0xbfe413354b147c9e	-0.6273447481543319
71	0xbfb35f4a60000000	-0.07567276805639267

weight f8 [30, 72]
0	0xbf7cfe64274ae402	-0.0070785438771787685
1	0xbfb04dbac18e7463	-0.06368605828761668
2	0xbfc065d72366c7e9	-0.12810792187298084
3	0x3fc2bd654e13b188	0.14640489876127227
4	0xbfd319f7c5f66f5d	-0.29845995266236064
5	0x3fc044c65a51320c	0.12709884080904066
6	0xbfa7fbab5c0770d6	-0.04684195993806532
7	0xbfc5cb1754b55a14	-0.17026034961845993
8	0x3f9edea4d9334fe7	0.030146194226133984
9	0x3fb1be2773ee7f4f	0.06930777149545729
10	0x3fbf07050cc2c40e	0.1212008625177676
11	0xbfa70347a856f66d	-0.044946898745803356
12	0x3f98e0b9968a5818	0.02429475766492581
13	0x3fc5be8cefad4d17	0.1698776407525677
14	0x3fa8166694e98a57	0.04704590385224055
15	0x3fc83667dd2bfa58	0.18916033076671357
16	0xbfa547623e72036a	-0.04156023990890996
17	0xbfcb57d50d0441d9	-0.21361792693688988
18	0x3fe49b5100afd7dc	0.6439595235267421
19	0x3fa8857f7e869500	0.04789350909713086
20	0x3fa7ee12a236caf9	0.04673822622443952
21	0xbfdb3821778370a7	-0.42530094786867284
22	0xbfbd489f7d76e573	-0.11438938916298529
23	0x3fb065013c1e5cd2	0.0640412112974105
24	0x3fb6f9f4e4b862fb	0.08975153526297312
25	0xbfcc8de039ae65f5	-0.22307970825640636
26	0xbfb78cd243e35652	-0.09199251325056793
27	0xbfb2bc672b97922e	-0.07318730177173258
28	0x3f8bf63ff267faec	0.013653277955197628
29	0x3fadd49794a4ac96	0.05826257409565831
30	0x3f98f7ed1ceaaff2	0.024383263482988533
31	0xbfcf9fc21cb27de1	-0.24706293488723843
32	0xbfb7df5762af29f8	-0.09325166854174671
33	0xbf9152d770eaa226	-0.016917577998045406
34	0xbfc39e042e63dcdc	-0.15325977578297667
35	0xbfdb1a5282115e35	-0.42348158552110543
36	0xbfb1de78e251d9f9	-0.06980090642341698
37	0xbf6cf633587d00af	-0.003535366329657639
38	0x3fb3acf9a6d84c61	0.07685814212190813
39	0xbfae21ed7ff0d30e	-0.05885259806419728
40	0xbfe73443b60fa56e	-0.7251299434548579
41	0x3fcc3c07215e5f61	0.22058190469101205
42	0x3fcd71fb48adcf84	0.2300409417035746
43	0xbfbdda19f7456a7b	-0.1166092137040468
44	0x3fbbf1e6786428c7	0.10915985526313242
45	0xbfb77da550d7a4cf	-0.09176095222177881
46	0xbfbe7b0010a83eaa	-0.11906433493299554
47	0x3fcc262ff0945bf0	0.21991538283393153
48	0x3f95ac076d7709d5	0.021164051109517096
49	0x3fba16512c05b2bb	0.10190303158533258
50	0xbfd56eee91ea6b4c	-0.3348957467039113
51	0xbfdffe23301513ff	-0.49988631911793385
52	0xbfb6a258942e1d84	-0.08841470353774211
53	0x3fae7d808e54dac5	0.059551255583234965
54	0x3f80636597d9c62b	0.008002084442725174
55	0x3fb3dd014d4bafbb	0.07759101998425326
56	0x3fac95f09ccfe24b	0.05583145059785418
57	0x3fad72bd88ea174e	0.05751602455442982
58	0xbfc1f3499a502b0f	-0.14023704562017555
59	0xbfd57750280efd15	-0.3354072943875093
60	0x3f98a471a65f5297	0.02406480386692297
61	0xbf9a69f0a76c216a	-0.025794754236842556
62	0x3fc23d25451ed2c7	0.14249101519603455
63	0xbf727a67ee4bef1a	-0.004511266689174476
64	0x3fd00520e07c680e	0.25031301424462604
65	0xbfc0bc25575d1d38	-0.130741756113119
66	0xbfc4eeede6331813	-0.16354154339040913
67	0x3fb535d9d845cb36	0.08285295038312487
68	0x3fa619a76996362f	0.04316447414303714
69	0x3fc1759ead646d37	0.1364019724504517
70	0xbfae56e46e27ef2c	-0.0592566856830373
71	0x3f943b1d80000000	0.019756756722927094
72	0x3f91e129f89a4fb5	0.01746049480296082
73	0xbfb32fe75b4cb85a	-0.07494970301624573
74	0xbfc3f235bfb2f26b	-0.15582916126540466
75	0x3fbd6146b88c3dd5	0.11476556783258414
76	0xbfd23c5ca0d6a8f0	-0.2849341936768175
77	0x3fc44e79cb1a34d6	0.15864488999469611
78	0x3fa2605ce8f2590d	0.03589144080722138
79	0xbfc1e891d092ce7f	-0.13990996059657232
80	0x3f91242398d341b6	0.016739422037802952
81	0x3fbb01029d193555	0.10548416457568995
82	0x3fb0f19fd6ac0a7b	0.06618689528480985
83	0xbf941ca00efa1a92	-0.019640446581002786
84	0xbf84ffdca85df01b	-0.010253642929221532
85	0x3fcd37ea17dd6b1b	0.22826887288359718
86	0xbfb368f6770728cc	-0.07582035451847274
87	0x3fcd1c8bc53c67db	0.22743365412389846
88	0x3f8fe05007ad73ee	0.015564561113643873
89	0xbfd116e2520bfe75	-0.2670217324484619
90	0x3fe3be9fb22e3cc2	0.6170195083704118
91	0x3fb21345e1c7b0e2	0.07060658228118968
92	0xbfae0753aaca237c	-0.05864964923700364
93	0xbfd6b197bbe5f8f9	-0.35458939885565105
94	0x3f7456be865ad68a	0.004965538251487831
95	0x3fb12905cb5faae5	0.06703220572641617
96	0x3fa4bff19d19b173	0.04052691500405361
97	0xbfc60c67dd8bd618	-0.17225359265982898
98	0xbfb5663490cfa611	-0.0835907796423714
99	0x3fab8484ef545c86	0.053745416846305225
100	0xbfb25b7f6de2494f	-0.07170864517892038
101	0x3f93f3b78ab46831	0.019484393921722357
102	0x3fa2602b60b32a0b	0.035889964632208025
103	0xbfc2730d19587dda	-0.14413608300763664
104	0xbf9b7773d5e0d6be	-0.026822862557500875
105	0xbf8dfa77dbeaa49a	-0.014637886427708847
106	0xbfc069984f7dd1b1	-0.12822250253124204
107	0xbfd8c9c033d64f19	-0.3873138910505403
108	0x3fbe84b63c84f5a3	0.11921252229236372
109	0x3fa1f6a36c647d8c	0.0350848264517892
110	0x3fb61e04005ed0c4	0.08639550217668829
111	0xbfc00cf96d88e1aa	-0.12539594505666446
112	0xbfe845c0adb65a7e	-0.758514727861282
113	0xbfa62265a45145ef	-0.0432311785776952
114	0x3fc726b4069a6782	0.1808686287156967
115	0xbfb5aa669718dbda	-0.08463135899442822
116	0x3fc0cae92cbae6c9	0.13119234737478383
117	0x3fb5e50bfaaa20e1	0.08552622670879685
118	0xbfb03f1f9bb98bc7	-0.06346318771242841
119	0x3fc5e42d10b084f9	0.17102588000219734
120	0xbf68f6c34973ecb3	-0.00304735319116175
121	0x3fbd51c317b3e496	0.11452884033851016
122	0xbfd642b6810e7aa9	-0.3478218326871834
123	0xbfdfbae29a165c98	-0.4957815651664048
124	0xbf84c0eba26bbb6e	-0.010133591551008538
125	0xbfc05331eba1c4b9	-0.1275389099642206
126	0xbf8242e7a6b831e7	-0.00891667344605991
127	0x3fb9b61a76c9f0a6	0.1004349269878185
128	0x3fa51907a3e9325a	0.041206587561281
129	0x3fb4d8bc352a3566	0.08143211648913037
130	0xbfbc58baec38c343	-0.11072891490108554
131	0xbfd3178dbf810186	-0.298312603965336
132	0xbfa13d6d2f734caa	-0.03367177204349876
133	0x3f9b138246c950bb	0.02644160801931215
134	0x3fc75db83025ab89	0.18254759169516557
135	0xbf7ba65df89231fa	-0.006750456880706407
136	0x3fce63a394e17d8c	0.23741574067660698
137	0xbfbf6e76fb59ebab	-0.12277930866723234
138	0xbfcdef275b3b065c	-0.2338608928167102
139	0xbf7b2bd251d172bb	-0.006633588372179029
140	0xbfb0a6bd17a7695f	-0.06504422976960232
141	0x3fb20cdf9ea2e04d	0.07050893423991163
142	0xbfc2b4646adec5a3	-0.14613013475677147
143	0xbfb2291240000000	-0.07093919813632965
144	0x3f84448aea51fdec	0.00989635970677135
145	0xbfb1e233922f537b	-0.06985781020132535
146	0xbfca78bd5df699e6	-0.20680968368578972
147	0xbfc38b9565b543af	-0.1526972529050261
148	0x3fb5a6a5eddcb345	0.08457409913235121
149	0x3fc29e0ede9eafff	0.14544854993926035
150	0x3fa1272ea504a7fe	0.03350206150419409
151	0xbfcbdc3b07f64f34	-0.21765840424324667
152	0x3fd12d4876889356	0.268388858561868
153	0xbfc2087032be15ad	-0.14088251569425606
154	0x3fbc65bdcd2a4a52	0.11092745074191981
155	0xbfca386629edc998	-0.20484616324717986
156	0xbfb542c4e256d0bb	-0.08305006528718455
157	0x3fc17ddc54b18689	0.13665346274779136
158	0x3fa13e16bd77880a	0.03367682516888244
159	0x3fb9243d9fc502df	0.0982092394888343
160	0x3fba6de2d408ee2e	0.10323922802575033
161	0xbfc1da6c60f358f8	-0.13947825178065165
162	0x3fcd808f8a678920	0.23048586137799365
163	0x3fb820a15136652d	0.09424789650656314
164	0x3fc3c52feaedc5c6	0.15445517512448087
165	0xbfcaa654a44a64e7	-0.20820100805284555
166	0x3fb61602bd9f1fc1	0.08627335671837867
167	0x3f948e139d14807d	0.02007322927704579
168	0xbfcc8010baf146d6	-0.22265824440051202
169	0xbfcefff3f04a2db5	-0.24218606217287478
170	0xbfb9141d1ed534d6	-0.09796316149477788
171	0xbfb73c092ae81736	-0.09075982377552524
172	0x3fc41801c570a158	0.15698263302443638
173	0xbfc0080bb2ac2490	-0.12524553512802017
174	0x3fa26ce05aa49c07	0.035986910881824534
175	0xbfaa14d7ed951727	-0.05094027304816811
176	0xbfc246536f1805e0	-0.1427711765718831
177	0xbfe8cdd62e0f6e25	-0.7751265430083022
178	0xbf911e9ea489dc46	-0.016718367378839603
179	0x3f992f0923dcf67b	0.02459348946944438
180	0x3fadc8876dd8a812	0.0581705400075664
181	0xbf919093d6e428f6	-0.01715308188526251
182	0x3fb1dbc13152d6ef	0.06975943998517285
183	0xbfac765917ab89e4	-0.05559042371693915
184	0xbfd403e8d079f167	-0.31273861273782305
185	0xbfc9734c294ac0a0	-0.19883110061846754
186	0x3fcc3a85abc636a6	0.22053595435538859
187	0xbfc10729133f7e1e	-0.1330310195908035
188	0x3fbd6caa01165023	0.11493933226148605
189	0xbfb7c4fd57e3d501	-0.09284957309485621
190	0x3fc7bef0c678aa4a	0.18551454249366578
191	0x3f9b84e440a1645d	0.026874128765801298
192	0x3fc2d3da6bc7990d	0.1470902467983212
193	0xbfc2f1e0baf4f5d2	-0.1480065262675639
194	0xbfc2de342da5c8f3	-0.14740612248312565
195	0xbfd1d1c7a8616629	-0.2784289497700195
196	0xbfb33faa142d8702	-0.0751901911985691
197	0xbfdc883b42182fb7	-0.4458149095014465
198	0x3fa353807dbc342c	0.03774644408085978
199	0xbfc607003fa5df0e	-0.17208865268525425
200	0xbfcc10cb5e1ba8a8	-0.2192625245582509
201	0x3fa66f9310cb8c4a	0.043819995689567806
202	0x3fae120d43ca2eeb	0.05873147442352241
203	0xbfcc80b0b8dbd98a	-0.2226773169165422
204	0xbfd6b5ce1ccf4293	-0.3548465043395847
205	0xbfaeb6bf88cc486a	-0.05998800797364441
206	0x3fcf36b48270e094	0.24385696763215903
207	0x3fd8bc0333dbacc9	0.3864753729273614
208	0x3fb9e725eb648f52	0.1011832904519541
209	0xbfca523b99ab1447	-0.20563454631170172
210	0xbfcaf588478f1a47	-0.2106180524262575
211	0xbf9a562969121df1	-0.025719306028376413
212	0xbf6d5c7774a19345	-0.0035841305844307746
213	0xbf92c44e97977bf9	-0.018326976778435953
214	0xbfc225efb8aee912	-0.14178272741066472
215	0x3fa87f2740000000	0.04784510284662247
216	0xbfc0e27543a4ab5e	-0.1319109516419656
217	0xbfbc07bc62a13deb	-0.10949304016070698
218	0xbfc0d2ea6ec88cf0	-0.1314366379675458
219	0xbfd22953a9e67042	-0.28377238838016094
220	0x3fc55c8f185cfc57	0.16688717546091666
221	0x3fb59410044940b7	0.08429050545351201
222	0xbfbbde18dc8510a7	-0.10885768302711317
223	0xbfd05e44e60d3b1c	-0.2557537314032048
224	0x3fd796944cf14dc4	0.3685656310455807
225	0xbfd1bee89e25d701	-0.27727714008447896
226	0xbfc278f2bc079234	-0.14431604558116506
227	0xbfca44d8fde8ff9e	-0.20522606275517047
228	0x3fab1636a7ab41d9	0.05290385052433395
229	0xbfa3de86fd2fe734	-0.0388071235719977
230	0x3fc08a940fbe5290	0.12922907608721745
231	0x3fcab466df2fdb64	0.20863042733955262
232	0x3fd5e32b14fa3c3a	0.34199025200445343
233	0x3fb863643c42863b	0.09526659461200719
234	0x3fb0848ed272bfb1	0.0645226730146067
235	0xbfb6ef805b240f31	-0.0895920012008531
236	0x3fe1efa34ed667fe	0.5605026759906193
237	0xbfc5605becafd1e9	-0.16700314576122757
238	0xbfa1b22956c1e020	-0.03456238922166244
239	0x3fa7cd825682bee6	0.04648978525199059
240	0xbfdc0811f8e4fc60	-0.43799256616688886
241	0xbfc8503ddee18a06	-0.1899487818037217
242	0xbfd0f25cadf11004	-0.26479260431756324
243	0x3fb0c4f28f33e82c	0.06550518032227676
244	0xbfaf2c982e692244	-0.060887103715292074
245	0x3fa092248c82961b	0.03236498084269731
246	0x3fb17797f3983c96	0.06823110291610343
247	0xbfc1c5a39b23664d	-0.13884396624671283
248	0x3fbad0a758034b40	0.10474630259276996
249	0xbfee1d8c921a6dfd	-0.9411070684031412
250	0xbf90f7f3e3957fdd	-0.01657086445391075
251	0x3fb54eca70add0b9	0.08323350192023583
252	0xbfa20713e2babf83	-0.03521024840063005
253	0xbfaca9c0c4121083	-0.05598261254729755
254	0x3f931a2fad6053ce	0.018654580075310005
255	0xbfb73664ab08d436	-0.09067372489592249

bias f8 [30]
0	0x3fe473ccf4bb1153	0.6391358165642863
1	0x3fe097c0745cad88	0.5185243866630325
2	0x3fd03d721b95f5d5	0.2537503499405294
3	0x3fbb8b7925334e0f	0.10759694250310069
4	0xbfb899f001c5e79d	-0.09609890025413255
5	0xbfcec3124289ec05	-0.24032810448611044
6	0xbfdc82a8f78ff082	-0.4454748551941138
7	0xbfe213ee589b8062	-0.5649329882253478
8	0xbfe75a458dcc4027	-0.7297694940080007
9	0xbfec0d96930b62a7	-0.8766587135279068
10	0xbfedc85929646706	-0.9307065781060551
11	0xbfed6642fb03caf6	-0.9187331106789702
12	0xbfeeb402161bf26f	-0.9594736511058509
13	0xbff2c6b3704df12d	-1.1735109698193569
14	0xbff11678f489461b	-1.067986445636399
15	0xbfee6f7c69c503d1	-0.95110912950633
16	0xbff12d905bbfd64a	-1.0736239990195764
17	0xbff2b5574b5f36b7	-1.1692727035728419
18	0xbff1363fdb9e2f8d	-1.0757444933724145
19	0xbff034d30fbd9480	-1.0128965964188694
20	0xbff217a92a45a6d0	-1.1307765628102295
21	0xbff1c92d4d3d8175	-1.1116154687116169
22	0xbff1e583e41e1a94	-1.1185339842647055
23	0xbff25f57969c9b5d	-1.1482768901130023
24	0xbfefbe44df9f05c4	-0.9919762008286672
25	0xbfef4f919fb692b9	-0.9784629935644126
26	0xbff3b4749350d353	-1.2315564875145426
27	0xbff21a7387ac11e8	-1.1314578342145243
28	0xbff17232284c5550	-1.0903798650882273
29	0xbff26c14cf11f421	-1.1513870323826796
