Sphere/NeuralNetworks/models/net_gridded47.pt (torch_old, 67074 bytes, 6 tensors)

weight f8 [36, 6]
0.44195954505716123 -0.33886989967108333 -0.407637666337546 -0.3154047543612389 -0.12866954399159358 0.197910470759273 0.3455319404602051 0.22422730922698975
0.24566364288330078 0.2226957082748413 0.11115860939025879 -0.1538059413433075 -0.06637175434310844 0.5161524648258855 -0.6568357615525697 0.1003917979862374
0.013633057151186964 -0.025701574772958986 0.08739767021086318 0.4045617478117222 0.21677145603936557 -0.26533811477329894 -0.18139003424894326 -0.09976923909449507
0.3640766739845276 0.08588868379592896 0.3162108063697815 0.3057047128677368 -0.26187288761138916 0.3524099588394165 0.2335764460496952 -0.043424955534736395
-0.08524003949603316 -0.14029546458897227 -0.05341904862513772 0.3621071408728658 -0.09428358114445094 0.03524770435337221 -0.1672632718499198 0.11335445022586907
-0.1537098319150774 -0.23744678898642482 -0.3667269669376366 0.01671101043007786 0.16691277606905475 -0.25142384602714163 0.25146484183255224 -0.4245272067774353
-0.12742508392204907 0.08648321875702757 0.5422344994121991 0.2108701114386386 -0.43655073469616645 -0.23983030377785225 -0.17086459696292877 0.3891133666038513
0.08204817771911621 0.08993548154830933 0.25141751766204834 -0.08039841055870056 0.1775302163411338 0.4166034757640243 0.2658359268991768 0.40182308140623024
0.25521176674807056 -0.19238829113711453 0.4626056676961576 0.12642282206946745 -0.22676544059126658 -0.5630117174163232 -0.1563704875930961 0.07996451953540154
0.42109976434936125 -0.019293488533345064 -0.10717039255235829 0.13602209863470063 -0.19160219911480336 -0.20534463338774014 0.11526085492759129 -0.2953964368225321
0.6534524865044796 -0.5471745431764029 -0.10838598699715964 0.27153196472381835 -0.02042703629958478 0.22727184256478622 0.0400441671887126 -0.02560217455745842
-3.203856414028488e-05 0.04677021395680531 0.05357746091648718 0.4014945003275107 0.03359222643456293 -0.35229859755760684 -0.1391308828674855 0.15810890876204745
0.4579727874453965 -0.21922757307746532 0.22409973408680775 -0.09988798586594003 0.18697247174418252 -0.18721069668540966 -0.10405173897743225 0.23086202144622803
-0.34305906295776367 0.13831311464309692 0.30174076557159424 0.25402241945266724 0.3501643756754907 -0.12234472449859843 -0.012920967401992459 -0.21236120792238328
-0.33501157194088693 -0.34748361714959825 0.22276020068509336 0.2450477882698762 0.11230652569001623 0.03793668100893863 -0.20957570411964674 -0.47903824089166025
-0.15635545203219559 -0.1201482516652854 0.24554286401354386 0.4552611817726987 0.4909821004169064 -0.4006167086243211 -0.3782245440971814 -0.5967437394619449
0.26238608855548917 0.6343882756425363 -0.10942513490758471 0.5041866484852325 -0.29394550031852557 0.3625870659485718 0.2684869739784253 -0.22807458749377338
0.31841761381578537 0.022929769335546253 -0.11331289351430211 0.19662149870810106 -0.10223018840227031 0.6361137710268403 -0.15320195940359496 -0.08765532451287875
0.0496315249784006 0.2909292553164931 -0.1631966987097564 0.2342011648984153 -0.17240892965327212 0.2542736499482701 -0.0925857624505428 0.550640698293252
-0.04575433480354494 -0.24833927438207296 -0.1969472437649894 -0.049525653176479924 0.38188034296035767 -0.2061234414577484 0.35123223066329956 0.4038724899291992
0.058080703020095825 0.2375316023826599 0.12326580286026001 0.3136271834373474 -0.07648563385009766 0.13130176067352295 0.0714469850063324 0.26999133825302124
0.19106215238571167 -0.21780936419963837 -0.05270606279373169 0.24268031120300293 0.2023707628250122 0.18374770879745483 -0.009237227612386571 0.07474787428610509
-0.018332098345600335 -0.37030753012701956 0.6656653419490436 -0.35059262723433243 0.04253968312827889 0.1028820428126251 -0.09837554583098809 -0.13203727592061018
-0.019787387289205382 0.2020587123295496 -0.022836373152316514 -0.11336936179708493 0.7920337833330642 -0.08214877460708425 0.06436588892913925 -0.18110525787059734
0.05014978086563976 -0.015691937520793474 -0.33080969834438173 -0.5982735999057303 -0.29597201859153255 0.34741428729487245 0.5091676402533934 0.26727489840253466
-0.066628208357509 -0.22241570310377426 -0.18266505009876394 0.20930673988954246 -0.1533518286934545 -0.030974382418893134 -0.25102452615562176 -0.10737394282333304
-0.20417875202678193 -0.00713148548259079 0.3375055983092013 0.2603929315357681 0.30523078711329965 -0.09586959690875986 0.20402125007479238 -0.028578845221618323
00000000: 253c 0bb0 1049 dc3f 21e9 2b60 0bb0 d5bf
00000010: bb66 624b bc16 dabf f900 3f6c 972f d4bf
00000020: 44b2 b75d 3e78 c0bf ab38 b95b 2155 c93f
00000030: 0000 0000 321d d63f 0000 0000 7bb3 cc3f
00000040: 0000 0000 e871 cf3f 0000 0000 4b81 cc3f
00000050: 0000 0000 e474 bc3f 0000 00c0 e9af c3bf
00000060: d423 4842 bdfd b0bf baa9 852c 5284 e03f
00000070: f2c4 566e cc04 e5bf 0e35 23e1 46b3 b93f
00000080: 25eb def4 a5eb 8b3f 4217 6c7c 8351 9abf
00000090: 4f60 4d97 b15f b63f b317 04f5 56e4 d93f
000000a0: b59b 32c5 2abf cb3f ec59 55b7 4cfb d0bf
000000b0: 33b3 75e4 c937 c7bf dfc2 0e13 7a8a b9bf
000000c0: 0000 0040 084d d73f 0000 0000 cdfc b53f
000000d0: 0000 0040 cc3c d43f 0000 0080 aa90 d33f
000000e0: 0000 0080 86c2 d0bf 0000 0080 e28d d63f
000000f0: e11d 733e d5e5 cd3f 6632 b4b7 cb3b a6bf
00000100: 55f9 f18d 4ad2 b5bf d1e7 17a8 33f5 c1bf
00000110: 1524 a8d5 bd59 abbf 089c ec6d c32c d73f
00000120: 93af 9001 f822 b8bf 10e3 e9b2 fc0b a23f
00000130: 266c 3505 e268 c5bf b67f 9318 cc04 bd3f
00000140: a10f 9386 c3ac c3bf fd52 9e08 a864 cebf
00000150: 32bd 6362 7478 d7bf c806 1fed b01c 913f
00000160: 1026 40d9 655d c53f 50c0 070b 5417 d0bf
00000170: 9cef f0fd ff17 d03f 9cc3 5729 742b dbbf
00000180: 1350 1114 774f c0bf e7d8 36a4 c323 b63f
00000190: 5fa0 372a fc59 e13f 1e9a 2ab4 cafd ca3f
000001a0: ce25 247e 72f0 dbbf 4266 a867 c2b2 cebf
000001b0: 0000 0020 e4de c5bf 0000 00c0 3be7 d83f
000001c0: 0000 0000 1c01 b53f 0000 0000 0306 b73f
000001d0: 0000 0080 3917 d03f 0000 0080 fd94 b4bf
000001e0: 2e55 9e64 4fb9 c63f 459c f39f a1a9 da3f
000001f0: 5c90 08b1 7403 d13f acbb 5a28 78b7 d93f
00000200: a230 efbb 6355 d03f 1c9b 48f5 2da0 c8bf
00000210: 5bc0 6ccd 549b dd3f 61d1 207f 9f2e c03f
00000220: 34ec 9963 a606 cdbf 402c 3226 3104 e2bf
00000230: 53ce 22b9 f203 c4bf f2b1 3e04 8e78 b43f
00000240: ccf6 0e6d 4cf3 da3f 711a 1b19 acc1 93bf
00000250: e9a2 1cd3 846f bbbf 75ac 9510 2c69 c13f
00000260: e016 85bd 6b86 c8bf 2d9c 67a2 bb48 cabf
00000270: 0f4a 6c42 bc81 bd3f 3f7e e074 c6e7 d2bf
00000280: 15da 6030 15e9 e43f 3baf 0430 7482 e1bf
00000290: f95a 7f1d 2fbf bbbf dcac 139b c760 d13f
000002a0: 6795 7133 d3ea 94bf 8a07 8f65 3e17 cd3f
000002b0: fd30 f148 ab80 a43f 091b b9d9 7437 9abf
000002c0: 1cd6 79ae 24cc 00bf 5828 bef6 43f2 a73f
000002d0: 9fc8 e044 816e ab3f a38d 1bfd 15b2 d93f
000002e0: 5e5f df13 0033 a13f 0af1 bb6a 0f8c d6bf
000002f0: 3fc5 e36f 0acf c1bf 456c 2ba8 e93c c43f
00000300: cc4c 2218 6d4f dd3f 98e4 5f2c a60f ccbf
00000310: 35fa 78d2 4caf cc3f ceb9 8e50 4292 b9bf
00000320: c85f b2c5 b6ee c73f afd3 dc25 85f6 c7bf
00000330: 0000 0080 22a3 babf 0000 0000 e38c cd3f
00000340: 0000 0000 aef4 d5bf 0000 0080 3eb4 c13f
00000350: 0000 0080 b84f d33f 0000 0040 e741 d03f
00000360: 0908 70d7 1769 d63f 9e42 8fde fb51 bfbf
00000370: c8d7 64e3 4e76 8abf ce9b 7bed a62e cbbf
00000380: 5a21 5160 d470 d5bf 6b69 e3ec 2b3d d6bf
00000390: db7c 6500 6883 cc3f 95c2 49d6 b95d cf3f
000003a0: 024c f7d6 1ec0 bc3f 2c1d 81c8 6f6c a33f
000003b0: 7372 9d6d 60d3 cabf 6c6f 8a02 90a8 debf
000003c0: 2cc9 8398 7403 c4bf 3ef0 922b 09c2 bebf
000003d0: 0428 5ad5 f26d cf3f 0688 b6cb ff22 dd3f
000003e0: 6c91 0d30 406c df3f 9c72 7143 b4a3 d9bf
000003f0: 2848 dcb7 d434 d8bf 179e a253 8618 e3bf
00000400: 1c5b 5105 efca d03f 8437 1ba4 e84c e43f
00000410: ccd8 c91f 4903 bcbf 915d ca09 4c22 e03f
00000420: c729 abc9 00d0 d2bf d6e8 8c61 a034 d73f
00000430: f1ea 28fd e32e d13f 2bcf 2a4f 8c31 cdbf
00000440: 36c9 7345 f460 d43f 629e 9ac5 e67a 973f
00000450: 3beb dbe3 1202 bdbf 8326 52ad e42a c93f
00000460: 0307 daf3 c12b babf 6e0e 6344 0b5b e43f
00000470: e128 a92e 1f9c c3bf 8a63 1a50 9470 b6bf
00000480: 4d03 44a1 4d69 a93f 992c 42bd 959e d23f
00000490: 5004 e321 a1e3 c4bf fa3e f6c3 4dfa cd3f
000004a0: f317 33ed 7e11 c6bf b5ca b0fc 0446 d03f
000004b0: dde0 cc55 b3b3 b7bf 0f84 e03d d99e e13f
000004c0: bd4e 43b7 1c6d a7bf 9945 e4d2 94c9 cfbf
000004d0: 2405 8139 9135 c9bf 6d7b 6929 6d5b a9bf
000004e0: 0000 0040 ba70 d83f 0000 00c0 4062 cabf
000004f0: 0000 00c0 967a d63f 0000 0000 0cd9 d93f
00000500: 0000 0000 c1bc ad3f 0000 0080 6f67 ce3f
00000510: 0000 0000 598e bf3f 0000 00c0 7712 d43f
00000520: 0000 0000 9094 b3bf 0000 0000 7fce c03f
00000530: 0000 0080 594a b23f 0000 00c0 8947 d13f
00000540: 0000 0080 b974 c83f 0000 0060 2de1 cbbf
00000550: 0000 0000 4afc aabf 0000 0000 2610 cf3f
00000560: 0000 0000 49e7 c93f 0000 0080 0b85 c73f
00000570: 4fdc 01b4 f7ea 82bf 791c 813b ad22 b33f
00000580: 3d15 724b a6c5 92bf d8ea d65a 1eb3 d7bf
00000590: bd0e 3867 214d e53f db2b 0c0f 1c70 d6bf
000005a0: f9e5 a2e7 c2c7 a53f 5dd4 3941 7a56 ba3f
000005b0: 72fb 11c8 232f b9bf 1b4a f7f2 98e6 c0bf
000005c0: 4327 1f15 2543 94bf 8fe4 a954 0fdd c93f
000005d0: 90d0 640f 6b62 97bf 6a70 4945 c605 bdbf
000005e0: e0c3 973b 5758 e93f f809 58bc b307 b5bf
000005f0: 24ba ed6b 487a b03f de0b d803 752e c7bf
00000600: e860 7069 3bad a93f a6c9 d919 8c11 90bf
00000610: ffad e570 fc2b d5bf 38f8 34ad 0e25 e3bf
00000620: 5e6e 189f 34f1 d2bf 580e 8622 093c d63f
00000630: f33b 62ef 194b e03f 198f eb2c 081b d13f
00000640: 95f6 e2d7 8b0e b1bf 8549 7925 1e78 ccbf
00000650: 32f0 2580 9161 c7bf 2638 5431 90ca ca3f
00000660: 4f95 8260 08a1 c3bf 9703 039e bfb7 9fbf
00000670: 4644 952c c910 d0bf fa68 ded4 db7c bbbf
00000680: a01e 3f83 8722 cabf fcc9 b68e e735 7dbf
00000690: 9d1d bd14 b199 d53f 7190 431d 47aa d03f
000006a0: ce92 18b6 e688 d33f 2961 67ef e88a b8bf
000006b0: 8e50 614a 5e1d ca3f d751 56d6 c543 9dbf

bias f8 [36]
-0.9631586420788263 0.008287101984024048 -0.6095860563629377 -0.36816644866678006 0.17006146907806396 0.1830502078137911 -1.5510814760399563 0.2634550667346657
-0.6479372259649889 0.08451864123344421 0.05541721986286167 -0.6905986177333701 0.2884270061833631 0.33789291532171695 0.019019101563601017 1.2885725957893952
0.5712837841703597 -0.11761075258255005 -0.5986103616251615 0.16975543483432254 -0.7858152477539337 -0.17843091994495522 0.4367033814967661 0.6385908436860476
0.28837621906950495 -1.6507656545183007 0.31587761640548706 0.10171341896057129 -0.26755136251449585 -0.28970440799837 -0.12880719691559542 -0.020259249678907267
-0.4083312173315909 1.4563063283248556 0.3704086191079705 0.13153863625697834
00000000: 96d3 9212 32d2 eebf 0000 0000 d4f8 803f
00000010: 51a5 059e ba81 e3bf b687 2002 0a90 d7bf
00000020: 0000 0000 93c4 c53f cc09 0b70 306e c73f
00000030: 4a5e 50cf 3ad1 f8bf 16d1 e5a3 72dc d03f
00000040: ca2d 6cd9 e6bb e4bf 0000 0080 03a3 b53f
00000050: 9578 e455 a55f ac3f f27b ba45 6219 e6bf
00000060: 97ce b58b 9675 d23f fcd6 369b 09a0 d53f
00000070: ca20 dc4c be79 933f 19ff 564c fe9d f43f
00000080: eee5 37ee f447 e23f 0000 0000 bd1b bebf
00000090: f641 c7ea d027 e3bf 1c41 77cc 8bba c53f
000000a0: 1ca4 b904 6625 e9bf 991f e10a d3d6 c6bf
000000b0: bd32 65bd f2f2 db3f 0d03 a510 566f e43f
000000c0: fc3f 7687 c174 d23f 1842 383f 8969 fabf
000000d0: 0000 00c0 5637 d43f 0000 0000 e409 ba3f
000000e0: 0000 00c0 8f1f d1bf e50a 775b 848a d2bf
000000f0: 0df7 1e15 c17c c0bf 27e7 3f3b d7be 94bf
00000100: d700 1842 1922 dabf 3bcf 51dd 074d f73f
00000110: 906a 4e5a c6b4 d73f 372c 710e 42d6 c03f

weight f8 [72, 36]
-0.20748382511157093 -0.031007885932922363 -0.06901220029494412 0.06586073471294909 0.11197878420352936 -0.0004589837219795989 -0.07516580935502631 0.2340999117428702
0.09473617982125498 0.035750508308410645 0.0280039044547181 -0.07555271452829117 0.0037467514515795233 -0.1420158896838563 0.051862643729745764 0.19894492543448467
-0.033522635634059196 0.1332327276468277 0.2837430097838003 0.003002155222053468 -0.1602451718874529 -0.23179901347242565 -0.22368234358827616 0.06741269254079324
-0.12200036062723982 -0.06576266741906159 0.11685739457607269 0.0012595206499099731 0.031116172671318054 -0.24305105584092287 0.05956123470568207 -0.18714448318749258
0.06975002155780886 -0.23485009942914328 0.0036967280564160552 0.1277357745288725 0.16395534067440326 -0.05801109969615936 0.1185701405617816 0.09944665528832132
-0.15401378273963928 -0.11335044036995952 0.23468860791280297 0.14593179183228358 0.005291751682171137 0.05373789370059967 -0.12291474076759566 0.23007949597651783
0.12285246243237208 -0.21103750849689046 0.18650070680332323 -0.02534032796102344 -0.17327137906758935 -0.09180299937725067 0.36673432191095645 0.09909633332838641
-0.0519426025549199 -0.30622707293044715 -0.08631156122902066 -0.23528265028856013 -0.12549950186763187 0.4750803253519684 -0.07774826139211655 -0.01838691532611847
-0.11925302445888519 -0.14188261829267004 0.09230007369834557 -0.020139372332012153 0.1856396327766139 -0.08483703035438717 0.23823484480972698 -0.045895797457788615
-0.053433960752848855 -0.10940667241811752 -0.026256357479333817 -0.1363589162407215 -0.050743602216243744 -0.126912341880528 -0.1582702798991044 -0.1325591031133028
-0.03540931898946664 0.1391572803258896 -0.13920656693469108 -0.015083759412477948 -0.0007027388960967643 -0.18521702144640254 -0.1592290931285129 -0.09351642561859054
-0.03240202070372921 0.08185042440891266 0.12342394691760128 0.1184608300386388 -0.07555823171784917 -0.31989474541294727 -0.004222367236664764 -0.06488385324462181
0.11525086986744112 -0.27850962121525913 -0.009450316429138184 0.0005255937576293945 -0.02927422523498535 -0.21549234438615558 0.0260572327363292 -0.1198919165520401
-0.08125853431957905 -0.1729663666004884 -0.12408145674704346 0.006912603307019407 -0.1267986650714849 -0.04988163709640503 -0.005150140597657386 0.013069896815874726
0.11740918457508087 -0.1457664137646602 -0.019789307173242714 0.024601138087616544 -0.2445195239571534 -0.11606743186712265 0.03300588362649507 -0.11199177479125139
-0.11882998754112555 -0.05108522929146022 -0.0979362861883528 -0.314122706903012 0.030082607385615204 -0.05929231643676758 -0.22324796967067692 0.04909421144859802
-0.11676150780442411 -0.47200963788872957 -0.056258164532154493 -0.08028968968568219 -0.0033377076300270844 -0.023597228399103738 -0.045117318630218506 0.10953660309314728
0.042691007256507874 -0.3175250304869085 -0.004739297661502213 -0.23656941627294278 -0.418668407816119 -0.008715219304260965 -0.004333248917232843 -0.06277809858936004
0.09232189812825206 -0.0966300368309021 -0.01216495000860776 0.15716350238920837 -0.16479900479316711 0.06890061463531683 -0.10021730298836727 0.0004742544108773818
-0.08739462348831883 0.13430942595005035 0.014003830032032734 -0.031030686042296047 0.09274383450523994 -0.2252101362133242 0.05613661671132124 0.04774693912247769
-0.12792278115476877 0.16020973026752472 0.024716145620343015 -0.08994553796200985 -0.1274152841939503 -0.06151480544394842 0.00803694256881781 -0.1881068229656254
0.06490054774157407 0.18721118936978556 0.1399497538805008 -0.09292414039373398 -0.16602812707424164 -0.13767013659790694 0.04579945775924254 -0.09366594325064234
-0.14417774984995305 -0.004877480533083085 -0.15022079845885297 0.07412723016572656 0.27312953778596966 0.11770550906658173 -0.29374889499098095 -0.8274839623932154
-0.11011292785406113 0.10495342314243317 -1.0783255805902239 -0.004379196335658639 -0.5051220028155585 -0.06845217943191528 -0.05962395668029785 -1.1245853418741307
-1.4588240481226278 0.10033343207369057 -0.1276450768499237 0.27265670504172074 -0.7889186009021181 -0.05430249869823456 -0.2596263298515112 -0.4299374257342433
-0.28765284209711406 -0.9864783104387104 0.25179457061644955 0.33140034284228737 0.050060346722602844 0.10523944303537867 0.08286432921886444 0.032697126269340515
-0.09380247443914413 -0.35974114458217293 0.08965274339057672 -0.37167159024414836 0.1560546030873744 -1.0360742667502294 0.05109831260961342 -0.03762181103229523
-0.08283396834393729 -0.0016603022813796997 -0.16443422394134005 0.06111445389467101 0.11611716449260712 -0.11031415313482285 -0.20790535940822552 -0.12199576933578997
-0.14731068017982218 0.029874518513679504 -0.022906675934791565 -0.10097058247646364 -0.15399053467064502 0.06700530494585659 0.09815081877420029 -0.1259336096802692
0.04868062150585595 -0.15380939841270447 0.08098469946948585 -0.09675596382076682 0.061336674518081384 0.055480353239635634 -0.03882181733246773 -0.16038908343679617
0.11403657495975494 -0.1730093536490779 -0.14746388792991638 0.07280461490154266 -0.13287250697612762 0.08702923188665719 0.06352548772972919 -0.0856291431825755
-0.05836008940922399 0.01890173630870741 0.02964771131969826 0.08569864928722382 0.43425382495855736 -0.09990286827087402 -0.10487050340357738 0.10870570490118635
00000000: a0ce a679 d48e cabf 0000 0000 88c0 9fbf
00000010: 86b2 4a97 c8aa b1bf 0ac2 aec5 3fdc b03f
00000020: 0000 0040 a4aa bc3f 1ec7 4613 7814 3ebf
00000030: a40b f504 113e b3bf 824f 7764 fcf6 cd3f
00000040: 448c 145a a140 b83f 0000 0000 e44d a23f
00000050: da5c 2c37 0ead 9c3f 99e5 0536 6c57 b3bf
00000060: d0be 6cde 81b1 6e3f 462d daa0 932d c2bf
00000070: 7a1e 688d bd8d aa3f 621f 39fe 0677 c93f
00000080: 3db1 72ff e029 a1bf 0000 0020 c50d c13f
00000090: a85c df70 d828 d23f c628 e1cf f997 683f
000000a0: f09b 4cee e982 c4bf 06f8 0d0f 97ab cdbf
000000b0: 7ebf 337f 9fa1 ccbf 644a cc4d f541 b13f
000000c0: f683 fe66 6a3b bfbf fad2 dc79 d2d5 b0bf
000000d0: 0000 00c0 5dea bd3f 0000 0000 d0a2 543f
000000e0: 0000 0000 ebdc 9f3f 0f2a 0c08 4c1c cfbf
000000f0: 8e2f 5766 cf7e ae3f 9d63 75b5 59f4 c7bf
00000100: 0170 7c2d 23db b13f ad58 416c 910f cebf
00000110: cf2a 58c3 9948 6e3f ffbb 1057 a559 c03f
00000120: aabd 1915 7dfc c43f 0000 0080 a1b3 adbf
00000130: afb6 fedb 9c5a be3f e1f0 2804 5675 b93f
00000140: 0000 0040 b9b6 c3bf f54c 60d2 8804 bdbf
00000150: 3f58 ddbb 460a ce3f 29e4 ae98 e4ad c23f
00000160: 219b 9dc6 cdac 753f 0000 0080 8883 ab3f
00000170: 4f0b cb27 5777 bfbf ea82 59b3 3e73 cd3f
00000180: ac4e 614c 4273 bf3f 8e9a 9cee 4603 cbbf
00000190: 2559 3352 41df c73f d535 739f d0f2 99bf
000001a0: 7bcc 36ad c12d c6bf 0000 00c0 6680 b7bf
000001b0: 2c69 bb3b 9378 d73f f886 cc96 605e b93f
000001c0: e129 7c86 3898 aabf 7eb5 d86f 3999 d3bf
000001d0: f3ce beb4 8318 b6bf f11c 27ec bd1d cebf
000001e0: 4ec7 1720 5e10 c0bf 0c06 174f b767 de3f
000001f0: 0000 0060 4fe7 b3bf 0000 0000 05d4 92bf
00000200: 0000 00c0 5d87 bebf 190c b8aa 3529 c2bf
00000210: a7e9 f345 faa0 b73f 67a1 1c66 6a9f 94bf
00000220: 11fa ce1b 0ac3 c73f 58a2 dc2e e1b7 b5bf
00000230: 53da 9cb9 7a7e ce3f 12c8 356a a77f a7bf
00000240: 7ac4 db33 b25b abbf 0000 0060 1302 bcbf
00000250: 9448 be52 f2e2 9abf b0cd e27e 3574 c1bf
00000260: 0000 00c0 10fb a9bf 37f6 eae2 a93e c0bf
00000270: b536 0c56 3342 c4bf 2d51 545a b2f7 c0bf
00000280: a018 1196 2b21 a2bf 0000 00e0 e7cf c13f
00000290: 46bc 2f52 85d1 c1bf f3c2 04eb 3be4 8ebf
000002a0: 2241 c649 0007 47bf 9d2d e3fc 30b5 c7bf
000002b0: 8683 c771 9e61 c4bf 91b0 ab45 b1f0 b7bf
000002c0: bf60 7e66 ff96 a0bf 0000 0040 26f4 b43f
000002d0: 10e9 8d37 b698 bf3f d67a dfee 7253 be3f
000002e0: f2f7 2bc6 c857 b3bf a47e 6dcf 2779 d4bf
000002f0: d240 1713 794b 71bf 8c5f b96b 3a9c b0bf
00000300: d68c eabc 1481 bd3f ac6a af04 1ad3 d1bf
00000310: 0000 0000 b05a 83bf 0000 0000 0039 413f
00000320: 0000 0000 10fa 9dbf e7a4 d6cd 4095 cbbf
00000330: 9e09 b549 bfae 9a3f 6651 a594 3cb1 bebf
00000340: 8e69 6cfb 5bcd b4bf a1b3 ed0b c323 c6bf
00000350: 54c2 c466 cdc3 bfbf a954 24d2 6350 7c3f
00000360: 3e49 d44b f03a c0bf 0000 0000 168a a9bf
00000370: 78e3 fc56 5018 75bf 2018 17db 63c4 8a3f
00000380: 0000 0040 870e be3f cab9 fc4d 79a8 c2bf
00000390: 0b72 7aec a543 94bf ff6d 1f6e 0a31 993f
000003a0: 3992 506f 6a4c cfbf 0000 0060 98b6 bdbf
000003b0: a5b4 80ad 25e6 a03f 8440 2632 7eab bcbf
000003c0: dbf1 455e a46b bebf 9320 3bda d727 aabf
000003d0: bf4a 453a 5a12 b9bf 6115 4520 961a d4bf
000003e0: 6437 999b f9cd 9e3f 0000 0000 905b aebf
000003f0: 8325 51b4 6393 ccbf 4c74 3061 e022 a93f
00000400: 5b9f 7309 15e4 bdbf d53f 88e9 6735 debf
00000410: e1e0 98c1 decd acbf 31ef 6777 dd8d b4bf
00000420: 479b aa23 ae57 6bbf 0567 0031 df29 98bf
00000430: 0000 0000 9e19 a7bf 0000 0040 970a bc3f
00000440: 0000 0080 98db a53f 3a92 6681 5452 d4bf
00000450: 3b03 6587 8369 73bf 0724 1019 e847 cebf
00000460: 6212 dc93 76cb dabf eb38 1def 48d9 81bf
00000470: 70b9 28a6 bdbf 71bf 62ab 58b8 3912 b0bf
00000480: 4e5d 2a6d 68a2 b73f 0000 0000 bfbc b8bf
00000490: 4f39 8ef3 efe9 88bf c777 7103 ef1d c43f
000004a0: 0000 0040 2218 c5bf b071 887e 78a3 b13f
000004b0: 6f0f d456 d7a7 b9bf 0da3 482f ab14 3f3f
000004c0: 1883 ba79 7e5f b6bf 0000 0020 0d31 c13f
000004d0: 31f3 0c40 0aae 8c3f d57b e516 82c6 9fbf
000004e0: 590b 1b58 0fbe b73f 8cc8 e18c afd3 ccbf
000004f0: 5634 c449 f0bd ac3f 09c1 076c 4972 a83f
00000500: 718e bc10 c65f c0bf 0000 00a0 c081 c43f
00000510: ee7c 7d74 304f 993f 26cc f7b7 ab06 b7bf
00000520: e3d0 4fdf 244f c0bf d5ff 335b de7e afbf
00000530: fc76 f12b ac75 803f 735a 6566 e213 c8bf
00000540: 61e4 0a82 529d b03f 4ded e447 89f6 c73f
00000550: 0000 00a0 dfe9 c13f 0000 0060 e0c9 b7bf
00000560: 0000 00e0 6840 c5bf 5874 29cf 2c9f c1bf
00000570: ef3e 80ca 0673 a73f 2eb0 02c3 7dfa b7bf
00000580: 294d 35a0 6a74 c2bf d403 06b6 68fa 73bf
00000590: e5a6 4764 6f3a c3bf 520b 4e8d 00fa b23f
000005a0: 8330 1750 f47a d13f 0000 00c0 f221 be3f
000005b0: d33b 4e2a c8cc d2bf f52f 8ea5 bf7a eabf
000005c0: 0000 0060 5c30 bcbf 0000 0040 3ade ba3f
000005d0: 1e34 f152 d240 f1bf 7dee b590 ebef 71bf
000005e0: a8a6 529e f529 e0bf 0000 0000 1586 b1bf
000005f0: 0000 0000 0887 aebf e190 0e33 4dfe f1bf
00000600: 59e1 94e2 5757 f7bf 3db2 73a9 73af b93f
00000610: 166d 4883 ac56 c0bf a31d cc1b 3573 d13f
00000620: e094 c238 d23e e9bf 0000 0080 89cd abbf
00000630: cd22 f9c0 b79d d0bf 62b8 b643 1884 dbbf
00000640: cc25 5a77 e768 d2bf e985 31f6 3a91 efbf
00000650: b1e9 86f9 661d d03f 1003 99c8 a935 d53f
00000660: 0000 0080 82a1 a93f 9f11 16de f8f0 ba3f
00000670: 0000 00c0 9836 b53f 0000 0080 adbd a03f
00000680: 0000 0060 7003 b8bf f762 c0b8 ff05 d7bf
00000690: 00f5 db70 7bf3 b63f 09dc 3ca3 77c9 d7bf
000006a0: b044 53e4 98f9 c33f edb5 3e9c c293 f0bf
000006b0: 8401 14db 8e29 aa3f 0000 0080 2a43 a3bf
000006c0: f7fc 0861 9b34 b5bf 0000 0000 d033 5bbf
000006d0: bee9 153f 2e0c c5bf f7bd 94c9 644a af3f
000006e0: 0000 00c0 dab9 bd3f 0000 0060 8c3d bcbf
000006f0: 6c25 a98f a49c cabf 0b2e 8c5f 1d3b bfbf
00000700: 2ca7 dc8c 13db c2bf 0000 0000 6d97 9e3f
00000710: 0000 0000 d974 97bf f92f 9845 35d9 b9bf
00000720: a3e8 263b f6b5 c3bf 63a5 6679 4227 b13f
00000730: d8f7 b57c 6920 b93f 4fa1 85af 971e c0bf
00000740: 201a a29a aaec a83f 0000 00c0 06b0 c3bf
00000750: 01a5 b2cb 69bb b43f 6a9b 4db4 ffc4 b8bf
00000760: 177c 3346 8567 af3f d132 78bd eb67 ac3f
00000770: 64e3 a007 74e0 a3bf d58b ff25 a187 c4bf
00000780: 0000 0040 8031 bd3f ed95 e9a5 2b25 c6bf
00000790: 0000 00c0 18e0 c2bf 0000 00c0 52a3 b23f
000007a0: 0000 0060 f701 c1bf 1dcb bf38 8c47 b63f
000007b0: 96fa 42d4 3443 b03f debc 8da1 caeb b5bf
000007c0: 40fa cea6 5fe1 adbf 8451 220d fa5a 933f
000007d0: 48d1 133a f85b 9e3f 0000 00c0 58f0 b53f
000007e0: ce08 178e d0ca db3f 0000 0000 3c93 b9bf
000007f0: b7f4 6e16 cbd8 babf df70 7017 23d4 bb3f

bias f8 [72]
0.4175527797840301 0.3930579059118295 0.07112631916886093 -0.07720662050477112 0.20122153310832655 0.29368444091813406 -0.15640667045861756 -0.10341529148946893
0.08896638453006744 -0.15724073627712873 0.29202939203481265 0.17716142072215013 0.006194940127824915 0.7944813574873563 -0.2839360252356287 -0.008270031721579646
0.7197454028732646 -0.49197389995559104 -0.010594084530854498 -0.19986423140589366 -0.025386039892352715 -0.0939391478896141 0.2522794170408496 0.26818292000684124
-0.11059273941099208 0.22905022680447878 0.33284254277149516 0.3932379354360496 0.011713146031393487 -0.1563541276306643 -0.24812398405103617 -0.32686166191829236
-0.07619693130254745 -0.3455611543871218 0.1496329524131935 0.10256001455507618 0.2261734114206579 0.17195256251806132 -0.02739315768122859 -0.5105705200947358
6.443311134012569e-05 -0.07859139122078505 0.1740566679807178 0.8444797954323541 0.1434086710214615 -1.33713180947206 0.025259679242311053 -0.7412617762085026
0.08818378904552795 0.0209970384478855 -0.233404287068083 -0.03811834752559662 0.4309075191462274 0.13292662290937265 -0.02206672728061676 -0.11223872692413478
0.5008406113191793 -0.8545004246122015 0.09102411568164825 -0.16561740028669508 0.3582327564077491 0.09682842890089915 0.044408298169716955 0.05212128162384033
0.39806342316502985 0.20024188227082265 0.303959614969959 -0.00010640094548645917 0.2089537901056099 -0.3752128377851046 -0.3408675230931046 -0.19117447447465477
00000000: e3ae 614b 2fb9 da3f dbd5 d458 dc27 d93f
00000010: d111 b79e 5535 b23f e848 1a26 d0c3 b3bf
00000020: 5bc2 f98f a0c1 c93f 7498 45d3 b9cb d23f
00000030: 507d 3f3f 2205 c4bf f883 daae 6c79 babf
00000040: 0000 0040 80c6 b63f 9b61 f4e5 7620 c4bf
00000050: 7ba8 100c 9cb0 d23f f8a8 0eb6 39ad c63f
00000060: d2b6 fe93 dd5f 793f 7f13 f62a 646c e93f
00000070: b5c4 a201 022c d2bf 23a0 3fde e0ef 80bf
00000080: 3c2f d982 2708 e73f a6de b218 807c dfbf
00000090: ed87 baf4 59b2 85bf 8aa5 c3b0 2695 c9bf
000000a0: 0f4f 734c ccfe 99bf 0000 0060 650c b8bf
000000b0: c13d 6991 5825 d03f 579c b1b1 e829 d13f
000000c0: a5fc f146 ce4f bcbf 9220 a290 8451 cd3f
000000d0: 88f2 face 4a4d d53f 21a4 0f72 cf2a d93f
000000e0: f5d7 1ad9 0ffd 873f 1658 627c 6903 c4bf
000000f0: 4b1c 6dd6 86c2 cfbf 6a56 102d 4deb d4bf
00000100: 0000 0060 a481 b3bf a115 3788 ac1d d6bf
00000110: 2b61 822e 2c27 c33f 9c2e 6484 5f41 ba3f
00000120: a663 a316 40f3 cc3f 773e 3da4 8a02 c63f
00000130: 940c 80b1 f30c 9cbf a979 c3fc 9756 e0bf
00000140: 8d6d 876c 08e4 103f 8758 0abf 901e b4bf
00000150: 775f 5028 7d47 c63f ad78 f07d fa05 eb3f
00000160: 0000 0020 375b c23f 16fb 0153 e464 f5bf
00000170: 9440 0361 acdd 993f 79e4 d29d 6ab8 e7bf
00000180: 62e7 fc79 3693 b63f 473d c965 3f80 953f
00000190: f70f da11 31e0 cdbf 0000 0080 3f84 a3bf
000001a0: ba58 9521 fd93 db3f e9ec 1455 bd03 c13f
000001b0: 0000 0000 a998 96bf 84dc 7b5d adbb bcbf
000001c0: 17fc c3e3 e206 e03f a314 4446 1158 ebbf
000001d0: 0000 0040 5b4d b73f 72a0 f072 f332 c5bf
000001e0: 5224 4815 49ed d63f 00d2 7377 bfc9 b83f
000001f0: e5b1 9e38 afbc a63f 0000 0000 a4af aa3f
00000200: 3291 0e02 df79 d93f dd42 d2a7 86a1 c93f
00000210: 4b72 6607 1374 d33f e72b 1353 72e4 1bbf
00000220: ed7d 706f ffbe ca3f 5ee3 d4b4 7c03 d8bf
00000230: a704 fd03 c6d0 d5bf ad6c d9b9 6778 c8bf

weight f8 [48, 72]
0.05084918543016654 0.02670554781118183 0.19688298023411815 -0.028725993817200104 0.28417441898502377 -0.12027996188094947 -0.044460304854335934 -0.001987116623273945
-0.09172064810991287 -0.04147778413312567 -0.5619264526117352 0.1300649471390597 0.09105755907247845 0.3352184883051746 -0.2618020478126355 -0.15285671406320683
-0.033101484217940035 0.08000163763796167 -0.006007261766874088 -0.1742808178803952 0.10531700462176638 0.08192218095064163 0.21859631071691252 0.3393431400519273
0.01886130581289626 -0.11533132659609073 -0.12254653530836233 0.2280643419030127 -0.4112744316007743 0.08027172129566604 0.06969874124884551 -1.0809384283167596
-0.046490155160427094 0.11154981858660365 -0.6150607904082735 0.04700499039937325 0.08378505137237258 0.2009245776060541 0.09604872637714724 -0.30871661665355143
-0.07984584734982937 0.06386894083020529 0.08638133621726754 -0.6457870113388121 -0.10641685873270035 -0.1890823769277945 -0.0876421305300123 0.22169600129867467
0.3013809409605079 -0.11078910969935307 -0.39615471889460896 0.0749703124165535 -0.042061438308918724 0.5128446629049168 -0.018618352711200714 -0.1244579745566865
-0.2138797760874737 -0.17654911260197456 0.01846954971551895 -0.045495925337194126 -0.6404116205650593 -0.019356241637006062 -0.4191938101544279 0.08581217378377914
-0.29395646108032697 0.1458977665305638 0.23971584194982384 -0.15979665498681303 -0.24621750214000185 0.12674793035787532 0.5501427309123761 -0.08459542499647199
-0.0830276804347127 0.06950650127129039 0.17573795130425163 -0.11892165858145846 0.40932123456442865 -0.0449167270761503 -0.094603011635906 -0.0004790675907733544
0.018483944237232208 -0.07859721497402081 -0.46672374552011675 0.14403930602667298 -0.06480558311111759 0.36077435554867454 -0.25073217177783297 -0.10611155569667687
0.010059072811871758 0.07044714401794772 -0.17004441009490262 -0.18868046364635557 -0.061593126969214214 0.08907189220190048 0.19457535723927802 0.3540341557871982
0.0506629014778834 -0.10186829088136913 -0.023560571942832686 0.13627061566643917 -0.3823069337264518 -0.01647200066828296 0.08515627832711792 -1.0530594220174485
0.018916942179203033 0.11332155742713168 -0.6340452850028846 0.027767939133984985 0.031497585217020806 0.2358467640443318 -0.052993505710412295 -0.31464574639848997
0.1287098127043024 -0.015452328049816855 0.11626155871947338 -0.6364583606998911 -0.09717603772878647 -0.18320859165046877 0.0204248096547099 0.20250326691629328
0.3500257609948382 -0.1243411319217719 -0.37867599557444337 -0.06855412572622299 -0.05983829789923428 0.5190893231423804 -0.09762535244226456 -0.09144735272534373
-0.2759221730219872 -0.1891947089442955 -0.11216692626476288 0.020361856263460078 -0.5771238017893254 0.0031479417350691033 -0.4424682854927838 -0.049370311200618744
-0.3078031456368575 0.22291137184368803 0.25815976254691847 -0.13063015534171185 -0.27445647985901733 0.13419850944578343 0.5428806509922744 -0.1112645839792251
0.06620959318867325 -0.00013662110509053888 0.25059453500232426 -0.12433431318559458 0.33519807204417273 0.05327157539151095 0.04046949404391749 -0.0016636139398207989
-0.09189438819885254 0.07959489303680178 -0.29020115380392186 0.04431482519170827 0.06987027581320292 0.41053871208630566 -0.22195031448823824 -0.11506076055575236
0.08551936597049653 0.06264944271398275 -0.06512242160641854 -0.1924853557254243 -0.0804037094921264 0.08530835062265396 0.07601835959261147 0.31434873331827123
-0.12124342452388596 -0.055626527527264956 -0.13840820255621966 0.15870340804336164 -0.2845899742359964 -0.0038139925315389157 0.07293061804276667 -0.9447941280274048
-0.03111518919467926 0.0987048022670492 -0.5757813943323293 0.006397506145311642 0.10447701449165035 0.1299771834743875 0.007599751308485449 -0.3080126357789861
-0.051052766997887786 0.021912973158149277 0.11922834810531026 -0.6543504347502043 0.11599298566579819 -0.04599656425883999 -0.004454567909567812 0.1783734913157828
0.29176605175957815 -0.11232277648605832 -0.324359041131503 0.011537037789821625 -0.08434805909643016 0.3934140565440503 -0.11211290955543518 0.078841100486171
-0.3179191099703515 -0.20071899927413647 0.06967798620462418 0.13628828170771343 -0.5754729335614518 0.029899179020373277 -0.4274735597439191 0.0429985448718071
-0.20803990343901543 0.18736525247315258 0.28666487523223405 -0.11511132672832676 -0.28113054360936074 0.18035597307326393 0.4489354792382797 0.09455628770956202
-0.030066183472216845 0.06832473036589577 0.18712941190234125 -0.11876585922276091 0.21655753213242038 0.09685564515860651 0.061692505545243956 -0.030688295080308108
0.10910690575838089 0.09212129962183027 -0.1352849449615798 -0.022736946391010544 0.07420146051707267 0.3671088418914162 -0.18343704960310445 -0.20462428458988605
0.15469452218656482 0.07355386619025066 -0.11807254252636164 -0.2141831774825084 -0.04880339911317776 -0.11501630395650864 -0.0012010116367979515 0.04515950684745579
-0.06354245133876686 0.012223797549525984 -0.10478494578709378 0.12064291789974761 -0.3094840789831884 0.028034848545978104 0.07089405972259229 -0.7811315352121733
-0.10329790413379669 0.024629603900743886 -0.4869241466041852 -0.09207711587680441 -0.01205805087769259 0.17793717904030928 0.007861798771387951 -0.1724151003405184
00000000: e9cf e688 e708 aa3f dd16 e2f9 b258 9b3f
00000010: 7a4d 9f24 7633 c93f 64bb f5cf 586a 9dbf
00000020: 71a1 f9e6 e92f d23f d88e a4e6 aaca bebf
00000030: bf9d a346 80c3 a6bf 842c 211d 4947 60bf
00000040: 0000 0020 017b b7bf 5482 b97c 933c a5bf
00000050: b730 172f 4dfb e1bf c4bb 28db f7a5 c03f
00000060: 0e17 4556 8c4f b73f 1542 123f 3874 d53f
00000070: e863 5860 5dc1 d0bf 4610 f00d cf90 c3bf
00000080: a389 5480 adf2 a0bf 9a0f 48c1 fc7a b43f
00000090: 2c5b 3c0d 129b 78bf 29e7 8e76 d54e c6bf
000000a0: be2b 9022 0ef6 ba3f 0000 0020 daf8 b43f
000000b0: 2317 c7c2 f6fa cb3f 4747 294a ccb7 d53f
000000c0: 2446 81ce 6050 933f b33b ef93 5a86 bdbf
000000d0: df34 63b1 355f bfbf cbb8 ed5c 3631 cd3f
000000e0: 0f01 5afe 5152 dabf de2d c201 b08c b43f
000000f0: d474 3cd6 c6d7 b13f 10c3 e917 864b f1bf
00000100: 0000 00c0 8ecd a7bf 2a46 b466 878e bc3f
00000110: cf5f 7bf7 93ae e3bf 6438 07c1 0911 a83f
00000120: b0bb 89e7 ef72 b53f 3ceb e384 e5b7 c93f
00000130: b1bf 9c3a a696 b83f ba8f 1057 03c2 d3bf
00000140: d1c3 1607 c770 b4bf 4d8c 1804 b759 b03f
00000150: bab6 0956 161d b63f 8937 bc85 49aa e4bf
00000160: 0000 00a0 223e bbbf 38d1 93f0 d933 c8bf
00000170: 7ccf 60f4 b66f b6bf 02ab 9dd9 8860 cc3f
00000180: a309 4449 d349 d33f b863 e9d2 ac5c bcbf
00000190: 22bd 7352 995a d9bf 0000 0020 4131 b33f
000001a0: 2f47 ebab 1389 a5bf 365a e335 3969 e03f
000001b0: 0000 0080 b010 93bf c086 7252 7adc bfbf
000001c0: fd26 c999 6960 cbbf e3b3 614c 2999 c6bf
000001d0: 0000 0080 aee9 923f ec58 d9ee 3d4b a7bf
000001e0: f1c4 c982 407e e4bf 72b8 3763 1fd2 93bf
000001f0: 3021 5346 12d4 dabf 0000 0060 c9f7 b53f
00000200: f96c b2c2 2ed0 d2bf 9673 e72b c7ac c23f
00000210: fbf8 c03a 02af ce3f f7da 967f 3774 c4bf
00000220: 7572 b21b 0e84 cfbf 6783 dcb3 4639 c03f
00000230: 38d3 aced c49a e13f 0046 c0b7 0ba8 b5bf
00000240: 8c3c 2154 4d41 b5bf a5cf d195 2dcb b13f
00000250: 5047 c2c8 947e c63f 9bb8 645a a671 bebf
00000260: e1cd 00b1 5132 da3f 98bc ab43 53ff a6bf
00000270: 8f4e 1429 e737 b8bf 90c2 8ba2 6b65 3fbf
00000280: 0000 0080 74ed 923f eebe de73 f21e b4bf
00000290: 40a2 d145 cdde ddbf 6a8e 5c46 e16f c23f
000002a0: 4e7a 0f44 1997 b0bf 464a 9452 ed16 d73f
000002b0: 6fd0 75f3 fe0b d0bf 99e5 717d 202a bbbf
000002c0: 2b63 0ae6 d999 843f 1058 a7f3 d208 b23f
000002d0: fad3 1ce6 03c4 c5bf dbaa 6072 ae26 c8bf
000002e0: 1978 fb63 2289 afbf 0000 0060 6acd b63f
000002f0: ada0 f965 d8e7 c83f 9878 31e0 7ea8 d63f
00000300: fb9a efe1 7cf0 a93f b5bb d551 0a14 babf
00000310: 43ca e037 4320 98bf dcb8 d8c6 5071 c13f
00000320: d5e7 5880 b777 d8bf 6d0b ae40 09de 90bf
00000330: a8cb 7646 cdcc b53f 23f4 24d6 54d9 f0bf
00000340: 0000 0080 f65e 933f 28d1 143f a402 bd3f
00000350: 06a7 6856 194a e4bf 59c5 d4d9 326f 9c3f
00000360: abf5 d194 7320 a03f f00a 380d 3a30 ce3f
00000370: a26c dafb f621 abbf 7cd9 a6e9 2723 d4bf
00000380: 35a0 1e2a 9079 c03f eddc f75c 78a5 8fbf
00000390: 566c 7b48 51c3 bd3f 0519 8fec dd5d e4bf
000003a0: 0000 0060 87e0 b8bf e413 be0e 6173 c7bf
000003b0: 34dc f9c5 3dea 943f b48b 5e86 a0eb c93f
000003c0: eebd 0e73 d266 d63f 5ad1 2607 d2d4 bfbf
000003d0: 3b70 313e 3a3c d8bf 0000 0060 c38c b1bf
000003e0: 8810 0d19 20a3 aebf 772d 5336 619c e03f
000003f0: 0000 00a0 f9fd b8bf 45d9 42fd 1769 b7bf
00000400: 5cb9 5779 b5a8 d1bf 75f9 be3f 8837 c8bf
00000410: 0000 00c0 f8b6 bcbf 9a1c f30a bdd9 943f
00000420: f4b4 cd55 cc77 e2bf 7ea2 a859 b6c9 693f
00000430: 4d5b ed7f 6651 dcbf 0000 00c0 1047 a9bf
00000440: 4870 07f7 0bb3 d3bf 3cd1 fc1d 5c88 cc3f
00000450: 970e 5286 b085 d03f dc32 882a 7db8 c0bf
00000460: 62dd 4ae9 b190 d1bf 52ec 9eb0 6a2d c13f
00000470: 8793 343e 475f e13f 37d1 64f5 d57b bcbf
00000480: d043 6da5 1cf3 b03f 4816 4b5b 3ee8 21bf
00000490: 390b 19a9 bd09 d03f a51a e7a0 5fd4 bfbf
000004a0: 942a 479d e273 d53f 00d3 3974 6946 ab3f
000004b0: 6aff cee2 6ab8 a43f 40a5 bddd b341 5bbf
000004c0: 0000 0000 6486 b7bf f08c 85b6 5460 b43f
000004d0: 1a5b 36dc a792 d2bf c149 dac9 6eb0 a63f
000004e0: 6788 94b5 04e3 b13f e6c4 8929 4446 da3f
000004f0: d12d 082f de68 ccbf c3cc a33b 9f74 bdbf
00000500: 9497 04e0 98e4 b53f dfb5 913b cb09 b03f
00000510: 2e30 09ef dcab b0bf 125a e631 5ca3 c8bf
00000520: a1ea be66 5695 b4bf 0000 00a0 c4d6 b53f
00000530: 9688 5870 f075 b33f 2706 4926 4a1e d43f
00000540: fb64 2f1f cf09 bfbf 230f 0a89 147b acbf
00000550: d811 bd27 5cb7 c1bf 7aad a7ad 6450 c43f
00000560: d23c 07de b836 d2bf 08b1 15a6 853e 6fbf
00000570: 7fe9 5ebb 94ab b23f ca93 2ae5 c03b eebf
00000580: 0000 0000 a9dc 9fbf 94f3 b1c9 b744 b93f
00000590: 2eaf 491a cd6c e2bf f89d b87a 4534 7a3f
000005a0: 27e4 6c70 01bf ba3f f1d4 1fa4 17a3 c03f
000005b0: 822b 3eb5 ea20 7f3f 783b 5ba1 7ab6 d3bf
000005c0: 06a2 4099 9623 aabf 311d 4abc 5a70 963f
000005d0: 3150 debf bf85 be3f 2c04 ac52 70f0 e4bf
000005e0: 0000 0060 b7b1 bd3f 5bae 7096 dc8c a7bf
000005f0: 2b9a d4f7 f33e 72bf 2f5a d64b f1d4 c63f
00000600: d4fc 9884 4bac d23f 7c81 9a7b 2fc1 bcbf
00000610: 2197 746c 4cc2 d4bf 0000 0000 bba0 873f
00000620: b7dc 4c9b d597 b5bf 512d a926 b22d d93f
00000630: 0000 0080 6eb3 bcbf 7933 2b2c ee2e b43f
00000640: 4b26 0665 c958 d4bf dfbc c800 29b1 c9bf
00000650: 0000 00a0 6ad6 b13f fb9e 61f8 e471 c13f
00000660: d125 ac36 466a e2bf 366d 47f0 e39d 9e3f
00000670: 364f c00f ba5b dbbf 0000 00c0 e703 a63f
00000680: ff4b c432 0da1 cabf 67b5 e3a7 95fb c73f
00000690: 0c33 02a2 b758 d23f 7d84 b297 ef77 bdbf
000006a0: b85e adf6 0afe d1bf 5574 fe8e e715 c73f
000006b0: 7eeb 55e0 5bbb dc3f 0fff 5743 d734 b83f
000006c0: 3032 ea6a abc9 9ebf 5df6 6dc2 ba7d b13f
000006d0: 21c1 1e48 dbf3 c73f ad3b 3e79 7067 bebf
000006e0: 1509 1b3f 28b8 cb3f 54a2 6314 88cb b83f
000006f0: 1e43 73fb 2896 af3f dbad f59e c06c 9fbf
00000700: 0000 0020 6eee bb3f 0a0a 24f1 4295 b73f
00000710: 8725 205f 0451 c1bf 8224 a4a4 5a48 97bf
00000720: b17b 3cee ddfe b23f 91bf 7f15 b67e d73f
00000730: a3c4 7580 dd7a c7bf 69f6 23e9 2031 cabf
00000740: b2b0 d4b4 07cd c33f 830f c819 6dd4 b23f
00000750: 95cf b48c 003a bebf ad03 52b7 5a6a cbbf
00000760: 1fdd 3f56 c2fc a8bf 0000 0060 b571 bdbf
00000770: 893b f06c 68ad 53bf a8d0 069a 251f a73f
00000780: 655d 686e 5144 b0bf cd44 aa55 ca08 893f
00000790: 93c9 44ab 2fd3 babf 0b99 df4a 74e2 be3f
000007a0: f263 774f 96ce d3bf d2f7 9cd6 2ab5 9c3f
000007b0: 853c fdf3 1c26 b23f ae89 b38f 07ff e8bf
000007c0: 0000 0040 bb71 babf 458a 11bd 8038 993f
000007d0: 450d 53e5 c329 dfbf e59f 66a9 5d92 b7bf
000007e0: 6ab3 6231 e4b1 88bf 713d 5c3e a5c6 c63f
000007f0: 4d02 e3c4 d819 803f 6b48 a6b0 b211 c6bf

bias f8 [48]
0.5455712731417743 0.4787448435540676 0.37324852534787994 0.28510698686658265 0.26220440896340313 0.42530942863276044 0.44770196423083125 0.4548040532852289
0.3724878893611212 0.1917987552964745 0.07279418655523946 -0.032167749553223574 -0.17687708510761496 -0.20349047267629614 -0.22873091310954843 -0.3711052990399294
-0.3280846810863678 -0.38272307717842446 -0.3817673349304735 -0.38174521753338375 -0.4242361933006628 -0.38441827827001623 -0.43236108877387547 -0.39799858766693574
-0.5355590925338161 -0.491237705504832 -0.5273732006052829 -0.47985512744796455 -0.6197617778125794 -0.5610028780387077 -0.5427486433724635 -0.5674267173613411
-0.5706433801597761 -0.5236715995753908 -0.5991489879801589 -0.5721952598302533 -0.6097573372299026 -0.6179355867860535 -0.5438351658528057 -0.6725854678094709
-0.6357677523601118 -0.5518984397870432 -0.6348637750498004 -0.7210329186749925 -0.6056632940428223 -0.6664371683347237 -0.6370891608020074 -0.5797864420116723
00000000: fcfd f8e2 5175 e13f f55f 8c69 c1a3 de3f
00000010: 4d8f 69c8 4de3 d73f 2aff 1c60 313f d23f
00000020: 4e59 5700 f5c7 d03f 2a1f aa09 4538 db3f
00000030: 0b7d ae23 26a7 dc3f f0b0 bc75 821b dd3f
00000040: c092 bd71 d7d6 d73f fcb7 b492 dc8c c83f
00000050: 2dfb 97ca a3a2 b23f a44f a290 4a78 a0bf
00000060: 5279 f987 e8a3 c6bf 6b9c 98ce f90b cabf
00000070: 9de2 b1f7 0d47 cdbf 4aec af70 30c0 d7bf
00000080: 1869 e5e3 56ff d4bf e8f8 f9ee 887e d8bf
00000090: 0f47 8d42 e06e d8bf 6075 2d7e 836e d8bf
000000a0: 5b60 0090 af26 dbbf d3e0 491f 4f9a d8bf
000000b0: 1e31 16d8 cdab dbbf 2e8e 7811 cf78 d9bf
000000c0: fe42 70d2 4c23 e1bf 2b24 ed45 7070 dfbf
000000d0: 845e 2cc3 3de0 e0bf 2c3e cd47 f2b5 debf
000000e0: d181 e0a6 16d5 e3bf 886b c44e bcf3 e1bf
000000f0: 8a75 2767 325e e1bf ef31 3e13 5c28 e2bf
00000100: 60e2 eee7 b542 e2bf 63a6 40f1 eac1 e0bf
00000110: 0bcd 997f 3a2c e3bf 8ab5 fc6e 6c4f e2bf
00000120: 4ec0 bcd1 2183 e3bf 3ffb 08da 20c6 e3bf
00000130: c714 7801 1967 e1bf 9035 80f5 d185 e5bf
00000140: 939e 079d 3558 e4bf 2c29 b3ea 26a9 e1bf
00000150: b720 e8d5 cd50 e4bf 7b8d a1a0 b312 e7bf
00000160: 53a6 09fd 9761 e3bf 7cc4 5a0a 7453 e5bf
00000170: 8dfb c8ce 0863 e4bf b256 e34b 9c8d e2bf
