Sphere/NeuralNetworks/models/net_gridded59.pt (torch_old, 71512 bytes, 6 tensors)

weight f8 [36, 6]
0.4033711552619934 0.3026312589645386 -0.10735830664634705 0.10992735624313354 0.31211215257644653 0.3567025065422058 0.051885247353402594 -0.13804931608623397
-0.27161757442156415 0.8548882297949452 -0.19601328386463812 -0.2677300785127722 0.07280666615771227 0.012676978535738999 0.3477890020186459 -0.36582329460298013
-0.41833709711461897 0.366568900954461 0.27242502190796297 -0.40884923693375846 0.12737986058844447 0.3040478828694809 -0.01499015065839488 0.14436665117481698
0.025351988282363732 -0.5107474442064561 0.7375032188313247 0.19372782803049787 0.01968352087114901 -0.28096574276403535 0.04261342384943815 -0.37615709805461806
0.36653049701845614 0.13649781487290785 0.1929757619779818 0.3628093728519609 0.11986085044586502 0.12836691629361707 0.1700793057217004 -0.3706714101749014
0.24516514305029768 0.33933511380915576 0.3036015201483073 0.04332607347849645 0.27154641456481726 0.059304110522014314 -0.14155321892311884 0.045609644639313565
0.3333887244122266 0.31347113707752533 0.15132999061905147 -0.11850639972204548 -0.2539933610567898 -0.49362132407849724 0.18214201103031458 -0.17236437402366317
0.5708467616637651 0.06979875028724974 -0.07776670509541281 -0.2517052285572153 1.0813066590089904 -0.1087009315357311 -0.16846004134200032 0.08380036910873036
-0.04156346930412183 -0.24534486154973661 -0.1317610022285512 -0.06569521995207712 -0.03190763498146818 -0.2523991986734059 -0.24449140203120967 -0.4341246531241325
-0.06422482134973087 0.4915673328439651 -0.11183916260573251 -0.16684741628623667 -0.2603915117262144 -0.07076791220777379 -0.235303868835223 -0.4044752889430579
-0.032255268268816 -0.1384815117783782 0.08130653015263703 0.5738890632122273 0.5244254169187366 0.25141061985336693 -0.48954575764546043 -0.12731152096146373
0.07411668431357071 -0.011041206443502418 -0.0334797442998708 0.3425279745718344 -0.02262944352209996 0.06673875242552826 0.2498194689243143 -0.31877237155472016
-0.052482277154922485 0.022106528282165527 -0.09877905249595642 0.018185794353485107 0.38569486141204834 0.06352978944778442 -0.08417543768882751 0.14745622873306274
0.22467976808547974 -0.14290347695350647 0.2474839687347412 0.38697052001953125 0.4909773758953462 -0.6133585976361822 0.10950362253220006 0.15286343037000902
0.012226711466189382 -0.012781413982814328 0.10093290219967815 -0.14423797737315247 -0.33699681321541075 0.016411582084613265 -0.08692806137915403 -0.14833780189805737
0.22827258038792628 -0.1428909650165583 0.023995314723921756 -0.027685510637288087 0.1399517781481031 0.08525932881991613 0.18784493207931519 -0.006983280181884766
0.13506931066513062 0.3615756630897522 0.3075598478317261 0.015314102172851562 0.34782230854034424 0.06234538555145264 0.099789559841156 -0.05710190534591675
0.40154433250427246 0.3881545066833496 0.23767806512149517 0.4887050852948091 -0.09457616646061591 0.2971189683272253 0.18481744093885175 -0.15433780799031493
-0.026730216192957387 0.026668395722603343 -0.3685194765761696 0.11889145343322298 0.2822929567327954 0.434110834546169 0.009261176266836313 0.32727417880085025
-0.37391384896954694 0.32699409973271726 -0.3505962057968338 0.07721786410731292 0.03167494086146754 -0.1443343570809139 0.22734170041661586 0.1721630085995902
-0.11151196310733723 -0.2694971756702723 -0.46473234180290235 -0.28380866042980235 0.06489196168577174 0.28384464677180504 0.16986905558454315 0.24447099393776692
0.04889941215515137 -0.19049423933029175 0.34938496351242065 -0.11799678206443787 0.28065621852874756 0.31030601263046265 0.12951479341278158 -0.06362357370292086
-0.03841338626274454 -0.34681719563804325 0.6844830777986065 -0.4296811870461192 -0.4846182929653922 0.5704402203851238 0.16855590002860868 0.2892188737819271
-0.048786689627153636 -0.14906703871825225 0.11291329738259653 0.026403043851399906 0.4826685306902717 0.448575621145847 -0.19928545070140544 -0.0841464770014085
-0.080230691992553 -0.04517931212482881 -0.11854439089970058 0.10858540601856115 0.5678871262906069 -0.439509738297065 0.0865353669694686 -0.03640796333201015
-0.1187386597301473 -0.12415136655391798 0.4329711549539468 0.06980773536776236 0.29494912015002217 -0.36976144120789844 -0.3418077097314928 -0.24757968545439213
-0.2348483859815168 0.25097131258843663 -0.11994785995783443 0.3487799952613957 -0.16908347407200516 0.4328608106746064 0.33442926908850756 0.07137939108289332
00000000: 0000 0040 d5d0 d93f 0000 0080 4f5e d33f
00000010: 0000 0080 d57b bbbf 0000 0000 3324 bc3f
00000020: 0000 0040 a5f9 d33f 0000 00c0 36d4 d63f
00000030: 3e33 0e01 b490 aa3f 59ab e998 99ab c1bf
00000040: a934 caad 2e62 d1bf 448c 968f 3e5b eb3f
00000050: 1cdd e399 f616 c9bf 2a8b d756 7d22 d1bf
00000060: 9102 142a 75a3 b23f f7e4 c841 63f6 893f
00000070: 2907 65cd 2c42 d63f 52d3 9b1b a669 d7bf
00000080: 34e5 b3f5 08c6 dabf eb1f 5568 dd75 d73f
00000090: f53b ed5b 696f d13f c900 68fd 952a dabf
000000a0: 82bd b2b7 fb4d c03f daea 5540 8575 d33f
000000b0: 6327 b8f6 27b3 8ebf 81e5 b63e 9b7a c23f
000000c0: 9fcc 3e22 dff5 993f ea3b 2c06 0b58 e0bf
000000d0: 9f68 b259 a099 e73f 2ea9 dbce 12cc c83f
000000e0: 8499 a5b9 ea27 943f c1f1 1dbd 57fb d1bf
000000f0: d59b 9b3b 6dd1 a53f e461 9338 f512 d8bf
00000100: c793 6b54 3c75 d73f 9663 6da9 c278 c13f
00000110: c3dc 4e05 6eb3 c83f 5a36 c5cd 4438 d73f
00000120: 4759 bc60 33af be3f 4c4a afbd 536e c03f
00000130: 158a e69f 28c5 c53f 99db 1094 14b9 d7bf
00000140: 9895 c247 9261 cf3f fb76 0ca0 aab7 d53f
00000150: 2462 0312 356e d33f ebf7 4ec9 d52e a63f
00000160: 85b9 7936 0461 d13f 4cbc 6bbe 1b5d ae3f
00000170: a28b f576 6a1e c2bf 2a50 37b8 255a a73f
00000180: b329 0da9 3d56 d53f d339 7f3e e90f d43f
00000190: a770 4ef8 c75e c33f 7142 2c77 6f56 bebf
000001a0: 4af6 c85e 6d41 d0bf 8c9f e1e4 7d97 dfbf
000001b0: ec2a 4dee 6d50 c73f b2ac b62a 0910 c6bf
000001c0: b6f2 8b6d 6044 e23f 8410 c9b5 54de b13f
000001d0: c63b 1acf 84e8 b3bf 21ab 383f f01b d0bf
000001e0: 0d40 1636 084d f13f 869e fd01 d3d3 bbbf
000001f0: d893 1f40 1990 c5bf 41f8 b6e4 f073 b53f
00000200: 842f bd9a ce47 a5bf 9e83 4cde 7567 cfbf
00000210: 12db ba65 8bdd c0bf 559c 32e5 66d1 b0bf
00000220: bde9 7991 3256 a0bf 4ab0 f5f7 4e27 d0bf
00000230: 3049 f087 7e4b cfbf 348d e3c4 b2c8 dbbf
00000240: 8add 49b3 0971 b0bf 9731 96d4 d675 df3f
00000250: d4bb cdc9 7da1 bcbf cc8c 2f92 415b c5bf
00000260: 2d49 c128 41aa d0bf e0e0 898c d81d b2bf
00000270: d380 a2ea 6f1e cebf c53c 8352 ece2 d9bf
00000280: e431 ad34 c383 a0bf b829 181e c3b9 c1bf
00000290: c2f1 f437 81d0 b43f 3cea c098 4c5d e23f
000002a0: ae6d dbcf 17c8 e03f 83c9 8891 1c17 d03f
000002b0: 1be6 beba b754 dfbf 197d 7771 be4b c0bf
000002c0: 5cf9 369f 4ff9 b23f 1b73 aaa4 c59c 86bf
000002d0: b459 b1cd 4124 a1bf d112 3074 faeb d53f
000002e0: c498 6a3f 2c2c 97bf ce21 0b77 ca15 b13f
000002f0: e98d 7798 15fa cf3f 5c89 ac3b c466 d4bf
00000300: 0000 0000 f5de aabf 0000 0000 18a3 963f
00000310: 0000 0080 9549 b9bf 0000 0000 4c9f 923f
00000320: 0000 0080 39af d83f 0000 0000 7d43 b03f
00000330: 0000 0080 858c b5bf 0000 0080 d8df c23f
00000340: 0000 0080 4ec2 cc3f 0000 0040 a94a c2bf
00000350: 0000 0000 8ead cf3f 0000 0000 20c4 d83f
00000360: 64f8 225f 2c6c df3f a02b b235 a2a0 e3bf
00000370: 7abf 91ed 6d08 bc3f a3c6 1865 0791 c33f
00000380: 894c 146f 510a 893f 542f 6c58 242d 8abf
00000390: 54b9 091a bdd6 b93f 1c56 d4d9 6376 c2bf
000003a0: 4273 e714 5b91 d5bf 27ee 50a1 32ce 903f
000003b0: db67 badc ea40 b6bf cdd2 f4ab bbfc c2bf
000003c0: 737a ab31 0938 cd3f 74eb d14a 404a c2bf
000003d0: f362 fc4f 3a92 983f 2275 0a2b 9759 9cbf
000003e0: 1ce2 149b f0e9 c13f 0ee0 f52c 8ed3 b53f
000003f0: 0000 0080 4d0b c83f 0000 0000 809a 7cbf
00000400: 0000 0080 f349 c13f 0000 0040 0e24 d73f
00000410: 0000 0080 0faf d33f 0000 0000 005d 8f3f
00000420: 0000 0080 b842 d63f 0000 0000 bceb af3f
00000430: 0000 0000 cf8b b93f 0000 0000 763c adbf
00000440: 0000 0000 e7b2 d93f 0000 0000 86d7 d83f
00000450: 5131 561e 3c6c ce3f e3b9 aeb1 f146 df3f
00000460: fdec edc5 2436 b8bf f825 ff46 ff03 d33f
00000470: 2b09 4810 19a8 c73f cc67 ed5e 57c1 c3bf
00000480: ec7d 7471 2a5f 9bbf 5689 dcbd f54e 9b3f
00000490: 1f5b f5b6 d295 d7bf 7b04 4598 ab6f be3f
000004a0: 74be 437a 1611 d23f 97c3 4dcf 78c8 db3f
000004b0: 4028 8209 86f7 823f 1998 b165 0ff2 d43f
000004c0: be1f 365a 34ee d7bf 2191 15a9 78ed d43f
000004d0: 0af1 7f11 2b70 d6bf 8104 02c9 8cc4 b33f
000004e0: f799 34a6 b237 a03f e004 ad57 8c79 c2bf
000004f0: f137 2768 8819 cd3f 0f13 c2fd 6f09 c63f
00000500: 47a5 a84a 0c8c bcbf 5e90 f714 713f d1bf
00000510: 24f7 5bb8 2cbe ddbf 4686 b7cc eb29 d2bf
00000520: 62b3 3675 c29c b03f 8de4 c1bc 822a d23f
00000530: 3544 2beb 44be c53f ef43 e455 d34a cf3f
00000540: 0000 0000 5809 a93f 0000 0080 1d62 c8bf
00000550: 0000 00c0 525c d63f 0000 0080 0935 bebf
00000560: 0000 0080 45f6 d13f 0000 00c0 0ddc d33f
00000570: 0f2e 07d5 f093 c03f 5b06 4f70 a249 b0bf
00000580: e846 745b ebaa a3bf 502c 3dc0 4032 d6bf
00000590: 1def 390e 49e7 e53f 5b73 8485 e57f dbbf
000005a0: e919 d571 fc03 dfbf 8611 5cd9 0b41 e23f
000005b0: 25da 155f 3d93 c53f 86e0 11e1 8f82 d23f
000005c0: 2582 dba8 91fa a8bf 416d 1af4 a014 c3bf
000005d0: bcb1 8ac7 e2e7 bc3f df2c 6d47 6609 9b3f
000005e0: b2e0 878c 0ae4 de3f d5ac a685 76b5 dc3f
000005f0: 5763 aa86 2f82 c9bf 356f cb9e 9f8a b5bf
00000600: ac53 3ea6 ff89 b4bf 4c57 1028 be21 a7bf
00000610: 1fd8 09da ec58 bebf a02f accf 40cc bb3f
00000620: 3e9a 679f 212c e23f 399a 1074 ed20 dcbf
00000630: 3fcb 148b 2e27 b63f f35f a687 10a4 a2bf
00000640: b8d5 4f24 a865 bebf 2e50 1a4b 62c8 bfbf
00000650: 00de a8a5 ccb5 db3f 8c90 6974 ebde b13f
00000660: fecf 4146 72e0 d23f f4d2 53e4 2baa d7bf
00000670: a750 b471 2de0 d5bf 481d 17ee b0b0 cfbf
00000680: 4c8d a70c 830f cebf 3e4c f3fa e90f d03f
00000690: 797c be27 e7b4 bebf 0464 4954 6952 d63f
000006a0: 3b77 b7fb 86a4 c5bf a151 64d4 fdb3 db3f
000006b0: 58dc 6305 4a67 d53f 3436 4f76 eb45 b23f

bias f8 [36]
-0.10548225045204163 -0.6140292368228789 0.16053469252889171 -0.4488229895829758 -0.04317433016954077 0.26009498755229943 -0.02903039133030819 1.4432059573213991
-0.4642085634639868 -0.7909054098855784 0.22208644829923727 0.2421040064977603 -1.6366277690081097 0.07670317548980933 1.0332898900597336 -0.012390254203533069
-0.11657881736755371 -0.20229363441467285 0.5128231757467113 -0.6906427093016517 -0.2856613083238924 -0.3352222740650177 0.3675745725631714 -0.24072208704757866
-0.18272039884236313 0.4162852185278895 -1.4339214030373602 -0.8572740753080147 -0.11343914270401001 -0.5008332784480286 -0.05869684398818417 0.6805145323078299
-0.5559317857248373 0.1337941773155231 -0.7859929517856837 0.8909459052072478
00000000: 0000 0080 e200 bbbf b725 5ea4 20a6 e3bf
00000010: 0f7b 249b 668c c43f c7ea 7c0f 84b9 dcbf
00000020: 52b3 3520 f21a a6bf 7600 5972 65a5 d03f
00000030: e93e 6a95 24ba 9dbf 8d67 4121 5f17 f73f
00000040: 3176 a6d5 97b5 ddbf 6104 b6dc 184f e9bf
00000050: 0f3e 2a28 546d cc3f cbb8 119b 43fd ce3f
00000060: 29d8 7999 a02f fabf 7163 3abe d1a2 b33f
00000070: fd80 d1fa 5a88 f03f a014 bfc4 0f60 89bf
00000080: 0000 0000 1cd8 bdbf 0000 0000 c2e4 c9bf
00000090: c7d0 0e26 0c69 e03f 597c 35bd be19 e6bf
000000a0: c9f4 3e5e 4648 d2bf 0000 0020 4874 d5bf
000000b0: 0000 0080 5786 d73f dba8 a539 fbcf cebf
000000c0: f885 abcc 6163 c7bf 03ac d8c1 6aa4 da3f
000000d0: 4247 b191 57f1 f6bf 9302 a50a ca6e ebbf
000000e0: 0000 0000 590a bdbf 0bd9 f582 d306 e0bf
000000f0: 4c86 9d42 830d aebf 2ce0 9669 c6c6 e53f
00000100: 7fd7 cf74 31ca e1bf 1f92 fbe7 2a20 c13f
00000110: e3ca d9b0 da26 e9bf 0dd9 abfc a082 ec3f

weight f8 [72, 36]
0.02427975833415985 0.02350505368940435 0.11149791483893301 0.10564659535884857 0.09154220386443356 -0.09910949319601059 0.1246352344751358 0.012851697199294004
0.14897341149623855 0.076425904065445 0.07024227442274594 -0.10194160277442606 -0.16116057264097364 0.0531238366986196 -0.05033103671410805 0.02351239532353887
0.16617073118686676 0.05200590193271637 0.09401297234774977 0.04524950753497643 0.11831874114824141 -0.0994381308555603 -0.017538681626319885 0.07399711452878979
0.1370641142129898 -0.12479186591811288 -0.11742796785303082 0.06385728967829525 -0.01710033416748047 -0.005021850399707882 -0.03755262869602852 0.059261758042872814
-0.14195488164592804 0.014745923407204493 0.17014895460410914 -0.07876312732696533 0.09568066895008087 -0.10014473314816143 -0.07695330259862551 -0.11252951490247427
-0.00848582683102967 0.10748298499385098 0.049385130405426025 -0.04666390577175276 -0.029730400115968798 0.0636808198509299 0.05410512600067697 -0.021491483375679188
0.01922015514689024 -0.06444011627149442 -0.02479597793854738 0.06433290596851962 0.10462142527103424 -0.12808901071548462 0.019948555461005664 -0.16073158990955766
0.07219666152084857 -0.0393972247838974 0.0018240809440612793 0.01892737096882617 -0.02424657168036278 -0.07036209285914126 0.11681269642721909 0.044696852713658385
-0.008466362953186035 0.003297532025715238 -0.13885792070032169 -0.16433535602956037 -0.20697997886012617 0.12994538845537099 -0.0014873446603547286 0.2559380965526144
-0.13450269401073456 -0.17473868367744688 0.09074932600959475 0.09364290535449982 0.04305828927203039 0.03137403726577759 0.09721522033214569 -0.156492289454291
-0.16852924373082337 0.1188321051053406 -0.15555861790098005 -0.13011186019723245 0.10117444106963928 0.03495529053691835 0.005046777045815375 0.006400630979513311
0.004747793078422546 -0.02241899073123932 0.09262548387050629 -0.03335769486186165 -0.08618190656389466 -0.029860123991966248 -0.11389535665512085 0.0037274643640361335
0.002452567219734192 -0.07216237007493696 0.07950476033756533 1.1920928955078125e-05 -0.12124600261449814 -0.033157209388667785 -0.027967401157119785 0.05624467456397753
0.037481629387767376 -0.13438912969335962 0.054327667710403954 0.14298681914806366 0.00650043785572052 -0.7928932311875014 0.18681171141878794 0.0183560420524822
-0.23070931440135153 -0.1964780948823486 -0.08510230481624603 -0.29961695788451737 0.274481981282867 -0.02601967164173377 0.4553891692424457 -0.125234008939403
0.2181405375632513 0.052551213598744845 0.4541272382371942 0.16142618458331603 -0.07659237086772919 0.14688165485858917 0.7800648339051224 0.08064356944790357
-0.15357570071204477 -0.0037478357553482056 -0.029792800545692444 0.2592158797451447 0.032440064917638615 0.22243579626076157 -0.13367988061716615 0.3091263090871125
-0.14646314084529877 -0.16773794779869233 0.5811792817124077 -0.02053366631102635 -0.18361629260483883 -0.060118189043306285 -0.1442077690190928 -0.6676112533442801
0.11949904263019562 -0.1909694974432983 -0.18128675246521933 -0.2502586238919472 -0.20709614596566403 -0.06411702747944374 -0.1671265070942582 0.17851077786895522
-0.34517656382664647 -0.23725135760819174 -0.16146768584883758 0.17267993146946248 -0.9004941587950591 -0.13777597694234853 0.20448995292912042 0.03128404201779373
-0.1016070693731308 0.06553758680820465 0.007327940089695913 0.008385445995329373 -0.11573531683922844 -0.1324831247329712 0.13252656161785126 0.04319380579018519
-0.038561979298529524 0.027593992773618625 -0.5766428121837153 0.30371026884918984 0.11582447588443756 -0.024297533853861006 -0.019107839200685275 0.08721858588178706
-0.17370333208869929 0.0425288237120133 0.03247974340661031 -0.15563800761586113 0.04642285406589508 0.01752768868447143 -0.09784545079124936 0.01650796921786038
-0.07021659228138527 -0.07931029796600342 0.15167947113513947 0.22940150115075067 -0.33819783898515793 -0.2645646103613098 0.1543547507529674 -0.08991578829563154
-0.46202744131382883 -0.14540926755107772 0.3607711185803967 0.05027161836579246 0.0032819360494613647 -0.0010609477758407593 -0.1963688499214216 -0.3303204914668538
-0.009996175765991211 -0.15423831343650818 -0.1583627313375473 0.07569601616824147 -0.05982160568237305 0.17013224791008205 -0.6704258697255491 -0.09625813097223758
0.014358863234519958 0.29758608878901444 0.2707970637422846 0.276319176102264 0.29107548150286927 -0.03519277288869068 0.09400547825511342 0.3341151927828345
-0.14253786206245422 -0.12566421926021576 0.07136420635746375 -0.16277113556861877 -0.12311496585607529 0.010002955794334412 0.0026717185974121094 -0.08170033543185172
0.028254449367523193 -0.12202803790569305 -0.02711398948470128 -0.09283168805378225 -0.0156404972076416 0.12443684309616987 0.04943061346322146 -0.1847835209604196
0.15534992516040802 0.16391621530056 -0.09117002161186794 -0.08979171856344366 0.05657665231312736 0.11291070282459259 -0.04934215545654297 -0.1454057473154205
-0.1301485151052475 -0.1303655143679604 0.10995488205463994 -0.15724554657936096 0.04981432855129242 -0.040163091920280725 0.05043734610080719 0.10934271938810351
-0.07600300014019012 -0.17973253716887946 0.10969083248374929 0.09659678871403865 -0.05314519256353378 0.08564336642340653 -0.10177188381404709 -0.020585164979076156
00000000: 0000 0000 cbdc 983f 3cff 8b73 b511 983f
00000010: 602f ce99 208b bc3f 0000 00c0 a70b bb3f
00000020: 8f2f cd53 4f6f b73f 0000 0060 3d5f b9bf
00000030: 0000 0040 18e8 bf3f 763d 5a99 fd51 8a3f
00000040: 5cc9 2c8d 8f11 c33f f63f 87e6 a590 b33f
00000050: ec3d 71cf 65fb b13f 859a 044a d818 babf
00000060: 05e5 72de e8a0 c4bf 4a69 842a 0c33 ab3f
00000070: 795d 5259 fdc4 a9bf 5d63 dc23 a213 983f
00000080: 0000 0020 1545 c53f 0000 0080 84a0 aa3f
00000090: 6a22 a2f1 3b11 b83f 4ab0 0b86 f12a a73f
000000a0: 634f bc13 234a be3f 0000 0000 c774 b9bf
000000b0: 0000 0000 a9f5 91bf da46 e692 79f1 b23f
000000c0: 0000 0020 518b c13f 21d4 ec16 5cf2 bfbf
000000d0: 8383 9061 c20f bebf c58b c78a f358 b03f
000000e0: 0000 0000 c082 91bf cbe2 b6b3 ca91 74bf
000000f0: 14ad 4120 193a a3bf 502c 65a1 8e57 ae3f
00000100: c3a1 16db 932b c2bf 0420 4456 1c33 8e3f
00000110: 0b93 bce1 70c7 c53f 0000 0000 d229 b4bf
00000120: 0000 0040 877e b83f 99ed bcd1 15a3 b9bf
00000130: 2ef4 fa2d 36b3 b3bf 5d43 57fa bbce bcbf
00000140: e415 c065 0461 81bf fecf 6c41 0184 bb3f
00000150: 0000 0000 0249 a93f b5f8 62da 54e4 a7bf
00000160: 35c3 c760 a571 9ebf f967 a4de 624d b03f
00000170: 510f 70c5 aab3 ab3f 00db f608 dd01 96bf
00000180: 80a8 1ec7 72ae 933f dbbe efbf 257f b0bf
00000190: 410a 46e9 1d64 99bf e201 310f 1f78 b03f
000001a0: 0000 0040 78c8 ba3f 0000 0080 3865 c0bf
000001b0: 32d7 3ae5 646d 943f ba3d 0c4d da92 c4bf
000001c0: f7c7 1cfc 7a7b b23f 0000 0080 df2b a4bf
000001d0: 0000 0000 c0e2 5d3f 2cd1 3d5d b261 933f
000001e0: 760d a1e1 17d4 98bf cd47 b507 4003 b2bf
000001f0: 6c98 e9d6 6fe7 bd3f 3b51 4781 81e2 a63f
00000200: 0000 0000 d056 81bf d89a a706 6d03 6b3f
00000210: 9566 19aa 18c6 c1bf ef9a dce1 f008 c5bf
00000220: 0bc5 10e8 517e cabf 5946 d7ec 0ca2 c03f
00000230: 3684 242b 605e 58bf 319d 9f2e 4a61 d03f
00000240: 0000 0060 6237 c1bf 06d0 de51 d65d c6bf
00000250: 6962 580b 593b b73f 0000 0040 fbf8 b73f
00000260: e37a 7d70 bc0b a63f 0000 0000 4210 a03f
00000270: 0000 00c0 18e3 b83f e623 a478 f007 c4bf
00000280: fd2a 1fc3 5d92 c5bf f96b 24e5 c76b be3f
00000290: 1972 3f44 58e9 c3bf 1136 2f64 81a7 c0bf
000002a0: 5bce 9573 91e6 b93f 9d42 5beb a8e5 a13f
000002b0: 18ac cae5 edab 743f 3340 b14b 8c37 7a3f
000002c0: 0000 0000 6c72 733f 0000 0000 01f5 96bf
000002d0: 0000 00c0 4db6 b73f 5bd7 0081 4214 a1bf
000002e0: 2ee8 3276 0410 b6bf 0000 0000 a793 9ebf
000002f0: 0000 0000 3f28 bdbf de1b 4c31 0f89 6e3f
00000300: 0000 0000 6817 643f 9f44 79ab 3b79 b2bf
00000310: 7db2 8689 6c5a b43f 0000 0000 0000 e93e
00000320: 0000 0060 fa09 bfbf 38e3 e653 fbf9 a0bf
00000330: 76b7 4b85 7ca3 9cbf 0124 a71b 1acc ac3f
00000340: 86ae d7c8 ca30 a33f dd45 7cba a933 c1bf
00000350: 6c14 2b08 d6d0 ab3f 0000 0060 644d c23f
00000360: 0000 0000 34a0 7a3f 5871 25a0 615f e9bf
00000370: 90d8 8637 72e9 c73f ff98 3221 edcb 923f
00000380: eb41 1e00 e287 cdbf 9135 f3b7 3126 c9bf
00000390: 0000 00c0 43c9 b5bf 8839 dc9a ec2c d3bf
000003a0: 6de0 3cdf 1c91 d13f b8ff 039b e6a4 9abf
000003b0: 9954 369d 1825 dd3f 46f0 5e02 ab07 c0bf
000003c0: 120d 6275 07ec cb3f d41e 8b1f fee7 aa3f
000003d0: 31e6 1cb1 6b10 dd3f 786f c0fb 9ca9 c43f
000003e0: 0000 00c0 8e9b b3bf 0000 00a0 04cd c23f
000003f0: c23a cc86 4af6 e83f d454 6995 0ea5 b43f
00000400: bd5e 025a 5ea8 c3bf 0000 0000 c8b3 6ebf
00000410: 0000 0000 0182 9ebf 34fe 8633 fe96 d03f
00000420: ff80 cdf3 fb9b a03f 0b29 33b3 c678 cc3f
00000430: 0f24 b11d 6c1c c1bf 8330 f7b6 b9c8 d33f
00000440: 0000 00e0 4dbf c2bf 14f9 0be4 6f78 c5bf
00000450: 7829 024b 0599 e23f 1862 1705 c706 95bf
00000460: 0112 e019 bd80 c7bf e7e6 abaf cfc7 aebf
00000470: 6710 e271 6675 c2bf a3c4 7146 125d e5bf
00000480: 0000 0040 7d97 be3f 09b9 0641 b071 c8bf
00000490: 09a1 8480 6734 c7bf aa1a 4abf 3c04 d0bf
000004a0: f36b 0663 2082 cabf eb14 2438 f969 b0bf
000004b0: cedc 21c1 6664 c5bf a120 77f0 70d9 c63f
000004c0: 65ca 3e71 5f17 d6bf a5ec eda2 405e cebf
000004d0: 8a70 0a1f f9aa c4bf 501e 2b41 601a c63f
000004e0: 2171 4820 d9d0 ecbf b727 92a9 a4a2 c1bf
000004f0: a877 180e ba2c ca3f 59cb b442 7604 a03f
00000500: 0000 00c0 eb02 babf 0000 0040 12c7 b03f
00000510: d543 84f0 e603 7e3f 649e 7f82 632c 813f
00000520: 3812 d168 d4a0 bdbf 0000 0000 35f5 c0bf
00000530: 0000 0060 a1f6 c03f f369 849e 7f1d a63f
00000540: cb94 e94f 65be a3bf 4071 1d82 9941 9c3f
00000550: 4eae 79a0 db73 e2bf 32aa 0a32 fd6f d33f
00000560: 0000 0040 aca6 bd3f 9c67 1ae5 73e1 98bf
00000570: 644f db61 0191 93bf 5d34 f70d f553 b63f
00000580: fd7a 4329 e93b c6bf 14fd f585 56c6 a53f
00000590: 717f 6d57 2fa1 a03f b5c3 5c3c f2eb c3bf
000005a0: 0000 0080 bcc4 a73f e674 b246 c7f2 913f
000005b0: 8df6 3543 660c b9bf e805 a80f 77e7 903f
000005c0: 8c30 7cef b6f9 b1bf 0000 0000 ae4d b4bf
000005d0: 0000 00a0 3b6a c33f 8942 8c44 075d cd3f
000005e0: 6139 818c 08a5 d5bf 5d92 4b67 a0ee d0bf
000005f0: 4ead 3b7f e5c1 c33f 2ab1 1f9a b804 b7bf
00000600: 7d09 938b db91 ddbf 9366 5558 c59c c2bf
00000610: 9e39 e9be df16 d73f d79c 9899 33bd a93f
00000620: 0000 0000 b8e2 6a3f 0000 0000 f061 51bf
00000630: 39cd 2e4e 9d22 c9bf 481f 038f f823 d5bf
00000640: 0000 0000 e078 84bf 0000 00c0 14be c3bf
00000650: 0000 00e0 3a45 c4bf 354d e169 d060 b33f
00000660: 0000 0000 f0a0 aebf f366 62bc e4c6 c53f
00000670: 87a2 1bf4 2074 e5bf d9f5 7f74 5fa4 b8bf
00000680: 0000 0000 2e68 8d3f c3f9 c585 a60b d33f
00000690: 660f 2835 bd54 d13f 1a7b 27a0 36af d13f
000006a0: c739 6e0e fba0 d23f 3b97 3981 c904 a2bf
000006b0: 2124 c036 be10 b83f 2c56 86b0 2462 d53f
000006c0: 0000 0040 ae3e c2bf 0000 00e0 c315 c0bf
000006d0: 8f09 69b4 ec44 b23f 0000 0040 afd5 c4bf
000006e0: 0000 0060 7684 bfbf 0000 0000 6e7c 843f
000006f0: 0000 0000 00e3 653f 3f85 c02c 50ea b4bf
00000700: 0000 0000 bcee 9c3f 0000 00c0 3a3d bfbf
00000710: 0f4d 6708 c5c3 9bbf 3e35 3948 d1c3 b7bf
00000720: 0000 0000 1004 90bf f8f9 83cb 17db bf3f
00000730: 66d3 7d28 f84e a93f 90af ae85 fca6 c7bf
00000740: 0000 00a0 81e2 c33f 0000 00e0 34fb c43f
00000750: 88d6 3225 eb56 b7bf 157f ae0e 97fc b6bf
00000760: d0d8 cd6e 9df7 ac3f 0000 0040 b7e7 bc3f
00000770: 0000 0000 6043 a9bf c261 afd0 a79c c2bf
00000780: 0000 00e0 b4a8 c0bf 2c49 5e32 d1af c0bf
00000790: b4d0 75ce 0026 bc3f 0000 0040 9f20 c4bf
000007a0: 0000 0080 4381 a93f e891 9bbc 4190 a4bf
000007b0: 0000 0080 ecd2 a93f 3bde d36b e2fd bb3f
000007c0: 0000 00c0 ee74 b3bf bb6e 95cc 7901 c7bf
000007d0: cd4f 30ca b214 bc3f 30e8 6c30 91ba b83f
000007e0: 0000 00c0 d835 abbf 886a e841 b9ec b53f
000007f0: 7e36 a2e0 b80d babf e4b9 7809 4714 95bf

bias f8 [72]
-0.08604864112975676 0.08395259158517922 0.06641508215116895 -0.10730459823093347 0.8646621531590395 0.38796738870254993 -0.11930906340314397 0.10138896849879224
0.2444028051091523 0.13153547206413854 0.29250219339267575 -0.8725147896502414 0.6116404828745707 -0.14135218178199432 0.935522425234961 0.06069936087792024
-0.02287317793238512 0.7598834197638611 0.14417700469493866 0.01944393975824351 -0.12110999927111417 0.2919062556205499 -0.03333913735182973 -0.15152463861063115
-0.16499286482996622 0.5119539195734625 0.5370573518016805 0.6637765698143968 0.04476694155401886 -0.1452026546645307 0.3340432631379826 0.31809115227300255
-0.11867032734814226 0.3457546762517718 -0.09505274657967079 0.049310731867980906 0.30022209923156395 0.2612770827949759 -0.848604889660249 -0.03813619911670685
0.05278894780546106 0.3432010609699688 -0.1796554270270733 0.467863090417438 0.03132096363105779 0.5845559410641104 0.05777245846482826 0.22637528391042575
0.7064736394283098 -0.10016821324825287 0.4370487175608156 0.08048647900674429 0.9302138762810782 0.35273943725202883 -0.6571670046097902 0.20525641092659833
0.5501818055156765 0.4901278876330044 0.045500506560463415 0.5004368229233173 0.13094197294155926 0.01391614332283395 0.1246467758610836 0.10823217760875548
0.6731722005160701 0.3845081535463971 0.07599774449007067 -0.054387281883881144 -0.4153469845684947 0.03218536309124475 -0.22095301182074442 0.05587149520340951
00000000: e17d 84a3 4807 b6bf 89d5 45c3 ea7d b53f
00000010: 96e8 cc2d 9400 b13f 4cbe 1c6c 5078 bbbf
00000020: 4a06 bdf6 4fab eb3f 1116 992b 75d4 d83f
00000030: 21d2 6eed 098b bebf fba2 e09f a0f4 b93f
00000040: d24a 7f53 9748 cf3f 45c3 6383 27d6 c03f
00000050: cd4e a81e 5bb8 d23f 145f da22 a4eb ebbf
00000060: c663 db0f 8f92 e33f a267 fc0a d417 c2bf
00000070: 62e1 a1b9 ccef ed3f 9bb0 b793 fc13 af3f
00000080: 2b63 b3fc 106c 97bf ce11 9508 f750 e83f
00000090: 0000 0060 6474 c23f f6db 77b5 1ce9 933f
000000a0: 6d88 169e 1001 bfbf 45d6 5893 97ae d23f
000000b0: 45b7 34d1 d311 a1bf fc78 afcb 2865 c3bf
000000c0: 944f 4277 7c1e c5bf ad10 b42f ed61 e03f
000000d0: 1311 42e6 922f e13f 4f86 665c a83d e53f
000000e0: 8439 d54b b1eb a63f 1acc 8926 0096 c2bf
000000f0: cc1c a8fe f660 d53f 4835 0afe 9a5b d43f
00000100: 4444 f7b6 2d61 bebf f82f bc38 d820 d63f
00000110: b964 f475 6055 b8bf a8fa 6d99 413f a93f
00000120: 2e1b 6fc0 d636 d33f ff1d 7383 c3b8 d03f
00000130: 6d20 0a71 c527 ebbf 0000 0080 9686 a3bf
00000140: 6054 d428 2707 ab3f 9962 3495 01f7 d53f
00000150: 35aa d0f3 f2fe c6bf fa4b 1608 78f1 dd3f
00000160: 97fe f224 4d09 a03f 02b1 31a9 aeb4 e23f
00000170: c091 6e07 5a94 ad3f 9d4d 8284 ddf9 cc3f
00000180: fc94 1a9b 6e9b e63f 0000 00c0 9fa4 b9bf
00000190: 29ad 2b2f 9bf8 db3f 0daa 1a0b c39a b43f
000001a0: 3134 1de4 4fc4 ed3f 2e71 c06e 4893 d63f
000001b0: 08e6 1919 8307 e5bf 8dae 1c92 d745 ca3f
000001c0: f768 b1df 169b e13f bc71 0f5c 415e df3f
000001d0: fbda 41a7 d74b a73f ed6e 8515 9403 e03f
000001e0: 5f96 bae1 b4c2 c03f b206 aa23 1180 8c3f
000001f0: dd0c e0e1 d9e8 bf3f 0858 349f 1ab5 bb3f
00000200: 3c5f 396d a08a e53f 5ebc 2116 c89b d83f
00000210: 0795 2793 9674 b33f a8ea 045a a6d8 abbf
00000220: 90b0 cd84 0b95 dabf 3f08 c693 997a a03f
00000230: ab84 dc33 3048 ccbf 71c2 5a49 309b ac3f

weight f8 [60, 72]
0.18387619629384247 0.14594772815596044 -0.1373925742012016 -0.14228301070984545 -0.029357866662017805 0.7006491346997864 0.03030392657844642 -0.07651389530509736
0.0010091274901264545 -0.07719321859114477 -0.5074127943669149 -0.06343754450831884 -0.609875970671058 0.065604375026336 0.045842458487710985 -0.135384479812427
-0.05705730911096096 -0.725621339400392 -0.04574214667081833 0.04665520520954572 0.10780531793578102 0.6372667955860608 -0.1478643706804396 -0.0179984178661045
0.08478359963365668 -0.2065581644976185 0.01223086545618996 0.32820536659997324 0.058280872003985996 -0.07517488115164986 0.012156661631871731 -0.23320490473285294
0.06248818764077292 -0.15454158090385378 -0.22387902577865545 -0.10215363767311357 -0.3164515929464646 -0.3384693711966643 -0.4478493071374531 -0.11695406585931778
0.03511316336986494 0.0004132447524625721 -0.06810160267444969 0.2920455452226942 -0.053172375953796466 -0.10736609387421264 -0.08676444474988892 0.19407398017839772
-0.9445596147604157 -0.06586029380559921 -0.013784137169983305 -0.09579293501033112 0.21469735264843315 0.11499595901714645 0.13241497222792128 0.029990612673567184
0.38865353968209954 0.2712917330548068 -0.20128943059411097 0.04344425037811846 -0.08461657429475279 0.025355280878928906 -0.2927105186476616 -0.032783945380873196
-0.42551734940007585 0.18835143320178938 -0.0481589294927942 -0.042495847390612636 -0.16201949947410313 0.07366648598727545 0.1361119265441257 -0.07502328166411064
0.10230244929666338 0.037366844829142785 0.056899547953732435 -0.1282037351002106 -0.053610230848947026 0.7906442605119528 0.03885183710583759 -0.20046097373257338
-0.03219369707579081 -0.015614970653107053 -0.5925545496827938 -0.04806352299176961 -0.6401518965711099 0.017613140308595503 0.028531965328200536 -0.04910471777018119
-0.05782800215296653 -0.7278692665565725 -0.009432002902030945 -0.017278519574370016 0.09319991637518944 0.6187231995219907 -0.17499314764708057 -0.08550369098245279
0.02658772369184502 -0.13871208286546155 0.02282608971725922 0.30852781962450126 -0.014394340098588124 -0.07790971322608278 -0.05762608797391443 -0.18152385063792212
0.05745085405897129 -0.12002349054405329 -0.20903840801394855 -0.08240342944171482 -0.293551874481061 -0.38430559026665995 -0.4498104071340616 -0.08005969226360321
-0.02622459253527063 0.012937785794481066 -0.10278613963937479 0.247046221498111 0.008944597480065632 -0.049557643424439426 0.008188837979982997 0.1409838339377593
-0.8995079016006651 0.07689928263425827 0.10378191113172068 -0.18500497952908193 0.24540785864415215 0.10022973226462811 0.13905303534082455 0.03574700225720146
0.3543215182369525 0.25883789225807513 -0.29081255856481847 -0.025665995475181776 -0.09097131399133168 0.1052871049708127 -0.274073213958693 -0.002525877811150569
-0.36007998190013435 0.0993046566633805 0.036146513687362714 -0.04338195574506681 -0.17302222112316684 -0.03831379901910571 0.1764896581928198 0.044231366741060214
0.1346642713903657 0.05740155397092847 -0.04238812896721152 -0.05198024076337912 -0.06117404331244334 0.6991537678724837 -0.06071340980437192 -0.11967700187566664
0.02783194073028542 -0.03815701005085365 -0.5147254748792427 -0.0033946372082039105 -0.5440259754314503 0.07605765653683762 -0.0730316107019059 -0.07665744950255982
-0.05026414991982628 -0.6763969110464916 -0.02327674627304077 0.0900947196638063 0.09121603000388474 0.618720999862868 -0.17718984783983363 0.015623488827104851
-0.028484374144745427 -0.10975453560679989 0.03115454982195659 0.28394713310310704 -0.043712093955087836 -0.10573876777439467 -0.08962734170647917 -0.22179753642570477
-0.023990438013464194 -0.18343657765599264 -0.22032770262649 -0.11828280563074191 -0.25532715278452184 -0.30858963871882544 -0.41162564315997596 -0.07177501916885376
0.06415653669457534 -0.02869915017905803 0.058884791960385194 0.26383005522960873 0.02354882784276726 -0.20599546761744927 -0.03781899556750436 0.09773993144050981
-0.9296610744660583 -0.035515084862709045 0.18153465629945037 -0.11612482033867708 0.293791649434415 0.027825341912400832 0.13180963484405087 0.004928958880470809
0.29802019632424376 0.20538264729301722 -0.28977571436072785 0.01231435721160143 -0.06976482645183603 0.07995320968833786 -0.20300891544834035 -0.05997868187734759
-0.4467945823311599 0.2499736500551543 -0.018277770201516323 -0.019162602400646545 -0.19472518509641631 -0.007644983378240766 0.14101995381987437 0.024419304363011457
-0.056417847525956015 0.03334301766608475 0.0599648330633629 -0.05828400779364852 -0.020581291301624702 0.6944556782625402 0.10400484524933713 -0.15305721633715633
-0.036678729071307335 -0.10807546321880072 -0.3980764315832647 0.07019383927774189 -0.5044564416523234 0.04349301270953284 -0.21594819027622492 -0.08809055861471551
-0.08984380990851834 -0.6030182453269459 0.08972390741109848 0.07709808033957936 0.08368010216145282 0.5500362642636983 -0.05405072015650804 -0.05040937468210504
-0.0685294752012779 -0.05489843252468686 -0.03289967324457059 0.22521462304759438 -0.04633667427571559 -0.06402412170158885 -0.09997296718203205 -0.12048174619882722
0.06550517141533341 -0.2027425063366698 -0.2785230623990199 -0.1079524289962503 -0.18173987606969447 -0.3490730850297504 -0.3475814828295223 0.07750067859888077
00000000: a926 cc54 4189 c73f 0f7c ad47 6aae c23f
00000010: 2626 7472 1496 c1bf e239 e366 5436 c2bf
00000020: 0658 c614 fd0f 9ebf 7533 f0bb b76b e63f
00000030: 8b16 6116 fe07 9f3f da63 0626 6a96 b3bf
00000040: 4c5b 5364 9688 503f 0d6b 524d efc2 b3bf
00000050: 8817 acc1 b93c e0bf 4074 0063 713d b0bf
00000060: 19c0 949c 1a84 e3bf 116f 36c5 72cb b03f
00000070: 5427 f2a7 a978 a73f 9515 9754 4754 c1bf
00000080: e038 4299 9d36 adbf 0b24 403e 4a38 e7bf
00000090: 0000 00c0 836b a7bf 8457 20e9 30e3 a73f
000000a0: d47a de1a 2199 bb3f 9bcd bb55 7d64 e43f
000000b0: 4576 283e 38ed c2bf ad69 7560 2d6e 92bf
000000c0: 19e9 a9c3 60b4 b53f 8299 9e78 7f70 cabf
000000d0: e3c1 16f9 7e0c 893f f2c9 fa14 5101 d53f
000000e0: 5d9d 7a8e fdd6 ad3f faea 0638 a93e b3bf
000000f0: 5e73 1981 97e5 883f 4415 8c87 a8d9 cdbf
00000100: 525b 9ba4 73fe af3f 1a56 edbd 04c8 c3bf
00000110: b365 fd62 11a8 ccbf 6f34 f9a4 bd26 babf
00000120: 0738 9e2e be40 d4bf de30 ff6f 7ba9 d5bf
00000130: 8243 ec23 90a9 dcbf 0000 00a0 b3f0 bdbf
00000140: 6354 aa40 5afa a13f 0b34 73b2 1815 3b3f
00000150: 13bd 4a4c 1b6f b1bf 2c22 6bcc dfb0 d23f
00000160: 365a 8bdf 6839 abbf 1c96 e325 587c bbbf
00000170: fc07 a8d4 3136 b6bf 6875 ef8a 6ad7 c83f
00000180: 4796 d015 d539 eebf 0000 0060 38dc b0bf
00000190: 4f0c ca92 db3a 8cbf 56a6 0ec3 e285 b8bf
000001a0: 9cd6 14ee 337b cb3f d99a 260b 6070 bd3f
000001b0: 271e 9c4b f9f2 c03f 83da 7af2 dbb5 9e3f
000001c0: 3f31 9a18 b3df d83f d050 4900 d85c d13f
000001d0: 4c51 b720 dac3 c9bf 9a81 2525 533e a63f
000001e0: 09a7 4b8b 6ea9 b5bf 9fa2 9f18 bcf6 993f
000001f0: a65c 32e6 c4bb d2bf 6749 7daa 0ec9 a0bf
00000200: 9b73 e31e ad3b dbbf 2cd2 e056 e61b c83f
00000210: be24 5d86 49a8 a8bf 9158 8405 04c2 a5bf
00000220: a91c c711 0ebd c4bf 3968 208c cedb b23f
00000230: 2721 8d98 1d6c c13f 879a 2fcd b934 b3bf
00000240: 64a5 074a 7e30 ba3f 53e3 fd40 bf21 a33f
00000250: 62a7 3c03 f021 ad3f 727f bde0 fa68 c0bf
00000260: 8358 74d8 cc72 abbf f867 3531 f54c e93f
00000270: aca7 8453 63e4 a33f c221 2787 b4a8 c9bf
00000280: 44dc 2738 b17b a0bf 14c7 43e2 bdfa 8fbf
00000290: b479 7ff5 34f6 e2bf dca8 c236 c89b a8bf
000002a0: 6ed9 87d4 1f7c e4bf becd 6bd6 2d09 923f
000002b0: f6a1 e6c7 7b37 9d3f 2cf2 cde9 4024 a9bf
000002c0: 0a7c 14c4 a19b adbf b0f7 f37c b44a e7bf
000002d0: 0000 0000 1651 83bf a819 fbd1 75b1 91bf
000002e0: 8945 d220 f3db b73f 5d26 6798 94cc e33f
000002f0: 328b 15eb 2c66 c6bf 07f9 74e4 91e3 b5bf
00000300: bc1d edee cf39 9b3f 30cd bb49 51c1 c1bf
00000310: 8923 53f3 b85f 973f fe60 cc77 ebbe d33f
00000320: d57a c49f c77a 8dbf 8ac5 5816 e4f1 b3bf
00000330: 8e1f 7da6 2a81 adbf dd88 f76c 2c3c c7bf
00000340: 7b00 9fc6 326a ad3f 0a73 a306 dcb9 bebf
00000350: 638f 0343 c5c1 cabf ddc8 8722 6418 b5bf
00000360: 84d7 24cd 8dc9 d2bf c160 7779 7698 d8bf
00000370: aca3 0297 b1c9 dcbf 0000 00c0 ca7e b4bf
00000380: fade 289d 9eda 9abf 1da8 f536 207f 8a3f
00000390: 41b3 3b44 3150 babf 2ea6 f7e8 359f cf3f
000003a0: 54dd 388d 8b51 823f 2ab2 8c93 9e5f a9bf
000003b0: 65b8 873a 4fc5 803f e580 031e c20b c23f
000003c0: 48ca 7bcb c4c8 ecbf 0000 00e0 abaf b33f
000003d0: 7324 3a8a 7391 ba3f dd57 5640 3eae c7bf
000003e0: 586d 8753 8669 cf3f 7cd5 29de a7a8 b93f
000003f0: 4f64 9967 7dcc c13f 19db 3f5b 6e4d a23f
00000400: 9f31 4629 34ad d63f 3fb2 8dce cc90 d03f
00000410: a453 1347 ac9c d2bf 5fa2 bdcc 2f48 9abf
00000420: dc87 7762 e549 b7bf e647 8a80 18f4 ba3f
00000430: 7061 aa60 6a8a d1bf 3772 f652 26b1 64bf
00000440: 7024 8de8 8c0b d7bf b7b0 b5ac 076c b93f
00000450: a8a3 4dbc cb81 a23f c7ba 52e2 2836 a6bf
00000460: ae46 9a96 9725 c6bf 128f 8bc3 dd9d a3bf
00000470: cc9b 028f 3697 c63f d170 3863 7ea5 a63f
00000480: 52d8 c7c8 ad3c c13f 1ce5 168a bc63 ad3f
00000490: 4b3c 4e97 e5b3 a5bf dcdc 3b74 279d aabf
000004a0: 4d35 c846 3452 afbf 5866 fcb8 775f e63f
000004b0: 33ac 13fb d315 afbf 67aa 23e9 26a3 bebf
000004c0: c915 e2ec f97f 9c3f 9928 90cc 5089 a3bf
000004d0: 06c8 208f a178 e0bf 4e0a 50f9 11cf 6bbf
000004e0: ece1 9429 a968 e1bf 71a5 6fbb 8378 b33f
000004f0: a9f4 891b 33b2 b2bf 50b7 9b96 d29f b3bf
00000500: 0c40 2200 39bc a9bf 5cec 8122 0ba5 e5bf
00000510: 0000 0000 dcd5 97bf f692 7f92 7210 b73f
00000520: f5d5 bc09 ef59 b73f 524d 78fb 8fcc e33f
00000530: ede0 d32c 28ae c6bf 42a4 7e2c 35ff 8f3f
00000540: 5347 98fd 012b 9dbf ddd4 048d df18 bcbf
00000550: d078 6d72 fae6 9f3f a621 9e98 302c d23f
00000560: b61c f47b 6e61 a6bf 34a7 8225 b211 bbbf
00000570: 3bed 7445 d1f1 b6bf 1011 a496 dc63 ccbf
00000580: 15f9 bc0a f390 98bf 7c19 f68a d97a c7bf
00000590: cf7f 97ba b233 ccbf 21f8 dc2d c847 bebf
000005a0: 5961 bfb2 4757 d0bf c9a2 8bc1 eebf d3bf
000005b0: c24a e414 1358 dabf 0000 0000 d95f b2bf
000005c0: f185 ed12 906c b03f e9a7 c45d 4f63 9dbf
000005d0: 7e3a 67bf 2526 ae3f 4d6f ba74 97e2 d03f
000005e0: a678 c615 2f1d 983f 1d45 453a 0f5e cabf
000005f0: 628f 42ea 025d a3bf 9dde 0cf1 7b05 b93f
00000600: 2645 e694 c8bf edbf 0000 0080 082f a2bf
00000610: 5ec8 f211 873c c73f 3ec6 9b31 5bba bdbf
00000620: 4b28 8a7d 7bcd d23f 421c 0e16 3f7e 9c3f
00000630: a5f8 795b 23df c03f d584 1e53 6330 743f
00000640: e9a5 304d c312 d33f 730b a584 fa49 ca3f
00000650: e5ad 1670 af8b d2bf b1f1 f50b 4538 893f
00000660: 8191 0590 1bdc b1bf 1857 d244 d077 b43f
00000670: 91d2 5236 32fc c9bf 84a4 3d9a 86b5 aebf
00000680: a01b c94d 4898 dcbf 1da0 ecf5 22ff cf3f
00000690: 1e8a 0965 68b7 92bf 30d6 777a 5c9f 93bf
000006a0: fb2b d93e c1ec c8bf c07a 6899 5850 7fbf
000006b0: 76b1 de1c f10c c23f 4854 85c6 5f01 993f
000006c0: 9fc3 11d4 cce2 acbf 6500 da04 5612 a13f
000006d0: e5a0 d5e9 b5b3 ae3f d201 b5c6 66d7 adbf
000006e0: 2920 3314 4313 95bf 6a17 551d fb38 e63f
000006f0: 8db0 f8c0 0fa0 ba3f 75dd 4afd 6097 c3bf
00000700: 63e5 a3eb 8dc7 a2bf 4b59 0664 d5aa bbbf
00000710: 1f58 bd91 157a d9bf ee1d 1434 39f8 b13f
00000720: 84e7 e4d5 8124 e0bf 0b48 6256 b744 a63f
00000730: 5cf2 6eb7 30a4 cbbf ba29 5654 1a8d b6bf
00000740: ce1c 4e01 0100 b7bf d841 52eb ec4b e3bf
00000750: 0000 0060 25f8 b63f 6393 a425 b3bc b33f
00000760: 3f00 1c26 0f6c b53f 170d d4a6 e599 e13f
00000770: 927e cb36 89ac abbf 7fc8 57ef 41cf a9bf
00000780: 2d31 cdce 258b b1bf 8223 97b8 a51b acbf
00000790: 66df 44d9 39d8 a0bf 6602 4930 d5d3 cc3f
000007a0: 993c 3dc9 70b9 a7bf ed0a dd84 e263 b0bf
000007b0: a6e9 8710 d497 b9bf 0f5e b047 e4d7 bebf
000007c0: 809e f268 f2c4 b03f 14cf 1c69 77f3 c9bf
000007d0: 2ee0 0b65 52d3 d1bf 4c0a 1038 c5a2 bbbf
000007e0: 6199 0c94 4043 c7bf 7576 07a3 3657 d6bf
000007f0: c4ab 5c67 c63e d6bf 0000 00a0 15d7 b33f

bias f8 [60]
0.4241104311727606 0.3139774415499872 0.28010994358341085 0.15126558665871237 0.13653115970171106 0.14035439998406893 0.180371346547691 0.2550933124845094
0.2821442665172923 0.21649512379331853 0.217453390515671 0.15079235957712145 0.10218410373975721 0.0035583943543671154 -0.020685173872694515 -0.09679681133697741
-0.1286933943173695 -0.16490905042730938 -0.25658733432237724 -0.2650646220424901 -0.33068745580871245 -0.35494079433337034 -0.3608050792871652 -0.44712201828893117
-0.503755458040258 -0.4910303994175625 -0.48675350008876844 -0.5667169522699075 -0.6036355312786519 -0.6210134940142851 -0.6653485775452012 -0.6043187396746159
-0.6876173058294475 -0.7377956485782545 -0.7472562876223015 -0.6996208842082373 -0.7411560421085864 -0.7504330632405443 -0.7296734272545894 -0.7903187611298254
-0.7848527796589269 -0.8292060777573484 -0.7302881117356305 -0.82413797641429 -0.7418858325029254 -0.6972844223937685 -0.7404294134554762 -0.7355450748210522
-0.7425090482078714 -0.7661501026835662 -0.710434705871686 -0.7501715061228729 -0.75394257152968 -0.7615347889383203 -0.7998376579660382 -0.6693447455232344
-0.7253783137643396 -0.7139017133943251 -0.6678624132905675 -0.7234954099894881
00000000: c4e2 f113 a024 db3f 80e4 c8d6 3418 d43f
00000010: ef68 be41 52ed d13f 64ce dab5 ab5c c33f
00000020: fde2 e660 da79 c13f f300 e40a 22f7 c13f
00000030: 7e66 4785 6816 c73f 5827 a3e6 7253 d03f
00000040: fe85 5cd3 a60e d23f 76c7 37ba 1cb6 cb3f
00000050: d7a5 5540 83d5 cb3f 9069 6ffe 294d c33f
00000060: 6bbb bbc7 bc28 ba3f 09da 1a6c 7e26 6d3f
00000070: 3c62 2e85 7e2e 95bf 7ba5 0c03 adc7 b8bf
00000080: 6df4 e66f 0679 c0bf a729 3361 bd1b c5bf
00000090: 1ce0 5e48 ed6b d0bf 2ff1 bf9a d1f6 d0bf
000000a0: db55 f9b7 fb29 d5bf ca65 eb97 59b7 d6bf
000000b0: 4e38 f12f 6e17 d7bf 9ad6 77ab a59d dcbf
000000c0: 6fdc 2ec4 c31e e0bf a1c6 b5c4 0a6d dfbf
000000d0: 1911 0627 f826 dfbf 45d1 0297 8b22 e2bf
000000e0: e073 3176 fb50 e3bf 4050 e5b0 57df e3bf
000000f0: 73e5 9f19 894a e5bf b065 e840 9456 e3bf
00000100: 786f 1602 f600 e6bf 71ca b89e 059c e7bf
00000110: 522e a204 86e9 e7bf 45bc 2856 4b63 e6bf
00000120: 8bda 42e0 8cb7 e7bf 4e91 0e33 8c03 e8bf
00000130: c332 5a16 7c59 e7bf 83f8 0e92 4a4a e9bf
00000140: c2e9 9993 831d e9bf 8297 332f db88 eabf
00000150: f1fc 912c 855e e7bf 6ee9 029b 565f eabf
00000160: d2e7 7e5b 87bd e7bf a720 c66b 2750 e6bf
00000170: 1b35 7906 99b1 e7bf ade3 22d3 9589 e7bf
00000180: 3f2e e155 a2c2 e7bf 704b 5b38 4d84 e8bf
00000190: 5231 7590 e1bb e6bf ac0a a6ac 6701 e8bf
000001a0: 1907 f92b 4c20 e8bf 0134 a834 7e5e e8bf
000001b0: 0859 e224 4598 e9bf 0cb2 f8ab 456b e5bf
000001c0: 0d0e db94 4c36 e7bf a2c8 f267 48d8 e6bf
000001d0: a0f0 e9fe 205f e5bf 36c0 96d8 df26 e7bf
