Sphere/NeuralNetworks/models/net_l2_sqrtsqrt_12049.pt (torch_old, 190104 bytes, 7 tensors)

weight f8 [120, 6]
0	0x3fc37da180000000	0.15227144956588745
1	0xbfd7068660000000	-0.3597732484340668
2	0xbfd6e0c4c0000000	-0.35746878385543823
3	0x3fbdf56d00000000	0.11702615022659302
4	0xbfd6675020000000	-0.3500557243824005
5	0x3f6fe72000000000	0.0038943886756896973
6	0x3fd886555d59629c	0.3831990634549045
7	0x3fd7677777349553	0.3656901039233464
8	0x3fb6ad79def84d7b	0.08858453458406317
9	0x3fb82aa4506b5003	0.09440066302641985
10	0xbfd53cc2513fba59	-0.33183343824831507
11	0xbf6b20a7ef9f45a2	-0.003311470031783074
12	0xbf85ee9c00000000	-0.010709017515182495
13	0x3fb541ac00000000	0.08303332328796387
14	0xbfc65d5960000000	-0.1747237890958786
15	0xbfc6baf860000000	-0.17758087813854218
16	0xbfbccdc480000000	-0.11251476407051086
17	0x3fcba43900000000	0.2159491777420044
18	0xbfd449479d4635dd	-0.3169726405984344
19	0x3fd4522b7b70c1c8	0.31751524977428547
20	0xbfbe2c2877485392	-0.11786129867716813
21	0xbfbbef81086d0d8a	-0.1091232915469417
22	0xbfe3c5b241695d1e	-0.617882850415217
23	0xbfbae444ebbb71a1	-0.10504561190777519
24	0x3fc638b2b6cd78c3	0.17360528875264522
25	0x3fdac02b21d4b42f	0.4179790335063584
26	0x3fadfc2f56ea3474	0.058564643249248954
27	0x3fbc3a6149960368	0.1102658085492415
28	0xbfdf6581b561238c	-0.4905704757007292
29	0xbfcc0c75c18e405e	-0.21913024855575974
30	0xbfd0ba866d72a11c	-0.26138458908327933
31	0x3fcff976788e24bc	0.24980049978720398
32	0xbfc8d4599c13a033	-0.19398040886812992
33	0xbfd4512d003f1d0f	-0.3174545767219152
34	0xbfd811745b03008b	-0.3760653389727017
35	0xbf9129f4d7c4aa64	-0.016761613530585598
36	0x3fc1f932f63a6177	0.14041745207647313
37	0xbfce7fd6826864bf	-0.23827630393569696
38	0xbfd9836b5e797fb9	-0.39864620424304636
39	0xbfd46dd7c20c96cc	-0.319204272748135
40	0xbfd6315adc11255a	-0.346762385281712
41	0xbfc996f57c0e131d	-0.19991940076229123
42	0x3fcba6f970ee70c7	0.21603315366963313
43	0xbfcbc73d78dbaad6	-0.21701782609246462
44	0x3fc56968df9d5095	0.16727934759785926
45	0xbfb99518901dc8e4	-0.09993127363648885
46	0xbfd2d93eb691f16d	-0.29450958088980067
47	0xbfcd68e365bc88d7	-0.22976343600846036
48	0xbfc6235806beaffa	-0.17295360879268157
49	0xbfc7f6e5ec576f27	-0.1872222332011628
50	0x3fd24de91b2f86c0	0.2860052838787901
51	0x3fd1d3f628c5beef	0.2785621069115071
52	0xbfce9be786fad4b9	-0.23913282481013257
53	0x3f77465513ff8bc5	0.005682308517836303
54	0x3fd4d607c9e175dc	0.3255633803836113
55	0x3fcaeae8404c4813	0.21029379977750348
56	0x3fc98b080c6ad3aa	0.1995554028159437
57	0x3fb57d2569a4d633	0.08394082860180489
58	0x3fce9c04d1e88883	0.23913631677084277
59	0xbfd3fca93a4529b6	-0.3122962063831908
60	0xbfd264216bbd9099	-0.2873614837792587
61	0x3fbbbd95fe79b32f	0.10836160147455297
62	0x3fc3fb13d2c83f0f	0.15609977523899274
63	0xbfc8a11d2d255e16	-0.19241680817025103
64	0xbfd77f2041dff3d0	-0.36713415558898266
65	0xbfaeb53f4771b6c5	-0.05997655627366564
66	0xbfc6989f442dc563	-0.17653265790026315
67	0x3fa653dc256cec08	0.04360855061391794
68	0xbf91298ce99dd36c	-0.016760064848728204
69	0xbfb9ab5237562a8a	-0.10027040339461216
70	0x3fdcab47f55d24e0	0.44795416795075305
71	0x3fb5ee802f996a4c	0.08567048227397683
72	0xbfa04a6700000000	-0.03181764483451843
73	0x3fb11d0d80000000	0.06684955954551697
74	0x3fcb33e600000000	0.21252131462097168
75	0xbfcaad8d60000000	-0.20842139422893524
76	0xbfc555ed40000000	-0.16668477654457092
77	0xbfbbbc2600000000	-0.10833966732025146
78	0xbfab2a20e89a4aa9	-0.053055790323147285
79	0x3fb2d2cc5a9ba657	0.07352902614697975
80	0x3fd45bfbf9bf0324	0.31811427487632415
81	0x3fdbcab045e43cfa	0.4342461283240052
82	0x3fe786d8d07e23ed	0.7352108070491546
83	0xbfd72d91b8afe438	-0.36215632472846293
84	0x3fb4ccaaf0545f6a	0.08124798171445283
85	0x3fd18abdd1c9a9d4	0.27409310805401543
86	0x3f9219facb1dc48a	0.01767722954486265
87	0x3fc0b3bc0847aee4	0.13048506168649177
88	0xbfdc7ca584e2a293	-0.44510782219962514
89	0xbfe6b862178716a1	-0.7100077113652398
90	0x3fd9d4177c8f2a53	0.403570052757151
91	0x3fdad601b5c9c264	0.4193119311594613
92	0xbfc1374dca1a891a	-0.13450024002401834
93	0xbfd7e6a39a399f9b	-0.37345209179920297
94	0xbfe51e834796f0dd	-0.6599747083887696
95	0xbfd31b576f169c7e	-0.29854379509419704
96	0xbfc305ea4ff2f969	-0.14861802009358918
97	0x3fd3facea85c72e4	0.3121830600883142
98	0x3fd4abd3036e2265	0.3229873212335746
99	0xbf940a7b5ec82eb5	-0.01957123533251944
100	0x3f674b4492b32f06	0.0028435077016179004
101	0xbfb12340493e4f57	-0.06694413936776065
102	0x3fd740b9787430db	0.36332546961854256
103	0x3fb8bfcba2f24628	0.09667656639273814
104	0x3fc9aa4668849dee	0.2005088816015212
105	0xbf7e0d3adca9bde5	-0.007336835794020645
106	0x3fc448cb034c7765	0.15847146664685421
107	0x3fdd9f28070cbc9d	0.4628391331525082
108	0xbfc6892720000000	-0.17606057226657867
109	0x3fcaf54100000000	0.2106095552444458
110	0xbfd4a6c000000000	-0.3226776123046875
111	0xbfbc272100000000	-0.10997205972671509
112	0xbfd72ca980000000	-0.3621009588241577
113	0xbfd6443940000000	-0.34791404008865356
114	0x3fa039a7c98eac9d	0.03168987594048043
115	0xbfa341549a9933bb	-0.037607807037239614
116	0xbfaaae8fa3c523de	-0.05211304544588534
117	0x3f9d9e46ef4ba803	0.028924091678085528
118	0x3fe5c0359dde9cdf	0.6797130664243943
119	0x3ff0bc8613167b4b	1.0460263009660646
120	0x3fd2068dc0000000	0.28165000677108765
121	0xbfd31b2380000000	-0.2985314130783081
122	0xbfd562f900000000	-0.3341658115386963
123	0xbfd668f840000000	-0.35015684366226196
124	0x3f83d75800000000	0.009688079357147217
125	0xbfd911af60000000	-0.39170441031455994
126	0xbfdfaf856431bde2	-0.49508795532798733
127	0x3fd902abc39f8bcb	0.3907880220778536
128	0x3fd1a09c5a6a07f9	0.2754279025031106
129	0x3fd8d1eb68a367e3	0.3878124734743535
130	0xbfcad632ce738414	-0.20966181831957498
131	0xbff44c1175b9eac9	-1.2685713385277941
132	0x3fbef3bb274228d5	0.12090654095132732
133	0x3fd76963c6939c8f	0.36580747978445854
134	0x3fc3ff7755510d74	0.1562337080559747
135	0x3fd70ad28f73a97e	0.3600355530640157
136	0x3fda5ba17af53b14	0.4118426991234838
137	0x3fb7a43fd2b3c54c	0.09234999555680651
138	0xbfc56c8cc0000000	-0.16737517714500427
139	0x3fb8988c00000000	0.09607768058776855
140	0x3fa79e2f00000000	0.04612872004508972
141	0xbfd5d0e520000000	-0.34087494015693665
142	0x3fb9c6ea00000000	0.10069143772125244
143	0x3fd5aad400000000	0.33855152130126953
144	0xbfce172f2c813082	-0.23508252785757483
145	0xbfd539c5e8774a9e	-0.33165118886715017
146	0xbfcf756ee7a15be3	-0.24577127752374314
147	0xbfcd8e55f30fd4dc	-0.23090624206785193
148	0x3fc8f6f46197d96c	0.19503645673075753
149	0x3fc835fc44703d0d	0.18914750425071994
150	0xbfd5d554e7f7f23c	-0.3411457314794324
151	0x3fd2ad1d78097f2b	0.2918161079633019
152	0xbfcc2807d4f86e6a	-0.21997163676211368
153	0xbfd6cf76236f9947	-0.35641244373836795
154	0xbfd4ff17c00879cb	-0.3280696273158383
155	0xbfe2bb9dfaacdbeb	-0.5854024787903404
156	0xbfb0bc9da1eb9fc3	-0.06537804797301221
157	0x3f9d0995ac7cf266	0.028356875088535814
158	0xbfa28ce9318d070c	-0.036231314943974
159	0x3fd5081398a46694	0.3286179533621205
160	0x3fd8280a7ed44ea5	0.37744390855480453
161	0x3fe12eb3da0f839d	0.5369509943958409
162	0xbfc0178e80000000	-0.125718891620636
163	0xbfd24db700000000	-0.2859933376312256
164	0xbfd91eb420000000	-0.39249899983406067
165	0xbfd8f72580000000	-0.3900846242904663
166	0x3fa3caeb00000000	0.03865751624107361
167	0xbfd00dafc0000000	-0.2508353590965271
168	0xbfc4069bb94f66f5	-0.15645166920040024
169	0x3fd5c7e5c71d7d17	0.3403257793888356
170	0x3fd27a110c5e80b5	0.28870035369801467
171	0x3fbc7c49bc78a5de	0.11127148486470825
172	0x3fa5ac37d591dfb8	0.04232954484990564
173	0xbfe300073c06ab54	-0.5937534496673416
174	0xbf9f798800000000	-0.03073704242706299
175	0xbfc54ec780000000	-0.16646665334701538
176	0x3fc8979000000000	0.1921253204345703
177	0xbfc5ae4440000000	-0.16938069462776184
178	0xbfc8aff400000000	-0.1928696632385254
179	0xbfd364a840000000	-0.30301862955093384
180	0xbfd8c4d600000000	-0.38701391220092773
181	0xbfd1aa0240000000	-0.276001513004303
182	0x3fd2125340000000	0.2823684811592102
183	0xbfb50f0c80000000	-0.08226087689399719
184	0xbfbd8fea80000000	-0.11547723412513733
185	0xbfd1aafdc0000000	-0.276061475276947
186	0xbf87440f05255a24	-0.0113602803655058
187	0x3fc6edbc9b43efb8	0.17913014966313567
188	0x3fdb5964c74a74a2	0.4273311563682204
189	0x3fd5b19132e6745f	0.3389628407547373
190	0xbfe78fa893400b18	-0.7362864376048917
191	0xbff5395a56ac7079	-1.326502169197765
192	0x3fc79abed7751455	0.18440995712640765
193	0x3fb7e9890cecb898	0.09340721669716101
194	0x3fd7f3aef0167058	0.3742482514005636
195	0xbfcec6e978e7c5b2	-0.24044531253416107
196	0xbfb1ea8522693af0	-0.06998474207032834
197	0x3fa418d46ed09b33	0.03925193646164473
198	0xbfca81c000000000	-0.20708465576171875
199	0xbfb0e2f280000000	-0.06596294045448303
200	0xbf9a17ec00000000	-0.025481879711151123
201	0xbfc1dd2f40000000	-0.13956251740455627
202	0x3fd4ba6740000000	0.32387715578079224
203	0xbfd2e24060000000	-0.29505929350852966
204	0x3f40c9c83a21d179	0.0005123355551988471
205	0xbfd18c94401e7499	-0.2742052675401481
206	0x3fbd20f5bc9e1f3c	0.11378417830394211
207	0x3fda49b38161e7ce	0.4107483638286994
208	0xbfd56e76688c9326	-0.3348670979487899
209	0xbfbc3d7ac90c3857	-0.11031310470954857
210	0xbfc0f6538245f16b	-0.1325172792529757
211	0xbfc4305d03381a9b	-0.15772593171296453
212	0xbfa5df95e4582302	-0.042721447109277846
213	0x3fcc928308e91cd5	0.22322118697250085
214	0x3fd7039543d4b8cf	0.3595936930095264
215	0x3fdbf96d71e46fef	0.43709884760187284
216	0x3fd3470529e2bd46	0.301209727195744
217	0x3fdb22bafd7769c6	0.4239947772272469
218	0x3fd2d0e24cb864b6	0.2939992665502119
219	0xbfd6113f6a2f1f77	-0.34480271691835845
220	0xbfe13d02038f829d	-0.538697249368926
221	0xbfbc2c6d9da738b2	-0.11005292033152861
222	0xbfceb60200000000	-0.2399294376373291
223	0x3f79754800000000	0.0062153637409210205
224	0xbfd168c7c0000000	-0.27202028036117554
225	0x3f9ff6b600000000	0.03121456503868103
226	0x3fc9bfe580000000	0.2011687159538269
227	0xbfd9380260000000	-0.39404353499412537
228	0x3fd363d2b83a1abe	0.30296771994509786
229	0xbfb8fd4fdf6ca361	-0.09761523441978916
230	0x3fa269a48ad8b74d	0.03596224017051828
231	0xbfcc60819a8cbd80	-0.2216951374661953
232	0xbfb488ac0d0e27fb	-0.0802104503510747
233	0x3fe654ef3cda0edb	0.6978679836761005
234	0x3fc48789cec9f5fe	0.1603863010131334
235	0x3fa85734723dae55	0.04754032034437886
236	0x3fd51d3b3807738f	0.3299091384085892
237	0x3fcfdbeb1b75a075	0.24889887657923607
238	0xbf9b974e4bc9e25b	-0.026944373489160216
239	0xbfb5fe7f8fc501b1	-0.08591458568571998
240	0x3f644ed62fa8cdb8	0.0024789985011694736
241	0xbfcc367ac54c6a27	-0.22041258462634625
242	0x3fd8fce646def339	0.3904357616518613
243	0xbfc7f8058c4425c7	-0.18725652073798768
244	0x3fb182af5dd6327a	0.06840034523902175
245	0x3fe5978be5f87a28	0.6747493259061388
246	0x3fce062e57d66f92	0.23456362999865782
247	0xbf89e6b448e3dbbd	-0.01264706466143461
248	0xbfbae3797dad89f1	-0.10503348654086843
249	0x3fad2b973a22707b	0.05697319588327417
250	0x3fced55a85bc2ce7	0.24088603525192484
251	0xbfd8f5b3e8cc5272	-0.3899965070170658
252	0x3fcc3543551b3728	0.22037545829373895
253	0x3fd00fde8399134d	0.25096857882845286
254	0x3fbf18b15f5d9349	0.12147053316364266
255	0x3fb17488e4c14d66	0.06818442902413366

bias f8 [120]
0	0xbfd2662c40000000	-0.28748613595962524
1	0x3fc1e27cbf053a02	0.1397243435589673
2	0xbfd6bc3980000000	-0.35523831844329834
3	0x3f5e50be42f77344	0.0018503053687403829
4	0xbfda34665d8a4056	-0.40944823393602314
5	0x3fd39611ba560224	0.3060345000922402
6	0x3fcdaf71082e16be	0.23191655063071964
7	0x3fc9bd8a739c4cd4	0.2010968269829393
8	0x3fd2b87907bc5650	0.2925093246024959
9	0x3fd73e39790acf8b	0.36317288227586947
10	0x3fd7540670331543	0.36450348813044203
11	0x3fd66598c77f1cab	0.3499509762008965
12	0xbfd7312340000000	-0.36237412691116333
13	0xbfc2526374b90197	-0.1431392974791492
14	0x3fa42ea4e39d0a9e	0.03941836622700133
15	0xbfc4edd5b5e73110	-0.16350814229952748
16	0x3fc2e2e51dfde860	0.1475492855495899
17	0x3f8e4228d5681af4	0.01477462674394079
18	0xbfbc4e6f80000000	-0.11057183146476746
19	0xbfaac984cd64ec95	-0.05231871611837239
20	0xbfc8c97040000000	-0.19364741444587708
21	0xbfd038446eafc2f0	-0.25343428429827863
22	0x3fd14edd11918832	0.2704384490554076
23	0xbfd193bdc0000000	-0.2746424078941345
24	0x3fc9fd67f85aa697	0.20304584147134072
25	0x3fd3342b6b33a602	0.3000591799633129
26	0xbf7395a05a7339da	-0.0047813667108144945
27	0xbfc48e1b60000000	-0.16058675944805145
28	0xbf9b4dd14725ac08	-0.026664037673452184
29	0xbfbc9d5480000000	-0.11177566647529602
30	0xbfd1fe83c0000000	-0.28115934133529663
31	0xbfc5aedc3d154de8	-0.16939881308154203
32	0x3fc0d214e8cfb3cf	0.1314111840032681
33	0xbfca694ee0000000	-0.20633874833583832
34	0x3fc5c4761368859e	0.17005802104635576
35	0x3fd64df32e030664	0.34850768559781486
36	0xbfb074265ec11cfb	-0.0642723065694674
37	0xbfb502e680000000	-0.08207550644874573
38	0x3fb5fd433355e5d2	0.08589572909649881
39	0xbfae071fad369cef	-0.05864809979839857
40	0x3fbc79b75668faed	0.11123224124547067
41	0x3fc7451aaf8a6783	0.18179639407463463
42	0x3fcd71162eb8ee20	0.23001363068930036
43	0xbfca9e15b80dd650	-0.20794936644567708
44	0xbf9ad57518c199e4	-0.02620490039444147
45	0x3fd6d16855db794c	0.3565312231493365
46	0x3f57af8c2b7f2c9f	0.0014456623884935638
47	0x3fc16e77463252db	0.13618365218703485
48	0x3fd258c40aca7694	0.28666783384128647
49	0xbfd24e4320000000	-0.2860267460346222
50	0xbf6bae5fac2a5308	-0.0033790463069841604
51	0xbfcbcbd1b2a16d87	-0.2171575662822358
52	0x3fd5cd5874f48f14	0.3406582967893297
53	0x3fd737a54646fa18	0.36277133811009454
54	0xbfd0f9cf80000000	-0.2652472257614136
55	0xbfd0c4ad4464340e	-0.26200420073365727
56	0x3fbd865bbac39ad4	0.11533139524145081
57	0x3f827bb800000000	0.009025037288665771
58	0x3fb4a173730840cf	0.0805885463562419
59	0xbf4deab0e64a5bcf	-0.0009129871146623616
60	0x3fc543d3077cc990	0.1661323343810861
61	0x3fc608cc85782e15	0.17214352147162573
62	0xbfd1f5cd94199e60	-0.280627627018907
63	0xbfc7357e9629f88c	-0.1813200219366461
64	0x3fd333f747d43484	0.3000467492536887
65	0x3fd2757115ffd68a	0.2884180750691959
66	0x3fd88d31a76039ba	0.38361779542256225
67	0xbfbe13cb00000000	-0.1174895167350769
68	0x3f8a52a271d17379	0.012852925394491998
69	0xbf8d992dbf9d5477	-0.014452321443665135
70	0xbfbc798e00000000	-0.1112297773361206
71	0xbfd57c96e0000000	-0.33572933077812195
72	0x3fc822a3be2d50c1	0.18855711732851968
73	0x3fd7672ad372b4fb	0.365671831600437
74	0xbfa2f18b1ff31ad7	-0.0369990803242694
75	0xbfcbafe93da2f41b	-0.21630588063808961
76	0x3fd42bf3b0f496c2	0.31518261223605404
77	0x3fb1d2e6cc5fb016	0.06962435235590222
78	0x3f614cdd422fabc5	0.0021118470626695107
79	0x3faca77cb0d134f4	0.055965324958927726
80	0x3fd45d7e4437bfde	0.3182063738049673
81	0x3fa0ef8ff3272837	0.03307771533179998
82	0x3f60f657f74e2e12	0.0020705907904294907
83	0xbfd3be6dc0000000	-0.3084978461265564
84	0x3fc882a18b6968fc	0.19148654277052646
85	0x3f8c0e37d38d4a24	0.013698993819763201
86	0xbf9e151e00000000	-0.02937743067741394
87	0x3fa80c166770aee4	0.04696722042748805
88	0x3fd1e392c7be64b5	0.2795149756071383
89	0xbfb7831280000000	-0.09184375405311584
90	0x3fcd495bea05f02d	0.22880124022401685
91	0xbfd288627bd7f206	-0.28957426160903343
92	0x3fd211e6b51dfbcf	0.28234260260790917
93	0x3fcb4383b86b6a7b	0.21299788002837147
94	0x3fb9f24bee3cd278	0.10135340277049376
95	0x3fd481d9c9ccce6d	0.3204254599288337
96	0xbf46ed9a17650646	-0.0006997110747663591
97	0x3fc4db4dfd19096b	0.16294264658251775
98	0x3fd017e9f51afc0c	0.2514595883948807
99	0xbf82b3aab9dfc360	-0.009131749913622478
100	0x3fd63f7914b6936c	0.3476240827824799
101	0x3f979e14887f8c7b	0.02306396563643574
102	0xbfcfc5c26c15469c	-0.24822263982291737
103	0xbfd6edef1178aff9	-0.3582723303431972
104	0x3fd72a94fbdef7bd	0.3619739970853251
105	0x3fc4bde5a647887e	0.1620451986228239
106	0xbfb6bbe07fba04f0	-0.08880427473379249
107	0x3f627ca88906eb9b	0.002256707354005139
108	0xbfce46e335e0fa65	-0.23653831606675904
109	0x3fd61e571dbed84b	0.3456018248065262
110	0xbfa9b63394018ac5	-0.050218211953298154
111	0x3fcaf942c8d7e8e3	0.2107318382912303
112	0x3fc036f17c30ec67	0.1266767364885226
113	0x3fb3690e08db2740	0.07582175937855329
114	0x3fc1fcc591fbbbc2	0.1405264818963286
115	0x3fc56aa4d9120f86	0.16731701468608778
116	0x3fcddbe531dc0796	0.23327317175431678
117	0xbf9a0dad5b264fe2	-0.025442799270947954
118	0x3fd3e8d5718e1dcc	0.311086045163816
119	0xbfd062240fd52cdd	-0.2559900431267133

weight f8 [120, 120]
0	0x3fa8dcf100000000	0.048560649156570435
1	0xbfb650153ef6fe3a	-0.08715946948267908
2	0xbfabf70020000000	-0.05461883917450905
3	0x3faefd74e8a7e1f1	0.06052747097050205
4	0x3fa878f54afd9b4e	0.04779783764279576
5	0x3f6bab7cde7deaa8	0.003377670178392595
6	0xbfb4931a6b30f589	-0.08036961667035859
7	0xbfb27b31e4ecc653	-0.07219230498301359
8	0xbfb02ae5ab6a2373	-0.06315455851485101
9	0xbf936d6be4d36d10	-0.018972097245620267
10	0x3fa1f3b4cec7c5e2	0.035062456361526065
11	0xbf9ec40e7eab87db	-0.03004477165348605
12	0xbfb42a0660000000	-0.07876624912023544
13	0xbfc7f1f8c1b2950d	-0.18707189042940123
14	0x3f93c407bff872d7	0.01930248364634476
15	0x3fc04c461a9513c8	0.127327692966132
16	0x3fb480a799a1172f	0.08008811474527698
17	0x3fb4d5f1706f771e	0.08138951296811256
18	0xbf7f59c400000000	-0.007653966546058655
19	0x3fdaa864f9111079	0.41652798006931097
20	0x3f7b3aa600000000	0.006647728383541107
21	0xbfcb09b6a905ada3	-0.2112339330009095
22	0xbf9ba9afd4620f42	-0.027014491403419834
23	0xbfa8395840000000	-0.047312505543231964
24	0x3f7d2a0c79aa5a5e	0.007120178920237833
25	0xbfa0fe56b6889828	-0.03319045046036734
26	0xbfc24cf4258402cb	-0.14297344047374447
27	0xbf96e23800000000	-0.022347331047058105
28	0xbf8b7bd5376ec1e2	-0.01341978621880541
29	0xbfa67d24a0000000	-0.0439235158264637
30	0xbf96d6e600000000	-0.022304147481918335
31	0x3facd9b90cc341f8	0.05634859352869975
32	0x3fb47b44f1d7ca5e	0.08000594047897766
33	0x3fa8e39a00000000	0.048611462116241455
34	0x3fb11356bcd1ab1d	0.0667013369544915
35	0x3f991ccd9c9cea25	0.024523937877555597
36	0xbfa6a06fbbec83c5	-0.04419278306000466
37	0x3f70fec600000000	0.004149220883846283
38	0xbfc224b9193b2063	-0.14174569828014957
39	0x3fb24813cb0d13e9	0.07141231257726556
40	0xbfb6aa1700b194ae	-0.08853286520896361
41	0x3fb1e265b916ed09	0.06986079949176739
42	0xbfa8f14ea87b8266	-0.048716028277117115
43	0x3fa5be4f8be60b77	0.04246758063074812
44	0x3f9efba18ae8eed9	0.030256771186244123
45	0xbfad62ff24f02d66	-0.057395909556442956
46	0x3f7aaebcd3633342	0.0065142990117237915
47	0xbfb61a5ab32b567f	-0.08633963464975557
48	0xbf8bb637d87a2555	-0.013531147283418457
49	0x3fb08b7840000000	0.06462813913822174
50	0xbfb0f86f52e5c1a2	-0.06629081510414506
51	0xbfb3c80c68799486	-0.07727124739320076
52	0xbf8fc3aeb648d05e	-0.015509953439597431
53	0x3fab4706d5430261	0.053276265652588924
54	0x3fb61f86c0000000	0.08641855418682098
55	0xbfa74b4a37243b8f	-0.04549629138101984
56	0x3fb242b715c4e7ec	0.07133049279664733
57	0x3fa407c180000000	0.03912167251110077
58	0xbfa2861e59915e13	-0.03617949336392825
59	0xbfc0fc8a35f6e66d	-0.1327069056986149
60	0xbfa9b1f77771b73d	-0.050185902910796255
61	0xbfa65539b056da2b	-0.043618967796124807
62	0xbfb39fae63661a7b	-0.07665529181222468
63	0x3fb175a6bc7ea783	0.06820146657869768
64	0xbfb0eff18711273f	-0.0661612467530661
65	0x3fb044de97d59f1a	0.06355086523910494
66	0xbf857a2557d86c51	-0.01048688101132292
67	0xbfb5e0d640000000	-0.08546198904514313
68	0xbf7e3153cb858583	-0.00737126095222729
69	0xbfd620fa4e920dd2	-0.3457628028192775
70	0xbf88600e00000000	-0.011901959776878357
71	0x3fb1b51dc0000000	0.06916986405849457
72	0x3f9567ab3de9e72e	0.020903278020774234
73	0x3fa84db956317fc3	0.04746798684277522
74	0x3fc4f9eda373e7a9	0.1638772056683682
75	0x3f9cfffb394eb24b	0.028320241329924205
76	0x3fafc0cfe4cb5d00	0.06201791446590654
77	0x3f8cdb0978a40e3c	0.014089654916921927
78	0x3f3eb2eaec962abb	0.0004684279961898842
79	0x3fb99526b746736f	0.09993211721889649
80	0x3f9b397519e12ca1	0.026586370186390543
81	0x3f83c0ac1160fa2a	0.00964483669315282
82	0x3f9cb691116dd7cb	0.028040186585222487
83	0x3faca98200000000	0.05598074197769165
84	0x3f954c5708b9b0b0	0.020799026401093712
85	0x3fb5f488a7d0cf4c	0.08576253983556831
86	0x3faa792900000000	0.051705628633499146
87	0xbfb429f2822cab65	-0.0787650649842085
88	0x3fab4b134e8ba9ed	0.05330715497787595
89	0xbfb4f09300000000	-0.08179587125778198
90	0xbfab7b4984131af5	-0.05367498147238862
91	0x3fc4f06c308f3174	0.16358711596548015
92	0xbfb8c87850a91f41	-0.09680892915014018
93	0x3f81572a65aa74ec	0.00846703646430532
94	0xbfb34040f2285d58	-0.0751991835789928
95	0xbfa755f12a63e25b	-0.04557756082971728
96	0xbfb4c618c37ba11f	-0.08114771626026539
97	0xbf8f4a17a38c4d87	-0.015278038672056805
98	0x3fb1dd9bd905201d	0.06978773163166392
99	0x3fd0b05b47b31eb9	0.26076395036623584
100	0x3fa24477cf65d260	0.03567861944876394
101	0xbfdb2734093ef372	-0.4242677774707807
102	0x3fa2d5cda47f550d	0.0367874396612625
103	0x3fa140c6085ed85d	0.03369730808428593
104	0x3f639c3d9135b05f	0.0023938372120735764
105	0x3f8e8a2a5d194451	0.014911967245241938
106	0x3fb52f120375eb09	0.08274948677528128
107	0xbf60189def44e0a0	-0.0019648632679967887
108	0xbfc85b4f42f3ef1a	-0.19028654832060782
109	0x3f9628d6512f1e48	0.021640156464654475
110	0xbfc01d284023b323	-0.1258898080044669
111	0x3fae223545e251b4	0.05885473707272429
112	0x3f8d93a6b1397a14	0.014441778453314881
113	0xbfa3b308f2007c8c	-0.03847530321240197
114	0xbf60ce6a10c6fa0b	-0.002051551017046243
115	0xbfa04b3c0ca6d927	-0.031823994202044674
116	0xbfb1573306c1c60f	-0.06773680605854103
117	0xbfbed00862b106d4	-0.1203618279405661
118	0x3fa15797adf44a83	0.03387140272584068
119	0x3f68681252de85e4	0.00297931269501882
120	0x3fa6921b80000000	0.04408346116542816
121	0x3fb1db0c2ca6cd4a	0.06974865045667858
122	0xbfb5404be0000000	-0.08301233500242233
123	0xbfb0ad6f2b302005	-0.06514639667886975
124	0x3fa05de9d16c4a1f	0.031966502012569224
125	0x3f8d9ff9a6401450	0.014465284715706656
126	0xbf57138c9d587939	-0.001408469504333333
127	0xbfb2c1065a418d71	-0.07325782493130874
128	0x3faa2d4c9be65712	0.05112685587952916
129	0x3fa0200d249e7ce5	0.031494532318214565
130	0xbfad377df8905ebc	-0.057063995926168926
131	0x3f84a34a8df32c68	0.010077078301398326
132	0xbf6bed9c00000000	-0.0034091994166374207
133	0x3fc3140934e6c330	0.14904894908024735
134	0x3f85780600253d95	0.010482832793654842
135	0xbfc2a1c37b7818b1	-0.1455616333843799
136	0xbf926c4b22793472	-0.017991231898396305
137	0x3f85054f7922a8c6	0.010264035114535008
138	0xbf9bb43780000000	-0.02705466002225876
139	0xbfb0ccf0c0ae4f5d	-0.06562714294551371
140	0x3f6fac9800000000	0.0038664788007736206
141	0x3fcdce0e6b2ba8c2	0.2328508399289771
142	0x3fb00c50a1c2f69f	0.0626879115033838
143	0x3f9d8a8c80000000	0.028848834335803986
144	0x3f99982312c9e477	0.024994419118659707
145	0x3fb0777df82715df	0.06432330425658205
146	0x3fb21fe1d26adde9	0.07079898249764195
147	0x3fb6c4e300000000	0.08894175291061401
148	0xbf9169acaa1f715a	-0.017004678615067582
149	0xbfa28d1aa0000000	-0.03623278811573982
150	0xbf92877b80000000	-0.018094949424266815
151	0xbfaa5f78969ee629	-0.051509636293712475
152	0xbfabb4b1623d8e52	-0.05411295246338156
153	0x3fa1734980000000	0.034082695841789246
154	0x3fb41ba2a0394547	0.07854668056213142
155	0x3f8e7bd07c3f98f2	0.014884594718705266
156	0xbfb766a436a3940d	-0.09140993436774654
157	0xbfb69c7940000000	-0.08832509815692902
158	0xbfa996522eb4870a	-0.049974983407322496
159	0x3f9a2f9a2d4d3a57	0.025572213187212558
160	0xbfb7ea3c48dd72e0	-0.09341789988452431
161	0x3fa4d2929e6370af	0.040669042429472106
162	0x3fa39cd1a46c675f	0.038305808373663146
163	0xbfb0bf241590367b	-0.06541657949875372
164	0xbf9ab22c71e5226e	-0.026070303393938614
165	0xbfb3a2dc45912b2e	-0.07670380304732013
166	0xbf8874bebf6d73a2	-0.0119414236229945
167	0x3f31f6481aca485a	0.00027407894484910366
168	0xbf8986479bf65657	-0.012463149497118282
169	0x3fb4d5a900000000	0.08138519525527954
170	0x3fa5e4a8f3c81df3	0.04276016212321201
171	0xbf904c54e436662c	-0.015916181973443397
172	0xbfacfb3ef9c80367	-0.056604354849702436
173	0x3f95ef947ecbf66c	0.021421737898882062
174	0xbf88539500000000	-0.01187817007303238
175	0xbfd4d82d6dfc258e	-0.32569442501752455
176	0xbfa3745c77d134dd	-0.037997140527844066
177	0x3fb267a100000000	0.07189375162124634
178	0x3f5b09fe8216cc28	0.001650332015157083
179	0xbfbc949b1d4ee922	-0.11164254632504769
180	0x3facf1c2720d7849	0.056531979010046536
181	0xbfc4f346eaa0e74f	-0.16367422539206664
182	0xbfa342a0cd264d43	-0.03761770729320315
183	0x3f92c6559df5a98d	0.018334710851755132
184	0x3f9488d63c10a064	0.020053241172860573
185	0x3fa436d9d21262ee	0.0394809788642244
186	0xbf919537ef9b8fd3	-0.017170785903445406
187	0xbf8c4a4f00000000	-0.013813607394695282
188	0xbfc476ef97f4974b	-0.15987963599871544
189	0x3fe695c765c05e16	0.7057835566838004
190	0xbfa2a06300000000	-0.03637990355491638
191	0x3fb28879c0000000	0.0723949521780014
192	0x3fb895d9115c4d1b	0.09603649782029715
193	0x3f60fb2d34cd6941	0.0020728953299286317
194	0xbfcc3bd8a02b2c5e	-0.22057636090025573
195	0x3fc4c8c1edba7c5f	0.16237663371882413
196	0xbfa57b256918c1be	-0.04195515544813898
197	0xbf9a5863099f45d7	-0.025727794134416584
198	0x3fa918349a0e8d02	0.049012798124090665
199	0xbfde4be3ee7e0346	-0.47338197984941066
200	0x3fa8dc62a5c8b891	0.04855640672427442
201	0xbface48b626bb21e	-0.056431155933612795
202	0xbfb0e242bd39a919	-0.06595246429211378
203	0xbfb582d7a0000000	-0.0840277448296547
204	0x3fb80818e329f0f0	0.09387355371467598
205	0x3fba300cedc5ba7f	0.10229569249143287
206	0x3f84542a00000000	0.00992615520954132
207	0x3fa2cfb7eba57583	0.03674101592580838
208	0x3f8b91f1b5f3fd32	0.013461960187213327
209	0xbfb5888660000000	-0.0841144546866417
210	0xbfaa0778fb25c07e	-0.05083826127781864
211	0x3fa18897e2d5eaa7	0.03424524921407129
212	0x3fafc4dd64a07a11	0.06204883435588127
213	0x3f824f537a6686c3	0.008940365002504952
214	0xbfa54b9c901fc9fd	-0.041592495530398545
215	0x3f7a92707a048660	0.006487311708299609
216	0x3fa1aa58b37e1e00	0.03450276557037668
217	0xbf8eb46fe1e903dc	-0.014992593843205108
218	0xbfb2c1a3be5b7a20	-0.07326720616718108
219	0x3fa90c2d0d375284	0.04892102037743931
220	0x3fb293f83570512c	0.0725703363862677
221	0xbfc5a0c036d272b7	-0.16896822621210614
222	0x3f71dbfc2b2658ad	0.004360184701360276
223	0x3f65280e79294683	0.002582577007424204
224	0xbfa46a6c86b0c5de	-0.03987445015117051
225	0xbf96187e063ecb62	-0.0215778056442092
226	0xbf9e29872e0332b7	-0.02945529192293136
227	0x3fb79ac5a08caad4	0.0922053830114849
228	0x3fc7355d779eb68a	0.18131607380694376
229	0xbf91958e348c7d50	-0.017172071416209633
230	0xbfb701d0326abc42	-0.08987141829378323
231	0xbf963a12f3db02b7	-0.021705909856566587
232	0x3faca9ee55fd10e1	0.05598397063889294
233	0x3fb511fa86d7b5e8	0.08230558197075022
234	0xbfb38f75b6a37524	-0.07640777310321717
235	0x3fa9e7d4cd3a7f53	0.050596857120807436
236	0x3fb06ef8b389dd0f	0.06419329055085064
237	0x3fd4bbf27d381d9a	0.3239713881343619
238	0xbf9459cc2e263f62	-0.019873800579773067
239	0xbfac5b0605bb71bd	-0.05538195438359448
240	0xbfad6f9bc0000000	-0.057492129504680634
241	0xbfa20c03d76df6a0	-0.03524791722064191
242	0x3fa13dc740000000	0.033674456179142
243	0xbfaa10bf031b7680	-0.05090901291781069
244	0xbfa96e7d291eed0b	-0.04967108847582765
245	0xbfae9ddeebe1a6b1	-0.059798208517191205
246	0x3fa2a4dfa664e908	0.03641413599184956
247	0x3f26af60bdfce7a7	0.00017307334837274072
248	0xbf9d4c2e3c42d9fc	-0.028610918453262343
249	0x3f9ffbad5779edab	0.031233509506348216
250	0xbf95717400982fde	-0.020940601860317425
251	0xbfae9837f034d7ae	-0.05975508506018855
252	0xbf808eba00000000	-0.008084729313850403
253	0x3faa1c016cbea22a	0.0509949155087422
254	0x3fafdf756478d959	0.06225172854867606
255	0xbfb98f47f97a1b6f	-0.09984254685160264

bias f8 [120]
0	0x3fad80f18d0e1307	0.057624386280656074
1	0x3fa1523544820d54	0.03383032285003176
2	0xbfad4d7aa5fb0433	-0.057231743584914695
3	0x3fb4ac90d2bdbc40	0.08075814385459612
4	0xbfb8e2284a376e30	-0.09720088779379732
5	0xbfa816da634ccf2f	-0.04704935514601371
6	0x3f682a266d68828c	0.0029497862372099334
7	0x3fb19c530cd496b3	0.06879157126658235
8	0xbfb137c7a7aff619	-0.06725738376550118
9	0xbf704440f4468a6a	-0.003971341826771816
10	0x3f9133261999fa1e	0.016796679794874085
11	0x3f912c618804bfae	0.016770862509644928
12	0xbf910ef054847979	-0.016658549459970005
13	0x3fb2f1688b3541bd	0.07399609945901538
14	0x3f94536d1b376d68	0.019849495683826573
15	0x3fb5e9edc62f9f66	0.08560072029615426
16	0xbfb685c7c0000000	-0.08797882497310638
17	0x3fa9e64b86e36fff	0.050585136619446296
18	0xbfb5a76c1169cbe7	-0.08458590912941553
19	0x3f91e97e37cf1f81	0.017492267757716732
20	0xbfa2ca0960000000	-0.036697667092084885
21	0x3fb67c6700000000	0.08783572912216187
22	0xbfae3c252ace4363	-0.05905262134104452
23	0xbfb514ba60000000	-0.08234753459692001
24	0x3fa8b9bd5092707d	0.0482920800070312
25	0xbfb3c446d679b702	-0.07721369491784105
26	0xbfae4087391ee794	-0.05908606121324947
27	0xbfb2fb25adf2bec4	-0.074144701927021
28	0x3fa230d38486ba44	0.035528764655613304
29	0x3fa5391c5f1a4dd0	0.04145134602472533
30	0xbf7fc831fb8b1c78	-0.0077592804379441535
31	0x3fb1cf9ebdfc2dc9	0.06957428110415899
32	0xbfb4255d60000000	-0.0786951407790184
33	0xbfb636057a08d777	-0.08676180104597885
34	0xbfb1f22ff0a09075	-0.07010173439681629
35	0x3f9af104a26445c8	0.026310036098100814
36	0xbfafda4190ec1119	-0.06221203702992479
37	0x3fad874c42c277d7	0.05767286601006532
38	0xbfa87a816dbf120c	-0.047809643408559394
39	0xbf9b9ab8504c417c	-0.026957397366517352
40	0xbfb667cf55f6583f	-0.08752151344955993
41	0x3fa587e1f36c551e	0.0420523271224431
42	0x3fa68aa9b3a1056a	0.04402666394936257
43	0xbfb3318de1d3ceea	-0.07497488749850914
44	0x3f92ad85784702fa	0.01824005648245739
45	0xbf9133bd3fc9238f	-0.01679893209282884
46	0xbf51ce67413c0743	-0.0010868080470917841
47	0x3f6d51822fb4d1c4	0.0035789053632930574
48	0x3f921047e0e2bea2	0.017640231228766574
49	0xbfb34e2c8b71bff9	-0.07541159061815951
50	0x3f967be477a6a20d	0.02195698719302368
51	0x3f97de0da1c1a238	0.023308003423524876
52	0xbf4b7d2000000000	-0.0008388906717300415
53	0xbf960f05975bad1a	-0.02154167877499189
54	0x3fa080e7ef4b0642	0.03223347469385064
55	0xbf8de5d7261c95c7	-0.014598542070937704
56	0x3fac1060157a2d7b	0.05481243383573094
57	0x3fac0960d1061daa	0.05475904990731391
58	0x3f863271392f5eb0	0.010838398511551744
59	0x3fb1cb9a80000000	0.0695129930973053
60	0x3f9dacfc03cf936b	0.028980195744128617
61	0x3fb1ec41a1571757	0.07001123608560299
62	0xbf5d4c08bc9c690c	-0.001788147480005056
63	0xbf77b157ed10e5bf	-0.00578436227902429
64	0xbfb282d94cfd18c3	-0.07230909471136031
65	0xbfb62675666fa74b	-0.08652433157808763
66	0x3fb02dd3714991cf	0.06319924846463397
67	0xbfacce269b707244	-0.056260305857197795
68	0x3f903e546aac565e	0.01586276913720607
69	0xbfb0235ba0000000	-0.06303951889276505
70	0x3fa4984555ced085	0.040224234318345466
71	0x3fb6f141526fc5df	0.08961876165974257
72	0xbfba16406a3867ca	-0.10190203278798929
73	0xbfb52aa2c0000000	-0.0826818197965622
74	0xbf8f42b6b954dbe9	-0.015263965159290254
75	0xbfb1e77bb8305a3e	-0.06993840452955966
76	0x3f804282358786d4	0.007939355143153838
77	0xbfb42f513f926da2	-0.07884700586367058
78	0x3fa7e17b94f9a446	0.046642171798176466
79	0xbfaf8d5ce0000000	-0.06162538751959801
80	0x3f7dca457c7166d3	0.007272979192828283
81	0xbfb4b2c4b8129829	-0.0808527898212509
82	0xbfb86fbf405c41e3	-0.09545512505815838
83	0xbf880c53d6c24138	-0.011742262832087222
84	0xbfb2d9d00eb62380	-0.07363605841795895
85	0xbfa88b692d8faacf	-0.04793862038771623
86	0xbf77432600000000	-0.00567927211523056
87	0xbf88cd263f37db72	-0.012110041431680794
88	0xbfa564e3c4c12f38	-0.0417853524855602
89	0x3fa69494eaf4745f	0.04410233848668876
90	0xbf96be4ded02f213	-0.022210328665766065
91	0xbfb60ba457038517	-0.08611514210089798
92	0x3fb7c867dbc4c8e3	0.09290169825979748
93	0xbf9506f99b48b907	-0.0205344201114537
94	0x3fa0830ded415172	0.03224986573391932
95	0xbf9f420eb7704375	-0.030525426813315677
96	0xbf94dc1fe46cf06d	-0.020370958630551095
97	0xbfa316cf21a8156d	-0.03728339467856299
98	0x3fa14cbad6e5ec7c	0.033788527233775206
99	0xbfa0bc17a18251d2	-0.03268503042741923
100	0xbfa96f6f1b059684	-0.04967829899650858
101	0x3fa76a9eca8237c4	0.04573532316236098
102	0x3fb6680a9617148b	0.08752504505453566
103	0x3fb55927c50891b2	0.08339165268313911
104	0x3f9f311cbac7dc7c	0.030460785770597174
105	0x3fae052741067619	0.05863306683316356
106	0x3fa08a267fdb0c47	0.03230400381792058
107	0x3f978d8d31904655	0.02300091376316112
108	0xbf929e3d90bcdb31	-0.01818176456364568
109	0x3f93543b4eb4b0e8	0.018876005820104874
110	0x3fb43dbbcc4cf8f8	0.07906697976884292
111	0x3fa7e35e40db91aa	0.04665655652732721
112	0xbf9f63a780000000	-0.030653588473796844
113	0xbf7fe8fc00000000	-0.007790550589561462
114	0xbfb4096a373cbad0	-0.07826866005482747
115	0x3f746df4f92f408f	0.004987675597433973
116	0xbf82e0b900000000	-0.009217686951160431
117	0x3fa6608c00000000	0.04370534420013428
118	0x3fac892284d17c57	0.05573375579182798
119	0xbf5da39800000000	-0.0018090233206748962

weight f8 [50, 120]
0	0x3f7eaf5d547566b8	0.007491459436403218
1	0xbf996a21f82cd4d1	-0.024818926594169014
2	0xbfabae97b1b1a570	-0.05406641048541416
3	0xbf8d629731b75b18	-0.014348202900618598
4	0x3fb3a46b77802f69	0.07672759692667132
5	0x3fcb94409dc37986	0.21546180442141977
6	0x3fb05828588496bd	0.06384517823297649
7	0xbfa448605c68bb48	-0.03961468818703523
8	0x3fd5a3ccc3de097c	0.33812255027455485
9	0x3fa7267581f75411	0.045215293993955304
10	0xbfa2391433c08834	-0.035591727559463854
11	0xbfa6acf580d23263	-0.04428832242510763
12	0x3faba98e0d00d94c	0.05402797611934548
13	0x3f795e94e6e31663	0.006193715713555289
14	0xbfa6a0ec4d6b8bd3	-0.04419649548596962
15	0x3fa2bfd11eb7528f	0.03661969661667285
16	0x3fb4f23500000000	0.0818207859992981
17	0x3fb36489f03558f5	0.07575285067045796
18	0x3faa78a658377d99	0.05170173479904889
19	0xbf92152d9a54930e	-0.01765891317804163
20	0xbf600a1800000000	-0.001957938075065613
21	0x3fb5851f00000000	0.08406251668930054
22	0x3fb20ac3d8afcbec	0.07047676124766128
23	0x3fb153d040000000	0.06768514215946198
24	0x3fb94898c104b724	0.09876398765910871
25	0xbf7e330ed7ea48df	-0.007372911436180212
26	0xbfb4fcabfcb54c47	-0.08198046607621833
27	0xbfae548f239f3bd7	-0.05923888501967383
28	0xbfb3378108431da1	-0.07506567432130008
29	0xbf47c4ec28a0afd7	-0.0007253792875920828
30	0xbfb0e3434404f121	-0.06596775446536586
31	0xbf8ecdcb1842d528	-0.01504095714367766
32	0x3fad991680000000	0.05780859291553497
33	0x3f998486d25fa4dc	0.02491961154001819
34	0x3faae460da14e35c	0.052523638364113195
35	0x3fb269309b3d15df	0.07191757001881836
36	0xbfa54c396e4a9761	-0.041597170556356707
37	0x3fa4f60e9c7572fc	0.040939766501400826
38	0x3fa95c0a5e619abe	0.0495303383075245
39	0x3fa7e73f2871b5bc	0.046686147391351324
40	0xbfb0459ce61818a2	-0.06356220834286089
41	0x3fb18ffe5c764489	0.06860341794369353
42	0x3fa9613daf0c7d29	0.049570014589557516
43	0xbfb4316d83ba08bc	-0.07887920824035438
44	0xbf82a932f1515cfa	-0.009111783971248223
45	0x3fcf00d5bdfb24ce	0.24221298004548547
46	0x3fb3b0942edf0d4d	0.07691312927550094
47	0x3fc0fb3ef3218bea	0.13266741630204076
48	0xbfb1c547815415f3	-0.06941649348672012
49	0xbfac09f4e8fccc92	-0.054763463440758234
50	0xbfa384015a203477	-0.038116495372471464
51	0xbfb2e88af71fb962	-0.07386082204150093
52	0x3fb5f2c0c0000000	0.08573536574840546
53	0xbfb1b4f0c3178dd8	-0.06916718256939391
54	0x3fc65de058f821fb	0.17473987907602848
55	0xbfb84e543b5bc7a1	-0.09494520615751735
56	0x3fc142bdfaabea5e	0.1348493074400094
57	0x3fa788f2c9f7fe1d	0.0459667083305215
58	0xbfb1a679ff4db8a1	-0.06894648058889398
59	0xbfb02954a0000000	-0.06313065439462662
60	0xbf12169f68866434	-6.90016551118257e-05
61	0x3fa1c20bbefc38b6	0.03468357759821698
62	0x3fac7356e93e1320	0.055567470523817386
63	0x3fb679b0f8f7a69c	0.0877943618612797
64	0xbfada7b61b10bd9d	-0.05792016106021978
65	0x3fa03628948a1f3f	0.03166319668986128
66	0x3fa5b4b2f34002b8	0.042394249147041874
67	0xbf62ebb6a7c3987a	-0.0023096625792389776
68	0x3fb9e0e84386cec8	0.10108806274984794
69	0x3fb53774c0000000	0.08287744224071503
70	0x3fadbe2d682a829c	0.058091563191969814
71	0x3fb7d185b02f5add	0.09304080535307997
72	0x3fa3d55be4377d1c	0.03873717461442025
73	0xbf77fac200000000	-0.005854375660419464
74	0x3f9176507476a2ad	0.017052895649302503
75	0xbf612b8b2de460c8	-0.0020959585518874647
76	0xbfa8607b4f4155b1	-0.04761109678717491
77	0xbfb32d9758856688	-0.07491441641959729
78	0x3fb95d9177249a1e	0.09908398779644087
79	0x3fad320d80000000	0.057022497057914734
80	0x3fb4ea5557922d44	0.08170064342464395
81	0x3f94d46ae93048af	0.020341558916762533
82	0xbfa931c9a4fba462	-0.049207974805377544
83	0x3f7c4b57d1d95cca	0.006907790227692343
84	0x3fcccb3926e387c5	0.2249518813978836
85	0xbfc8f63d127a75a6	-0.19501460459006842
86	0xbf9da881c0000000	-0.0289631150662899
87	0xbf8a15561f44a907	-0.01273600848124491
88	0x3f856760332a8c2d	0.010451079904049443
89	0x3fbce1b3220766a4	0.1128189046934503
90	0xbf87d18e597d642b	-0.011630165201198825
91	0x3fa3a3f56a4c3797	0.038360280252262395
92	0xbf6fd9cab7fad1ba	-0.003888030943779178
93	0x3fb35b23e043a537	0.07560943818284192
94	0x3fc36f16bd09e5d6	0.1518276618042324
95	0xbf9c8a0212adb97a	-0.027870209112216916
96	0x3fc0764897b72656	0.1286097279355995
97	0x3f630867e6575cfb	0.0023233441631692587
98	0xbfab30286bf39de8	-0.05310179059761905
99	0x3fb0978ba105a770	0.06481239968493724
100	0xbfa28f2e85d422e8	-0.03624863990450483
101	0x3fd30dbed1a384ff	0.2977139518025779
102	0xbfa89f8ae764fa3b	-0.04809221338881683
103	0xbfa4ea8a9eeff9ee	-0.04085190954355143
104	0x3fb5a338c24c70e7	0.0845218157159625
105	0xbf99ec9588ee9f5c	-0.025316559298203742
106	0x3fd0390efd552d34	0.2534825777008394
107	0x3fbc1b4f602cafb7	0.10979171846400858
108	0xbfade2ae42b0ab08	-0.058370061531908546
109	0x3fc2efd6ebfc2743	0.14794432184890569
110	0x3fb69b72a26ab11c	0.08830944504979182
111	0x3fb5ee4e5b0a9f81	0.08566751215641767
112	0xbfb676f4a0000000	-0.08775261789560318
113	0x3f9c838e00000000	0.0278455913066864
114	0x3fb6afa949271534	0.08861787830308715
115	0xbf852bad14b404b8	-0.01033721179419654
116	0x3fa664b400000000	0.043737053871154785
117	0xbfad207c80000000	-0.05688847601413727
118	0x3fb2cab0dc45c99e	0.0734053170943185
119	0x3fa8220180000000	0.04713444411754608
120	0x3f7b6b35a2d31f18	0.00669403983665242
121	0x3fb1ae0c33395511	0.06906200647911855
122	0x3fa241d448aa1d85	0.0356584871961401
123	0xbfa9230877774012	-0.049095406134824895
124	0x3fb58aae93c46a9e	0.08414736850356028
125	0x3fc3825ab6c6be6c	0.1524155991041768
126	0xbfa09a807ef41ad3	-0.03242875623441468
127	0x3fa26d419e5ae443	0.035989809589815035
128	0x3fd2f07181f6680c	0.295925499836472
129	0x3fbde4bdfc798940	0.11677157796797122
130	0xbfa925bf54e1b0ee	-0.04911611472275178
131	0xbfac59aa833a6b8e	-0.05537159778506072
132	0x3fb663dd891d0503	0.0874613246678742
133	0x3fa3ec1bfad265fc	0.03891074597158803
134	0xbfb5b70fd55b0e9d	-0.08482455214385216
135	0x3fa546a98e598053	0.041554735781347184
136	0xbf9159c900000000	-0.01694406569004059
137	0xbfb66472393fd39b	-0.08747018716515102
138	0xbfa7f74fc982583f	-0.04680871329144098
139	0x3f82a0e2d5a78243	0.009095928330624342
140	0x3fa8198300000000	0.04706963896751404
141	0x3fab676b80000000	0.05352340638637543
142	0x3fb33acf8b617538	0.0751161303791904
143	0x3fa43eff80000000	0.039543136954307556
144	0x3f96eba35197e5d4	0.02238326249605456
145	0xbf7293639739bfac	-0.0045350923788731005
146	0x3fa61f251e58d5b4	0.04320636744925413
147	0x3fb24035e740c083	0.07129227538894338
148	0xbfb33f47e9f4dfcc	-0.07518434011296832
149	0xbf92d7e9227751b5	-0.01840175888885805
150	0xbfa5ab6731144bbe	-0.042323326817629944
151	0x3f8cf82a30c2d37d	0.014145211804455599
152	0xbf95bcc180000000	-0.02122785896062851
153	0xbf96eba16a2b0bf1	-0.022383234124173815
154	0x3f9adbe0004e1724	0.026229381579034997
155	0x3f91d9d9fc8f798b	0.017432600059572628
156	0x3fa97bae3d5b6d6a	0.04977173327435021
157	0x3f9474aee1ee16ae	0.019976360835719013
158	0x3fc852ec51387f97	0.19003061261991824
159	0xbfb1fc6fe0b74d53	-0.07025813328009649
160	0x3fa26899183df7d2	0.03595426960872285
161	0xbfb3ecaea1f21fae	-0.07783023313288481
162	0xbfb01384dac7ed9c	-0.06279783574421177
163	0x3fabb22739bbcc00	0.054093576238209096
164	0x3fb3766e857ede96	0.07602587470216302
165	0x3fca3a09bee16728	0.20489618130050613
166	0x3faeb4a5715f4ae8	0.059971971597084395
167	0x3fbb476f6e604a8e	0.10655876583795473
168	0x3fa15c1ef100698e	0.033905951422826694
169	0xbfb49fb14fe3e454	-0.08056171608395007
170	0xbf9966f77c2a232b	-0.024806849435239513
171	0x3f9f982547399536	0.030853826973175923
172	0x3f8dfd8600000000	0.01464371383190155
173	0x3fb252a5d94cbca7	0.07157360606355444
174	0x3fafac4073c8817b	0.061861051686949296
175	0x3f94d9283b2bc38d	0.020359638797291125
176	0x3fb33364d8c5267d	0.07500295917739126
177	0xbfa48a456885f800	-0.040117424973672655
178	0x3fa178f7de7acdf5	0.034126039417426236
179	0xbfb57a89c0000000	-0.08390103280544281
180	0x3fb7e12d9ebf8a55	0.09327969670952403
181	0x3faf84ed20c7a588	0.06156102204460995
182	0x3f8eedfce0d8d677	0.015102363216196608
183	0x3fbf038358919523	0.12114735519715629
184	0xbf98a9ea00bdbca3	-0.024085670752751153
185	0x3fb6295ce8560a1e	0.08656864807384365
186	0xbfa2f52213f72512	-0.03702646726339699
187	0xbfb7d1117c70bcbe	-0.09303387916655745
188	0x3fa90067366f9ae0	0.04883120097638538
189	0xbfb531e7c0000000	-0.0827927440404892
190	0x3fa88dc939332019	0.04795674155462865
191	0x3f913ea515339ade	0.01684053365616022
192	0x3f947c028f1c3393	0.02000431059336767
193	0x3f866e3d00000000	0.010952450335025787
194	0x3f990b13577a6b32	0.024456312383885855
195	0xbf8c9e5ca4f5f00d	-0.013973926338387366
196	0xbfa2e20f8d4b0cb6	-0.036880956647587324
197	0x3fb3e484707b2e20	0.07770564790842416
198	0x3f82329e318da4cc	0.00888560856556566
199	0xbf9e1e9f00000000	-0.029413685202598572
200	0x3f86b37bf2b11859	0.011084526389947212
201	0x3fbdf2361bb291a6	0.11697710205277775
202	0x3faec0b6af2e1e95	0.06006403816632858
203	0x3fad260b645a4f8c	0.05693088150033451
204	0x3fd104ea17274c3a	0.2659249521358934
205	0xbfd55e59a112120f	-0.3338836739497148
206	0x3fa5171100000000	0.04119160771369934
207	0x3fa363dfa1e0f4b4	0.03787134982165111
208	0xbfa431fb3ae747fb	-0.03944382757221373
209	0x3fb950b379069b4f	0.09888765053493141
210	0x3f838b93d02ef4be	0.009543566504243702
211	0xbf93f77e0eae7abf	-0.019498796125499093
212	0xbfa986a8ab85da36	-0.04985549062523768
213	0x3fb14fee2e6e0635	0.06762589105167012
214	0x3fbd1b9bb0c8d663	0.11370251718548156
215	0x3f99fa36ceccb31e	0.025368553516432184
216	0x3fc61315a3b49a36	0.17245741361075922
217	0x3fb6aeb18fff4667	0.08860311284595355
218	0xbfb2bd4b2c28611e	-0.07320089176244379
219	0xbfa9491f7151d80c	-0.04938600786492495
220	0x3fa92dea1ebde22c	0.04917842507615364
221	0x3fcec5a2b1df7a8c	0.24040635762408546
222	0xbfb34e79ffaae4b0	-0.07541620723613351
223	0x3faa67534fc879ad	0.05156956051745296
224	0x3fbab44ebf987cb3	0.10431377580288163
225	0x3fb7b0acdb569957	0.09253959994257364
226	0x3fc34bb202e8e8d6	0.15074753896789755
227	0x3fbc1d479a190ad0	0.10982177269128646
228	0x3fb4fc35a34b5285	0.08197341190982328
229	0x3fb8331a0c19a64d	0.09452975078024757
230	0x3fc3d23f590026f5	0.15485374303562308
231	0xbf7a3948a67cca45	-0.00640228632964807
232	0xbfb53842a0000000	-0.08288971334695816
233	0x3f73c52a00000000	0.004826702177524567
234	0x3fb357c3dde09685	0.07555793921400251
235	0xbfa4f55e1e0e4e79	-0.040934506577426207
236	0x3fb08dae00000000	0.06466186046600342
237	0xbfb04cecc0000000	-0.06367377936840057
238	0xbf8dcc7a2d1ed807	-0.014550165655105486
239	0xbf96a1db80000000	-0.022101812064647675
240	0x3f84f0c56cb4a044	0.010224859600001086
241	0xbfb3c0a44d527c31	-0.07715823066472251
242	0x3f87dd3c6c70e25e	0.01165244298873452
243	0xbfa3f680f2fc3ebe	-0.03899004903916879
244	0x3fb5ee9a3de226ca	0.08567203532052328
245	0x3fc325478628970f	0.14957517672262852
246	0x3fb72bbe8a1eca16	0.09051123497082644
247	0x3fc2cc8e3706c532	0.1468675392803021
248	0x3fc869d670cbe6f0	0.1907299090160488
249	0x3fc26b4240190bf5	0.14389827852036743
250	0x3f8640e7df04f321	0.0108659853873348
251	0xbfbba7aaad50a288	-0.10802714091608767
252	0xbfa04afb6debb931	-0.031822068374696484
253	0x3f70ca2117eef616	0.004099015494771338
254	0xbf8eb5c8f960c84b	-0.014995164976515115
255	0xbf9aafc11bc84543	-0.026061074562737884

bias f8 [50]
0	0xbf925b64ca79ce64	-0.01792676435293429
1	0x3fac62a65de60eb8	0.055440138780821824
2	0x3fa30c2450441c06	0.0372020099621793
3	0xbf974c800fbdf31f	-0.022752762757124786
4	0x3fb10af3d1ab9c8e	0.06657337063698973
5	0xbfae0ebec701078c	-0.05870624713180836
6	0xbfb2c0869abe4917	-0.07325021055138269
7	0x3fa7287a2f80aa11	0.045230692194611184
8	0x3f81d89f2fdb7ae6	0.008713954589834438
9	0x3f97734b59b86cfa	0.022900750495051782
10	0xbf86d3c954ad35d9	-0.011146138092636914
11	0xbfb2f088752fdbd7	-0.07398274289140204
12	0xbfa2d9efdb334126	-0.03681897688659523
13	0x3fb036d9773ef63a	0.0633369365814013
14	0x3fa293c5c8fb1d59	0.03628366545086221
15	0xbfa2439939c7dd93	-0.03567198591548073
16	0x3f765b29b51533c9	0.005458033484797072
17	0x3f9afe278d231eec	0.02636014746602104
18	0x3f89216bb07d3968	0.012270776103517192
19	0x3fa170b1614661b3	0.0340629035228547
20	0x3fb44c80f2766263	0.07929235381596693
21	0x3fad846c40e8ad12	0.05765093128533229
22	0xbf7d8ee8fab48673	-0.007216367793519407
23	0x3f9928cfbf5e16e5	0.02456974607004882
24	0xbf92b50bf655ffed	-0.018268763456489912
25	0xbfabf79811c228f9	-0.05462336746957592
26	0x3fa60b04924b1211	0.04305280957990843
27	0xbef88ddf65aa21e5	-2.3416700381891342e-05
28	0x3fa890929fb55f71	0.04797800254408358
29	0xbf9598c85e8f6154	-0.021090632220734776
30	0x3fae6c5af604f86f	0.05942043545881936
31	0x3fa2ad97eecc774c	0.03648066320441376
32	0xbf93309389bb3d7d	-0.01873999145646853
33	0xbf84c4c7d4baab83	-0.010140954188804013
34	0xbf90114053dd56af	-0.01569080840939446
35	0x3f8272b2eee76eff	0.009007833400509478
36	0xbf984288046a7bdb	-0.023691296834495872
37	0xbfa4b394ef197d85	-0.0404326001996607
38	0x3fb00d864702be41	0.06270636781368301
39	0x3faf0f2b8dfbe62e	0.060662613946942265
40	0x3f954a2a1953033d	0.020790727420492806
41	0x3fb1629825b5a5dc	0.06791068001407247
42	0x3f849a5bb9afa844	0.010060040096466001
43	0x3fa3ac92ef2f14eb	0.0384260098431158
44	0xbf990bfc8e478ba5	-0.024459787544298135
45	0x3fb2c2db0469f40c	0.07328575952301736
46	0xbfa5f9e0d9585c9e	-0.04292204526080322
47	0xbfa881249cdb9f2f	-0.04786028303879985
48	0xbf8837097f4204a7	-0.011823724933721925
49	0xbfb2a3ca63a26a4c	-0.07281174595338163

two_l_plus_1 f8 [50]
0	0x3fb45f306dc9c883	0.07957747154594767
1	0x3fce8ec8a4aeacc4	0.238732414637843
2	0x3fd976fc893c3aa4	0.3978873577297384
3	0x3fe1d34a60108f73	0.5570423008216338
4	0x3fe6eb167b830193	0.716197243913529
5	0x3fec02e296f573b4	0.8753521870054244
6	0x3ff08d575933f2ea	1.0345071300973196
7	0x3ff3193d66ed2bfb	1.1936620731892151
8	0x3ff5a52374a6650b	1.3528170162811104
9	0x3ff83109825f9e1b	1.5119719593730057
10	0x3ffabcef9018d72c	1.6711269024649011
11	0x3ffd48d59dd2103c	1.8302818455567964
12	0x3fffd4bbab8b494c	1.9894367886486917
13	0x40013050dca2412e	2.148591731740587
14	0x40027643e37eddb7	2.3077466748324826
15	0x4003bc36ea5b7a3f	2.466901617924378
16	0x40050229f13816c7	2.626056561016273
17	0x4006481cf814b34f	2.7852115041081684
18	0x40078e0ffef14fd7	2.9443664472000637
19	0x4008d40305cdec5f	3.103521390291959
20	0x400a19f60caa88e8	3.2626763333838547
21	0x400b5fe913872570	3.42183127647575
22	0x400ca5dc1a63c1f8	3.580986219567645
23	0x400debcf21405e80	3.7401411626595404
24	0x400f31c2281cfb08	3.8992961057514357
25	0x40103bda977ccbc8	4.058451048843331
26	0x4010ded41aeb1a0c	4.217605991935226
27	0x401181cd9e596850	4.3767609350271215
28	0x401224c721c7b695	4.535915878119018
29	0x4012c7c0a53604d9	4.695070821210913
30	0x40136aba28a4531d	4.854225764302808
31	0x40140db3ac12a161	5.013380707394703
32	0x4014b0ad2f80efa5	5.172535650486599
33	0x401553a6b2ef3de9	5.331690593578494
34	0x4015f6a0365d8c2d	5.490845536670389
35	0x40169999b9cbda71	5.6500004797622845
36	0x40173c933d3a28b5	5.80915542285418
37	0x4017df8cc0a876f9	5.968310365946075
38	0x401882864416c53d	6.12746530903797
39	0x4019257fc7851382	6.286620252129866
40	0x4019c8794af361c6	6.445775195221762
41	0x401a6b72ce61b00a	6.604930138313657
42	0x401b0e6c51cffe4e	6.764085081405552
43	0x401bb165d53e4c92	6.9232400244974475
44	0x401c545f58ac9ad6	7.082394967589343
45	0x401cf758dc1ae91a	7.241549910681238
46	0x401d9a525f89375e	7.400704853773133
47	0x401e3d4be2f785a2	7.5598597968650285
48	0x401ee0456665d3e6	7.719014739956924
49	0x401f833ee9d4222a	7.878169683048819
