Sphere/NeuralNetworks/models/net_l249.pt (torch_old, 70267 bytes, 6 tensors)

weight f8 [36, 6]
0.7442713456824258 0.5632973829834469 0.12237755055992798 -0.015361154098426161 0.3800411602258328 -0.02708098887204021 0.2774280309677124 -0.13446155190467834
0.4013007879257202 0.12266910076141357 0.3397589325904846 0.2228935956954956 0.29939732503009525 0.5852344800263739 0.3007425480189338 0.2801928776543645
-0.10091315981642535 0.08771132322128293 0.5375408998447797 -0.22642155984816578 0.8771037365938354 -0.06165677531430231 -0.1325423972192429 -0.048317909476843376
-0.289733119529223 -0.4258623406763107 -0.3376797371190565 0.7718687428582957 -0.25735219131548914 -0.020768818197130945 -0.448688938723363 -0.44733849359049244
-0.12891180972182384 -0.02600984989240226 0.028299072475723563 -0.09295287511094658 -0.09385704463241838 -0.057834973499067056 0.3029972940901058 0.2690594818205876
0.2803010184833134 -0.06553140198939622 0.12098932266235352 -0.11002147197723389 0.11611270904541016 0.26504242420196533 -0.1861424744129181 0.3366074562072754
-0.5535811199015069 0.3178321593628669 0.36551493458295325 0.554181408865751 0.128370877646282 -0.3596313816125752 0.5546513865022079 1.0875108908621047
-0.6483114610288266 -0.3160745600682436 0.30711488052677893 0.10520015337675108 0.36558330059051514 0.40805143117904663 0.07443514466285706 -0.11173516511917114
0.312561571598053 0.31923335790634155 -0.12238721905415857 0.2097084874936989 -0.4769454418239242 -0.09392723607778423 -0.1894507284470142 0.05208417046869186
-0.6562858175738734 -0.6246897511222996 0.73452459435891 0.15428816149912483 0.09553784076769878 -0.3862057448595514 -0.07408008723835027 0.7956781502428325
-0.12545780449660396 0.34418392333692166 -0.1948619862767323 -0.028528949319831368 0.34483465544684894 -0.48921783579581174 -0.15928375741621661 0.08129867393183317
0.0618467643505636 -0.16457507368665789 -0.05031761890592323 0.6048037595794166 0.09369717402017243 -0.177512689309964 0.058949704241889105 0.19179009822975326
-0.6201005303912108 -0.31272650076483466 0.6612607008676875 0.19104854329455878 -0.1933978786372683 -0.16404971654423015 0.1689566969871521 -0.08650955557823181
0.3821980357170105 0.37203794717788696 0.40624356269836426 0.25472116470336914 1.8638562181005243 -0.3190329205914234 0.2358826526988936 -0.16642402984487784
-0.14652645023096791 -0.1317740426063254 1.3438214519764848 0.006710814290676526 -0.22161113977437397 0.33795072572030954 -0.032226074857190805 -0.2825269027800152
-0.5445115118361494 0.04698108114382594 -0.3602874430397094 0.5106097706035065 0.20120556676809673 0.02436538648677856 -0.015866943221298217 0.04976436972596242
1.1529946544816758 0.01961745108151659 0.3445292804520063 -0.37204580440512164 0.006161190939590597 1.1907421461233192 0.031037255155473384 -0.11003284625044935
0.046597527918729884 -0.13080448438597722 -0.07367739081382751 0.3741035461425781 0.1407555341720581 0.25419342517852783 0.04115566611289978 0.2649306058883667
-0.4834643572467153 -0.9628136999185274 -0.3418443937446365 0.21171348871835793 0.20428095465484306 -0.09761697702207799 -0.0454948571992493 0.5437654106365631
0.24316471536154374 0.07304193267781228 0.2015951854033223 -0.044574871851326144 0.25065929373537704 1.5022217404815144 0.2687565634244648 -0.004294633313807946
0.06703283458812552 -0.07106425624264952 -0.25267218992646767 -0.6229670558499699 0.5835655769417023 -0.2085805449057451 -0.2877720780044834 0.21262477774320573
0.1379358335300476 -0.6354671838713125 -0.1519806831838364 -0.07389650184060163 0.394877396754383 0.18850232515056833 -0.6432285045188874 -0.6176669573358496
0.9092055209088716 0.4435371005475037 0.08462548017481775 0.06634473651714794 -1.2392371394170163 1.1377426222182772 0.09053367543576295 -0.042883015483826906
-0.1405333771528759 0.2899072226507589 -0.5245388021899837 0.20445814589017838 -0.24809500490853761 0.644171103401839 0.36801255131167626 -0.3071683259905066
-0.588210118351176 -0.4152816143149439 0.08364177901132973 -0.06741928525823278 0.08210252269583361 0.26147360021864413 -0.7143964246683454 1.3270100896573764
0.07210116904368233 -0.0904608510620637 0.17582778140272826 -0.20534135372746945 0.43913302242084556 -0.8642195199666489 -0.016116653794682197 -0.21956472117455253
-0.11653553316267837 0.361230414025337 -0.1597248342123899 -0.9843833073286891 0.10376880255941111 -0.37346748007959585 0.279259333158752 0.33311814338998985
00000000: 2dca 2124 12d1 e73f e6c2 ba3b 8806 e23f
00000010: db62 6b99 2254 bf3f 6a3a da33 ab75 8fbf
00000020: 3e72 9328 9852 d83f 36ec 3166 1ebb 9bbf
00000030: 0000 0080 61c1 d13f 0000 0040 0936 c1bf
00000040: 0000 0080 e9ae d93f 0000 0000 3e67 bf3f
00000050: 0000 0040 9cbe d53f 0000 0000 c787 cc3f
00000060: b1e7 e065 5329 d33f 0f8e 06a9 3dba e23f
00000070: 2f73 10ac 5d3f d33f 7c3f 861b aeee d13f
00000080: 08c7 25e1 71d5 b9bf 6f6b b9d0 3f74 b63f
00000090: 4e10 23f9 8833 e13f 6f1e 54b5 61fb ccbf
000000a0: 66d6 fbda 3b11 ec3f c97e 1a13 7a91 afbf
000000b0: 75ee b136 26f7 c0bf 263c 0702 20bd a8bf
000000c0: 708c 3cc8 fc8a d2bf 8060 731e 5441 dbbf
000000d0: b8af dc78 8b9c d5bf 4331 ec13 26b3 e83f
000000e0: e640 5053 7578 d0bf 20a5 bbcb 6b44 95bf
000000f0: e433 79cf 51b7 dcbf f3a2 0da2 31a1 dcbf
00000100: 7165 69a3 2e80 c0bf 579e a57a 53a2 9abf
00000110: d355 299b 6efa 9c3f 34b2 ab76 c2cb b7bf
00000120: f708 32e9 0307 b8bf 9dae 7caf 8b9c adbf
00000130: 142f 39c3 4e64 d33f c447 c642 4538 d13f
00000140: f3f6 daae 73f0 d13f f0cd 677c aac6 b0bf
00000150: 0000 0000 28f9 be3f 0000 0000 5e2a bcbf
00000160: 0000 0000 90b9 bd3f 0000 0080 74f6 d03f
00000170: 0000 0040 84d3 c7bf 0000 0000 fa8a d53f
00000180: f11e b5c0 efb6 e1bf 1e28 85b2 5c57 d43f
00000190: 6eef 8ec0 9864 d73f b925 64a6 dabb e13f
000001a0: d9f2 9ff8 746e c03f 290b a957 3304 d7bf
000001b0: 41a8 b643 b4bf e13f bbbe e4d1 7166 f13f
000001c0: 8bb4 57ad f7be e4bf edcd a5ca 903a d4bf
000001d0: c08e fe2b c5a7 d33f 738e 49b2 65ee ba3f
000001e0: 0000 0080 b765 d73f 0000 00c0 831d da3f
000001f0: 0000 0080 2e0e b33f 0000 0000 ad9a bcbf
00000200: 0000 0040 0201 d43f 0000 00c0 516e d43f
00000210: 3d37 49cf c454 bfbf e551 bd4b bad7 ca3f
00000220: a60a a72c 4686 debf 9b62 2887 9d0b b8bf
00000230: 1110 71e5 eb3f c8bf c2c9 9ac1 c6aa aa3f
00000240: 7bde 691d 4b00 e5bf d9ee 665c 75fd e3bf
00000250: 4822 dcb8 3981 e73f 0c3c e6e7 b6bf c33f
00000260: 60b2 a0fd 2a75 b83f f2bd ec4c 98b7 d8bf
00000270: 023a f99f e9f6 b2bf 64e9 2d06 3276 e93f
00000280: d1a1 ab57 000f c0bf 8fa0 a201 1c07 d63f
00000290: b265 25d1 3cf1 c8bf 148c 4561 b136 9dbf
000002a0: 39fc ea5f c511 d63f e939 5753 584f dfbf
000002b0: ad7d 7100 6963 c4bf f5d1 be69 fdcf b43f
000002c0: a388 7f0c 61aa af3f 4349 9cc7 cb10 c5bf
000002d0: cf20 3a1f 3bc3 a9bf af86 fc69 8d5a e33f
000002e0: 51ee 24ba 89fc b73f 040c 9b5d bcb8 c6bf
000002f0: 97d3 a7d7 a72e ae3f 1df5 cbf3 938c c83f
00000300: 7066 4811 ddd7 e3bf b228 5803 b603 d4bf
00000310: 8d6a 8b33 0c29 e53f 5804 b356 4774 c83f
00000320: af71 eefd 42c1 c8bf 73de bcc3 94ff c4bf
00000330: 0000 0080 5fa0 c53f 0000 0080 7d25 b6bf
00000340: 0000 00c0 ee75 d83f 0000 0040 78cf d73f
00000350: 0000 0000 e5ff d93f 0000 0000 5a4d d03f
00000360: 0702 d3e5 5ad2 fd3f de66 120e 096b d4bf
00000370: 6b8a 841b 6731 ce3f 41e4 b9f2 614d c5bf
00000380: 65d8 def3 60c1 c2bf 375a bac9 f8dd c0bf
00000390: 906f 3eec 4a80 f53f 671b 877e cc7c 7b3f
000003a0: ec4e e1fa c05d ccbf 5b34 a814 fca0 d53f
000003b0: 471f 2ea3 ef7f a0bf a38a ebb7 eb14 d2bf
000003c0: 8837 f467 a36c e1bf b13f 167e e70d a83f
000003d0: 00f6 4010 f30e d7bf ed52 384d ea56 e03f
000003e0: 2f64 85a0 1ac1 c93f 83e0 7568 3df3 983f
000003f0: de50 e488 6c3f 90bf 7e47 f528 b77a a93f
00000400: c962 d785 aa72 f23f 43d1 4ddb 9816 943f
00000410: e391 038a c40c d63f 392d a234 99cf d7bf
00000420: b072 7019 7a3c 793f 9d18 f9a2 470d f33f
00000430: 3cc6 66ef 3ac8 9f3f 6ca8 21d4 1c2b bcbf
00000440: 4685 f894 a1db a73f 27d0 4d8b 33be c0bf
00000450: 0000 0080 85dc b2bf 0000 0000 50f1 d73f
00000460: 0000 0000 4704 c23f 0000 0080 b444 d03f
00000470: 0000 0000 5b12 a53f 0000 0080 9ff4 d03f
00000480: de00 ca7c 14f1 debf 814e 29ad 5ecf eebf
00000490: f810 dd4e c7e0 d5bf c46d 1577 6d19 cb3f
000004a0: 4317 b8d9 e025 ca3f 0b1e d81b 6dfd b8bf
000004b0: a22a 9d17 1a4b a7bf 5d29 ecb7 8666 e13f
000004c0: e96d 027a 0520 cf3f 847c 1648 e0b2 b23f
000004d0: 434e 2bfc decd c93f 0151 a681 84d2 a6bf
000004e0: af0a 4247 cd0a d03f 3655 eba9 1909 f83f
000004f0: 4b94 9fba 4e33 d13f 620e 19da 3f97 71bf
00000500: e36d 5058 1029 b13f dd0b 7a60 4431 b2bf
00000510: bcf1 15fa c72b d0bf 878d 6b9b 58ef e3bf
00000520: c626 81b7 91ac e23f 45dc 796d c4b2 cabf
00000530: 43cc ee93 db6a d2bf 9ff8 5ce9 4937 cb3f
00000540: 89a1 faa2 e1a7 c13f 7b12 8d46 bf55 e4bf
00000550: f8fb f25f 1a74 c3bf 4bb6 b192 e1ea b2bf
00000560: 1b57 3fd8 ab45 d93f 5dee de1c d820 c83f
00000570: 7d6f d8f1 5395 e4bf 4179 b27e edc3 e3bf
00000580: 10ae 342d 3618 ed3f 2082 5a6f e962 dc3f
00000590: e856 c2f5 03aa b53f d356 9af9 f7fb b03f
000005a0: 0a8e 9c52 ead3 f3bf a415 9b9b 3134 f23f
000005b0: 77eb 2e07 372d b73f c221 1d3a c3f4 a5bf
000005c0: ca1b 6f69 fffc c1bf 5530 0a06 d78d d23f
000005d0: a272 1c99 05c9 e0bf efe2 ff3c af2b ca3f
000005e0: 5b0a 31be 93c1 cfbf c773 c4b7 0c9d e43f
000005f0: cbac 1984 848d d73f 42c3 9f56 a5a8 d3bf
00000600: afd3 af06 9ed2 e2bf 9e37 0756 f993 dabf
00000610: dfd3 6e31 8c69 b53f 25c6 4de9 6342 b1bf
00000620: dfcf e5c1 ab04 b53f 8f36 6dc4 fbbb d03f
00000630: 4e8e 0ae4 55dc e6bf b9a5 88ee 6e3b f53f
00000640: 8ec5 0be3 3875 b23f 8040 e13c 7128 b7bf
00000650: a02d 6d55 8681 c63f 054f 631f a048 cabf
00000660: df08 7964 c11a dc3f 5a4a dab1 afa7 ebbf
00000670: 825f e053 e280 90bf 6d68 6660 b21a ccbf
00000680: c670 c1cf 45d5 bdbf 97cc a32b 661e d73f
00000690: eb8e a605 dd71 c4bf a98f f66b 1180 efbf
000006a0: e776 569d 9790 ba3f e8ed 4325 e4e6 d7bf
000006b0: 4341 c189 62df d13f 971c e4c2 ce51 d53f

bias f8 [36]
-0.2675596403948778 -0.31298625469207764 -0.46940481933436995 -0.016500371005686004 -0.35355730533507396 -1.5278392317845861 -0.29501169910662917 0.05145040154457092
0.07266101567483832 0.8724638609980899 -0.01370149850845337 -1.7219865252572626 -0.3134819619982914 0.4055871262929222 -1.0238295445437824 -0.04136690434879826
-1.2034928596745313 0.3251047730445862 -0.6863452640915808 0.40618470367710624 0.5990964993354103 0.4125102473196939 0.24859942505389945 0.10476243495941162
-0.038320118178194244 -0.1399120821628377 0.8686967852716959 -1.2896300081680219 0.39900270555192774 0.5604182707577277 0.8312545509166137 0.7988444084586743
-0.23151327201193622 -0.3806884215963998 0.5720483992278964 0.674008986050666
00000000: ee6e 4e78 b21f d1bf 0000 0080 f707 d4bf
00000010: de0e e882 ba0a debf 9b7a 5d27 79e5 90bf
00000020: 0f44 ebd1 aea0 d6bf 0ff8 e08c 0772 f8bf
00000030: 606c e6bf 78e1 d2bf 0000 0000 b557 aa3f
00000040: ba7f 048e e999 b23f ccb7 bd54 39eb eb3f
00000050: 0000 0000 880f 8cbf 371f 22be 418d fbbf
00000060: f5c9 aaa5 1610 d4bf 8bd4 c6b4 23f5 d93f
00000070: ebe7 a716 9b61 f0bf d933 a1fa 0a2e a5bf
00000080: 9858 94ba 8141 f3bf 0000 0040 84ce d43f
00000090: d835 e157 8af6 e5bf 8c6e 9b20 eefe d93f
000000a0: c565 f96b cc2b e33f 7230 6061 9166 da3f
000000b0: 6998 3420 1bd2 cf3f 0000 0000 b6d1 ba3f
000000c0: 9f59 b5cc b19e a3bf 1132 9a9c a3e8 c1bf
000000d0: 8b3b 5c33 5dcc eb3f 9159 5013 53a2 f4bf
000000e0: 661b d7a4 4289 d93f b087 1f4c f2ee e13f
000000f0: 15d1 da24 a399 ea3f e484 1d26 2290 e93f
00000100: c2cb f015 3aa2 cdbf c23b 2ef8 325d d8bf
00000110: 0637 cd71 384e e23f 0287 094b 7b91 e53f

weight f8 [72, 36]
-0.12557477623635394 -0.02538265287876129 0.05214746351307998 -0.6880696525141086 -0.8508207208208134 -0.13971522558699484 0.03830385208129883 -0.15984205901622772
-0.10793521207893526 0.21899810609150136 -0.003892362117767334 0.002757058528082893 -0.34110363733172316 0.08504646379622838 -0.027587980400792727 -0.09435135470888088
0.22027404443667933 0.14913608133792877 -0.33526524131879776 0.3157940323360116 -0.51813195468705 -0.12708176928403733 -0.2301121237496564 0.07294929027557373
-0.18519588093705305 -0.0026320616601063626 -0.9134305601763938 0.6217434378822095 0.08082901958477584 -0.33047580113925684 -1.8211707907765375 0.08371566857024733
-0.5568933690381471 -0.5069758914717685 0.14486985074927897 -0.6506623522075614 -0.23072078395352594 0.06203722953796387 -0.022912572400784016 -0.07049799376711482
-0.10274591240861015 0.3206924028767949 -0.08512675762176514 -0.043336257338523865 -0.16400068906664672 -0.0535893026198521 0.09736229479312897 0.1549270512418214
-0.10150824682113437 -0.29465768121336633 0.11269783263831794 -0.04724585939150073 -0.09535526784718656 0.010502755641937256 0.17793305493352973 0.23400714935807695
-0.09958222729967088 -0.23018985120744334 -0.12735067023173666 0.05511032044887543 -0.25633673256208106 -0.01627935158980363 -0.7297257400702223 -0.13457267793293418
0.04876447180843523 0.06206973212250937 -0.7149885149835217 -0.4024688296050208 -0.015065289810765947 -0.10119429578421171 -0.24288634510588042 0.09783929582154238
0.030254971994095256 -0.055528268218040466 0.02163106386028132 -1.0945734840870822 -1.7524168467758512 0.32153018951736384 0.1460137516260147 -0.0028824061155319214
-0.5888036378367288 -0.6166773846167782 0.007531657814979553 0.27877413631182285 -0.04849627043606968 -0.28973221412567224 -0.02934875505311352 -0.09435312037239386
0.0408194105648981 -0.08866101503372192 -1.3318382895956944 -1.9305617423877437 0.11943098624985843 -0.47467975563664244 -0.2735229928299285 -0.018331050872802734
-0.5903841588956212 -0.009803850096137589 0.1691823335077681 0.28591500504952017 0.19734987884829636 0.11125829702438408 0.11802725331559474 -0.16028285938141532
-0.5182496382099085 0.04154852328765793 0.13871001115308812 -1.6252999018379215 -0.3109048057205013 -0.1251227706670761 -0.007821395448861523 0.24578042541131914
-0.3893305830241107 0.3213679156619283 0.027539387345314026 -0.020299658179283142 -0.6872171902160172 -0.7212449968264624 -0.019888564944267273 0.5113876090203018
-0.06152297072620576 0.012663055545186163 -0.0007147944349192886 0.0490906773126681 0.013785996098164825 -0.16321223974227905 -0.5631928252408519 -0.7638932845301215
0.20065794082941868 -0.20455392816245707 0.16434420114158602 0.12167035043239594 0.046579524782922675 0.1061181492740594 -0.5614310253664981 0.3178408360168779
0.3034691793924789 0.7246231466559029 -0.4395678978747499 -0.48667785808102537 -0.07395773016045733 0.15910491831787354 0.004286048589606546 -0.2177923401483877
0.20583287191549252 -0.00122736394405365 0.16190789522637375 -0.038620210946038805 -0.38664011137538606 0.19428959635761697 -0.033786341547966 0.06322163343429565
-0.22245732057837303 -0.07137617985147253 0.09642376005649567 0.004574013588038482 0.32641612545533444 -0.6899298392425273 0.05731954505800872 0.0031222007772210253
-0.10434402494353447 -0.06305801868438721 0.16910659336549758 -0.12523779827691922 -0.39408871153683606 0.1425179981191622 0.09871271462149962 -0.0511360764503479
-0.6985481673020975 -0.08567718468466477 -0.5085144776983622 0.02450469751167971 0.14636023927392255 -0.6723159585139786 -1.3871153011026156 -0.3492676663878607
-0.20242242248655568 0.21829349612784538 -0.0724271034221012 -0.5517721372052373 0.09642280464590894 -0.07667037099599838 0.039173443287899935 -0.2554656261578465
-0.44566793827057194 -0.4156754373747278 -0.048310816287994385 -0.1214321106672287 0.49189810488681146 -0.016380176173616597 0.10871823132038116 -0.17102030606522034
-0.6830019145691217 0.14970472994026734 -0.9280654645975165 0.019889359209014544 -0.7392155158187674 -0.10439145565032959 -0.5603704788446757 -0.08961593978045024
-0.6079668178430624 0.3621114438033963 -0.03630165336017424 0.11076416075229645 0.19737948109552744 0.11960281880079833 0.3112969214394957 -0.5986978411337078
0.1695290715217389 0.6171884044359871 0.45138409974504956 0.10451592913402032 -1.0217983551112935 0.2851481032453291 -0.19276590495450224 -0.058295163926606136
-0.17086760732357162 0.12984471023082733 -0.01344433598419652 -0.0595250078378384 -0.17469540529806243 -0.08188909069680354 -0.1506606936454773 -0.1571897715330124
-0.05545245628584935 -0.23900114693886873 0.05004461109638214 -0.12066527600825772 -0.11706632197776737 -0.02149438774298662 -0.09342805679786566 0.08372731005146045
-0.010375748980668 0.0869036465883255 0.01351597385522786 -0.011090623752954297 -0.17727290057409847 0.051207882051881794 0.018486032462573146 -0.02834068238735199
0.029153903786095513 -0.05463993155433088 -0.14359867647545502 -0.06835642302076321 0.11338725104251053 -0.07443904876708984 0.03292209711380607 -0.0771008160738955
0.03554060381500617 -0.08509172584612276 -0.15696553577137054 -0.14025357401347005 -0.28354260813550625 -0.1295105665922165 0.05534832296410937 0.18940628534786638
00000000: c89e 9192 d512 c0bf 0000 0000 e9fd 99bf
00000010: f14f b784 12b3 aa3f bc61 dda5 aa04 e6bf
00000020: c0e7 5560 ec39 ebbf b61f 5342 30e2 c1bf
00000030: 0000 0000 909c a33f 0000 0060 b475 c4bf
00000040: 0542 f75d a4a1 bbbf 8f43 c643 2108 cc3f
00000050: 0000 0000 e0e2 6fbf 88c1 c286 f895 663f
00000060: b5ba b859 a4d4 d5bf 082f a5e4 9ac5 b53f
00000070: ab1c 5606 0640 9cbf 17d5 ce0e 6927 b8bf
00000080: 29b0 819c f031 cc3f 0000 0020 e416 c33f
00000090: 44c9 bc57 fc74 d5bf c1ed 492c f835 d43f
000000a0: 0297 0c77 8994 e0bf af12 7f25 3744 c0bf
000000b0: 107d f566 5074 cdbf 0000 0000 ceac b23f
000000c0: 3741 fda5 7fb4 c7bf 5eee 0958 d58f 65bf
000000d0: 7dfc e3b9 d23a edbf 449d 867e 52e5 e33f
000000e0: f031 afeb 35b1 b43f edcc 80f9 8326 d5bf
000000f0: 0e0d adfb 8323 fdbf 5d07 acda 636e b53f
00000100: 6719 ec0a 12d2 e1bf 036a 3781 2539 e0bf
00000110: c180 9263 188b c23f 8009 6fda 39d2 e4bf
00000120: 813f cb36 4288 cdbf 0000 0000 58c3 af3f
00000130: 9aaf 83b4 6476 97bf 9ed2 a911 280c b2bf
00000140: a5b8 975d 8e4d babf 8a9d 9b6d 3986 d43f
00000150: 0000 0000 deca b5bf 0000 0080 2b30 a6bf
00000160: f606 087e f9fd c4bf 55de 559c 0e70 abbf
00000170: 0000 0040 bcec b83f 25b7 2c4d a6d4 c33f
00000180: 51fe 5ec8 71fc b9bf 0ce7 14e4 abdb d2bf
00000190: f3fb 82e1 c3d9 bc3f 3173 eaf9 9b30 a8bf
000001a0: 34ad e7ec 3369 b8bf 0000 0000 7882 853f
000001b0: 948f e8a5 82c6 c63f dbf5 c23e f2f3 cd3f
000001c0: 1dd2 8389 387e b9bf 3e4e 676d dc76 cdbf
000001d0: 416e e2d9 064d c0bf 0000 0080 6b37 ac3f
000001e0: 5b87 c72e d267 d0bf 3b92 b6ca 88ab 90bf
000001f0: 01d5 94cb e959 e7bf a11b 5471 ad39 c1bf
00000200: 7f75 3f27 a8f7 a83f f747 139b 9ac7 af3f
00000210: a9d5 1b98 2fe1 e6bf 8d07 349f 0cc2 d9bf
00000220: 0605 56f8 8cda 8ebf 3a58 ef8e dee7 b9bf
00000230: 06f7 6f56 e616 cfbf a033 d1ff fe0b b93f
00000240: 0c2e 06cd 28fb 9e3f 0000 0080 336e acbf
00000250: 972d 6e1f 7426 963f 9190 537c 5f83 f1bf
00000260: 9fc9 5d3f e609 fcbf 33d7 295c f393 d43f
00000270: 0000 0020 94b0 c23f 0000 0000 d89c 67bf
00000280: 59c9 08ba 7ad7 e2bf 7d94 e335 d2bb e3bf
00000290: 0000 0000 84d9 7e3f e583 9b79 6fd7 d13f
000002a0: c774 00cf 80d4 a8bf 991d 11fc f88a d2bf
000002b0: 8197 869c 990d 9ebf 4965 46ae 8627 b8bf
000002c0: cc22 d622 48e6 a43f 0000 0000 7db2 b6bf
000002d0: 40fc 95aa 354f f5bf 1a6d a7b5 94e3 febf
000002e0: 9479 1274 0793 be3f f416 a232 2761 debf
000002f0: 4326 3a95 6681 d1bf 0000 0000 60c5 92bf
00000300: a70f d151 6de4 e2bf b968 4d7c 0a14 84bf
00000310: bb08 bd46 c4a7 c53f 32e5 0773 6e4c d23f
00000320: 80f1 c2c5 c242 c93f c2dd 207b 6c7b bc3f
00000330: baf5 06b9 0837 be3f 9d86 9313 2684 c4bf
00000340: fdcf e843 8095 e0bf 5467 6f19 d945 a53f
00000350: 28e1 c3e8 3fc1 c13f c75f 4978 3a01 fabf
00000360: 4848 2f45 dde5 d3bf 0000 00e0 0504 c0bf
00000370: 06a9 4bed a904 80bf 17bd 91a4 bb75 cf3f
00000380: 6cf4 5ad2 caea d8bf 551b f0bb 4a91 d43f
00000390: 0000 0000 4933 9c3f 0000 0000 6fc9 94bf
000003a0: fd41 a7e7 aefd e5bf b5be 3863 7014 e7bf
000003b0: 0000 0000 ab5d 94bf 704c 0a8c 495d e03f
000003c0: 4692 7156 f07f afbf 26d8 788b 16ef 893f
000003d0: 19e8 545c 216c 47bf 2a5b 31cb 6922 a93f
000003e0: 1c41 1313 d53b 8c3f 0000 0080 23e4 c4bf
000003f0: ab0a b8f5 ac05 e2bf cf1b 5654 d071 e8bf
00000400: 68c4 c5ce 28af c93f 67f0 dcb7 d22e cabf
00000410: a55d 9814 3b09 c53f 0000 00c0 c925 bf3f
00000420: 2b35 367f 45d9 a73f c9e5 a41c 8f2a bb3f
00000430: 5915 9d32 3ef7 e1bf 89a6 0117 8157 d43f
00000440: f96a 35fe 096c d33f 91f9 99e1 1c30 e73f
00000450: d095 6f64 e121 dcbf 244d 09e3 ba25 dfbf
00000460: b557 53d0 e4ee b2bf 246d 67ca 8c5d c43f
00000470: e1c3 5768 3f8e 713f 59d9 2091 9ee0 cbbf
00000480: 59ce a846 bb58 ca3f 0000 0000 f01b 54bf
00000490: 7111 7bdd 65b9 c43f caa9 f43d 07c6 a3bf
000004a0: 0f76 6b2a b6be d8bf 7f8d 2743 7bde c83f
000004b0: 0000 0080 714c a1bf 0000 0000 4b2f b03f
000004c0: 3ee8 5142 7b79 ccbf d3ec 2c96 b545 b2bf
000004d0: 0000 0040 3aaf b83f b175 5a6c 33bc 723f
000004e0: b5ee ed75 00e4 d43f 2099 02be e713 e6bf
000004f0: ce38 e4c6 fc58 ad3f f7c8 59c7 ba93 693f
00000500: 795d aa3e 4ab6 babf 0000 0000 9224 b0bf
00000510: e779 05ec 48a5 c53f d644 e9cb ca07 c0bf
00000520: d780 f1db bf38 d9bf 3fb0 819e 073e c23f
00000530: 3dac ff88 3c45 b93f 0000 0000 822e aabf
00000540: aac8 a7af 815a e6bf 97e6 3ba2 f0ee b5bf
00000550: 3d39 6827 c045 e0bf dee6 a469 c217 993f
00000560: b2e0 8eac eebb c23f 90af ccc1 9c83 e5bf
00000570: 5545 60d0 9f31 f6bf 11e9 2bc5 665a d6bf
00000580: ea46 475a fae8 c9bf 7a38 6691 0af1 cb3f
00000590: 35bc 8a28 958a b2bf 227f 840a 1ea8 e1bf
000005a0: 5af3 8a38 2aaf b83f 0000 0060 aba0 b3bf
000005b0: ad23 96a3 8a0e a43f 4068 667f 8c59 d0bf
000005c0: d4dc efd0 d285 dcbf d098 5126 6d9a dabf
000005d0: 0000 0000 32bc a8bf 0000 00c0 2c16 bfbf
000005e0: c501 5d30 427b df3f b2a4 df03 f7c5 90bf
000005f0: 0000 0040 f5d4 bb3f 9442 c04e fee3 c5bf
00000600: a0c0 c5d4 26db e5bf e631 934b 8629 c33f
00000610: c3c9 5f58 b6b2 edbf f64c 5d4d e05d 943f
00000620: 6465 244c a7a7 e7bf 0000 0000 66b9 babf
00000630: 0804 0912 8eee e1bf c8ad 8efa 11f1 b6bf
00000640: 740d f6d3 7674 e3bf c025 297a d52c d73f
00000650: b402 f25b 2196 a2bf 0000 0040 0a5b bc3f
00000660: 7a76 1a18 bb43 c93f 8543 4253 4a9e be3f
00000670: 3e66 3bec 49ec d33f ce5c fb5f 8828 e3bf
00000680: 4c1c f4ec 20b3 c53f 4dbc 90e5 01c0 e33f
00000690: 90b8 9522 7ae3 dc3f f1aa 8a51 8ec1 ba3f
000006a0: 1ff4 643b 4959 f0bf af20 7dd4 dd3f d23f
000006b0: 861e c89c 8dac c8bf acd2 281d ddd8 adbf
000006c0: eb43 b360 fdde c5bf 0000 0060 c09e c03f
000006d0: 99cf f23a b488 8bbf 5c52 ead3 0f7a aebf
000006e0: 5e21 4246 6b5c c6bf 9323 71f6 aef6 b4bf
000006f0: 0000 0080 d948 c3bf 0000 0060 cb1e c4bf
00000700: 3b10 76ac 4364 acbf 138b e7ee 9697 cebf
00000710: 0000 0080 729f a93f 38e1 3766 ebe3 bebf
00000720: 3a86 5bf8 0ef8 bdbf e05b 9df1 9f02 96bf
00000730: 15c5 79b0 e6ea b7bf b4fc 732a 276f b53f
00000740: 1b09 5974 e13f 85bf 0000 0040 513f b63f
00000750: c750 744d 43ae 8b3f ac4b 7d52 aeb6 86bf
00000760: 6766 37df e0b0 c6bf e5a6 6b65 eb37 aa3f
00000770: d42c 70a3 00ee 923f 0000 0000 5705 9dbf
00000780: c37f 3f5d 85da 9d3f 3fbe 29de c3f9 abbf
00000790: dd00 9b01 7161 c2bf 1381 5879 ce7f b1bf
000007a0: f5cb 0267 f206 bd3f 0000 0000 700e b3bf
000007b0: 0acd d644 2adb a03f 4f44 880b e1bc b3bf
000007c0: 078f 21c6 6032 a23f ee56 ab43 92c8 b5bf
000007d0: 155b 5e59 7217 c4bf e079 c440 d4f3 c1bf
000007e0: 12bb 3de5 8f25 d2bf 0000 0060 cd93 c0bf
000007f0: 1ae1 098a 9d56 ac3f 47eb 9c14 773e c83f

bias f8 [72]
-0.02586981226209572 -0.8384920165486296 -0.4381046427368106 -0.3932534285068206 -0.7305315838696165 0.20313474878437046 -0.03837119886757324 -0.41172037947326506
0.4574915162164165 0.1539533558047504 -0.12328001467399159 0.41353799983416056 -0.2551363135150317 -0.10563538365923374 -0.14936590443976722 -0.12183591483214307
0.4912453891415435 -0.1832146755782524 -0.049218124068076935 -0.9492517682621708 -0.23329181371019012 0.18404982881455267 -0.35462602987858344 0.015637497413171803
0.1431690137505233 0.023935310738335325 -0.11854467982401608 0.3540623679824967 -0.8444452399736736 0.33156128632569487 -0.8525347716402332 -0.6498715525288771
-0.6140662647257793 -0.23956634626471102 -0.4818470777643007 0.003479901590720184 -0.152989493517458 0.8525637105322028 0.007066460076885466 -0.10413418484014009
0.03795669935313862 -0.24207576270810652 -0.007286758108989029 0.2903601270799182 -0.11778567512407492 -0.1447755189752617 -0.05270653325551089 -0.16553418073045253
0.27610545664330494 0.7362072534961704 -0.25891075009299086 0.685830502993919 0.9057292734651694 0.27814214286837213 -0.0012975982682083274 -0.0002526074235579477
-0.887111360687161 0.8042517850720995 -0.037004400778256855 -0.48910568195843745 0.24095084256224095 -0.4486794871675492 -0.7755010308314326 -0.3920578277370461
0.5046573117639452 0.04198199659251851 -0.5420248368738251 -0.6040946089974453 -0.10235770736625278 0.3674032623717912 0.593847483601711 0.516621475974411
00000000: be39 7ab6 9d7d 9abf 1012 a135 edd4 eabf
00000010: 82f1 310e e809 dcbf bd81 9e6d 102b d9bf
00000020: 5e48 adc5 8360 e7bf d1e2 5ac7 5100 ca3f
00000030: 4134 7dc8 63a5 a3bf efcc 3b6f a059 dabf
00000040: a234 167f 8a47 dd3f ba3a 255a beb4 c33f
00000050: 1d73 466f 478f bfbf e738 3c16 6877 da3f
00000060: 8b6b a442 2754 d0bf 07e8 1da6 eb0a bbbf
00000070: c666 5a05 6c1e c3bf f0aa ae75 a330 bfbf
00000080: 461e 2b80 9070 df3f 7fbf e017 9473 c7bf
00000090: 4458 7c32 1e33 a9bf f265 8b3e 4560 eebf
000000a0: 3ba7 2793 81dc cdbf 38e4 cbdd f18e c73f
000000b0: abe2 2860 31b2 d6bf e865 ecaf 4603 903f
000000c0: 11f6 edbb 5c53 c23f 00ed 5c83 7f82 983f
000000d0: 197d f5b2 f158 bebf 3eaa ce34 f5a8 d63f
000000e0: c364 1e06 b205 ebbf 07de 58d4 4c38 d53f
000000f0: 62b9 5c00 f747 ebbf f1ca 166d bfcb e4bf
00000100: 085f 924b 6ea6 e3bf 3eee 362b 1caa cebf
00000110: 0cef 2a20 95d6 debf d56a d0f0 e181 6c3f
00000120: c600 a5e3 2895 c3bf 48c0 cfb0 3348 eb3f
00000130: df01 dc6e b8f1 7c3f 94b5 48b6 89a8 babf
00000140: 218c c57c 0f6f a33f 4927 fead 56fc cebf
00000150: eefd 593c b8d8 7dbf c6b8 77a4 4295 d23f
00000160: e25d 98b6 3327 bebf 764d a113 0188 c2bf
00000170: b064 3cc9 59fc aabf d3c0 4d5a 3930 c5bf
00000180: d3ed a138 b6ab d13f 5302 9b83 028f e73f
00000190: c5dc 0e65 fe91 d0bf dba8 9ecf 52f2 e53f
000001a0: fe01 12f5 bbfb ec3f c093 d0b3 14cd d13f
000001b0: 7fee 0488 8542 55bf 82e9 769f 0c8e 30bf
000001c0: 20f7 415d 3763 ecbf 174c 543d 6ebc e93f
000001d0: 4227 4da6 3df2 a2bf 2d27 13eb 814d dfbf
000001e0: dbcd 5f2a 7ad7 ce3f bf52 f12a 2ab7 dcbf
000001f0: e7ed ad89 e7d0 e8bf dc5e 11b7 7917 d9bf
00000200: 58d4 3617 2726 e03f f973 c50c aa7e a53f
00000210: 21c5 7f78 4458 e1bf 98af aa37 be54 e3bf
00000220: 25b0 a15d 1d34 babf be27 15f9 8883 d73f
00000230: 2933 1c70 cc00 e33f 4215 f7c2 2988 e03f

weight f8 [50, 72]
0.37413600625943216 -0.06193207441521704 0.20436065088863511 -0.3716837317357008 0.14131396487072687 -0.20227025580819794 -0.05875380811126376 -0.06843964561298488
0.04845824919802504 0.0504223991304416 0.07783487444881233 0.009218523283561882 0.012472482002607619 -0.03942888810434461 -0.10184591217032996 0.011827147755575794
0.20720729931333384 -0.2506136229192332 0.07793560839503673 0.3955604642710574 -0.0002103736545694715 -0.026524022445979973 -0.037122378357612076 0.05602626757752758
0.05111607723730997 0.04063431838113852 -0.08943132688497468 0.18191395140152658 0.5380874825901355 0.022196901018599908 -0.12150481694601302 -0.2703244317032638
-0.256253429127711 -0.145996305442958 0.17343338212692436 -0.10679397182867738 0.16928813013848093 -0.14952011002314758 -0.08650457892482209 -0.061570864746529286
-0.01575989690831798 0.0517115666219283 -0.03289181148721556 0.2454963642798942 0.018406425573632913 -0.2911925117310422 -0.18637963307464853 0.03356095160674062
0.44991493323490594 0.238215770689542 0.1578030282210998 0.04279468397962968 0.42680639629642475 -0.14443609424885434 0.07384351950384963 0.21501931959237355
-0.2845422520126453 -0.6667362019858839 0.01915471638089023 -0.036234458063679795 -0.08936857673765647 -0.22439207982741094 -0.11852859503722929 -0.46531640418112746
0.05511634699579526 -0.06811303096725532 0.630794264294758 -0.25295409258020896 0.03436753662024372 0.2711586392760865 0.19590458719034332 -0.31667478855564624
0.37015203239339883 -0.05290918156354423 0.20090405743325396 -0.362096976515584 0.14152731104433594 -0.2063049648062847 0.09235849639097646 -0.060382358035076265
0.04328943440055541 0.03439986566188578 -0.052053891905845515 0.01676657084897225 0.03561613149467595 -0.017893300094108524 -0.08525953656353613 -0.15732008160505248
0.20083310203344143 -0.2441878281178306 0.07438981683307576 0.3814378948767652 -0.08605957419005475 -0.013810991826230369 -0.010901492556801251 0.0424962663545531
-0.027052549450782774 -0.0005328221955734116 0.007474935596082915 0.18210123538430292 0.5213895779420687 0.012217494250857695 -0.12435875034408195 -0.26440471913399377
-0.2566280215254373 -0.14090417136501635 0.1788259790693696 -0.11010954431305944 0.1700944819826823 -0.15601920315848847 -0.03412885072174299 0.017165766234356766
-0.03281509920173016 -0.0393781694128129 0.016466738547652023 0.2555334497426873 0.00045873423275686026 -0.28947919760324536 -0.17939826519023605 -0.06567240354756525
0.5094160608261876 0.23335394775313484 0.15965056316010623 0.008403438241944438 0.40690305434904434 -0.15506623585219162 -0.1025344091148851 0.21234197639154231
-0.27905724499009543 -0.6814615821333151 0.04632262943695577 -0.017565210952875693 -0.07063622892395198 -0.2249721004688687 -0.11373696664573767 -0.4570335646822007
0.030352499008192407 -0.022606267584662287 0.6336636710207406 -0.253462922999682 0.036219816243922495 0.2666868714158923 0.19772979103483249 -0.30325531343452183
0.44007376523801334 0.021225194576822714 0.2146711263382505 -0.2980862128530423 0.16014257433814574 -0.2071515191173466 0.09476166478778503 0.012512218437095561
-0.03872944257408702 -0.10012874237960641 0.03939436315030094 0.1019892883031528 0.03822768566401456 0.028787146513870664 -0.012621452212287875 -0.055131246871946316
0.12546463635065788 -0.15566130967850594 -0.06846173806896914 0.2739536594690696 -0.0739966461459011 0.0940063809303223 0.04493239957653341 -0.08540778963034444
0.08757847709070588 0.1315357731695321 -0.055355727188773816 0.21026475054220656 0.3350652474083851 0.03710243886168292 -0.12536230538469825 -0.2209617860335978
-0.3559700179852043 -0.12135635561016256 0.20774443506196263 -0.13426485112724604 0.1274973198885514 -0.23212893904432177 0.01829802870602197 0.007593379695532206
-0.030629985724110614 0.10187121715245462 -0.06654258825775154 0.28654037349762046 -0.042476441417975845 -0.3060131578698504 -0.12205567348931991 -0.07481257931971291
0.6662103765448982 0.1759482651860883 0.19832712789929205 -0.2925354430319309 0.2941541225940473 -0.20308244336290043 -0.1255372001918207 0.16982041523582764
-0.23951645978336725 -0.5463363998978011 0.05548812778134245 0.17014679861068074 0.03452736559449567 -0.2375073322792387 -0.03851767550055442 -0.358503415382488
-0.10610922784507587 0.01806517513613694 0.5543099982770272 -0.23595133581551023 -0.0790663262780528 0.2327206257162023 0.17094277403831368 -0.2537688028240949
0.6848444963999536 -1.2803139190655912 0.20955450570550832 -0.13143623178970687 0.39588719652769483 -0.1729570335415803 -0.0510047089403917 0.2214548906359012
-0.13193194890528007 -0.2793676350999174 -0.03243673484483486 0.2517546888473288 0.06311537258054545 -0.05065717461620587 0.03135746659097615 -0.023675252279843045
-0.0444955241240237 -0.06751766599687842 -0.5061798697790035 0.13155858592831596 0.01648382003138843 0.25842934702516906 0.10787227907913557 -0.2626672513743903
0.06378811497377436 0.15561173417479662 -0.06899243029989496 0.2925229754466598 0.17051221519199147 0.06005668219296032 -0.18901277353399534 -0.18831733704745482
-0.03791254161010762 -0.10396326710366388 -0.13756271173451215 -0.15506567025208537 0.0708435576070064 -0.31484155774250444 -0.04739068802724991 0.08481655139626734
00000000: e1fa c825 d8f1 d73f a9a3 5f94 8fb5 afbf
00000010: 89f6 1364 7d28 ca3f 06a5 1090 aac9 d7bf
00000020: 273f cb74 9316 c23f 792b d3e2 fde3 c9bf
00000030: a3e8 b4a8 fa14 aebf 7858 a8b7 4285 b1bf
00000040: 87ca 0d07 85cf a83f e790 80f6 f6d0 a93f
00000050: 49f4 3e80 fcec b33f c499 2940 29e1 823f
00000060: 72c0 6832 2c8b 893f ec02 daf1 0530 a4bf
00000070: 24bb 00de 9212 babf 7971 85e6 d438 883f
00000080: 4989 05cf c485 ca3f 13b1 97b8 0d0a d0bf
00000090: c523 4089 96f3 b33f 0aa0 68d6 dc50 d93f
000000a0: 85f4 c0ee f792 2bbf 85fc da03 1d29 9bbf
000000b0: 0aca fd51 b401 a3bf 1dc3 ec95 79af ac3f
000000c0: d66f 11f0 e22b aa3f b1a0 1579 05ce a43f
000000d0: 5077 35b0 f8e4 b6bf 0d54 fad3 f448 c73f
000000e0: 3d92 833d 0338 e13f 952c cacf c8ba 963f
000000f0: 89ef 168f f01a bfbf 606b 5ed8 fe4c d1bf
00000100: 0cd9 65c8 7466 d0bf 366f 9bc6 01b0 c2bf
00000110: 2b89 22a8 1033 c63f 6b03 6a88 d956 bbbf
00000120: b6db 45c3 3bab c53f 1866 5297 7923 c3bf
00000130: 67b5 6f01 2a25 b6bf 9010 f264 3786 afbf
00000140: 92fc 3cc7 5c23 90bf 9ca5 ee3e f079 aa3f
00000150: 939e 490d 32d7 a0bf f93c efc3 6c6c cf3f
00000160: fd02 804f 22d9 923f 2265 aeea e5a2 d2bf
00000170: a719 59ae 49db c7bf 8aad 25ab e62e a13f
00000180: e075 0e01 68cb dc3f e762 40b8 da7d ce3f
00000190: 87ae b5be e332 c43f 4c34 4550 2fe9 a53f
000001a0: cb45 74c6 cb50 db3f 3295 94c6 e17c c2bf
000001b0: f262 4aad 68e7 b23f 3926 d4c8 c085 cb3f
000001c0: 3d5e aeb4 f035 d2bf fdd5 d228 e755 e5bf
000001d0: 3229 ae41 4b9d 933f 065b bea8 528d a2bf
000001e0: 54d8 60ea dbe0 b6bf 148a 2b32 e1b8 ccbf
000001f0: e462 53d7 e357 bebf 4304 9074 bec7 ddbf
00000200: d0d3 a4b7 3538 ac3f 6290 6f08 db6f b1bf
00000210: cdcf f473 772f e43f dc5d c15c 6630 d0bf
00000220: 70f3 a72b 9f98 a13f 68fe edc3 a95a d13f
00000230: 4838 8fc9 6613 c93f 1c1c 1455 6644 d4bf
00000240: 7b5d 6b26 92b0 d73f f774 f288 e916 abbf
00000250: ba9e 2762 39b7 c93f bd5a 07cc 982c d7bf
00000260: 1d8f 3622 911d c23f d936 6c7a 3368 cabf
00000270: 4ec9 8171 cea4 b73f 2b33 08ba 6fea aebf
00000280: 9c83 0662 082a a63f fd59 02f4 db9c a13f
00000290: bef1 bac6 cea6 aabf 1d80 d985 412b 913f
000002a0: 2697 f50f 473c a23f e707 e30a 9f52 92bf
000002b0: a866 36a9 91d3 b5bf 53b6 bf7e 1023 c4bf
000002c0: dd0b 982a e6b4 c93f 0576 ecf7 8b41 cfbf
000002d0: f717 7406 360b b33f c9d9 fc7c 7a69 d83f
000002e0: a26a a710 0008 b6bf 077a c0f1 ef48 8cbf
000002f0: 2d88 1290 8553 86bf 56cb 6314 12c2 a53f
00000300: ce7b a8dc a9b3 9bbf 2bf9 c8f3 a275 41bf
00000310: 7951 ccbe 099e 7e3f 2db5 44e1 174f c73f
00000320: d290 3732 39af e03f f2d5 f851 7c05 893f
00000330: c002 b39d f9d5 bfbf 1cab 65c5 01ec d0bf
00000340: 8c17 ecef 976c d0bf 21fd f0db 2509 c2bf
00000350: 8899 e309 c5e3 c63f 5a53 cd9b 2330 bcbf
00000360: 4c3f acee a7c5 c53f 538d 8eef 6ff8 c3bf
00000370: 2060 6633 5679 a1bf 8b70 5912 e793 913f
00000380: bad9 c503 24cd a0bf 8ed7 9b1b 6029 a4bf
00000390: 42c3 221e a8dc 903f 2073 6bf8 a85a d03f
000003a0: 2e9e f986 4810 3e3f 3802 a5c1 d386 d2bf
000003b0: e4c0 f9b8 85f6 c6bf bb8b 7c19 e8cf b0bf
000003c0: a9c7 29e9 224d e03f a200 ffca 8ade cd3f
000003d0: 02c3 c7fd 6d6f c43f f985 6263 d235 813f
000003e0: 0396 c41b b30a da3f 5d78 d9dd 35d9 c3bf
000003f0: 28f5 dced b13f babf 05b8 159a 052e cb3f
00000400: bc6f 3ceb 12dc d1bf b5c6 1785 88ce e5bf
00000410: f22e fe84 99b7 a73f c819 5c5a 9dfc 91bf
00000420: f321 2445 3715 b2bf 175b 03c3 e2cb ccbf
00000430: abf5 16a8 dd1d bdbf a2ff 5eb5 0940 ddbf
00000440: ab44 5eba b914 9f3f b3ce d7ef 1826 97bf
00000450: f850 f608 f946 e43f 920f 428d bc38 d0bf
00000460: a634 785c 678b a23f 803e c0cf 6511 d13f
00000470: 2d42 f8b4 354f c93f 2e87 62f9 8868 d3bf
00000480: 2097 6127 2b2a dc3f 4319 3cb2 0ebc 953f
00000490: ad56 82ed 577a cb3f 6fe8 e531 d813 d3bf
000004a0: 0963 bd47 8d7f c43f 137e f6e3 f083 cabf
000004b0: c894 2deb 4c42 b83f e9e0 e687 01a0 893f
000004c0: aafb 7e72 58d4 a3bf fdf6 e889 09a2 b9bf
000004d0: 2a2c c17a 7f2b a43f 51ea cd51 f81b ba3f
000004e0: 8e19 7547 9492 a33f f3f7 49b3 607a 9d3f
000004f0: 19a3 d6a3 46d9 89bf 08fd 9aac 293a acbf
00000500: 2d1e f7a6 390f c03f d62d 29b5 b5ec c3bf
00000510: 1f96 085e b586 b1bf d681 02ee 7488 d13f
00000520: 2ad8 35b7 71f1 b2bf 8707 b65b cd10 b83f
00000530: 438d 6c25 6101 a73f cf35 49ef 48dd b5bf
00000540: 2825 f006 8b6b b63f 1734 020a 2ad6 c03f
00000550: 131b d8fb 9557 acbf be49 8a91 f4e9 ca3f
00000560: 594a e981 b571 d53f 7a89 0643 17ff a23f
00000570: 0ba4 e33c df0b c0bf f30b 57ce 7948 ccbf
00000580: 4b97 6678 36c8 d6bf 98e4 81ca 3511 bfbf
00000590: 2931 42a1 5e97 ca3f a302 4c34 972f c1bf
000005a0: 88de 9f09 d551 c03f e144 d3ac 66b6 cdbf
000005b0: cc99 7eeb b7bc 923f 89b1 5557 3c1a 7f3f
000005c0: 0b17 d98b 775d 9fbf 58d1 126a 3b14 ba3f
000005d0: 63b5 5b60 ef08 b1bf 59fa 496f ad56 d23f
000005e0: 9738 7bdd 78bf a5bf 9c96 4c36 b895 d3bf
000005f0: c189 ed65 0a3f bfbf 4cf0 81cd ea26 b3bf
00000600: 9384 706c 9851 e53f 448f 6106 7985 c63f
00000610: 4358 1e88 c862 c93f 8c8d 2f94 e6b8 d2bf
00000620: ba99 21d0 6bd3 d23f c255 5102 9bfe c9bf
00000630: d9ac a05c 9a11 c0bf 42c5 d0e4 acbc c53f
00000640: 09c7 cfb0 79a8 cebf 279d 4579 967b e1bf
00000650: 8a36 469c f068 ac3f 05a7 c6cb 5ec7 c53f
00000660: f33d 1724 92ad a13f 608a 59e8 a366 cebf
00000670: 5286 2fb9 96b8 a3bf 1c9d 244f b8f1 d6bf
00000680: 6cfe 656f f929 bbbf 45f8 9f61 ad7f 923f
00000690: c042 4e52 e8bc e13f 7537 6343 a733 cebf
000006a0: 0a40 94d5 b03d b4bf ab22 471a cac9 cd3f
000006b0: a3b4 fdeb 73e1 c53f cbf8 3781 bf3d d0bf
000006c0: bc44 5c01 3fea e53f 4001 b072 2a7c f4bf
000006d0: 7e07 5e9a aed2 ca3f 10ec 8506 e7d2 c0bf
000006e0: f375 7f40 3756 d93f 3b4e 56c1 7423 c6bf
000006f0: 1595 ae09 4a1d aabf 9504 6944 a258 cc3f
00000700: 9540 ec66 25e3 c0bf 1329 14ca 28e1 d1bf
00000710: 3bf7 b136 8c9b a0bf 15b1 cdb2 bf1c d03f
00000720: 68b9 1b3d 5428 b03f 5d98 91b8 bcef a9bf
00000730: 5fc0 fcfa 150e a03f e8de 1049 533e 98bf
00000740: 02b4 dc09 1ec8 a6bf 34dd 5b77 d648 b1bf
00000750: fd04 5320 a032 e0bf c9f9 0868 e9d6 c03f
00000760: d0b6 ca6f 22e1 903f e02e 733e 1b8a d03f
00000770: 1235 ca86 849d bb3f a286 984d 8acf d0bf
00000780: c993 affb 6a54 b03f d6c9 93d6 15eb c33f
00000790: 7e42 cfe7 7ca9 b1bf 17cf 3749 b2b8 d23f
000007a0: 15b8 e821 58d3 c53f 8d9d d9db bfbf ae3f
000007b0: eb68 6d10 9231 c8bf 8dbe f151 c81a c8bf
000007c0: a3b5 a5cc 4569 a3bf 800f 3230 569d babf
000007d0: 3f3f 06aa a79b c1bf ff85 3b1f 31d9 c3bf
000007e0: 25ec 0dab cd22 b23f 863f 7b34 5d26 d4bf
000007f0: 4488 6c9e 9743 a8bf 820e 689a 89b6 b53f

bias f8 [50]
0.6867007308387919 0.6854842074905714 0.7043275143240928 0.5215378549386849 0.21881160495354046 -0.15890892346116064 -0.511758532179415 -0.8601747993788473
-1.2141869302070334 -1.5715320050151198 -1.9161917751596953 -2.2201740511206496 -2.4867563431565713 -2.709787551214492 -2.91746755793152 -3.071961007984631
-3.22977699795492 -3.3472275757039576 -3.4563007678529223 -3.5577465816861857 -3.6550883801313545 -3.725326031114343 -3.7820775492723557 -3.8494915365654543
-3.88293851944613 -3.9249229814410302 -3.9844002258319287 -4.0680201924178485 -4.122552796192836 -4.196077468239965 -4.148361207440663 -4.221682129413965
-4.281393056306237 -4.2926468463381 -4.337643441545813 -4.376004297322184 -4.4494278586137215 -4.5152057638071526 -4.517053570786856 -4.496755846690894
-4.604074553398616 -4.65061879637828 -4.641765229012215 -4.6577141598835965 -4.650532853808016 -4.739797573904772 -4.760158192686629 -4.850945147582774
-4.85890596604283 -4.86797906957337
00000000: edf0 a2cf 73f9 e53f 6216 a393 7cef e53f
00000010: 083d f6da d989 e63f facd d227 70b0 e03f
00000020: 885f a1c7 0402 cc3f ce74 a7aa 2057 c4bf
00000030: 0b1b e56d 5360 e0bf c89d 054d 8d86 ebbf
00000040: 7a84 4746 4f6d f3bf 1684 62be fe24 f9bf
00000050: 1dcd f2b4 b8a8 febf 9ded e79c eac2 01c0
00000060: 00d3 7782 e0e4 03c0 e697 7c18 a5ad 05c0
00000070: a8a7 233b f956 07c0 ab0c ff4a 6093 08c0
00000080: 2cb7 9c52 95d6 09c0 c857 4f40 1fc7 0ac0
00000090: 3e8b 5804 81a6 0bc0 3962 fed6 4376 0cc0
000000a0: f33a 05fa 9e3d 0dc0 b296 f4bb 77cd 0dc0
000000b0: 1a7c c8df b141 0ec0 2538 fe37 c2cb 0ec0
000000c0: c432 0b12 4210 0fc0 44dd 2405 3e66 0fc0
000000d0: 35fc c039 0de0 0fc0 f19b d715 a745 10c0
000000e0: f1b9 ee7a 7e7d 10c0 e24a 2688 c8c8 10c0
000000f0: 96cf 1700 ec97 10c0 32c3 dfa3 00e3 10c0
00000100: 89a0 5880 2520 11c0 de32 699d ab2b 11c0
00000110: b697 cc33 bf59 11c0 f19d 4045 0781 11c0
00000120: 05a1 0ad1 36cc 11c0 b80c 8919 920f 12c0
00000130: ff3c c37d 7611 12c0 6689 8e90 adfc 11c0
00000140: 7dc5 0c85 926a 12c0 2e6e 52d0 3b9a 12c0
00000150: 0845 79e7 2a91 12c0 c043 1bd2 7fa1 12c0
00000160: e050 d048 259a 12c0 1653 c67e 8df5 12c0
00000170: 8d80 c5e8 660a 13c0 4c3b 2e2a 5e67 13c0
00000180: 14f9 a90b 856f 13c0 75b8 5581 cf78 13c0
