Sphere/NeuralNetworks/models/net_l149.pt (torch_old, 70416 bytes, 6 tensors)

weight f8 [36, 6]
-0.5644992797334013 -0.2668595957525614 0.2812836751843973 0.17257884149242353 -0.06373375114049318 0.12902339309022753 0.2823164595177506 0.5508841618150095
-0.026506285171357932 0.07122204193085728 -0.2728008676004218 -0.2518378296828252 -0.054085947386184254 0.017912755572204484 -0.3325624390546176 0.08411537392193137
-0.4351485798108332 0.5105948972805883 0.4303011025228379 0.11101760065948409 0.00011636874640405356 -0.19002110558733745 0.4376560011401795 0.07144034342497019
0.6967254915751195 0.4289923224110729 0.324836598251486 -0.21290236403648446 -0.06540270404113092 -0.19303932585007147 -0.22317977673205427 -0.4057413196102907
-0.32023394491985474 0.22821896071564984 -0.10868994550512857 -0.13087029247835702 0.2490077414764357 0.5506420451231063 0.28525303362393895 0.020151287397369787
-0.202240078572393 0.3107107497564553 0.4022909637962233 0.15667807635821587 0.5338007006440919 0.18944414397589668 -0.1473598032564678 -0.07212099857260812
-0.2278392657142588 -0.25618724256372805 0.9029905439011655 0.20438790503966053 -0.08781535143685902 -0.3088955059443154 -0.10752474962010157 1.733586110712604
-0.36454561658899604 0.04187575001332831 0.2056786370051533 -0.10502899965893736 0.04875392726895277 0.3495626365285551 0.1023161969335929 -0.2877431677462746
0.4068596672315346 0.183052976060238 0.09989500045776367 0.2858119606971741 -0.0033207833766937256 0.14133739471435547 0.08254504203796387 0.35677874088287354
0.5973557075500819 -0.11990179691181495 -0.44116856613083 0.030263619128431517 -0.12082108456394651 0.23128668927694898 0.3447286533709645 -0.5387793622781143
-0.243041354259683 0.5292971315657831 -0.20848787034276678 -0.02101710103232073 0.3154153054052872 0.3225419293786607 0.4404660627232599 0.4405363326360959
-0.08990006808586279 0.015503197435220864 -0.3854205826385009 -0.5042017968444552 -0.028870035093549844 0.02149890101499955 0.2894475328359656 0.19003337536537435
-0.08641232089491829 -0.28482945163529705 -0.2827472522032302 -0.3938652733664253 -0.027186809266833672 0.21734866281133527 -0.05766779184341431 0.06806507706642151
0.22058641910552979 -0.06931421160697937 0.05561181902885437 0.2763603925704956 0.3900991217309619 0.10385841504286884 0.5395129435094379 0.3953216229928768
-0.19002218356111136 -0.14464846225259143 0.02757650536349983 0.20928742097238384 0.6422325149718863 0.7172927705373113 0.15223895168009283 -0.403657724210801
-0.056014119583454355 0.06210333682212274 -0.34069647479079673 -0.043090322314071935 0.21390060770121724 -0.15847124623852313 -0.7846906878449647 1.1570691400983746
-0.0995363224110621 0.10315294816608384 -0.023793547004611757 0.06151236566385095 -0.4381652782825273 -0.4746417707387657 0.5107919039285977 0.20440019263648118
0.03857608475629392 -0.24513252037375544 1.5502367507030175 -0.24443274817244195 0.10677743997073232 -0.04505476199383269 0.037404569091342085 -0.1692067965805696
-0.2185468621158507 -0.030325158064035247 0.13473270744390745 0.23730564767659715 0.0017915777784744112 0.45861135289561583 -0.6764387508513462 1.0280469157584269
0.2358556831009146 -0.2640327345852263 -0.24261257086036309 0.19556806012028835 -0.34467849193792877 0.37405972051994096 -0.30371577317335696 0.6434459531067396
-0.08743592064578655 -0.18854304550977818 -0.4590911983258078 0.18405841191612288 0.35244731383814404 -0.5204136966963713 0.3159135037189142 0.11850547097716309
-0.40289961285077985 0.4527732742175261 -0.1533879418036587 -0.15766832368037204 -0.17685623701068615 0.35872821695194446 -0.13500204641582503 -0.05804302260717042
0.08484223778659657 -0.08839914902270828 -0.07864398621442663 -0.022270757963728453 0.3806259036064148 -0.3219775855541229 0.1437041163444519 0.2292550802230835
0.09612125158309937 0.3776553273200989 -0.4490199120119997 0.348418129818839 0.30465906292189465 -0.17132304338547744 0.1285846821709436 0.02628100816322696
-0.35416386050872306 -0.2742508166272033 0.39282271157877896 -0.4783247325340439 0.04603352386833565 0.1326458395521195 0.4409044182015241 -0.3318454123997648
-0.12802126592462476 0.08847664216828993 -0.07860696687213925 -0.12449130386648934 0.21062221213002885 0.1989340069438001 -0.231868590584509 -0.15881479696598272
0.2703188480468397 0.03790875060116518 -0.5515674544281086 -0.47533674193325115 -0.28771192960882386 -0.03728257203503915 0.0565828876691339 0.03744820823358632
00000000: a741 22cb 6010 e2bf d362 1845 3a14 d1bf
00000010: fd33 743e 8d00 d23f f483 1840 1017 c63f
00000020: 10c1 cce8 da50 b0bf cee8 deaa d683 c03f
00000030: 6d14 300e 7911 d23f a227 5cd2 d7a0 e13f
00000040: ec37 ccaf 7624 9bbf 6bed d894 9b3b b23f
00000050: df82 2ac5 9175 d1bf d888 986a 1c1e d0bf
00000060: f5c7 643e 27b1 abbf b997 74ad b857 923f
00000070: 5c86 e7f7 b348 d5bf c1e3 15cc 9588 b53f
00000080: 540e cc6d 79d9 dbbf 2c63 2a1c cb56 e03f
00000090: 592c b1a2 0d8a db3f 31e5 1c44 a66b bc3f
000000a0: 83b7 1fd7 5f81 1e3f 7510 0691 9c52 c8bf
000000b0: b7e4 f250 8e02 dc3f c010 a012 ea49 b23f
000000c0: 6459 1342 934b e63f be66 bf36 9c74 db3f
000000d0: 6f2d 8271 1fca d43f 898e 6379 6240 cbbf
000000e0: 4137 ed4a 3bbe b0bf cd18 af3b 83b5 c8bf
000000f0: 31ac 18a9 2791 ccbf 5a2c 9770 aaf7 d9bf
00000100: 67fd 1f84 b67e d4bf d4e7 4c66 4736 cd3f
00000110: 893a 59b1 1ad3 bbbf 2433 1b95 5bc0 c0bf
00000120: 65ca 0b55 7cdf cf3f cb66 f310 dc9e e13f
00000130: 8cf9 9ff0 9541 d23f 9641 6001 8aa2 943f
00000140: c856 b4bd 00e3 c9bf 2e0e 2e57 afe2 d33f
00000150: 54ca 3e99 22bf d93f 99b7 faf6 060e c43f
00000160: f424 fb34 e514 e13f d7c8 65a9 b43f c83f
00000170: 90a2 dd9f afdc c2bf 2066 3992 8576 b2bf
00000180: fb62 7e49 d629 cdbf 22ac 1d2d 5f65 d0bf
00000190: 65e3 d46c 4ce5 ec3f 1cf1 eb03 6229 ca3f
000001a0: f70f 821e 117b b6bf 9f61 faa7 f1c4 d3bf
000001b0: 3501 21f3 bd86 bbbf aff7 24ca c4bc fb3f
000001c0: d997 4923 b754 d7bf adfd 9a01 bd70 a53f
000001d0: 7f24 b675 ad53 ca3f e4ae aa36 2ee3 babf
000001e0: ffea 5756 46f6 a83f a4cb f2f6 3b5f d63f
000001f0: f44d aeef 6431 ba3f 4288 c751 626a d2bf
00000200: 5d89 3421 fd09 da3f e19d cea8 476e c73f
00000210: 0000 0000 b892 b93f 0000 0040 be4a d23f
00000220: 0000 0000 3034 6bbf 0000 0000 5817 c23f
00000230: 0000 0000 ac21 b53f 0000 0080 76d5 d63f
00000240: 9835 80b7 891d e33f ebc6 7758 e2b1 bebf
00000250: 3887 e314 1b3c dcbf b32d a919 6dfd 9e3f
00000260: 0b91 de6e 21ee bebf f9e8 385f cd9a cd3f
00000270: 023c 0ec5 0810 d63f cad0 9737 ae3d e1bf
00000280: 4979 0fa6 fa1b cfbf fa21 be89 00f0 e03f
00000290: 4610 5e04 bbaf cabf edb7 5cc6 8185 95bf
000002a0: 6be8 57ad c32f d43f 2549 91e7 86a4 d43f
000002b0: fb3b 9991 9830 dc3f b9cb 574d bf31 dc3f
000002c0: 9e42 56dc b003 b7bf f5db bdef 23c0 8f3f
000002d0: e0ce 6817 bbaa d8bf fe00 81ce 6b22 e0bf
000002e0: 0ea3 3e42 1b90 9dbf ca96 09d3 ce03 963f
000002f0: 100e dcf1 4e86 d23f 0ce0 2b7e 0353 c83f
00000300: dc12 372c 1e1f b6bf 8a84 ed4e a53a d2bf
00000310: 8dca 4fee 8718 d2bf aee3 08b1 1635 d9bf
00000320: 380c bce2 dbd6 9bbf 6950 4dbb 14d2 cb3f
00000330: 0000 0000 a286 adbf 0000 0080 b66c b13f
00000340: 0000 0000 2d3c cc3f 0000 0080 93be b1bf
00000350: 0000 0000 2779 ac3f 0000 0080 e3af d13f
00000360: 7719 824e 62f7 d83f 2705 0610 7796 ba3f
00000370: 1089 04a6 b043 e13f affc 8910 f34c d93f
00000380: e969 f49b a552 c8bf 3052 653f d783 c2bf
00000390: 9461 b2f2 033d 9c3f 8031 4522 eec9 ca3f
000003a0: 376d 0734 2b8d e43f f4ad e3f7 0ff4 e63f
000003b0: 6858 52e3 907c c33f e7d7 1035 87d5 d9bf
000003c0: 6e49 73f7 e1ad acbf 0c3a 3f31 02cc af3f
000003d0: 87b1 4596 f8cd d5bf 1ee0 394a ef0f a6bf
000003e0: a5eb 5559 1861 cb3f 77b4 f929 c948 c4bf
000003f0: c2a2 38a5 2f1c e9bf 0cef 3eee 5a83 f23f
00000400: 0d06 8561 367b b9bf f4fb db4a 3b68 ba3f
00000410: f96b f6e8 555d 98bf 9bd3 a67d 8c7e af3f
00000420: 1fd6 1d61 e60a dcbf a6dd a8e0 8760 debf
00000430: b6ea 4d43 6858 e03f 92bb 5517 c929 ca3f
00000440: 3f3c df9c 3ec0 a33f 9c7d 189f 8060 cfbf
00000450: 6e3a 150d c5cd f83f df6b bc81 9249 cfbf
00000460: 59f9 9f2c c455 bb3f 69cc 95f2 6a11 a7bf
00000470: 46c3 ef11 b126 a33f 4588 c97c 91a8 c5bf
00000480: 032b b7f4 57f9 cbbf 2235 86e8 8e0d 9fbf
00000490: bd28 16de eb3e c13f a9aa f60d 0860 ce3f
000004a0: 7ada dffd 6b5a 5d3f fab3 906e e359 dd3f
000004b0: 7dea 14e1 62a5 e5bf 4ffa 9e52 e172 f03f
000004c0: e640 bfde 8430 ce3f d97c 078e e9e5 d0bf
000004d0: 8acc b8c0 ed0d cfbf 2bed 2dcb 5f08 c93f
000004e0: 2283 a060 360f d6bf 3894 982e 98f0 d73f
000004f0: 62c5 4348 1470 d3bf acc8 aaf7 1b97 e43f
00000500: 8957 ab53 3362 b6bf 7c26 2db3 2d22 c8bf
00000510: fa35 ac0c c061 ddbf 82e1 dddd 398f c73f
00000520: 37dd 9f2d 7f8e d63f b071 f69f 3aa7 e0bf
00000530: c799 b545 ed37 d43f 4d76 3ee2 5f56 be3f
00000540: 65f8 3075 1bc9 d9bf 6818 51c1 3cfa dc3f
00000550: 25e0 d250 37a2 c3bf 7242 e9c2 792e c4bf
00000560: 92fa 06a5 39a3 c6bf ee80 fd31 67f5 d63f
00000570: a0e0 1f3f bf47 c1bf bfb2 b7a7 d0b7 adbf
00000580: 35e6 9c8c 38b8 b53f 9ff8 0b9e 53a1 b6bf
00000590: e36a d124 0322 b4bf 7e04 7244 25ce 96bf
000005a0: 0000 00c0 2c5c d83f 0000 00e0 479b d4bf
000005b0: 0000 0080 e564 c23f 0000 0000 3b58 cd3f
000005c0: 0000 0000 679b b83f 0000 0040 812b d83f
000005d0: 9b09 5603 bebc dcbf 02f2 398e 7b4c d63f
000005e0: a57d ebb9 887f d33f fc26 32da e9ed c5bf
000005f0: ba6a 587e 7675 c03f 7a93 449a 68e9 9a3f
00000600: 36d8 93e5 9eaa d6bf 1c2b 144c 538d d1bf
00000610: 63d7 d6de 0124 d93f b181 c656 df9c debf
00000620: 697a 11bf b491 a73f 20d5 69f3 89fa c03f
00000630: d598 352a c737 dc3f 756a 658a f43c d5bf
00000640: 3a5d 2b37 0063 c0bf 749c 92bc 67a6 b63f
00000650: b41e f40f 961f b4bf 4933 be7e a9de bfbf
00000660: 5c6f 742c abf5 ca3f ce63 f166 ab76 c93f
00000670: a7d9 c3b6 dead cdbf c67d 8b13 0b54 c4bf
00000680: e4a0 f66c e74c d13f 12e2 2098 c668 a33f
00000690: 76d0 49ca 70a6 e1bf 3e31 4ccc ea6b debf
000006a0: 66b1 154c df69 d2bf 00d8 3387 b316 a3bf
000006b0: 42b6 1aa8 6ef8 ac3f 0369 505b 692c a33f

bias f8 [36]
0.39699615428575 -0.14257134795619056 0.01890128824405783 -0.05205755760555471 0.038190684052475 -0.9052807448382459 0.047035890872801175 -0.21359808331527846
-0.5900401958922636 0.7434176687192381 -0.014583951222490298 -0.0988539457321167 0.9434563775376857 -0.025205553375903165 -0.3510809797895442 -0.20547228094345962
0.03340397871409691 0.14452427625656128 0.22418771336061294 -0.11093747571329375 -0.46051710420727876 0.5067079260908405 0.25762860566904316 0.6173964342901413
-0.23581498282046895 -0.699948562970617 -0.6837228236735527 0.09898815575654357 0.33117597302963436 -1.0805742168319794 -0.16460198163986206 0.4735628230531476
-0.4642934560228857 -0.8527620451442219 1.2349405601968448 -1.0210437495777136
00000000: 5fe2 d28e 6268 d93f c9c3 6826 c73f c2bf
00000010: 4c26 71fb db5a 933f 4ada d9c6 49a7 aabf
00000020: d8d4 08b6 ba8d a33f d3eb 1853 0ff8 ecbf
00000030: 56e5 129a 1615 a83f 62e8 2997 2e57 cbbf
00000040: bad8 15fa 9be1 e2bf b75d cdd9 13ca e73f
00000050: 665e 60cc 30de 8dbf 0000 0000 7e4e b9bf
00000060: 7f43 d76d cb30 ee3f 2956 b50d 7ccf 99bf
00000070: 1066 9c5b 1c78 d6bf d57e 716b ea4c cabf
00000080: 5a43 4488 531a a13f 0000 0080 c57f c23f
00000090: e040 86d8 2eb2 cc3f 53e2 16fe 6566 bcbf
000000a0: a268 74bb 1c79 ddbf 84e4 658a f336 e03f
000000b0: 2d35 f7b0 fc7c d03f 732e be2a b6c1 e33f
000000c0: 9f73 8f73 2f2f cebf 72e9 5a87 fa65 e6bf
000000d0: 279d e6af 0ee1 e5bf e46b aaab 4957 b93f
000000e0: 4b87 58b5 fc31 d53f 4c1b a330 084a f1bf
000000f0: 0000 0080 ad11 c5bf 4f57 6771 da4e de3f
00000100: ef5d 57e6 fbb6 ddbf a843 e5a0 d349 ebbf
00000110: 36ca 6808 51c2 f33f 3d8b 83f8 3156 f0bf

weight f8 [72, 36]
-0.02945217744772829 -0.006871771821173052 0.12890155587958593 0.0699230432510376 0.13481741585759904 -0.1407441643412661 -0.09487284499333978 -0.16550273895236287
-0.17388526640988272 -0.13145742263212137 -0.14683344960212708 -0.09441624581813812 -0.1712302622797534 -0.1794886366289429 0.029577001929283142 -0.1722254800848546
-0.1320947921519793 -0.13214311003684998 -0.01148151869779586 -0.15679979741131383 -0.12743954910777316 -0.01511589616393257 0.10218074636333643 0.15307609597246852
-0.08206554502248764 -0.2107715766349926 -0.11197145869459185 -0.10986075903001256 -0.212664523532807 -0.15546063884543662 -0.12581998109817505 -0.14598373560667832
-0.06188302236699884 -0.17788795233699378 0.11486547834962993 0.09546393055941502 0.10784526986271332 -0.10806393375789032 -0.05603810399770737 -0.055569157004356384
-0.15468279982372202 -0.18115141540472757 0.12701479362297025 -0.13390491107811944 0.04127919673919678 0.1014213458269682 0.12367530167102814 0.09671945869922638
-0.047084487412942404 -0.10590976476669312 0.01893727481365204 0.04035067558288574 0.016331509033170787 -0.14788788557052612 -0.05996664613485336 -0.1417873352766037
-0.13318613786863626 -0.16525404601667026 -0.1086425632238388 -0.0532153737993831 -0.14087095856666565 -0.10940968707317843 0.07315512001514435 -0.11817350704788461
-0.09913405391702317 -0.16027633845806122 -0.13107168674468994 0.04783565422693676 0.015675727689034958 -0.18321477473069891 0.04205855967726413 -0.05130414664745331
-0.33233079206936744 0.046173018897845884 -0.24885030396912178 -0.04938696324825287 -0.19313238465572571 0.1660568990883495 -0.17437435494991763 0.1224911667876277
0.07746140347133187 -0.2318090574414169 0.1670589619342341 0.07053227722644806 0.16950146453579124 0.4150276887192049 -0.0028002792969680883 0.9109081966102764
-0.4296790475100963 0.07619507610797882 0.24831142537026385 -0.8343050149037045 -0.4035375280658252 -0.14155068103853174 -0.004037958889490332 -1.0524807121478612
-0.1709015696647766 -0.5901350956610956 0.12637247937074741 -0.019787396016235356 -0.5884833674484541 -0.2493925566315479 0.12116186320781708 -0.35081719169219316
-0.3198629516425754 0.15615021132405904 -0.40942090386228197 -0.10338811920429367 -0.007907122960535475 0.25526582588165814 -0.1852875544527995 0.06423376500606537
0.11312976611003625 0.3105295073418518 -0.12830257987516094 -0.11060568749095402 0.005252551251372736 -0.31973549660233364 0.0670224786524213 0.08378200232982635
0.03832677536271374 -0.18045529070745348 -0.07621885941222142 -0.3681610058315766 0.14761793939576132 -0.12002762407064438 -0.2460323473292338 -0.3456191754762749
-0.10926832219764257 -0.07452274395944691 -0.241835411288709 -0.6174509134078954 -0.08905496414069783 0.07333488420658968 -0.18786118131578028 -0.20358664888651387
-0.13918511160787292 0.2482093345179661 0.1381278783082962 0.026643323998725436 0.08560918859775013 0.10767077196379013 -0.4404550758252407 0.15402157063300692
-0.34279147136007515 0.18946682425923717 0.024135757015987164 -0.14745543897151947 0.01472625116315372 0.32600596371480794 -0.06694638967865646 -0.2503295781129136
-0.12269631751574206 -0.1792269877059158 -0.07386227086716625 0.1274983435869217 -0.24350399760879377 -0.09788534372543924 0.05510423314492031 -0.09219786114994674
0.0978864503458785 -0.0417952761054039 -0.4877510185221547 -0.4098053310854768 0.03819742359966276 -1.1994352001359572 -0.1772479264851394 -1.468893707629406
0.0954638114451337 -0.15199708390666083 0.10879289242906899 -0.5145695852604184 0.06015833553997583 0.1913921197304742 0.011702701449394226 -0.03994621071336264
0.1884331769538739 0.21532540587260046 -0.6394252509654992 0.2511855894447737 -0.04093316653584656 0.10055620684834898 -0.1875465435051491 -0.1576203554868698
-0.19928829503165768 -0.10654020393681195 -0.14518784232646387 -0.13729939880636388 -0.09789565615313063 0.1107144721469845 -0.08330430835485458 -0.09674417972564697
-0.047080335891240256 -0.2501625418105365 0.12470774352550507 -0.06318281363555489 -0.08164720125543518 -0.1325654834508896 0.012303428791151505 0.02938770463037774
-0.12255003660844171 -0.23575974004049524 -0.00471275703706993 0.061974767055399387 -0.08378009498119354 -0.030220403401437237 -0.1215678316060305 -0.1303900921057488
0.03188108910028307 0.05830764564154653 -0.08949488401412964 -0.1789084521518369 0.060509666464808036 -0.21237711804404455 0.07452577148102389 -0.03208995260564274
-0.4976340564549674 -0.07475834994691617 -0.4900090985326656 0.1294572861504165 -0.3326239223614014 -0.12799754681175293 -0.39587703839998006 -0.28088363502071517
-0.7864224304036842 -0.18955890863013386 -0.02356531396507112 0.14453352987766266 0.03183440679707693 0.2386232236898891 -0.14382603310054792 -0.7319816688221003
0.2662960858979764 -0.004899576306343079 0.106072684910248 -0.11907790597258583 0.004957132116648281 -0.00753458319564999 -0.3571235710508312 -0.022651527271506454
-0.1561172503695615 -0.2430248279378571 -0.30095694020632924 -0.4253979055226689 0.09820775481349511 -0.30755807952158865 -0.1398969292640686 0.06566625974293694
-0.1364625615216008 -0.01014099359567217 0.16567785842409105 0.026433641993097924 -0.35881699637602144 0.11531069494425056 -0.32970521963555205 -0.11390873044729233
00000000: b765 bc2b b628 9ebf 08da cc33 9325 7cbf
00000010: e302 749f d87f c03f 0000 0000 7ae6 b13f
00000020: 4212 0574 b241 c13f 4f6b 799f e703 c2bf
00000030: fe5d 8636 9649 b8bf 0f73 9999 312f c5bf
00000040: fa4b 3e56 df41 c6bf 9dbd 82c9 98d3 c0bf
00000050: 0000 0040 70cb c2bf 0000 00c0 a92b b8bf
00000060: 8edc 498c dfea c5bf 8d97 29d0 7bf9 c6bf
00000070: 0000 0000 6f49 9e3f 004d 400a 7c0b c6bf
00000080: a9e0 216e 7be8 c0bf 0000 00c0 10ea c0bf
00000090: 6908 865a 9f83 87bf 9254 f308 0412 c4bf
000000a0: 7a43 d16b f04f c0bf ebfc 633d 15f5 8ebf
000000b0: 9251 e973 8428 ba3f 5c24 005d ff97 c33f
000000c0: 0000 0060 3f02 b5bf 656d 4922 90fa cabf
000000d0: 6cbe 2d59 29aa bcbf c7cb 25af d51f bcbf
000000e0: cde1 cb52 9738 cbbf 7d05 d45b 22e6 c3bf
000000f0: 0000 0080 de1a c0bf 2cdc 1655 98af c2bf
00000100: 01e0 7caa 21af afbf cee4 d14c 08c5 c6bf
00000110: 7278 f3f0 d267 bd3f 0647 b3fb 5270 b83f
00000120: a5b1 1663 bf9b bb3f 0d04 5ef5 13aa bbbf
00000130: 0000 00c0 06b1 acbf 0000 0080 8f73 acbf
00000140: 9c90 3f5f a5cc c3bf 08ca 6436 f82f c7bf
00000150: 2a03 5c50 0542 c03f 115a edce cb23 c1bf
00000160: 0000 0000 8c22 a53f 4371 71d3 bff6 b93f
00000170: 0000 0040 2fa9 bf3f 0000 0040 9bc2 b83f
00000180: 47ce 2c3b 751b a8bf 0000 0000 e71c bbbf
00000190: 0000 0000 4b64 933f 0000 0000 d8a8 a43f
000001a0: 7666 c404 35b9 903f 0000 0080 fded c2bf
000001b0: 0000 00c0 f2b3 aebf 0000 0060 1626 c2bf
000001c0: 4e92 364d 3e0c c1bf f82d 9669 0b27 c5bf
000001d0: 0000 00c0 ffcf bbbf 6cbc 39a4 0b3f abbf
000001e0: 0000 0040 0f08 c2bf 0f4b d8f3 4502 bcbf
000001f0: 0000 0040 4bba b23f dd37 0674 9e40 bebf
00000200: 0357 7e6f d960 b9bf 0000 0060 ef83 c4bf
00000210: 0000 0000 f5c6 c0bf 0994 f934 ea7d a83f
00000220: cdc6 0f47 4c0d 903f c861 ceec 9473 c7bf
00000230: 5053 a914 b388 a53f 0000 0080 8944 aabf
00000240: c411 d95e e844 d5bf b367 3f6c fda3 a73f
00000250: 1cd2 92a6 53da cfbf 0000 0080 3f49 a9bf
00000260: ed89 f2dd 8fb8 c8bf 7708 6e3b 5a41 c53f
00000270: ddaf e21b e651 c6bf 96d8 66c3 945b bf3f
00000280: de93 9cb2 82d4 b33f f850 5050 ebab cdbf
00000290: 7570 0125 3062 c53f 0000 0040 670e b23f
000002a0: f614 6757 39b2 c53f e6f0 7e4b d08f da3f
000002b0: 982d 0180 9cf0 66bf e72e 43f2 2826 ed3f
000002c0: 4d44 358c dc7f dbbf 0000 0040 8581 b33f
000002d0: 681e 9835 abc8 cf3f 77ce 3c6e a0b2 eabf
000002e0: f616 7011 8fd3 d9bf 1cbd e42c 551e c2bf
000002f0: 0b9e f755 1b8a 70bf 9e88 e503 f6d6 f0bf
00000300: c6cb 4546 1ae0 c5bf 74c2 02ff 62e2 e2bf
00000310: 7e82 0131 f92c c03f 7f09 0dab 2543 94bf
00000320: 41cb 2d12 dbd4 e2bf f495 4c65 18ec cfbf
00000330: 0000 00c0 7604 bf3f 7452 4cf3 c973 d6bf
00000340: e670 2075 a278 d4bf c43d 73e9 bafc c33f
00000350: e3c8 18bc f333 dabf 1603 c7ce a477 babf
00000360: 21e8 2a14 9c31 80bf 86ae 7c79 4656 d03f
00000370: 1384 5da9 80b7 c7bf 0000 00c0 9f71 b03f
00000380: 6a90 a585 12f6 bc3f ce7a 9e27 b7df d33f
00000390: 0133 470c 386c c0bf 6176 8682 a750 bcbf
000003a0: b0fa 85fd b283 753f f9bf 51df 8b76 d4bf
000003b0: b9b4 e899 6228 b13f 0000 00c0 bc72 b53f
000003c0: caec 7c2d 919f a33f 9045 fdb1 2819 c7bf
000003d0: ca8f 8344 1483 b3bf ae61 ed2d f38f d7bf
000003e0: 79fc 0007 25e5 c23f 0000 0060 21ba bebf
000003f0: 0ec2 c4ea fc7d cfbf 27a1 e2e3 9f1e d6bf
00000400: e6e1 533e 02f9 bbbf 802f 1d2c ec13 b3bf
00000410: a4f6 3f77 76f4 cebf 941c ff6a 28c2 e3bf
00000420: 3adf 875e 4ecc b6bf 7cc0 5231 13c6 b23f
00000430: ca37 f8ce d50b c8bf ff55 6f97 200f cabf
00000440: 0b14 3957 d1d0 c1bf f785 28cf 52c5 cf3f
00000450: 0000 00a0 2cae c13f d1ce ec34 6348 9b3f
00000460: e0b1 43d9 7bea b53f 2ece 51cc 4f90 bb3f
00000470: f6b3 817c 6a30 dcbf 24a8 5f94 fab6 c33f
00000480: 2ab6 b5a3 4bf0 d5bf 5e69 efea 7240 c83f
00000490: 2804 313c 0bb7 983f 0000 00e0 d1df c2bf
000004a0: b77f 1bf9 cb28 8e3f 2230 1d1e 48dd d43f
000004b0: 544e 410a 6623 b1bf 2dda cd59 6605 d0bf
000004c0: c0da 119f 0669 bfbf d7f5 60f1 e8f0 c6bf
000004d0: c963 c845 a3e8 b2bf 0000 00a0 dd51 c03f
000004e0: 6e67 1695 232b cfbf 91f8 0e8e 030f b9bf
000004f0: 010a 753e 9f36 ac3f 8e71 666e 479a b7bf
00000500: f002 f51e 160f b93f 0000 00c0 3066 a5bf
00000510: 8f2c 490c 5037 dfbf d044 af23 403a dabf
00000520: 46d4 4dda 9c8e a33f 1915 e4f6 e230 f3bf
00000530: 57cc c45f 0fb0 c6bf 8318 39b0 9680 f7bf
00000540: 77bd 1bfc 5070 b83f 7eb5 3bf4 a374 c3bf
00000550: 1925 05db d9d9 bb3f 86b6 86a2 5a77 e0bf
00000560: 0db5 73c7 12cd ae3f 282d 7a77 897f c83f
00000570: 0000 0000 96f7 873f 6add 3969 d473 a4bf
00000580: 4ac7 3f0e 941e c83f 6241 1c6c c88f cb3f
00000590: e844 a4f1 2b76 e4bf 0513 f9b8 6c13 d03f
000005a0: a1b5 2f27 31f5 a4bf f0ce d233 0dbe b93f
000005b0: f08d 6a6f 8601 c8bf 0000 0060 e72c c4bf
000005c0: 187b d162 4782 c9bf af26 9e03 3846 bbbf
000005d0: e8d3 48e5 8395 c2bf 2c20 d1d5 0693 c1bf
000005e0: d520 9991 b00f b9bf 09b1 109d c857 bc3f
000005f0: 0000 0060 6e53 b5bf 0000 0000 3ac4 b8bf
00000600: 6d09 e0ed e91a a8bf d1ab f0bf a902 d0bf
00000610: 0000 00c0 d8ec bf3f 88e5 3bb6 bf2c b0bf
00000620: dcb7 33bb d4e6 b4bf 0000 00e0 e7f7 c0bf
00000630: ad14 4b42 8a32 893f d9fc 2a79 cf17 9e3f
00000640: 2c5b 5b6f 705f bfbf 5bfc 970a 602d cebf
00000650: d243 9215 af4d 73bf bf3d 5c1b 28bb af3f
00000660: 0000 00c0 9c72 b5bf b4d8 1ff1 18f2 9ebf
00000670: 6358 fec4 111f bfbf f886 a85e 9fb0 c0bf
00000680: 0dd9 17d6 b752 a03f fc3e 46ee 7fda ad3f
00000690: 0000 0000 23e9 b6bf e72c 7cdf 78e6 c6bf
000006a0: cfce 1d7d 1ffb ae3f d77d 3564 2c2f cbbf
000006b0: df5c 38f7 1e14 b33f b15e f121 186e a0bf
000006c0: ce64 7683 3cd9 dfbf 4dfb 1ffc 5c23 b3bf
000006d0: e62c 3c1f 4f5c dfbf 9b5a 1f6d 0e92 c03f
000006e0: a134 1ad9 b549 d5bf a129 c33e 3962 c0bf
000006f0: 7793 4aa5 0c56 d9bf 0d51 995a fff9 d1bf
00000700: d096 6d5f 5f2a e9bf 26ae 9d60 7743 c8bf
00000710: c326 3373 8121 98bf 0000 0020 1380 c23f
00000720: 8e79 2970 994c a03f 9936 e8ae 348b ce3f
00000730: 6279 3d36 e468 c2bf f998 1bd2 646c e7bf
00000740: f003 ffbc fe0a d13f 0000 0000 9411 74bf
00000750: cf3c b058 9427 bb3f 4813 d4bf e37b bebf
00000760: 84d3 2a05 ee4d 743f 4c01 a146 95dc 7ebf
00000770: c1d1 92d2 1cdb d6bf 46a0 5743 f631 97bf
00000780: fddf 566a a6fb c3bf c1f7 0d04 701b cfbf
00000790: b42f ece5 e042 d3bf c46e 0023 b839 dbbf
000007a0: 5a36 23b7 2424 b93f 509c 4a15 08af d3bf
000007b0: 0000 0080 24e8 c1bf 10eb 0b06 81cf b03f
000007c0: 868c 6eef 9a77 c1bf e325 bd1e cdc4 84bf
000007d0: 3228 cd9b ee34 c53f 3a84 7faf 6b11 9b3f
000007e0: 0bc6 2b90 dbf6 d6bf 7c22 aa6f 0085 bd3f
000007f0: afee e9eb e319 d5bf 0000 0060 1f29 bdbf

bias f8 [72]
0.09741657557737617 0.09696981086718812 -0.10897208313607072 -0.49817144234656824 -0.4715093800953093 -0.08651503984002114 0.5067380895325361 0.15633041177737442
-0.007429240902741023 0.52858191029829 -0.5543858234242429 -0.2747824519671075 -0.3171634443327284 -0.05988396892196906 0.23478732655683343 -0.24883121652294105
-0.49410052069100735 0.4919222712687267 0.5347093208940628 0.01596625143862753 -0.0166179895789741 0.3645125814063387 -0.11272617932628903 -0.08931526214008427
0.5838346622295577 0.2889635406392447 0.2722705334390412 0.44339228898143634 -0.08996332041966018 0.01701992510031698 -0.016229077950928747 0.5563655205567954
-0.6232925076994533 0.016235236112207698 -0.19133429002601324 -0.19028744982881146 -0.051740443892751384 -0.004078634589808345 0.13878602608271232 -0.0017583925557149197
-0.05043436345958944 -0.07510524334131498 -0.05172736142755591 -0.2800380411928248 0.11765121759702854 -0.04284639787835647 0.17780216453200465 0.3130190149315936
0.1965126017871029 0.06818323899237853 -0.12858350599481036 -0.10603755230497304 0.3136828232011648 -0.23149359432902886 -0.288327252155804 -0.028061491237464178
-0.8992612401248294 -0.13151065953294266 -0.021359244799379246 0.2378708299886441 0.359007138337839 0.033657594690127246 0.29825593791699684 0.47474790895510016
-0.10093674275808494 0.06875602927905929 -0.9951162815005677 0.15646486743128907 0.4406733613650405 0.5676013981998059 -0.1783613221611617 -0.15137934885547927
00000000: d171 31ee 4af0 b83f 7eb6 5f76 03d3 b83f
00000010: 2d15 3f2d 98e5 bbbf 8d7f 2b79 0ae2 dfbf
00000020: c20f d1ad 352d debf 6d9b b982 d925 b6bf
00000030: 9dc0 45cc 3237 e03f dd1d fa8a a202 c43f
00000040: 1ece 61ab 1f6e 7ebf a8a0 3f9c 24ea e03f
00000050: 1424 9f56 87bd e1bf a2a8 2d23 0996 d1bf
00000060: 8b54 39e7 674c d4bf c729 2690 1ca9 aebf
00000070: f0d6 89d8 820d ce3f 844f 9888 b3d9 cfbf
00000080: 137c 53ca 579f dfbf 767c d18c a77b df3f
00000090: 6067 c3b8 561c e13f a610 13ff 7459 903f
000000a0: a35e 1167 4e04 91bf 92ba 0794 2c54 d73f
000000b0: 7004 9c75 9fdb bcbf 5be2 ec71 5ddd b6bf
000000c0: 4f82 9107 c6ae e23f 060b 32ef 607e d23f
000000d0: 0040 3263 e16c d13f 9053 1e0d 8a60 dc3f
000000e0: 22c1 0a0f d607 b7bf 53b3 bed6 ab6d 913f
000000f0: 5c84 2cfc 5a9e 90bf 003b 6d10 bfcd e13f
00000100: c026 0d21 03f2 e3bf a73e 9440 f89f 903f
00000110: fdee 215b a47d c8bf 6a4f edd2 565b c8bf
00000120: 66be cc34 b97d aabf 4719 cf22 c2b4 70bf
00000130: f961 9591 bdc3 c13f 1103 4da1 3bcf 5cbf
00000140: 6599 4e6b 88d2 a9bf c9b8 e8e3 183a b3bf
00000150: f889 473b 027c aabf 06c8 23ad 24ec d1bf
00000160: eeef e9e3 631e be3f c723 478b f6ef a5bf
00000170: 1e57 e9a8 38c2 c63f b311 0ae8 8008 d43f
00000180: 9ab7 f62e 5327 c93f d78c 9bed 7474 b13f
00000190: dfbf 86a0 6c75 c0bf 4139 4ceb 4625 bbbf
000001a0: 2cd2 bd1e 6113 d43f b936 7004 95a1 cdbf
000001b0: 9880 a325 f473 d2bf 074e 91cc 26bc 9cbf
000001c0: 80b0 1c82 bfc6 ecbf 067b e25e 57d5 c0bf
000001d0: e5b9 85a7 32df 95bf 019f bc25 8d72 ce3f
000001e0: 9f42 8c13 f9f9 d63f 8888 e978 913b a13f
000001f0: 633e cc12 a016 d33f 5d9e b30d 4562 de3f
00000200: 6f59 1c89 fdd6 b9bf 6508 28c1 fe99 b13f
00000210: dd62 9819 fed7 efbf fc90 4b70 0a07 c43f
00000220: d1ff d10a fe33 dc3f 45d3 4d68 ca29 e23f
00000230: 67d9 c636 8bd4 c6bf 26e1 4f04 6660 c3bf

weight f8 [50, 72]
0.08186144351067821 0.05735730885657328 0.3857135281692976 0.07343893247772586 -0.45141692010493517 0.06388743473119743 -0.17846120538022098 0.1719380655008114
-0.07515385448681908 -0.25525270569861364 -0.15893633503210838 -0.012051983232763557 -0.10646799236839294 -0.010836825383977641 0.30057254017932034 0.04607269642868841
-0.36127444441643036 0.00289056265810005 -0.011329554570336606 0.024698870891860222 -0.08548033343307855 0.2062255165196446 0.40412958850897074 -0.05040885125553195
-0.5488238322808764 0.15267238140110348 0.19267249536949227 0.023543013188161613 -0.5089967986722487 0.008157617358739594 -0.39573494385892427 0.07566808945457609
0.2794305702812712 0.11981337807511505 -0.06382322926724833 -0.052195825513561736 -0.04143790632083972 -0.3828812918449458 0.3345778331492351 0.0027543208647104276
-0.066436498258875 0.09123238339766879 0.00405521655637556 0.297409966428356 0.05405673651667129 -0.009774712382417125 -0.26474108163288035 -0.19908507647100437
0.12755481735227597 -0.13669420867502138 -0.08531077497327547 0.04246974431413669 -0.03754348531947673 0.07215442532376197 -0.03660562935071567 -0.2638819871611914
0.2145687109395513 -0.02090655658587726 0.6810595197854257 -0.04368692474345041 0.16881948455605406 -0.06704272233931238 0.1505053146683027 0.32750488840487335
-0.44840171918734195 -0.0635913235064818 -0.043046409681113465 -0.012974591134502828 -0.20154233247154835 0.018642382141199447 -0.09201526047439258 0.044473840193597104
0.15733185498195282 -0.11141817612343156 0.39598243851696474 0.07674898406185686 -0.44475463451444125 -0.06510500074921352 -0.21586077676392823 0.15247767578492188
0.029920318272956714 -0.2758405607541897 -0.14655419869941486 0.04068764271584642 -0.10378840900110696 -0.05238278680655277 0.3115467460641329 0.09326313971270674
-0.3750439653480331 0.05953765672897297 -0.011491982602340757 -0.04526781477930309 -0.10980806817887512 0.18907926669402825 0.40088838271195965 -0.05259924269198945
-0.5372232743838454 0.1139359162046748 0.17323918421980242 0.05543345564052162 -0.46932951583574134 0.03747132228545409 -0.4047860763000303 0.0447778075651151
0.2563967780923668 0.1430760393089592 0.10769661040262989 0.023891845769757128 0.00012386225927866817 -0.39219275532131603 0.3279729952405335 0.005173316500511326
-0.0728367403334748 -0.06954983167126266 0.015512660722971883 0.2819410511376691 0.0587674925295277 -0.040481284779219376 -0.26119723309383386 -0.20732533396353447
0.12870294933895146 -0.13311590498960427 -0.02956056307796439 -0.031975724209599814 -0.059675571875397765 0.0185972978037 -0.05937559701048239 -0.24865970174520838
0.2137151529876249 0.033180571670415056 0.6735182474443493 -0.05377538502322365 0.1753534682932975 -0.0006427153778174524 0.16141788899291812 0.33242313417905645
-0.4387175499301104 -0.021060700027446828 -0.019872799399833444 -0.016608736956415092 -0.20786714496248276 -0.013386925136168895 0.02339187018146 0.042904771298396364
0.2224874355357361 -0.03379336704319486 0.3635548238075509 0.08751600512300779 -0.4305819587324297 0.06964606039828494 -0.3439417196975377 0.0667706043470517
0.01052979620588696 -0.2749610831074319 -0.11802274262332421 0.033632672718979156 -0.06707567787277725 -0.08179170017741502 0.19539237773727805 0.07014822673394404
-0.3569407657947566 0.0866642950473988 -0.09275102970893713 0.05221397933151395 -0.004580943617346253 0.22541061967193404 0.35525276501312325 -0.05399716957404093
-0.4031962153404236 0.11814615901485534 0.24115918365518194 0.04709670373849065 -0.39492866588713216 0.07255815007374557 -0.36661499196132263 -0.12871940843179455
0.10303141343133526 0.1485327409199323 0.010672123267645113 0.052922905870089784 -0.01590801904314087 -0.4075719575895174 0.3429251968900299 0.03079731222802595
0.06580812844399665 0.08024950537431785 0.01750317428553766 0.29996839696559247 -0.04167755939958998 -0.020082428931020763 -0.22251531862828336 -0.2214327056992318
0.13899916091481584 -0.20247367216345927 -0.07866281225990436 0.02077228862637284 -0.0812702756027741 0.03160784301384133 -0.13036555029050792 -0.23177586001154016
0.29255277492452686 -0.1251745584562353 0.7547558240061636 0.0077768856583657 0.1103418784596993 -0.022795911146986026 0.19945808436510803 0.30138803344989534
-0.34530724512319755 0.05202789470578619 0.05245512504546212 -0.033311577875408616 -0.21582185931972792 0.04856224077188549 0.03918504974382483 -0.025769141672144072
0.1576959718594527 -0.03921058702331325 0.37012940668141764 0.10215414879694426 -0.2844189661862666 -0.08709487405002539 -0.28205167906218287 -0.11675692325668491
-0.07024305844209301 -0.24283132117763023 -0.18039223417812947 -0.007075516925156698 0.00033062763292914654 -0.12473536488359838 0.16011545661697174 -0.16352355122962609
-0.28632095655594064 0.027314555242827897 -0.1718791933610057 0.029326139098340403 0.035612834714816875 0.1401749212307896 0.2613490744304413 0.17678781163963495
-0.1849866943710228 0.15502705021451646 0.29470197106893514 0.02519387587827162 -0.1270465552698345 -0.04942681680030692 -0.3200940026135835 -0.18835217635610157
-0.02678358830903086 0.2622864786968839 -0.058790838845668165 -0.00876745708580545 0.06314663661860885 -0.37349157222766954 0.3454922980109284 0.04278926270963596
00000000: d584 ae1e dff4 b43f bc7b 73eb ef5d ad3f
00000010: 8029 47cb 87af d83f 53b7 3ed5 e4cc b23f
00000020: 2c8d 2dcb 03e4 dcbf 5abb cb4a ed5a b03f
00000030: a63c 5b18 d1d7 c6bf 11ba 2108 1102 c63f
00000040: 6e71 3073 483d b3bf 4d3a cc71 0f56 d0bf
00000050: ddf3 8d9c 0658 c4bf b67a b1ce b5ae 88bf
00000060: b403 4b81 7c41 bbbf 6be4 ee14 9e31 86bf
00000070: 3a55 899b 943c d33f 63ac cc28 d796 a73f
00000080: 7b8b e9d8 1e1f d7bf e9ac ac02 f3ad 673f
00000090: d2dc dc12 f333 87bf 6c27 ea2a a94a 993f
000000a0: e5d6 8b04 0ae2 b5bf fcba 8604 9965 ca3f
000000b0: 627c 7f59 42dd d93f 8e93 245f 30cf a9bf
000000c0: 152d 5dff f68f e1bf ff61 8fc2 c48a c33f
000000d0: e8af 3909 7ea9 c83f d411 c5de a81b 983f
000000e0: b51c 82a7 b349 e0bf 5d0d 27de f0b4 803f
000000f0: de8a 70a8 b853 d9bf a4e6 8ee1 fb5e b33f
00000100: 8915 37c2 30e2 d13f 08b6 74ec 16ac be3f
00000110: 958d 6d1a b856 b0bf 820e 2347 69b9 aabf
00000120: 69e9 ec68 5937 a5bf 805a ae88 2081 d8bf
00000130: adeb d524 b969 d53f 5401 2cc1 3a90 663f
00000140: 615a 487b fb01 b1bf 7674 0767 015b b73f
00000150: a327 cee7 339c 703f 9f1c d4cf c308 d33f
00000160: 3d68 ef16 53ad ab3f c511 15b0 c304 84bf
00000170: 3856 e193 84f1 d0bf 9045 48aa 9e7b c9bf
00000180: eed5 7c5c b753 c03f 99e9 e721 327f c1bf
00000190: bab2 814c edd6 b5bf 4822 cc25 98be a53f
000001a0: 2301 4053 e638 a3bf abf8 0661 b678 b23f
000001b0: 3357 d219 f9bd a2bf 7e17 3746 71e3 d0bf
000001c0: d778 1dce fc76 cb3f 41b7 3b43 8768 95bf
000001d0: a873 8355 3dcb e53f c565 12f2 215e a6bf
000001e0: 2244 8c7a e09b c53f eed4 e13b b629 b1bf
000001f0: 3af1 2f16 c243 c33f eea8 3e10 d7f5 d43f
00000200: cc4e d81f 9db2 dcbf c20a c55e 8547 b0bf
00000210: 8ac9 94d3 2d0a a6bf bd33 d024 6c92 8abf
00000220: 2ec8 5c9f 23cc c9bf 0ec5 7616 fd16 933f
00000230: 996e 78e6 4f8e b7bf 5d6c 5172 46c5 a63f
00000240: bd1c e241 7323 c43f ab4e a1ce e685 bcbf
00000250: db1f ceb9 c657 d93f ab01 8c48 d2a5 b33f
00000260: 2bf9 7e24 dc76 dcbf 1e20 06a9 b8aa b0bf
00000270: 6859 5870 53a1 cbbf ece3 6e73 6384 c33f
00000280: a07f df91 6ea3 9e3f f65e d62a 5fa7 d1bf
00000290: 53b3 40b9 49c2 c2bf babc a1bd 02d5 a43f
000002a0: 9f16 5d8e e091 babf 663b 6aa8 ead1 aabf
000002b0: 9e52 61c3 61f0 d33f c904 fdd6 17e0 b73f
000002c0: 6cd8 6e67 b800 d8bf 6515 1041 b87b ae3f
000002d0: 07c9 8bcb 1b89 87bf 41b5 13d0 572d a7bf
000002e0: 004b aaad 611c bcbf c2b8 66d9 bf33 c83f
000002f0: 5907 46bf 27a8 d93f bf1b 50b6 49ee aabf
00000300: e81d 44dd ee30 e1bf 185a f079 e72a bd3f
00000310: f70c 4e9b b32c c63f 031e 291e c661 ac3f
00000320: 30f8 63aa 7e09 debf 5aff 81ef 702f a33f
00000330: 366d e5db 03e8 d9bf 0552 28e6 1ded a63f
00000340: 0b37 2d08 ce68 d03f 192b d6ce 5050 c23f
00000350: d7c0 914b 0192 bb3f e483 e3a0 1a77 983f
00000360: b095 a3b4 203c 203f dc52 75a4 af19 d9bf
00000370: 51df 2172 82fd d43f 72a4 e792 9d30 753f
00000380: ebf4 adb9 6da5 b2bf b46a 788c 04ce b1bf
00000390: 8d36 d513 1ac5 8f3f 5250 827a 520b d23f
000003a0: ebe8 f6d4 c516 ae3f 6a20 7484 f6b9 a4bf
000003b0: ab65 7c99 74b7 d0bf 6cb9 80f4 a289 cabf
000003c0: 0d9f 2797 5679 c03f 61ff 4025 f109 c1bf
000003d0: 9e4f afce 1f45 9ebf ef06 7e43 1f5f a0bf
000003e0: 545d 26eb cb8d aebf 5e86 7187 2b0b 933f
000003f0: a755 ae6e 7a66 aebf 9915 6ac3 14d4 cfbf
00000400: 00e9 5ea4 045b cb3f a9c0 5f3c 0bfd a03f
00000410: 020c c123 768d e53f df54 0280 7288 abbf
00000420: 56aa c781 fb71 c63f bb5f a1c3 7c0f 45bf
00000430: 7162 1b65 57a9 c43f 4ce7 6eae 6b46 d53f
00000440: 7963 48c6 f213 dcbf d51e 65a7 ef90 95bf
00000450: a14e 02fe 8859 94bf 6601 3978 e101 91bf
00000460: b26c c3fe 639b cabf 7b13 3bad 9a6a 8bbf
00000470: 91c4 afd5 09f4 973f 4750 233b 9df7 a53f
00000480: 73cd b2e1 777a cc3f d963 8b3c 5d4d a1bf
00000490: 429d a373 7b44 d73f 4540 e1eb 7267 b63f
000004a0: d337 c0a1 a78e dbbf 32b4 b4ff 52d4 b13f
000004b0: d92d 7521 2403 d6bf ce36 01da e017 b13f
000004c0: e3df b352 a590 853f 49a0 e75e f698 d1bf
000004d0: ee5b c00b bd36 bebf 8c67 cf3a 4d38 a13f
000004e0: 7113 d222 df2b b1bf daa2 5805 4df0 b4bf
000004f0: 0578 2210 9e02 c93f b7d6 b1f3 3bf5 b13f
00000500: b5a6 ec14 1ed8 d6bf ff9f f598 a12f b63f
00000510: 712c 450f 88be b7bf 20e9 3e6b cabb aa3f
00000520: d655 57b0 77c3 72bf 16be d453 41da cc3f
00000530: 41e0 e217 76bc d63f 074d cb5a 84a5 abbf
00000540: 9884 b07f f7cd d9bf dee7 1da1 d33e be3f
00000550: 93eb 76db 4dde ce3f a4c8 9c24 0f1d a83f
00000560: be3d 0fe2 8246 d9bf d1ff 9fc1 2b93 b23f
00000570: a89e 2cba 9e76 d7bf 659a c9a8 e079 c0bf
00000580: 10f3 2547 4460 ba3f ec73 51f0 1e03 c33f
00000590: 44ad 4e23 44db 853f 86b7 d70b b618 ab3f
000005a0: fe42 2316 314a 90bf 7946 27b1 a815 dabf
000005b0: 937d 6786 7cf2 d53f 9fd9 4ba3 5489 9f3f
000005c0: d159 7a2f cdd8 b03f c855 1a49 3b8b b43f
000005d0: 10c1 8724 5aec 913f bd3f b3a5 ae32 d33f
000005e0: 2559 32d5 c256 a5bf e591 eefd 7c90 94bf
000005f0: 210a 2fc8 617b ccbf 681a 9f2a e857 ccbf
00000600: 4279 2679 b9ca c13f 591d 1f44 a8ea c9bf
00000610: 4953 11fe 3e23 b4bf 47dd 40b1 5445 953f
00000620: 6fcf d9f7 20ce b4bf 1e46 1538 e72e a03f
00000630: 49ea 827f d1af c0bf 443c 60d5 d4aa cdbf
00000640: bfe9 2946 2fb9 d23f bd2d 6e4d b805 c0bf
00000650: dc4d 92af f526 e83f b91e 14d9 a7da 7f3f
00000660: e515 5d87 5d3f bc3f 4d70 6fb3 cf57 97bf
00000670: 6cae a2ae d787 c93f edac c408 f149 d33f
00000680: 3410 388f 8319 d6bf 436f 7b74 66a3 aa3f
00000690: ffdb 27ed 65db aa3f b027 1b13 370e a1bf
000006a0: 7223 c5f9 0ca0 cbbf 7a17 df67 26dd a83f
000006b0: fba1 4816 1010 a43f 6451 e9d2 3963 9abf
000006c0: db73 ecb0 612f c43f 7f1c d8f9 6813 a4bf
000006d0: 3d03 3f40 33b0 d73f c6cc 3b38 c626 ba3f
000006e0: 1075 889b eb33 d2bf 6ab0 b183 d94b b6bf
000006f0: 56a7 567c 220d d2bf 3c13 f81e c8e3 bdbf
00000700: 61a1 c7f6 72fb b1bf a681 73c3 1815 cfbf
00000710: 19ac 1fbd 1717 c7bf 58c5 bb9c 37fb 7cbf
00000720: 7fa1 dede 02ab 353f 0866 d428 a8ee bfbf
00000730: 1683 e0cc a97e c43f 6219 54f8 56ee c4bf
00000740: 094d 2422 1553 d2bf a313 e4c5 58f8 9b3f
00000750: b697 2c2d 2300 c6bf 4b9b 61e1 ab07 9e3f
00000760: 0b03 d670 d83b a23f 45eb 3377 40f1 c13f
00000770: fe30 e177 f1b9 d03f 0b6d a9a6 fba0 c63f
00000780: 7164 42dd a4ad c7bf 5c56 5527 edd7 c33f
00000790: 3cb3 f3a7 65dc d23f a69e d363 6ccc 993f
000007a0: de08 fabf 0f43 c0bf 81c8 67c3 784e a9bf
000007b0: c5bf 378e 6b7c d4bf 8839 ca92 ec1b c8bf
000007c0: 0a61 6d2f 286d 9bbf 57e9 0b3a 4dc9 d03f
000007d0: c108 4b34 d519 aebf 1ff6 9e2b acf4 81bf
000007e0: 2f1b 21c3 602a b03f 652a 0332 49e7 d7bf
000007f0: 4684 3eba 8b1c d63f d969 ea67 79e8 a53f

bias f8 [50]
0.3549651337767062 0.32514697096870243 0.2082540831467093 0.07039253891920502 -0.0892983181235015 -0.21907646666788744 -0.3499951358704267 -0.34750226449480437
-0.42260206914479537 -0.45808399694942714 -0.4928743776549725 -0.5141319583353195 -0.535437437066032 -0.5609276810603938 -0.5641780297772556 -0.6146483481878212
-0.6049475509341015 -0.6211314697556698 -0.5455084223928418 -0.6050031336962397 -0.6300049513547398 -0.6171666053909256 -0.6092643701960507 -0.6366351533785984
-0.6282722125061465 -0.6868034123770723 -0.6319845018540075 -0.6885468909739717 -0.6882622731046713 -0.6391436403087247 -0.699039591174046 -0.7007369837343459
-0.7586889513861913 -0.7505680236310288 -0.6979678150263645 -0.7532918032455531 -0.7410320735577628 -0.7246893242985638 -0.6887161867007926 -0.758846727222283
-0.8035257147473173 -0.7892252690116762 -0.8142953043391442 -0.719655453742671 -0.7841670616275388 -0.6782959798721121 -0.7483206629271613 -0.8058649879486685
-0.7531443498508564 -0.8011304931568578
00000000: 51a3 32ae bfb7 d63f f70e ad3d 35cf d43f
00000010: 82d1 2fde 11a8 ca3f 2e57 8ad4 3e05 b23f
00000020: 56a1 ed2b 41dc b6bf 36b6 d499 b20a ccbf
00000030: cfa4 94ff 5166 d6bf d2a1 5223 7a3d d6bf
00000040: 94b9 8c8c e90b dbbf 0e00 6e8a 3f51 ddbf
00000050: 1d20 44f9 408b dfbf c11d 5cdd c473 e0bf
00000060: d615 28b1 4d22 e1bf 946a b29b 1ef3 e1bf
00000070: 1a7b 6015 bf0d e2bf 453a 4003 33ab e3bf
00000080: 13d5 61f7 ba5b e3bf 96be a31a 4fe0 e3bf
00000090: 7bd5 3b14 ce74 e1bf df7d 2688 2f5c e3bf
000000a0: ab5f cc24 0029 e4bf adcb 4a2e d4bf e3bf
000000b0: bc85 13fe 177f e3bf 3dd7 67af 505f e4bf
000000c0: fd61 b653 ce1a e4bf 701a 5e26 4bfa e5bf
000000d0: 8956 e18f 3739 e4bf a9dc 4f7d 9308 e6bf
000000e0: 10c4 419a 3e06 e6bf c650 125d dd73 e4bf
000000f0: a374 d646 885e e6bf 0b93 87f7 6f6c e6bf
00000100: 8749 410d 2e47 e8bf 5e65 5d3b a704 e8bf
00000110: ad5c 6699 c055 e6bf c41a 6969 f71a e8bf
00000120: 0df7 26e5 88b6 e7bf e9ec 73aa a730 e7bf
00000130: 2d62 4387 f609 e6bf 3415 83ee 7848 e8bf
00000140: 4bb6 4a8f 7bb6 e9bf 599f f259 5541 e9bf
00000150: 2589 ad06 b50e eabf 5dcf c6df 6a07 e7bf
00000160: 614d 8985 e517 e9bf 4be3 51c5 99b4 e5bf
00000170: ac2e c62c 3ef2 e7bf 1164 075f a5c9 e9bf
00000180: ffd9 f82d c219 e8bf 5dfc 7d6a dca2 e9bf
