Sphere/NeuralNetworks/models/net_gridded29.pt (torch_old, 56564 bytes, 6 tensors)

weight f8 [36, 6]
0	0x3fb717cc80000000	0.09020689129829407
1	0xbfc1482a40000000	-0.13501480221748352
2	0x3fd2b2dc00000000	0.29216670989990234
3	0x3fb6c7b080000000	0.08898451924324036
4	0x3fcde40e00000000	0.2335221767425537
5	0x3fc093e780000000	0.129513680934906
6	0xbfa710329f735da1	-0.04504545399111782
7	0x3fa9325ebc5dc893	0.04921241807359524
8	0xbfcdf8196eb5994a	-0.23413389116030664
9	0xbfb90ad99765c753	-0.09782180734853556
10	0xbfc7794764c7977c	-0.1833886377418671
11	0x3fb4b39c0788f320	0.080865623321142
12	0xbfc97a97c403af56	-0.19905373641028729
13	0x3fdbbdadbf0b827c	0.4334520688699184
14	0xbfcfcc3bf60505bd	-0.2484202338473959
15	0x3fc7c295d76bbb30	0.18562577265353175
16	0xbfd625e5417cd284	-0.3460629596259326
17	0xbfcee61de047055d	-0.24139760447546169
18	0xbfc31923ef879431	-0.14920472331792348
19	0x3fddf0799499edf3	0.46780242454380455
20	0xbfc16de74587b2b6	-0.13616648573897344
21	0x3fa0f90c273978dd	0.03315008143248275
22	0x3f969fe93671dead	0.022094387004897232
23	0xbf5c56d1497c1cb4	-0.0017296832865570213
24	0xbfa11bed2c21b94f	-0.03341618694035963
25	0x3fd00edede6f4ab6	0.25090762827054947
26	0x3fd30628c5f1f179	0.2972509320313957
27	0xbfd5f72d62db983c	-0.3432115044983026
28	0xbfd41a5ef4b4ac18	-0.31410955330892554
29	0x3fbb039e648d66bf	0.10552396731273016
30	0xbfdc34aa028cc087	-0.4407143616581454
31	0xbfd398277b8464b4	-0.3061617571089059
32	0x3fcfe8ce42e49461	0.2492921663880763
33	0x3fc98594c6a47e6b	0.19938907336562592
34	0x3fd8d7c37fd4584f	0.38816916926714823
35	0x3fd13fee1f2162ca	0.26952698745803316
36	0x3fa0ed14ab3d79df	0.03305878248533011
37	0x3fdd998d699c3ef2	0.46249709428319286
38	0x3fb0a95f47148f0d	0.06508441434248997
39	0xbfad479f13ef2b6c	-0.05718705290163126
40	0xbfd099fbcfc60c8c	-0.25939841547387554
41	0xbfc6f52f4b8114d7	-0.17935744463662814
42	0xbfb8c94af399348b	-0.09682148406246165
43	0xbfd887a4d564f2ff	-0.3832790454796821
44	0x3fc3e78817ef3b7c	0.15550328415562464
45	0x3fd2ea5f91077e21	0.2955550113965462
46	0xbfdc53b3cad0d977	-0.4426087837813592
47	0x3fc990ec35420f68	0.19973518944254498
48	0xbfccfeb0e9f81fc9	-0.2265225546291261
49	0x3fa01272052fd91b	0.03139072717015009
50	0xbfa1354ac10d9ff6	-0.033609710756365915
51	0x3fde836382a24ade	0.47676933057043225
52	0x3fb72ca13e111773	0.09052474751760346
53	0xbfd4b0474758d56e	-0.32325918166619416
54	0xbfd7c43f1abf65bc	-0.37135293590617
55	0x3fa9bb53f775ebc8	0.05025732417831069
56	0x3fd589518c7eecb7	0.3365062591580669
57	0x3fc1219e362b3529	0.1338384403701778
58	0x3fb0f6aa59a7ac47	0.06626381577341177
59	0xbfc88898a69abf3c	-0.19166858801826858
60	0xbfe149d6b8310e7d	-0.5402635190479966
61	0xbfcabbdb0bf59038	-0.20885789951273792
62	0x3fc08d7a6b6c6a5c	0.12931757207191452
63	0xbfd46f63d6d84ec7	-0.31929870587303494
64	0x3fc0e1c7e497649f	0.13189028417290147
65	0x3fd7b50375172812	0.3704231875859715
66	0x3fac3c145b261a43	0.05514587032944409
67	0x3fc71e86aafabba8	0.18061908100704938
68	0xbfc0493c08cf346f	-0.12723493986269171
69	0x3fbae76abf5696f2	0.10509364291518944
70	0xbfc6a6ef7b1f964c	-0.17696946632274757
71	0x3fce64292ec6f28b	0.23743166717567407
72	0xbfdd3536be52a165	-0.4563729151364185
73	0xbfbd75b332057189	-0.11507720919821031
74	0xbfc5b8a994b4bd04	-0.16969794999156573
75	0x3fb4f07fbe820302	0.08179472352095377
76	0x3fdaa6107e7754f2	0.41638576841553665
77	0xbfc06d28f060c072	-0.12833129632190637
78	0x3fd37d1e6f7687de	0.3045116508966411
79	0xbfc1d3cb840bab5e	-0.13927596995867025
80	0x3fce128cceee28db	0.23494110206622207
81	0xbfd648bdc3400be1	-0.3481897742023517
82	0xbfbbd3cdc2670194	-0.10870061870719488
83	0x3fa678079e647222	0.04388450439930504
84	0xbfbb232c00000000	-0.10600543022155762
85	0x3fc5d40700000000	0.17053306102752686
86	0xbfd4dec180000000	-0.32609593868255615
87	0xbfaef73300000000	-0.06047973036766052
88	0x3fd8fe97c0000000	0.39053910970687866
89	0x3fc6ca2c00000000	0.17804479598999023
90	0xbfa3cef80042cc75	-0.03868842127976616
91	0xbfd960a217bfcdcf	-0.39652302092801234
92	0xbfc6e25ed02aff49	-0.178783275265227
93	0xbfd7d1da5c11193d	-0.3721834086503753
94	0x3f99a88197465277	0.025056862695765205
95	0xbfdacb9d0f52b3ef	-0.41867758270637884
96	0xbfd9234118a9b098	-0.39277675064546136
97	0x3fd359596571de33	0.3023284426376193
98	0x3fd7e98880b6a7e9	0.37362873620679565
99	0x3fa47a9c932ca260	0.03999795242845461
100	0x3f835efe744c38e4	0.00945853035366579
101	0xbfca9f38cfe6ee1c	-0.20798406745403575
102	0xbf7d874282ac3668	-0.007209071928412671
103	0x3fc94af240e4cafa	0.1975996796478155
104	0xbfdbc00a724ead0a	-0.4335962406427859
105	0xbfd8447a3f4398d0	-0.37917953661088877
106	0xbfcc7c5644234df4	-0.22254446341558742
107	0x3fd2a31f58882863	0.29120620389642776
108	0xbfc457986d883dfb	-0.15892320011379
109	0x3fb786f8ea852cac	0.09190326428977141
110	0x3fc1b41be3121add	0.13830898845136277
111	0xbfc49d8778c0d0d1	-0.16105740924979853
112	0x3fdbefc2bd3b66bd	0.43650883178416305
113	0xbfcbdc37ba3d6098	-0.21765801042306943
114	0x3fc30c4200000000	0.14881157875061035
115	0x3fc0d0b680000000	0.13136941194534302
116	0xbf98aa5000000000	-0.024087190628051758
117	0x3fb265a880000000	0.07186368107795715
118	0x3fd55198c0000000	0.33310526609420776
119	0x3fd2bed000000000	0.2928962707519531
120	0x3fb564c2468ef308	0.08356870863549315
121	0x3fdaa5ab9e1f0ae1	0.4163617176201751
122	0xbfd48b0f032d97ba	-0.32098746595726946
123	0xbfcff5e973533286	-0.24969213610747348
124	0x3fc3589cb61ae73e	0.151141728323461
125	0x3fc56198ccf7286f	0.167040920334617
126	0x3fd1f63d40000000	0.28065425157546997
127	0xbfca4fb3a0000000	-0.20555730164051056
128	0xbfc95087c0000000	-0.19777008891105652
129	0x3fd9f70e00000000	0.4057040214538574
130	0x3f8c572800000000	0.013838112354278564
131	0x3fd9f06040000000	0.4052963852882385
132	0x3fa020805b7b98ca	0.03149796597226524
133	0xbfd2ced0249d8db5	-0.29387286735274226
134	0x3fb08c9c798ab10e	0.06464555709198214
135	0xbfcfb58a0d3e8a05	-0.24772763868993777
136	0xbfd45d6f3e54cb4b	-0.3182027920440091
137	0x3faf5300de8cd68a	0.06118014065434092
138	0xbfdd1a407d3685ff	-0.4547272894652394
139	0xbfdfa904e484cb66	-0.4946911079052171
140	0x3fb031be73b893c2	0.06325903248996581
141	0x3fe3ced998cd5799	0.6190002426544537
142	0xbfa387c17baece16	-0.03814510950851628
143	0x3fd7b4c5c8715e9b	0.37040848326203396
144	0xbfdadd316b8ce83a	-0.41975055220575863
145	0xbfb48d381d9090d3	-0.08027983400149034
146	0x3fd20281938fc7de	0.2814029637366938
147	0x3fc5a8e72f7cbd8c	0.16921701258386823
148	0xbfcffbf41a08c568	-0.24987651129917343
149	0x3fc87a7c859ea411	0.1912379887046716
150	0xbf94170fe0f307c3	-0.019619224648302024
151	0x3fd315316f082f50	0.29816852419820794
152	0xbfd6acb0f774e1dd	-0.35429023900681306
153	0x3fd4faf5ae3f5e9c	0.327817363895045
154	0xbfd2fa0910ee4870	-0.29651095059774146
155	0x3fc2b5cbf512fcbc	0.1461729952479568
156	0x3fd970b0c0000000	0.3975030779838562
157	0xbfc6f4b020000000	-0.17934228479862213
158	0xbfd49c1bc0000000	-0.32202810049057007
159	0x3fd7b76480000000	0.3705683946609497
160	0x3fd4586e00000000	0.31789731979370117
161	0x3fa3fe8400000000	0.039051175117492676
162	0x3fdd44076e695f7c	0.4572771623838816
163	0xbfd4f094ebdd8416	-0.32718394311638244
164	0x3fd1aa9e33aa153d	0.27603869481420756
165	0x3fd0b6af335352b0	0.2611501694894214
166	0x3f78674307a62c7f	0.005957853160349135
167	0xbfd9ca3ee27050c3	-0.4029690944019075
168	0x3fd425bc40000000	0.31480318307876587
169	0x3fcb1ae180000000	0.2117578387260437
170	0x3fc63da300000000	0.17375600337982178
171	0xbfb284f180000000	-0.07234105467796326
172	0x3fc670e400000000	0.17532014846801758
173	0x3faf910000000000	0.06165313720703125
174	0x3fd9d5b60032b4ae	0.40366888064711304
175	0xbfd6788a971c2502	-0.3511072612460141
176	0xbfd63da4e86ce6a1	-0.3475124616412391
177	0x3fd974b65a6afd31	0.397748554514652
178	0xbfc63ffb6dd69099	-0.17382758010092372
179	0x3fd6586053e14ca7	0.34914406005300197
180	0xbfb97460050eade6	-0.09943199275465239
181	0x3fbf48be3ec28f91	0.12220372230745925
182	0xbfbbd64a5b8c1bc0	-0.1087385629181048
183	0x3fdce925a4a7c938	0.45173016624098095
184	0xbfca9fe07c5c426e	-0.20800405571255304
185	0xbfb8f7e0b0b5e1c6	-0.09753231348248112
186	0xbfb3023780000000	-0.07425257563591003
187	0xbfc18983c0000000	-0.13700911402702332
188	0x3fd5d24880000000	0.34095966815948486
189	0x3fd6b83800000000	0.3549938201904297
190	0x3fcdf37080000000	0.23399168252944946
191	0x3fd789c000000000	0.3677825927734375
192	0x3fc1ba8f00000000	0.13850581645965576
193	0x3fd6437180000000	0.347866415977478
194	0x3fd4243d80000000	0.31471192836761475
195	0xbfc727c860000000	-0.18090157210826874
196	0x3fd4ba0280000000	0.32385313510894775
197	0x3fca46cc00000000	0.20528554916381836
198	0x3fd56871a113d503	0.33449974756452167
199	0x3fccb2f22ea6e65c	0.22421099927832955
200	0xbfe1485b82831701	-0.5400826977790701
201	0xbfc10f25a8fef830	-0.13327475311047143
202	0x3fcb70711a3987a6	0.21436895161155894
203	0xbfcd3115577aa72b	-0.22806040545884207
204	0x3fc7392c111aed6a	0.18143225512708777
205	0xbfd396c6841606b1	-0.3060776033308726
206	0xbfa149f478f55677	-0.03376735664884916
207	0x3fd8c832e410d6ea	0.38721916458176386
208	0x3fb6137ae5e82903	0.08623474228821597
209	0xbfcdc9a4373b00fe	-0.23271610924530955
210	0x3fa4d2d056ed1c8e	0.04067088185416266
211	0x3fd1605dd31fc02e	0.27150674455242807
212	0x3fdc6ff1811284f0	0.4443324814292984
213	0x3fcc72edeb67813a	0.22225736612655017
214	0xbfd08f5d472dedc9	-0.2587502665625974
215	0xbfd3c9c8f3a82eca	-0.3091909770453013

bias f8 [36]
0	0x3fd1b7af00000000	0.2768361568450928
1	0xbff190a15e244236	-1.097810142269862
2	0xbfd3e947a81fd956	-0.3111132757034246
3	0x3fdbb36d9f67e2c9	0.43282642905209606
4	0x3fb67e2005c8c0e6	0.08786201611724528
5	0x3fd806ac23b8a60d	0.3754072522011434
6	0xbfef6d160e696438	-0.9820661813238365
7	0xbfcc64b63bcc7dff	-0.2218234817491833
8	0xbfe48c1718779258	-0.6421008565781205
9	0x3fa0c37a36b4b517	0.03274137418552863
10	0xbfbfe287aff28431	-0.12455032392109967
11	0xbfc2f4637e7e76c9	-0.1480831496855244
12	0xbfe4aa7fc1eef622	-0.645812872673279
13	0x3fddf9141571cabc	0.46832754224957873
14	0xbfd38699e0000000	-0.30509039759635925
15	0x3fc14c7b003603f3	0.13514649877836823
16	0x3fd615dc0ade6753	0.3450842004909777
17	0xbfda258cf61696f2	-0.40854190856985817
18	0x3fc11ee04dd0e64f	0.13375476646051473
19	0xbf9f660e00000000	-0.030662745237350464
20	0x3ff098a6361fcb61	1.0372678865648697
21	0xbfb1d0ad00000000	-0.06959038972854614
22	0xbfcffb9144367c73	-0.2498647292204371
23	0x3f81195a4c86667c	0.008349137745244699
24	0xbfd5e777409059d6	-0.34225255303445346
25	0x3f9ffdc00cf7601d	0.03124141768589094
26	0xbfd2715560000000	-0.2881673276424408
27	0x3fc6d2582ae00ee2	0.1782942017890639
28	0xbfd24c2880000000	-0.2858983278274536
29	0xbfd04c0a0a995bf5	-0.2546410659319343
30	0x3fd14c38800539a7	0.2702771425437284
31	0xbfb3bb7a00000000	-0.0770794153213501
32	0xbfc64091c0000000	-0.17384549975395203
33	0xbfe5c7380fc89021	-0.6805687244673245
34	0x3fe4366137f6c405	0.6316381543202857
35	0xbfc1a3124e19eb33	-0.13778904737031325

weight f8 [72, 36]
0	0xbfa73be600000000	-0.04537886381149292
1	0xbfbca549670e6e51	-0.11189707532906225
2	0x3fbaf66d8abf52dd	0.10532269132029222
3	0xbfbfd1461fbd766c	-0.12428701662926195
4	0xbfa85e41387325ed	-0.04759410680851404
5	0xbfbc78d700000000	-0.11121886968612671
6	0x3fbbd107e3357ee4	0.10865830704778606
7	0x3fc2298d16fc946d	0.14189303991693994
8	0x3fbd9ac1018c5e8a	0.11564260757256242
9	0xbf9ebcc9cb736c67	-0.030017045061736882
10	0xbfa8af92ed0c3ca0	-0.048214522778033286
11	0xbfb82f9c60000000	-0.09447648376226425
12	0xbfb82914ca18ee4c	-0.0943768494989225
13	0xbfa90ceded746c56	-0.04892676852815529
14	0xbfbd2e7bc0000000	-0.11399053037166595
15	0xbfc221eac023c9d3	-0.14166006452394572
16	0xbf9d147da005cb3e	-0.02839847840500486
17	0x3fa3cfb06631982d	0.03869391677362475
18	0x3fa6f16981958719	0.04481057841145581
19	0x3fb9775d40000000	0.0994776040315628
20	0xbf97ee633766ea9d	-0.023370313888998785
21	0xbfb4dac5c0000000	-0.08146320283412933
22	0xbfb0a2886ed73bd6	-0.0649800558669392
23	0xbfa4947580000000	-0.040195152163505554
24	0x3faa1d2044c9769d	0.05100346412357946
25	0xbfa61ac900b4e7d1	-0.04317310460687874
26	0x3fb0096c00000000	0.06264376640319824
27	0x3fb02c36a416e419	0.06317464357461268
28	0xbfb94d4f60000000	-0.09883590787649155
29	0xbfa8c54780000000	-0.04838012158870697
30	0xbfc0cb51b92f3206	-0.1312048105450147
31	0xbfbdbbea60000000	-0.11614861339330673
32	0xbfb8e23fc0000000	-0.09720228612422943
33	0xbfc7396dfc8790cf	-0.18144011335892293
34	0xbfb4275ad507c77e	-0.07872550679146958
35	0x3fa0aa40f4a7b850	0.03254893290055405
36	0x3fa8a2fd80000000	0.04811851680278778
37	0xbfc7fc0c1ac2b75a	-0.18737937266035481
38	0xbfc0164fc58df233	-0.12568089624609655
39	0xbfb07cb1ec63fda0	-0.06440269490484818
40	0xbfb752db7fdb52b8	-0.09110805388929577
41	0xbfb9e473ba3a70ab	-0.10114215180004986
42	0xbfb2e87612a66ac4	-0.07385957675289051
43	0x3fbcdba7fd76ea81	0.11272668779467133
44	0x3fb5d2e2149d5d1f	0.08524907115257861
45	0x3fbf88fbcc5c7d6a	0.123183953659909
46	0xbfb7018cf0dab6c3	-0.08986740951760468
47	0xbfc4157580000000	-0.15690487623214722
48	0x3f9c139c57736185	0.027418558919494202
49	0xbfc0e6903aa88f71	-0.1320362364214094
50	0x3fa2b1aa80000000	0.03651173412799835
51	0xbf92e0ab7cfb1101	-0.018435172560899996
52	0xbfc1d08acd077b63	-0.13917670260613155
53	0xbfc85ccbafbb26b7	-0.1903318985044302
54	0x3faa308267df9c0d	0.05115134733187441
55	0x3fb2050040000000	0.0703888088464737
56	0xbfb0840700000000	-0.06451457738876343
57	0x3f97b5c900000000	0.02315439283847809
58	0xbfa54b774ba211e9	-0.04159138487105791
59	0xbfc6d9e4c3fbe44d	-0.17852458543328212
60	0xbfab460640f573e0	-0.05326861899332136
61	0x3fa1968e616d291e	0.03435177745139327
62	0xbfc04a9280000000	-0.1272757649421692
63	0xbfb40bad9fe1e047	-0.07830319550873908
64	0xbfa0069a80000000	-0.0313003808259964
65	0x3fb9f79ec0000000	0.1014346331357956
66	0xbfc2c7b09b270815	-0.14671905113033348
67	0xbfc430f9c0000000	-0.1577446162700653
68	0xbfb5525c60000000	-0.08328797668218613
69	0x3fb3868e85db5051	0.07627192275987339
70	0x3fb224035a7ded84	0.07086201628947292
71	0xbfba27018b40d852	-0.10215768480051793
72	0x3fb042a040000000	0.06351663172245026
73	0x3fb5aff67bbbfea6	0.08471622963770162
74	0x3faf62222ef88c00	0.06129557441115452
75	0xbfe2627c021b910a	-0.5745220223584806
76	0xbfb57e7b91007456	-0.08396122255403901
77	0x3fc171b6b80ba041	0.13628276812164766
78	0xbf9027dc8cfe75e0	-0.015777059655752157
79	0x3fc91bddf79a4827	0.19616293516134073
80	0xbfc91ed8fb347a98	-0.1962538935267346
81	0xbfb1697fc0e46835	-0.06801603755266757
82	0xbfcaec1e3b1a3437	-0.2103307522378672
83	0x3faa109c06ab6406	0.050907970251223886
84	0xbfc8a2a857406f4d	-0.1924639154466327
85	0xbfc7ac2b22344e7a	-0.1849416653645795
86	0x3fc4c7d0a0000000	0.16234786808490753
87	0x3fc29870821761e1	0.14527708389392927
88	0xbfcb3441fe99a11b	-0.21253228122373788
89	0x3fc8f62d1ec7f94e	0.1950127029703687
90	0xbfa9f3b5874dc36d	-0.05068747784287706
91	0x3fc2196820000000	0.14140035212039948
92	0xbfd68c7a178615e1	-0.3523240308498697
93	0x3fb3f05140000000	0.077885702252388
94	0xbfa8aa57f738ba70	-0.04817461865274175
95	0xbfae8ccd5925b770	-0.05966798508857962
96	0x3fc03a4d7497fd9e	0.1267792529397242
97	0xbfc399ee5c13cf9c	-0.15313510414091247
98	0xbfa9ffd6c0000000	-0.05078002065420151
99	0xbfd82dc75a86c53c	-0.37779411163781496
100	0x3fa2978780000000	0.03631232678890228
101	0xbfbfd3f17a569b1c	-0.1243277476956845
102	0xbfd1241d8e6329e5	-0.2678293123723548
103	0x3fabb9f600000000	0.05415314435958862
104	0xbfb2c60060000000	-0.07333376258611679
105	0xbfd025d5a59d92b1	-0.2523092381800707
106	0xbf8b5687041a17fa	-0.013348631680184287
107	0xbfbc0c2760d730da	-0.10956045259735295
108	0xbfb88f2860000000	-0.0959344133734703
109	0xbfd22c45bd1b743d	-0.2839521738768019
110	0xbfa5f61715bde6b8	-0.042893144039181264
111	0x3fcc334e61724ed1	0.22031574018602965
112	0x3fb57d1dd279506c	0.08394037617228073
113	0xbfb78bedf87a446d	-0.09197890583370034
114	0xbfdc7917a4283dc3	-0.4448908904168684
115	0xbfc39bb22e63b769	-0.1531889654647174
116	0xbfe48e3f942cabfb	-0.642364301112479
117	0xbfc9c2aa6abc1f87	-0.2012532254377641
118	0xbf8453186a4e86a8	-0.009924116844391165
119	0xbfbb608ac0000000	-0.10694186389446259
120	0x3fd1eef4af9e988c	0.2802097048792198
121	0x3fc6d541ff43afa7	0.17838311161119444
122	0x3f9bfbd400000000	0.02732783555984497
123	0x3fb2f4b77fda421c	0.07404658194924035
124	0x3fc380c02e117430	0.15236665963576135
125	0xbfadf3c85375fa2f	-0.058500538051692856
126	0xbfc85d98108720e8	-0.1903562622740147
127	0x3fa9d20980000000	0.05043058097362518
128	0x3fcfb9537aa3062d	0.24784320343137392
129	0x3fc15b7420000000	0.13560344278812408
130	0xbf8f17a45d985ed7	-0.015181812387751332
131	0x3f8dd44f545ff4f4	0.014565105211654196
132	0x3f8979fa9dcd5730	0.012439687672365446
133	0xbfaf5651603d1fd4	-0.061205428121467925
134	0x3fc2f929a0000000	0.14822883903980255
135	0xbfc782194e777050	-0.18365780192732695
136	0x3fc140d020000000	0.13479043543338776
137	0x3fa2a6f20ff1b93e	0.03642994351035832
138	0x3fca7beb688969ec	0.20690672497114748
139	0x3fa767ff80000000	0.045715317130088806
140	0xbf93ded700000000	-0.019404754042625427
141	0x3fa2d2fff1e72647	0.036766050604978555
142	0x3fca57ac8e2637f4	0.2058005994880997
143	0xbfcafdaced636a96	-0.21086656180599012
144	0x3fba951c40000000	0.1038377434015274
145	0x3f9b7c29e0f89291	0.02684083400358134
146	0x3f7ed140765ec51c	0.007523776823221053
147	0xbf4a91eba316f661	-0.0008108521052958112
148	0x3fbe9b9f3d9ebc5d	0.11956210379024541
149	0xbfd5ef7052e5d166	-0.34273918242913337
150	0x3fb7568128b0cae3	0.09116370433256864
151	0x3fada50b3915f5d7	0.05789980956886225
152	0xbfa7545e5d268af0	-0.045565556403081575
153	0x3f51374135c7fff5	0.0010507714097229813
154	0xbfc19e9aef5ae151	-0.1376527470326985
155	0xbfb3e56ea373d761	-0.07771960726298978
156	0xbfd539cd621142ec	-0.3316529710473748
157	0xbfc5eb19670e7e83	-0.17123715908109113
158	0x3fc0f44720000000	0.1324547678232193
159	0x3fb92f5cd0b07f77	0.09837894530255463
160	0x3fc9cc7c43c2ebcc	0.20155289944326993
161	0xbfc7d743359ace66	-0.18625679128091405
162	0xbfcad3863ce3a6fa	-0.20958021138294908
163	0x3fc1d018a0000000	0.1391630917787552
164	0x3fc180cd2f1951a6	0.1367432098364933
165	0xbfc329c140000000	-0.1497117578983307
166	0x3fc447d887811528	0.1584425603524917
167	0xbfd365679668faa0	-0.30306424797519504
168	0xbfb0a43b90d3c015	-0.06500599180049023
169	0xbfd45ee87ddbbdde	-0.3182927350125889
170	0xbfac9122c0000000	-0.05579479783773422
171	0x3fc24f4881cf82b7	0.1430445321884883
172	0xbfabf830c0000000	-0.0546279177069664
173	0x3f9c4046144e2fc5	0.027588934888214362
174	0x3f8c836f0ed9f7c4	0.013922565117578396
175	0x3fbb622ec0000000	0.10696689784526825
176	0xbfc3393860000000	-0.15018372237682343
177	0xbfd50b94203f97b5	-0.32883170270212797
178	0xbfb9e10cc5d91c42	-0.10109023885989735
179	0x3fc79bf126725590	0.1844464719512584
180	0x3fa3df1680000000	0.03881140053272247
181	0x3fb64e47856f31de	0.08713194854426073
182	0xbfae97aa2a819eac	-0.05975085991741244
183	0xbfc291a6211c741d	-0.14506985298876965
184	0xbf7e0d1569508353	-0.007336696279737281
185	0xbfacb3eec0000000	-0.05606027692556381
186	0xbfc48becb8a0fdc3	-0.16052016272622724
187	0x3f7d2be6cee5469b	0.0071219459481014725
188	0xbfbb7105085526a3	-0.10719329312737584
189	0xbfb3e0516c51c788	-0.07764157194631427
190	0xbfc09c4ea4424d46	-0.12977011700113844
191	0xbfc19f6d40000000	-0.13767781853675842
192	0xbfc5bff284cba626	-0.16992026790767162
193	0x3f98a40192801547	0.024063133780164916
194	0x3fc35f1920000000	0.15133966505527496
195	0xbfb0dfbdcda16d5b	-0.06591402311589915
196	0x3fc0af25bf0d46b0	0.13034507588104338
197	0xbfc5d33a8be8401b	-0.17050868827254892
198	0xbfb5131cb3749b84	-0.08232287770498031
199	0xbfb0dbef60000000	-0.06585594266653061
200	0x3fc2da87bc3bda67	0.14729401293853359
201	0xbfb412f600000000	-0.07841432094573975
202	0x3fbb5df778d71e94	0.10690256786539926
203	0xbfb3817f00000000	-0.07619470357894897
204	0x3fbf8a7d03255c00	0.12320691420369201
205	0xbfbdbd10f2f6bae1	-0.1161661713765443
206	0xbfa1daa180000000	-0.03487114608287811
207	0xbfba6130c21c1c15	-0.1030455087567222
208	0xbfb022a300000000	-0.06302851438522339
209	0x3fb972dc40000000	0.09940887987613678
210	0xbfbd931d21818814	-0.11552602832810549
211	0xbfbbfd4d00000000	-0.1093338131904602
212	0xbfae8de580000000	-0.059676334261894226
213	0x3fbb2cbf1425befc	0.10615152589684479
214	0x3fb5670c79763545	0.08360364880919231
215	0xbfb276a4e2762db4	-0.07212286499832637
216	0x3fc4b0c3a0000000	0.16164441406726837
217	0x3fc510f235a6a11d	0.16457965488121654
218	0x3f9758a3bf7f93aa	0.02279907089532044
219	0x3fabe3c6785d832e	0.05447216243078966
220	0x3fb18a7ed333708c	0.06851952224991659
221	0x3fc16ffa2e275022	0.13622977498619188
222	0xbfe083415eafabdb	-0.5160223817196042
223	0x3faac4a34bbf7b2e	0.052281477924898886
224	0xbfb7c6795a14d31b	-0.09287222337009064
225	0x3fd1afeea4d36a97	0.27636304947160667
226	0x3fdac23ad83e928e	0.41810484998340136
227	0x3fb3e36040000000	0.07768823206424713
228	0x3fd8410dd7ad6833	0.37897058546298296
229	0xbfe805e38a897a09	-0.7507188516427173
230	0xbf9abe3100000000	-0.02611614763736725
231	0xbfd0ce69ace4837c	-0.26259843715711617
232	0x3fd4f218655b1545	0.3272763242533368
233	0x3fce92ad6af5e9b1	0.23885123942075162
234	0x3fa2e660353d983f	0.03691387796315881
235	0xbfc53393e0000000	-0.16563652455806732
236	0xbfa9b3f6a1b714fe	-0.05020113681852399
237	0x3f9fe94700000000	0.031163319945335388
238	0xbfc199a81ff859fd	-0.13750173150101822
239	0x3f9cdd6e71b539a3	0.02818844384210596
240	0x3fd11238b809384a	0.26673715564982514
241	0x3fe0f269490214f3	0.5295912195148545
242	0x3fc211e560000000	0.1411711424589157
243	0x3f93d79efcd6c4bf	0.019377216512741265
244	0x3fb58c2240000000	0.08416952192783356
245	0x3fa7bb2800000000	0.04634976387023926
246	0xbfc0d13e86df7564	-0.1313856276091584
247	0x3f80d7f200000000	0.008224382996559143
248	0x3f76e80000000000	0.00559234619140625
249	0xbfcf3eb06895287b	-0.24410061937880187
250	0xbfd2ab2a3057ffa0	-0.29169707032269265
251	0xbfd6df75e96d36a9	-0.3573889522129812
252	0x3fbddd1dc0000000	0.11665521562099457
253	0xbfa765ffd3157140	-0.045700068013248885
254	0x3fc192ac7c44930c	0.13728862827078847
255	0xbf877e238973fa76	-0.011471059448465253

bias f8 [72]
0	0x3fbdfbe21eac8cbd	0.11712468384625914
1	0x3fb065bb4ffb6a91	0.06405230238616812
2	0xbfcb1f357149474d	-0.2118899157672395
3	0x3fe90e467cc024cb	0.7829925953421023
4	0x3fd08f9a69a4c1e7	0.258764842193186
5	0xbfbaed367ca7075c	-0.10518208068154195
6	0x3f8c4ab113026d3a	0.01381433810484244
7	0x3fcb0be68a495795	0.21130067589063786
8	0xbf8fcd562e50c1f0	-0.015528367317615172
9	0x3fd1e7a463cca16d	0.2797633146860992
10	0x3f90d76420222517	0.016446651898637556
11	0xbfb08f669b4baa26	-0.06468812266727095
12	0x3fd24f6ab9355c6d	0.2860972222019374
13	0x3fb13ee12589714a	0.06736571470668654
14	0x3fc3019c5eb3a9a6	0.14848665832626046
15	0xbf80bd8000000000	-0.008173942565917969
16	0x3fd6c06780178900	0.3554934264085574
17	0xbfd4ccc5d534b8f8	-0.32499833889859486
18	0xbfc09dc160000000	-0.12981431186199188
19	0x3fa6dc34cf88ea91	0.04464879067787309
20	0x3fb0bd7db58d0c47	0.0653914039840383
21	0xbfa04e8508860fc1	-0.03184905747460177
22	0x3fbdf4e7e4f9f281	0.1170182165169056
23	0x3fd40ee804a565f8	0.3134098096248574
24	0x3fa3fce6208291ed	0.03903884074069084
25	0x3fc653f21d3ddff4	0.17443682124917326
26	0x3fca8408681744be	0.20715432245791549
27	0x3fd0b0fb6c8b940a	0.26080213165397537
28	0x3fad51c400000000	0.05726444721221924
29	0xbfb3361c8cac16f5	-0.07504442629223347
30	0x3fcfd6877882fd69	0.24873441109046304
31	0xbfd9b9dcc28ba43b	-0.40196913717824473
32	0x3fbc9d55c0000000	0.11177574098110199
33	0xbf7560b407ef2d5c	-0.005219176527087779
34	0xbfc1450c72a51c11	-0.13491969678781904
35	0x3fd61457e087166a	0.3449916546490842
36	0xbfc183930d20d265	-0.1368278326132383
37	0x3fa74435bc33839d	0.04544227526071796
38	0xbfbb71f33056d3d2	-0.1072074883475829
39	0xbfc15013e963a30e	-0.13525627990681993
40	0xbfd2f1efcf88e136	-0.2960166479783938
41	0xbfdd7e8fd7b57867	-0.46084972443885025
42	0x3fc0c8e1344c42ad	0.13113036206825282
43	0x3fc53b3723ed2892	0.1658696103498341
44	0x3fd559e896130f13	0.33361258178432357
45	0x3fa9152eff035e44	0.04898974287942484
46	0x3fb78a63f7788c36	0.09195542136926424
47	0x3fa717b480000000	0.04510273039340973
48	0x3fa7e1582e18a46e	0.04664111674021219
49	0xbfc35a6e6a969216	-0.15119724468708345
50	0x3fd4defe675f4aee	0.3261104592794898
51	0x3fabb38c5ee2e89f	0.0541042199924544
52	0x3fda10daf9530470	0.4072787699515805
53	0x3fd7cf08d003f558	0.3720113784218788
54	0x3f93a715b9eb966b	0.019192065689728127
55	0x3fb5b27dccb218c5	0.08475481269315129
56	0xbf94d68e78221de7	-0.02034971817240985
57	0x3fac79a2123d2110	0.05561548683778217
58	0xbfb182c93502174a	-0.0684018854536507
59	0x3fc742e684e58cdf	0.18172914017768613
60	0xbfb32c5a806cfbb2	-0.0748955310382218
61	0xbfad6f5800000000	-0.05749011039733887
62	0xbfc20a8f7349b5a6	-0.14094727639478072
63	0xbfe66fd5f7360cd8	-0.7011518314688159
64	0xbfb3f3968f61cfae	-0.07793560982264466
65	0xbfc0cabb75546370	-0.13118689755426827
66	0x3f911d6700000000	0.01671372354030609
67	0x3fd35e145b76e339	0.30261715824194685
68	0xbfbd666d60000000	-0.11484416574239731
69	0xbfd016f6ee00d224	-0.251401646065718
70	0x3fd89b99b90207ee	0.3844970995634175
71	0x3fc17ee4a0dee574	0.13668496947301956

weight f8 [30, 72]
0	0xbfa9a957470b93c2	-0.05012009374858152
1	0xbf995495990dd726	-0.02473672625224945
2	0x3fa6e52be03e0a28	0.04471718895276339
3	0xbfbe2e07f261a38f	-0.11788987796320625
4	0x3fb68ed9ec258031	0.0881172372369299
5	0x3fb5b4ae0e9435ad	0.08478820663386584
6	0xbff353a96dbb1807	-1.2079252516136891
7	0x3fa8c4b8ef0fce7e	0.04837587278589427
8	0xbfb01dc6aca1359c	-0.06295434679596784
9	0xbf81b53a4b8e8410	-0.008646445685203147
10	0x3f73db749d76b469	0.004847960975365864
11	0xbfc674b169b22a16	-0.1754361883252648
12	0xbfd9651c9b76d212	-0.3967963712887307
13	0x3f9eb17af02a18ab	0.029973908337091498
14	0x3fd1acdfd26b2835	0.2761764101857154
15	0x3fb7e3bae0000000	0.0933186337351799
16	0x3fe17a27e61e919e	0.5461616034049717
17	0x3fd5b6ba24d656d1	0.3392777786005868
18	0xbfa4288980000000	-0.03937177360057831
19	0x3fb43768dd20edeb	0.07897048376701547
20	0x3fa80e353858b413	0.04698339760611971
21	0x3fcce79a5352286d	0.22581795757679704
22	0xbfb47a10aac40250	-0.07998756569942
23	0x3fc450d0fb55a175	0.158716318818971
24	0xbfc19c6c6ef5bfb7	-0.1375861684605277
25	0x3fb5f842a260bcba	0.08581940140060143
26	0x3fcea7abc558acea	0.23949191223196148
27	0x3fde8d1bc4c252d7	0.4773625775790555
28	0xbfa1a2f3c0000000	-0.0344463512301445
29	0xbfd930a77bd76bc2	-0.3935946187390834
30	0xbfc89061be012956	-0.1919061830288437
31	0xbfb652a2eca77f08	-0.08719843175594744
32	0x3f98568f80000000	0.023767702281475067
33	0x3f84c792cea55a55	0.010146281176884356
34	0xbfa2c1d180b9e69b	-0.03663496681560937
35	0x3fdd64cb22f89f69	0.45927694716600925
36	0x3fc5b498f485e438	0.169573897739413
37	0xbfa4f84a1f9f04a4	-0.04095679889679474
38	0xbf91589049aa37e3	-0.016939405914449323
39	0xbfb41bc57c1599af	-0.07854875831035345
40	0x3fe0c5d9c60cd8d7	0.5241516941230441
41	0x3fb2b08534350a53	0.0730059864481885
42	0x3fd00c941a9e0235	0.250767732613926
43	0x3f827d19a80c2906	0.009027672234442462
44	0xbfc05ea744344333	-0.12788859205513745
45	0xbfb9607a1095a40d	-0.09912836937805043
46	0x3fa5c9613060ca4b	0.042552029758003394
47	0xbfada7a8a0000000	-0.057919759303331375
48	0xbfcfba5d97685e93	-0.2478749264998795
49	0xbf78f49900f6c96b	-0.0060926415166469945
50	0x3f9db28281a5c81f	0.029001273310719108
51	0xbfb7374b27bc506e	-0.0906874629984615
52	0xbfd79d583770e266	-0.3689785519996235
53	0x3fc0b26423cb20d3	0.1304440665028382
54	0xbfbaea9801a6ab3b	-0.10514211693104596
55	0xbf8ca92e63f0a437	-0.013994562554289753
56	0xbfbeab68a7c6383f	-0.11980299087574141
57	0xbfd24f867cbfa7c9	-0.2861038416145872
58	0x3fa2339e44d4f1fe	0.03555006590110919
59	0xbfba7f38e62a1efc	-0.10350375766040182
60	0x3fb845dd98287917	0.09481606449887568
61	0xbfa35a4900000000	-0.0377981960773468
62	0xbfe8e45ba136f998	-0.7778757237172611
63	0xbfd48726e3b4e5e4	-0.3207490180680834
64	0x3fb5a8ff8397dab8	0.08460995638584279
65	0x3f9892c91cbc7de7	0.023997442606853794
66	0xbfb4db6360000000	-0.08147259801626205
67	0xbf9c455ba630347e	-0.027608329790429036
68	0x3fbe14b6e0000000	0.1175035759806633
69	0x3fb61af4d6752f2c	0.0863488219812864
70	0x3fb57004e3537cc6	0.08374052572206656
71	0xbfb683c742b64124	-0.08794827822407975
72	0x3fa6c4559fda712b	0.044466663134900074
73	0x3fbd8a4b286969af	0.11539144264808131
74	0xbf813eb0fcfcbd24	-0.008420355530317787
75	0xbfc11f9f31060db7	-0.13377752202732804
76	0x3fab116fd752fb2d	0.05286740783184594
77	0xbfaa6b74241c1537	-0.05160105648796292
78	0xbff33db1653e2051	-1.2025617556373798
79	0x3f8e8877437445fa	0.014908725496328924
80	0x3fb9e92e0fd9bb91	0.10121429335570854
81	0xbfb66b1e84bec6f0	-0.08757200947618649
82	0xbfb3ceff22e445ed	-0.07737726785514783
83	0xbfcc9f9a03730204	-0.22362065475864779
84	0xbfd8cd0cb50dda49	-0.38751523667398097
85	0x3fc082358e7d8316	0.1289736696008041
86	0x3fdae6c5d299536d	0.42033525053312
87	0xbfa2c0d540000000	-0.036627449095249176
88	0x3fe10debcb107813	0.5329493490314711
89	0x3fd3e1e43d292942	0.31066232655270565
90	0xbfb08bedc0000000	-0.06463514268398285
91	0xbfb4ae3dee07c4ec	-0.08078372060096556
92	0xbfa715d6ad1eb384	-0.0450884901359592
93	0x3fabebaee8bb58fd	0.0545324954124897
94	0xbf9af2257a405045	-0.026314340197203263
95	0x3fa46050e034d405	0.03979733216184659
96	0xbfc412eb4ea027e0	-0.15682736720219648
97	0x3fa6bd8febe2d8a7	0.04441499475926607
98	0x3fd2a6e08e9b1d51	0.29143537451132767
99	0x3fdb92c23f3b1865	0.4308324449051553
100	0x3fa55828c0000000	0.0416882261633873
101	0xbfd18f856ae25d2e	-0.2743848365584708
102	0xbfb0adf482dc57fb	-0.06515434450952277
103	0xbfb5fa50308b49b9	-0.0858507269397596
104	0xbfa5daffc0000000	-0.04268645495176315
105	0x3fa4e6ea584bbe97	0.04082424476461915
106	0xbf89f3fbab65b253	-0.012672392051819836
107	0x3fe008bf0830266c	0.501067653648716
108	0x3fb6830f6ea1183a	0.08793732119474465
109	0xbf9a1022cfad974c	-0.025452178884186424
110	0x3fa77bd076ffae91	0.04586650326367903
111	0xbf884b9401124740	-0.011862903864571117
112	0x3fe19c24f664bd5c	0.5503105938313797
113	0x3f9f0c1158f3dd87	0.030319472364650515
114	0x3fcd8c4caef6928c	0.23084410231708252
115	0xbfa94c1c8fac6517	-0.04940881017518899
116	0xbfb59c22eae66d3d	-0.08441370234361485
117	0xbfb010ace44ce82a	-0.06275444577923453
118	0x3fa7ca363ad850a4	0.046464628871178776
119	0xbfa5072600000000	-0.04107016324996948
120	0xbfc97c666c9c88ad	-0.1991088896111867
121	0x3fbfae6f4d90e3e8	0.12375541347218155
122	0x3fb24827f5c7c53b	0.07141351461884408
123	0x3f8d24328525652e	0.014229197204871893
124	0xbfd62059adcb316e	-0.3457245061115576
125	0x3fb040690fdd1621	0.06348282468123802
126	0xbfc488031a5f1efd	-0.1604007605330863
127	0xbf82e1291664056e	-0.009218522067842651
128	0x3f93439afb6c511c	0.018812581630372013
129	0xbfd0b42dda05b096	-0.26099726001008017
130	0x3fbc9abdd814c9fd	0.11173616910381408
131	0xbfb29ded00316812	-0.07272225622855924
132	0x3f93d31922e0eb4c	0.01935996318227788
133	0x3fbdabafe0000000	0.11590098589658737
134	0xbfe8c1eab7544170	-0.7736714916846221
135	0xbfd863eb883e1d2f	-0.3810986357206784
136	0xbfb6f2f5c7e3c3b6	-0.08964477663154366
137	0x3fbaeefad069afe0	0.1052090414829645
138	0xbfbb22a460000000	-0.10599734634160995
139	0x3fb8b598a91747d3	0.09652094009587069
140	0xbfba1ae8a0000000	-0.10197309404611588
141	0x3fb290ce1a859a92	0.0725220503569324
142	0x3fb9be99777dcff9	0.10056456725379793
143	0xbfc8f7cf6fdfab5c	-0.19506257021506712
144	0x3fb81d2b0f839928	0.09419507149468542
145	0x3fb599a8cc73e932	0.08437590590975644
146	0x3f9dd1f28b94b971	0.029121198434205412
147	0x3fa95272800dfa0b	0.04945714772383177
148	0x3fb0709e64d4c6ac	0.06421842538545758
149	0xbfb3f219b3d3e238	-0.07791290893863667
150	0xbff0fb5701d9bdc8	-1.061362273434371
151	0x3fa118d6952e022a	0.03339262553254614
152	0x3f63d0ed6aaae05e	0.002418960289414725
153	0xbfa6e5cb6ec36948	-0.044721944113649104
154	0xbfb8c49e0429a84e	-0.09675014115933431
155	0xbfbc6cb3b2b35648	-0.11103366005712545
156	0xbfd4497789d3d9be	-0.31698406657906364
157	0x3fb8af85fce6d1fd	0.09642827438694464
158	0x3fc21cabc6d5c28a	0.1414999695657751
159	0xbfb2f4cce0000000	-0.07404785603284836
160	0x3fbcfc9cb870a831	0.11322955611163434
161	0x3fd7742be8247ea2	0.3664655463235055
162	0xbfa63c3f80000000	-0.04342840611934662
163	0xbf7c6725639cd2e7	-0.0069343052398848975
164	0x3faec695e2f56f31	0.060108837084696616
165	0x3fa99e14af4b6487	0.0500341857893512
166	0x3f9e8f1571b5918a	0.02984269625211903
167	0x3f9b051fd6ff56bd	0.026386735436821896
168	0xbfc1c0cab2bc57c0	-0.1386960385067919
169	0xbfa15ece91b3b62a	-0.033926444326294394
170	0x3fcb91762fbfc0bd	0.21537663775916896
171	0x3fd1ef4e8ee1af8e	0.28023113206176553
172	0x3f820a0300000000	0.008808158338069916
173	0xbfc6f0fe5ed9bf68	-0.17922954207778763
174	0xbfb42d71e4684cfe	-0.07881843401291985
175	0x3f77012f146888fb	0.00561636343494087
176	0x3fbbbe8f60000000	0.10837646573781967
177	0xbfb71e9414a36ed6	-0.09031033996455604
178	0x3fb787c422eca7b0	0.09191537716529186
179	0x3fdba1c2e4941556	0.4317481262408668
180	0x3fb56f0586e8e85e	0.08372530502029593
181	0xbfb6a7cdab0ed511	-0.08849797655314641
182	0x3fbe616b4e69b54d	0.11867399849298473
183	0xbfc527feb5219918	-0.16528304905222835
184	0x3fdbedbf916b0fa2	0.4363860054111176
185	0xbf8b616c2dd7ff3d	-0.01336941256431567
186	0xbf8ba67984d50223	-0.013501119009220968
187	0x3fa05111648ec518	0.031868499302968256
188	0x3fa2123bea4d9297	0.03529536471504462
189	0xbfca232303785f80	-0.20419728917545044
190	0x3fb77204c8d06753	0.09158353712737481
191	0xbfbb0f2060000000	-0.1056995615363121
192	0xbfb2c711e2b6979a	-0.07335006508819078
193	0x3fc0c8041aa82829	0.13110400487522725
194	0xbfb729df5bf1a7f0	-0.09048267359472084
195	0xbfb12ed94c66b1b2	-0.06712110629331994
196	0xbfdd9e944db67f4a	-0.4628039130129663
197	0xbfab1b32a3410ae8	-0.052941877773738544
198	0xbf7eb354da828408	-0.007495242556758271
199	0x3fb4d4982c0824f2	0.0813689334392114
200	0xbfb10eae0e1a1fb0	-0.06663024753845437
201	0xbfcd8451e8a95232	-0.2306005846063655
202	0x3fada79303a643d8	0.05791911525296428
203	0xbfb2ab68605492e2	-0.07292797424140532
204	0x3faf82d45a69eaab	0.06154502490695298
205	0xbfb0b89fc0000000	-0.06531713902950287
206	0xbfe49329b0ad9c17	-0.6429642153497096
207	0xbfcffdaf0c005541	-0.2499293144798376
208	0xbfb1c499bd66f01d	-0.0694061362655138
209	0x3fb6ec99dcc455c3	0.08954774513070789
210	0x3fb922c0e0000000	0.09818654507398605
211	0x3fb4d15e36166be1	0.08131970234391829
212	0x3faffaf540000000	0.06246153265237808
213	0x3f9aa628a8600b50	0.026024470593266458
214	0x3fc85837a2df14fd	0.1901921792288376
215	0xbfc574bc15ea58fc	-0.16762496061409837
216	0xbfb7dcc3e3eae014	-0.09321235956565516
217	0xbfb20705c5005782	-0.07041965541460907
218	0x3fb530bf3cbf09aa	0.08277507050573854
219	0x3fc2d6b2ac660e98	0.14717706125167207
220	0x3fd00e86b22da1d9	0.25088660621852693
221	0x3f891eabd35bdd10	0.012265531909618349
222	0xbfedfd31e454e1ba	-0.937157579383942
223	0x3f921f563937c4ed	0.017697665445614175
224	0xbfb64dc13be724de	-0.08712394440148638
225	0xbfc1bcad8f773f46	-0.1385704947010657
226	0xbfc4acd1ea6b7e21	-0.1615240473392854
227	0xbf9233352593c694	-0.017773466509373906
228	0xbfc20199b2e5ad0d	-0.14067383990491358
229	0x3fa5ca214d0dc822	0.0425577551421983
230	0x3fb7c5cce822d5ae	0.09286194484123797
231	0xbfaf664900000000	-0.0613272488117218
232	0xbfba3994c9d491c0	-0.10244111945627932
233	0x3fdff554f8845c91	0.4993488718914217
234	0x3f3c432000000000	0.0004312470555305481
235	0xbfbd2d9115885c26	-0.1139765431947671
236	0xbf91c8e3affe19a9	-0.017367894760832368
237	0xbfc4316bab399acb	-0.15775819645496933
238	0xbfb3b8fead6b7b05	-0.07704154714472729
239	0xbfb8d1af453c2de4	-0.09694953384694532
240	0xbf60de856bee2159	-0.0020592313662214754
241	0x3fb397931d082e6c	0.07653159579074903
242	0x3fb750b157ea2909	0.09107502361635879
243	0xbfd9ddb5fbfb29db	-0.4041571579697611
244	0x3fb89f34a0000000	0.0961792841553688
245	0xbf8f410842b2350b	-0.015260757956890211
246	0xbf5e97485a093ce0	-0.0018671232757190778
247	0x3f9c717a97660446	0.027776637545233983
248	0x3f9340b080000000	0.018801458179950714
249	0x3fbd2c9949e66c6c	0.1139617734356066
250	0xbfb4ffa1869d2cb9	-0.08202561890100214
251	0x3fb6c64b9974c15e	0.08896324631201
252	0x3f95750f824d50fe	0.02095436318207166
253	0xbfa18df7ae4f8a6f	-0.03428625109497296
254	0x3f8ba10525d08329	0.013490715233332633
255	0xbfba1447d8394422	-0.10187195805453134

bias f8 [30]
0	0x3fede3d806ccea90	0.9340629704305048
1	0x3fe736d89288cdb9	0.7254450666427409
2	0x3fdd744d298c0756	0.46022347504923766
3	0x3fde7d6151ed77cc	0.4764025974344548
4	0x3fd52e5709d7f312	0.3309533687714047
5	0x3fd1ba016233bb37	0.2769778689388888
6	0x3fd06d8b8b2e604d	0.25668610183629853
7	0x3fc0443c3399fea8	0.12708237189871352
8	0x3f9ab1fac9c5de1c	0.026069563451043817
9	0x3fa97200abb69a94	0.049697895966621136
10	0xbf8d1e8f9592214a	-0.014218446495093535
11	0xbfb1891f64430b8c	-0.06849857518959207
12	0xbfcbc33884afcd4e	-0.2168951652416617
13	0xbfc1fa5c17353ace	-0.14045287259292255
14	0xbfd30a027bcdb2e3	-0.29748594370066267
15	0xbfce80542623617c	-0.23829128133980848
16	0xbfd130ce56aa6530	-0.2686038824409307
17	0xbfd2e44b47df2e3d	-0.2951839639542618
18	0xbfd9d29e523ffc0d	-0.4034801295492237
19	0xbfd877ffea8715ff	-0.3823241987523431
20	0xbfdba30398d2ce63	-0.4318245880524271
21	0xbfd79c16d91d7c05	-0.36890193178800273
22	0xbfdb4d1792e0d726	-0.4265803274496299
23	0xbfd7feca2ccf6fd6	-0.3749261319733227
24	0xbfdb8da3652edaef	-0.43051991349368185
25	0xbfd5f88228f0c4bb	-0.3432927512940968
26	0xbfdc5b9ce3e34dee	-0.4430916047542429
27	0xbfdaab2f474ac4be	-0.4166982837878769
28	0xbfdbc27dc3bba95a	-0.4337458049254984
29	0xbfdc1e9a78aa2400	-0.4393678835263586
