Sphere/NeuralNetworks/models/net_gridded49.pt (torch_old, 68243 bytes, 6 tensors)

weight f8 [36, 6]
0.2892713173324505 -0.44521715593667055 0.5836857539622099 0.010921638662109996 0.023862659757213172 -0.2754811147365935 -0.2597693532774693 0.27406068034873104
0.013714848699292128 -0.19615555408118898 0.5621972366105881 -0.3069028418435022 0.382638101602446 -0.5817811135403057 -0.15428387434055607 -0.1562743278682606
0.18233278539901765 0.03324030054235212 -0.19537498925950228 0.15300043943142572 -0.03447401063142993 0.1725130158334903 -0.5666408622641989 0.4680661942158096
0.10324021813270386 -0.2592950418334352 -0.09468002712255687 -0.09730699731802796 0.48589110258875756 0.20894521868083593 0.2005589150748215 0.1862363250961623
-0.030012197066414472 -0.1585022602641477 -0.18508153770261898 -0.06179814782294361 -0.14121881342331058 -0.005707555815262029 0.18493374950752248 -0.28161483178486696
-0.014021444915223297 -0.43230821627505756 0.03656446026103271 0.027258266420229008 0.5592390444509537 0.23372579637035448 -0.09615965381259232 0.10859694796862561
-0.08188506350765866 0.07829629580901752 0.4873536643369808 -0.5639769764622057 0.18522283126076414 0.05677465867622516 1.1102771403662404 0.37239142496593125
-0.29488339233110733 -0.09079968823629478 -0.025226581273057238 -0.07171364548315401 0.08314188514273546 0.07222377153079133 0.09520017575868119 -0.30625740167776727
-0.3342064333055056 0.17587397960804843 0.2009726217624346 0.06549953848156616 -0.3417759198395051 0.5999183096593146 -0.29605165123624033 -0.06293085136993656
-0.00039067278276740277 -0.1238772989634526 0.2919420513975506 0.45634309798519984 -0.24515248185994645 -0.19249771457900317 0.2940745949745178 -0.21710149943828583
-0.046123653650283813 0.4074111580848694 0.2839778661727905 -0.1515544056892395 -0.20575398236397788 0.2251871248910171 0.03905353913850718 0.10239444959692522
0.33881907985105775 0.15182145552219833 0.2528640627861023 -0.23623955249786377 0.20679724216461182 0.1875285506248474 0.40168899297714233 -0.14764153957366943
0.2702238205937016 -0.12715741459508445 0.26175907986423336 -0.3469419250269629 -0.3141172948907416 0.41661464855200786 -0.1509115315168471 -0.12465170589786524
-0.26601448203932354 -0.12259451702753629 0.12577081892130046 0.09047467076404696 0.15752156364243858 0.11037183969168285 -0.5364567929098844 -0.247835363235743
-0.3513495708860543 0.07406404862608652 -0.02137517651685936 1.1880497830389056 0.3528535303545432 0.4216841619220913 -0.2592441151960501 -0.14854186176666484
0.24780481591593798 0.0838724825647395 0.1588640682741415 0.10103718664176543 -0.26497245328955077 -0.38933352272496263 -0.17763677104178938 -0.2531293056206906
0.041006027375617045 0.44658048184613597 -0.25810266860039355 -0.27687934979943574 -0.10265313464174937 -0.15341772956525682 0.157622298491236 0.17763763334393043
0.1479796579210845 0.15966095177886167 -0.12301746623273008 0.6408029093719854 -0.6176456538179178 0.2078622843316581 -0.026569381821273927 0.04623314940322077
0.05297205602051201 0.22211986294594227 -0.0250176890324019 -0.35581754306741686 -0.322977446299706 -0.18301254230097877 0.15265912500903792 -0.40202548474826344
0.35728339256795477 0.34789868166046506 -0.5466039810506412 0.2715708401747113 0.2954132357737684 -0.06358454589486302 0.098752680455102 -0.061158330484958535
0.09743373384367066 0.02013600030421929 -0.0926938896697155 0.04764142992167639 -0.26172693417134174 0.7139618421831269 0.07617398855281858 -0.3828286542553387
0.057446569204330444 0.23670423030853271 0.24638903141021729 0.1801406741142273 0.1834409236907959 0.22618579864501953 0.4091108419292534 0.016709010638577444
-0.27072468664025495 -0.04776868863299389 0.17560784089005985 -0.06753943672233134 0.35110098123550415 -0.2986587584018707 0.03960525989532471 0.2171701192855835
0.036751508712768555 0.25967615842819214 -0.2724265160546748 -0.40629946206754847 0.026255818310030318 0.11093768845456535 0.04852233388732294 0.23738899748791908
-0.22333048735196442 0.5170553168354836 0.3212443858225635 -0.04614265976824403 -0.15692947220139314 -0.1618220125047121 0.10771135081787692 0.3399407672562442
0.19502364670958994 -0.00654759450604129 0.05386145925677706 -0.16607260183280154 0.022708051258881208 0.09998437760923728 -0.12894553200830955 0.21633341817219445
0.3448178759613541 -0.03606108600734235 -0.06277253893435165 -0.02324368332982284 0.17343858668175488 -0.37351701175868335 0.5179426909247165 -0.28949230472005966
00000000: 1247 e7d7 6b83 d23f b66e 1719 707e dcbf
00000010: d714 0dbf 8dad e23f e4dc fa86 155e 863f
00000020: 8bdf 02fd 736f 983f 0d65 9d8a 7ba1 d1bf
00000030: 761b 35a3 0fa0 d0bf 67e8 cdce 358a d13f
00000040: 617b 10d5 8716 8c3f 3f8e da0c a01b c9bf
00000050: 0e9c 240f 85fd e13f 7b1b 31d1 4ba4 d3bf
00000060: 8781 2585 247d d83f 22c1 026d f39d e2bf
00000070: e6e2 4bf1 92bf c3bf 0904 b313 cc00 c4bf
00000080: c480 2343 ae56 c73f 8a2b 7a67 df04 a13f
00000090: 89b7 a932 0c02 c9bf 58d8 d0b5 8495 c33f
000000a0: 4ba9 72d8 93a6 a1bf 5bd0 9110 e814 c63f
000000b0: 2d10 8004 ec21 e2bf 1949 21e9 cbf4 dd3f
000000c0: dd09 8370 f36d ba3f b021 2c3b 4a98 d0bf
000000d0: f965 1344 f33c b8bf c923 2783 1ce9 b8bf
000000e0: 604f c2fe d618 df3f 9ce3 7188 b7be ca3f
000000f0: e873 951e eaab c93f 39c0 ce86 97d6 c73f
00000100: 8782 8673 84bb 9ebf a89a 1654 cd49 c4bf
00000110: 8a58 c377 c0b0 c7bf 75b1 b4bf 01a4 afbf
00000120: 69d4 9d44 7513 c2bf 62fa 1059 ce60 77bf
00000130: 17de 07bb e8ab c73f 2f69 2537 fa05 d2bf
00000140: ca11 d47a 46b7 8cbf c461 ac14 f0aa dbbf
00000150: c7b7 08b2 93b8 a23f 443b 484b 97e9 9b3f
00000160: 3705 d247 49e5 e13f 8734 d215 baea cd3f
00000170: 2bdc 5148 eb9d b8bf 377d f873 02cd bb3f
00000180: cfd8 cb65 6bf6 b4bf d7cd e5dd 390b b43f
00000190: 2270 7a6c cd30 df3f b144 b371 190c e2bf
000001a0: ad66 5eb9 61b5 c73f d70b 836c 9111 ad3f
000001b0: 14e9 75f6 b1c3 f13f 6087 e2d7 42d5 d73f
000001c0: 6b85 8c97 5edf d2bf e63d 76fb a53e b7bf
000001d0: 070d 3b36 ffd4 99bf 04ef 0652 d35b b2bf
000001e0: 80a7 9d5d c948 b53f 3bf1 b7d0 417d b23f
000001f0: 25fd 74e9 095f b83f e44a 17a5 b899 d3bf
00000200: a63c 4a61 a363 d5bf e924 51df 0983 c63f
00000210: 6136 ee8a 78b9 c93f 8d71 aee7 93c4 b03f
00000220: ef57 911b a8df d5bf 7644 08e2 8732 e33f
00000230: 0022 ff9f 82f2 d2bf a616 8b7c 3c1c b0bf
00000240: 1ef1 4ed3 669a 39bf cbcc c333 6cb6 bfbf
00000250: ac18 c5b6 2daf d23f 2f83 66ae b934 dd3f
00000260: f993 0f12 2861 cfbf b6f5 55de c3a3 c8bf
00000270: 0000 0040 1ed2 d23f 0000 0060 fbc9 cbbf
00000280: 0000 0000 859d a7bf 0000 0040 0613 da3f
00000290: 0000 0080 b12c d23f 0000 0080 2266 c3bf
000002a0: b334 a380 2556 cabf 508f 7184 eed2 cc3f
000002b0: 0130 c952 d3fe a33f f78a 4fcc 8536 ba3f
000002c0: 9826 ce38 36af d53f 5644 26ad e26e c33f
000002d0: 0000 00c0 ec2e d03f 0000 0000 193d cebf
000002e0: 0000 0000 5578 ca3f 0000 0080 ef00 c83f
000002f0: 0000 00c0 45b5 d93f 0000 0000 ebe5 c2bf
00000300: 2935 03da 584b d13f 509d 90b4 b146 c0bf
00000310: f5aa dc27 a9c0 d03f a388 66e7 4b34 d6bf
00000320: 707a 2a6d 7f1a d4bf a32f a47c d0a9 da3f
00000330: fc20 3aae 1151 c3bf 29d1 3898 2ce9 bfbf
00000340: f4c2 279b 6106 d1bf e65b 4db1 5a62 bfbf
00000350: 9770 0719 4219 c03f 6346 0c18 5929 b73f
00000360: c228 21a6 aa29 c43f b008 e031 5441 bc3f
00000370: dd7a a86f a72a e1bf dee4 f1b5 11b9 cfbf
00000380: c7d4 1ae9 827c d6bf 998c a88a dcf5 b23f
00000390: 9934 58d0 5fe3 95bf 7ec0 427d 4002 f33f
000003a0: 73a8 49f9 2695 d63f 4994 2c91 dffc da3f
000003b0: b5a3 1ca1 7497 d0bf bcf8 2f73 6b03 c3bf
000003c0: 853b 1376 11b8 cf3f f45e a6c1 aa78 b53f
000003d0: 069c df64 a855 c43f 2165 4eb4 92dd b93f
000003e0: 6c0c 4e05 4ff5 d0bf a1c5 d526 d7ea d8bf
000003f0: e683 183d cdbc c6bf 1a34 5342 4533 d0bf
00000400: a9c8 08f5 bdfe a43f aae8 234d c694 dc3f
00000410: 7c89 290e c184 d0bf 70e2 142a 64b8 d1bf
00000420: 3d42 1ed0 7947 babf 31ff 8d31 31a3 c3bf
00000430: 5cf2 91ac f72c c43f 6f21 e078 d4bc c63f
00000440: 0d46 9f57 fff0 c23f 2152 2b23 c56f c43f
00000450: 9c6d 4e9a 127e bfbf 06e6 5d1a 7581 e43f
00000460: 8a43 75d1 c0c3 e3bf 9c5e a338 3b9b ca3f
00000470: 6c3e fd07 0135 9bbf b117 5b11 dfab a73f
00000480: 5e82 6b40 271f ab3f 9a89 9275 6c6e cc3f
00000490: 09d7 dcb0 3c9e 99bf 0054 b4f1 b6c5 d6bf
000004a0: 39fb 4c98 a9ab d4bf f962 f879 f46c c7bf
000004b0: 09c6 ac8e 558a c33f e9bf 4919 c9ba d9bf
000004c0: 4fee 9e29 bbdd d63f d567 03d5 f843 d63f
000004d0: a33a cfa1 c77d e1bf 893f 46a9 6a61 d13f
000004e0: 3f0c 9dea 0ce8 d23f 3542 26a9 1347 b0bf
000004f0: b06e f20c db47 b93f 9d28 9f0a 2550 afbf
00000500: 74bf 62cc 6af1 b83f 8c8f 1d1b 889e 943f
00000510: 4aa3 ab68 c9ba b7bf 6c84 e51e 7564 a83f
00000520: 74e3 af53 22c0 d0bf 1697 5881 c6d8 e63f
00000530: 63e6 a375 2380 b33f 4fe5 7fc1 4380 d8bf
00000540: 0000 0000 a369 ad3f 0000 0000 534c ce3f
00000550: 0000 0000 ad89 cf3f 0000 0080 d90e c73f
00000560: 0000 0000 fe7a c73f 0000 0000 a8f3 cc3f
00000570: 5e9c a13d df2e da3f c2fe f6b8 2a1c 913f
00000580: 5abe d5a2 8d53 d1bf 112d e736 2375 a8bf
00000590: 17a1 c556 517a c63f 0aa5 e9b7 434a b1bf
000005a0: 0000 0040 7078 d63f 0000 00a0 391d d3bf
000005b0: 0000 0000 2447 a43f 0000 0000 3bcc cb3f
000005c0: 0000 0000 18d1 a23f 0000 00c0 889e d03f
000005d0: b027 41a0 6f6f d1bf d199 7d75 cf00 dabf
000005e0: ff9b e223 cee2 9a3f cb62 ce8f 6966 bc3f
000005f0: cce1 575a ebd7 a83f 0007 523e c362 ce3f
00000600: d22e b0e9 1796 ccbf 9300 8197 b78b e03f
00000610: c36a c89c 448f d43f 6d64 4fbd 02a0 a7bf
00000620: 5617 71d3 4316 c4bf a985 bd6d 95b6 c4bf
00000630: 34b7 2b99 f892 bb3f 7855 7ceb 96c1 d53f
00000640: 843c 48ec 88f6 c83f a9ac 5584 a6d1 7abf
00000650: 8a9e 0bac ba93 ab3f ee16 d1f4 dd41 c5bf
00000660: e217 0d86 c740 973f 804d f17f 9398 b93f
00000670: 0a73 7885 4981 c0bf 856d 0a3e d0b0 cb3f
00000680: 0122 15ff 7e11 d63f 4d9b 1e42 9976 a2bf
00000690: 6157 cf71 dc11 b0bf fdee f52e 31cd 97bf
000006a0: 06d0 d450 3c33 c63f 4e34 80e5 b3e7 d7bf
000006b0: 222a d78c fc92 e03f 3bd8 4dbb 0a87 d2bf

bias f8 [36]
-0.4923894210001109 -0.5808184475707316 -0.41725840506253675 0.2613063137179821 0.7815258837727773 -1.958014519924741 -0.3169999048140054 0.13666061230981366
0.4349796305695375 0.403172902818017 -0.752138021780551 -0.07439960825320724 0.2045884208850818 -0.2564871609210968 -0.11061622050639856 -0.10026681423187256
0.4289583149611077 -0.6406256323471857 0.06436541337310765 0.15421961698827255 -0.7384106116455551 0.25845202145471186 1.5840623329423578 0.34895570401067283
0.3164685035709547 0.028018706789248317 0.01870690239475511 -0.3109175860271312 0.39493328332901 1.1924830819011016 -0.27525657415390015 0.2370075482651978
-0.31981264672006665 1.042093920877437 -0.11748429073580285 -0.5091912871881045
00000000: e7e0 05eb 4e83 dfbf 625a a791 1096 e2bf
00000010: c061 ee98 5cb4 dabf 180d ea1d 3eb9 d03f
00000020: ab02 f991 4202 e93f ecb7 8208 0754 ffbf
00000030: 96b8 00f8 b949 d4bf 65d0 424e 187e c13f
00000040: 943a eecd b4d6 db3f 3a27 0fb8 95cd d93f
00000050: ef04 b4c1 8311 e8bf 7061 484c da0b b3bf
00000060: 25bd 6b10 f42f ca3f 0000 0020 496a d0bf
00000070: 536b 7b39 5851 bcbf 0000 0000 16ab b9bf
00000080: 02bc 8693 0d74 db3f ac22 7d53 0180 e4bf
00000090: 3957 6e71 407a b03f 27e2 aee9 77bd c33f
000000a0: 3c2f 814a 0fa1 e7bf bfea ee58 7a8a d03f
000000b0: 9901 adbe 5158 f93f ad9f 1e4e 4a55 d63f
000000c0: a848 431c 0541 d43f 7a19 5895 efb0 9c3f
000000d0: d7d0 faf7 e627 933f 0938 efdf 12e6 d3bf
000000e0: 0000 0040 9646 d93f bec6 dc23 6914 f33f
000000f0: 0000 00c0 cd9d d1bf 1d22 5a6a 4356 ce3f
00000100: 01a2 a076 cf77 d4bf cc76 d8ac 6aac f03f
00000110: 0c08 8152 7313 bebf 9531 bc86 4b4b e0bf

weight f8 [72, 36]
0.0008540887169205023 -0.11499402011621168 0.008414201411478557 0.007385858451911973 -0.01839406644935954 0.007560510831372925 -0.08497233117843675 -0.06763979683832812
0.0960143448740172 -0.17989925258944506 -0.1198823090066242 -0.05070784744067596 -0.22410445349745084 0.14026059210300446 -0.1711119368328142 0.16210772097110748
-0.18807671130669495 -0.1769975529010021 -0.11021307343736847 -0.0865368904111043 -0.20955537037419958 0.037456333020239894 -0.1720522687199302 9.762091470812755e-05
0.026309120006470916 0.028210867153446367 -0.08322700838079033 0.1008998422717033 0.033642664551734924 -0.17830036730090984 -0.1283707469701767 -0.127793614384487
-0.07432410647753945 -0.030281665504209538 0.07422098962887975 -0.21074337411844954 -0.18853379278541932 -0.041653269849535324 0.026552388798064208 -0.17973380925470753
0.13987414474410115 0.2800079326252259 0.22361823312630555 -0.022191504176452093 -0.022877218848340476 -0.08500458043758281 0.09394352434664928 -0.1968240930102547
0.06930861675807064 -0.066839799284935 0.04770340727988516 0.06633634865283966 -0.07071519007824525 0.17319377646682788 0.305387409071133 -0.01251885789342987
0.0891337732752474 0.2794427390399362 0.17495434200667237 -0.14110618539100375 0.19127013079218003 -0.07015496932230945 -0.12490903556808833 -0.1469648915466016
-0.12988071143627167 0.11330692846461321 0.01806771755218506 0.03421290110656406 -0.00677645887969238 0.04967641934351204 0.10582331203310552 -0.1608347674337171
0.33260928979732163 0.0836354402934896 -0.8206388332577639 -0.10262438233568398 0.47138282922842056 -0.2310147425831275 0.34049361673287026 0.15348409620499287
0.039077879911439864 -1.2619154286974161 0.1964048380480681 0.02151301651851663 0.05387557248188044 0.10320980846881866 0.001727619454276005 -0.15660905838012695
-0.16047844231234654 -0.014962276171466669 -0.2726718845994215 0.41830588626632503 0.20206703822710592 0.01650042630944219 -0.4543312105680335 0.28490737981720743
0.10353704894575749 0.020967521065629834 -0.1125006833089819 0.446700492378255 0.08096985518932343 -0.6425685757475853 0.14145852625370026 -0.21270412503899544
0.39308524779408405 -0.3332301246597456 -0.08882435654542219 0.18600972040577993 -0.16923138912557753 0.011039565710130749 -0.1263407353520317 0.06952727057417737
0.037274388521283654 0.06084385107607884 0.050566514628211406 -0.21408875927768314 0.026761184977426862 0.10962857163017063 -0.026451148849255854 -0.11807049278192985
-0.09508299609372295 -0.002007618546485901 -0.1664864420890808 0.04855866730213165 0.01636309670696889 -0.14616204751524672 -0.01925872164887055 0.052696940903846586
0.0829365776368815 -0.05376976711343524 0.01719350269383767 -0.015596747398376465 -0.18379485274238475 -0.01752382516860962 -0.05840563774108887 -0.12813830183463454
-0.11533717811107635 -0.16371680169340197 -0.11152204126119614 0.11247350887507511 -0.1301582365651548 0.00016002769795953433 -0.14360581862569663 -0.09752378729341415
0.028575038176702615 0.11609174131698673 0.08593721922371479 0.041419011433786214 -0.022477269172668457 -0.08432085141914969 0.003106783226448971 0.06729829300987825
0.03078878297104219 0.07486970420374885 0.008008936734804106 0.12100335369761002 -0.04510878208902301 0.1326238065958023 -0.021507527039405245 0.14921297132968903
0.0013819322218686931 -0.14818795366700066 0.002641615063952933 0.11131530652641974 -0.17976012570452538 -0.1539690036475813 -0.17602549452816296 -0.1252099476989642
-0.01791889583283209 0.023713046975596445 0.1003509559534186 0.1578552962216438 0.14605845510959625 -0.007225459999019305 -0.03638996183872223 0.021464224587817087
-0.12553474878911447 0.05930842088141987 -0.13703184521646009 -0.09521750955529398 -0.2982884838492138 -0.32275755483285506 -0.058581690929318156 0.010250733411634365
-0.1322841648537093 0.8089132540573641 0.01558853730743429 0.09883373843274298 -0.22884862833642367 0.21982705984822057 0.010074251591716772 0.10038555987049988
0.016005384134385143 0.14918942749500275 -0.10802184255087824 0.15889205038547516 0.03305113746422845 0.33085533126686145 0.3006585875800617 0.4079985226462218
-0.08756738817070607 0.044401194682677905 0.18882723912977514 -0.3032340466840395 -0.027151216557402498 -0.3697134821388747 -0.07518476009615443 -0.5543697251361203
0.0605844110250473 -0.3372937398058099 0.021506890654563904 0.3061818651611491 -0.10143975041055367 -0.49995595561598677 0.01119723212408183 0.15534492013271517
0.10940038749010662 0.07859702408313751 0.05546084171264982 0.0004879319451774545 0.06397223472595215 -0.11327519230475426 -0.14415679208101345 -0.11040619000035519
-0.05883745758167564 0.029268891509222125 0.03152616565979016 0.11959083773704879 0.1175165932532862 0.053015291690826416 0.1035651146632727 0.020936131477355957
0.040904831322031744 -0.09989864760746982 0.12221720788811544 -0.023804427260542674 -0.1659909452826626 -0.053996420454585775 -0.03964610531648045 0.13574534928815918
-0.12746970597330168 0.033916086293417566 0.05395503342151642 0.00479818629275319 -0.16034172475337982 -0.08132975018030146 -0.004356071352958679 0.0004922906654877087
0.07498354638480242 -0.048288583030223764 -0.15673244372337755 -0.0027452707290649414 0.05218762252726315 -0.06075599872872327 0.05436804772308807 0.11902608757171318
00000000: 2704 b48d 9dfc 4b3f 647b a283 3f70 bdbf
00000010: 91f5 12ff 763b 813f fdc1 0f48 a240 7e3f
00000020: f19e 5ce7 e4d5 92bf b455 302c c5f7 7e3f
00000030: a2ec 7927 bfc0 b5bf e925 547b d750 b1bf
00000040: e246 2e67 6594 b83f 3c27 394f f006 c7bf
00000050: 366b 8d64 9bb0 bebf 8707 d104 61f6 a9bf
00000060: a26a 5469 74af ccbf 0000 0020 0ff4 c13f
00000070: cf79 53f6 fee6 c5bf 0000 0020 f2bf c43f
00000080: 5eca 19ce e512 c8bf 5646 9716 dba7 c6bf
00000090: 1c51 018a ec36 bcbf 2c96 361a 4827 b6bf
000000a0: 5cab 3adb b5d2 cabf 3335 b3fa 792d a33f
000000b0: f166 ad09 cf05 c6bf c6c5 578b 3a97 193f
000000c0: 05ad 0e28 c7f0 9a3f e86e 433f 4fe3 9c3f
000000d0: 88b0 237f 5d4e b5bf 8d80 ba72 92d4 b93f
000000e0: 0000 0080 9c39 a13f 810a 36e3 8bd2 c6bf
000000f0: 0000 00e0 736e c0bf 04a2 3589 8a5b c0bf
00000100: bc1d a096 e706 b3bf 0535 092c 2802 9fbf
00000110: c5fe 2193 2500 b33f d3fd d78d a3f9 cabf
00000120: c623 1a15 e021 c8bf 40e9 8ccf 9353 a5bf
00000130: a0cd 12a6 8c30 9b3f 2503 5e78 8401 c7bf
00000140: 66ae 9d5e 65e7 c13f 19bd 4f64 a6eb d13f
00000150: 738c 08b3 859f cc3f 1d65 bfa2 5eb9 96bf
00000160: ddb4 1b2b 206d 97bf b557 fd34 dcc2 b5bf
00000170: 0d66 bdcc ae0c b83f b79e 4529 8831 c9bf
00000180: b791 4ea2 35be b13f 0000 00c0 691c b1bf
00000190: 3a89 59bc 946c a83f 0000 0040 6bfb b03f
000001a0: b26b b704 641a b2bf 78db e5b2 362b c63f
000001b0: 2f86 a4a1 778b d33f 7a69 e2a9 7ca3 89bf
000001c0: 27af 2f91 78d1 b63f fefe 51cc 63e2 d13f
000001d0: 201e 9b64 e764 c63f 2543 c279 c40f c2bf
000001e0: 801e 3a26 8a7b c83f d725 e412 adf5 b1bf
000001f0: 2a66 bdde 09fa bfbf e329 6ddd becf c2bf
00000200: 0000 0060 ee9f c0bf f86c 2ad0 ae01 bd3f
00000210: 0000 0000 5880 923f 313c b576 5a84 a13f
00000220: 17e2 55d4 a1c1 7bbf aaef ec08 306f a93f
00000230: dc2a 5690 3c17 bb3f a602 18d1 3b96 c4bf
00000240: 3c9e 8179 7849 d53f 72db d8d8 2169 b53f
00000250: 206e d55e ac42 eabf 1b6a e76d 9745 babf
00000260: 34a6 dbe2 222b de3f 01ea 241e e491 cdbf
00000270: ec52 17bd a5ca d53f 3a0a d4ea 5da5 c33f
00000280: b2ec 6e10 0402 a43f eb2b 893b ce30 f4bf
00000290: 11a8 1832 cb23 c93f b495 8a19 8207 963f
000002a0: 1dd5 b93b 9495 ab3f 0000 0040 f56b ba3f
000002b0: be4d 9643 294e 5c3f 0000 0000 c40b c4bf
000002c0: 0ce7 b8be 8e8a c4bf df2f a4b6 8aa4 8ebf
000002d0: 362a b9c6 7473 d1bf 0a3e 4f0d 86c5 da3f
000002e0: f07a 642c 55dd c93f 8bf8 79dd 7ce5 903f
000002f0: 5846 bc36 c313 ddbf 9f0d ad29 ec3b d23f
00000300: 2479 256f 6781 ba3f 6331 0585 8278 953f
00000310: 91f8 9643 d8cc bcbf f9c9 77a9 bd96 dc3f
00000320: 0000 00c0 70ba b43f dfbd 48f9 eb8f e4bf
00000330: 0000 0020 501b c23f da25 6286 e339 cbbf
00000340: 9033 f406 4f28 d93f b928 dd71 a453 d5bf
00000350: b769 736a 31bd b6bf 45c2 f0a0 2acf c73f
00000360: f320 e0c8 5fa9 c5bf 7916 7f6d e99b 863f
00000370: 23aa 3ee7 ee2b c0bf 0ed6 4b09 8acc b13f
00000380: 85c8 5aef a015 a33f d4a3 11dd ec26 af3f
00000390: b4a5 33ad dae3 a93f 8df9 c4ad 4267 cbbf
000003a0: 22fb 1eb9 4867 9b3f c3d8 db39 9e10 bc3f
000003b0: 8c29 ff8c 0216 9bbf 62f9 1e29 de39 bebf
000003c0: 10d4 a0f6 5b57 b8bf 0000 0000 4872 60bf
000003d0: 0000 0080 6d4f c5bf 0000 0080 aedc a83f
000003e0: 1ff1 ded4 7cc1 903f ef47 ff1e 70b5 c2bf
000003f0: 6123 94ee 8eb8 93bf 1102 90eb 17fb aa3f
00000400: bcb2 97e0 543b b53f 2a0f 88fe b587 abbf
00000410: 3d4a 186f 2c9b 913f 0000 0000 30f1 8fbf
00000420: 99d0 d9f8 9686 c7bf 0000 0000 c4f1 91bf
00000430: 0000 0000 58e7 adbf 6253 dffb d566 c0bf
00000440: 0000 00c0 bc86 bdbf b418 8a12 acf4 c4bf
00000450: 0000 0060 b58c bcbf 87e9 485a 10cb bc3f
00000460: 801a ad6c 06a9 c0bf 8c70 5875 a3f9 243f
00000470: 539f 41eb ac61 c2bf b8dc 01a5 51f7 b8bf
00000480: e6b5 cd59 c642 9d3f 57ca 4a38 30b8 bd3f
00000490: a935 134a fbff b53f bdde 1467 df34 a53f
000004a0: 0000 0000 4804 97bf d853 3723 0d96 b5bf
000004b0: fcb8 4e8b 6573 693f 62d6 8dff 753a b13f
000004c0: 2bee c63f 1887 9f3f e92b 0433 a92a b33f
000004d0: d350 d04a fd66 803f 0d6a d666 13fa be3f
000004e0: 9e63 ab8f 7f18 a7bf 0000 0020 d1f9 c03f
000004f0: 9521 02b5 1106 96bf 0000 0020 6919 c33f
00000500: 838c af6c 3ea4 563f 6499 54a7 d2f7 c2bf
00000510: 7095 dd49 dea3 653f 883f 13f1 287f bc3f
00000520: f04c 833a 6102 c7bf edcc a19d 41b5 c3bf
00000530: 305e 21df 0088 c6bf 341e 402b e106 c0bf
00000540: 556c 54be 5459 92bf ceaa fea4 3b48 983f
00000550: 9138 f1a9 99b0 b93f 72dc 6233 9a34 c43f
00000560: 0000 0020 0bb2 c23f c43b 4fa6 7198 7dbf
00000570: 0000 0080 b4a1 a2bf 6b00 8eba b7fa 953f
00000580: 06c9 47cc 8511 c0bf e24e 2060 ac5d ae3f
00000590: a98c db6e 428a c1bf 0aeb 8bb9 2c60 b8bf
000005a0: 96f8 b994 2817 d3bf 8ad1 a24d 0fa8 d4bf
000005b0: 5a21 5f5d 6bfe adbf 6997 1a26 56fe 843f
000005c0: 34a5 e900 b0ee c0bf 3146 6f0c 9ee2 e93f
000005d0: 125a 6c0f e2ec 8f3f 665f 4ffa 2a4d b93f
000005e0: 363e 386f e94a cdbf ef76 6908 4b23 cc3f
000005f0: 24de f128 cfa1 843f 1e6b a238 deb2 b93f
00000600: a51c ab25 b763 903f 0000 00a0 a318 c33f
00000610: 9a7a 02c9 51a7 bbbf 0000 0020 9356 c43f
00000620: c948 0225 14ec a03f 0de6 dfd6 bb2c d53f
00000630: 26bf 3a84 fd3d d33f d53c e5d5 a51c da3f
00000640: 77aa 63fc d06a b6bf 2280 21de c0bb a63f
00000650: 7703 54b0 7d2b c83f 00ab 62c6 2f68 d3bf
00000660: 6283 a44c 87cd 9bbf d34f abbc 62a9 d7bf
00000670: 5445 c5f5 4e3f b3bf c744 eb93 65bd e1bf
00000680: 0000 0080 eb04 af3f 9a22 677b 3896 d5bf
00000690: 0000 0000 e705 963f eab4 5fd2 7b98 d33f
000006a0: 5a19 879a f4f7 b9bf e9e8 b343 47ff dfbf
000006b0: f0ad 3a0e 93ee 863f 5ced c8a3 57e2 c33f
000006c0: 8192 70ee a901 bc3f 0000 0040 ef1e b43f
000006d0: f99a ba0a 5d65 ac3f 8735 49bf 23fa 3f3f
000006e0: 0000 0000 7c60 b03f c9a3 655e 9aff bcbf
000006f0: 12fb bdd1 ba73 c2bf 3dd6 537f 9443 bcbf
00000700: b9a8 2f78 f11f aebf 0f04 4a0f aaf8 9d3f
00000710: 7043 f494 3224 a03f a65b fb50 819d be3f
00000720: 5e9c c244 9115 be3f 0000 0000 d224 ab3f
00000730: 1a39 7c4c 3e83 ba3f 0000 0000 4870 953f
00000740: 6594 8d61 7af1 a43f 9982 6330 f592 b9bf
00000750: b24c e37e a049 bf3f 040f 5612 3060 98bf
00000760: 9de8 b5f8 303f c5bf a432 e837 6ba5 abbf
00000770: 1901 7f8b 7e4c a4bf 3c6c e385 1a60 c13f
00000780: a16a 3165 ed50 c0bf 9e88 e002 735d a13f
00000790: 0000 0080 fe9f ab3f 7de1 5153 43a7 733f
000007a0: 0000 00e0 1386 c4bf d35b 37c9 06d2 b4bf
000007b0: 0000 0000 acd7 71bf 5983 7927 a221 403f
000007c0: a8f8 7527 1f32 b33f a01d c5f9 47b9 a8bf
000007d0: f3cc 0108 cf0f c4bf 0000 0000 407d 66bf
000007e0: ce6b 0508 56b8 aa3f 0ec0 2607 691b afbf
000007f0: 1908 d6f5 20d6 ab3f 78c8 7d61 7e78 be3f

bias f8 [72]
0.03657844893957194 0.169715643812698 -0.4604395839104863 -0.14095242761814858 -0.13434897702712437 -0.7630374330000154 -0.14067128491360092 0.02662773146582123
0.19355583166104892 0.17496566312659337 0.0339937617748039 0.07544280105135386 0.13156665861606598 -0.11930122763689933 0.42748711336335327 0.24216546329140162
0.2493363471725642 0.15177751117893545 0.25426029474830325 0.14007338140107706 -0.03405318078342182 -0.18237726528404435 0.03529273066775961 -0.06974238742048236
0.08283401333147838 0.11666212153283037 -0.24205432325470358 0.34159330375152525 0.20255337194949666 -0.03629893177316404 0.30851512728030567 0.024533793330192566
-0.4506124003726319 0.42009975558150253 0.04143651941825003 0.7497873506393412 -0.07493990659713745 0.10980396710258275 -0.7110851216207043 -0.11645619712987484
0.206890582924876 -0.1976356303979245 0.0019854580373600533 0.35632275130631297 0.009591259652649438 -0.1113628918525347 0.040640784372713616 -0.06049498493807169
-0.05494510497540099 -0.049113571643829346 -0.610571312987116 0.09374710534842745 -0.7956664754100197 -0.026350370700720518 -0.0902145641588699 -0.11868567071986925
0.1746838352977698 -0.04622469726433722 -0.1731798982362147 0.09891622679058601 0.0639868876767829 -0.05027560729107836 0.10702982160885173 0.3303891351931673
-0.16792911671982924 0.16619875014013777 0.22473322423591574 -0.32470852087800123 0.39382194194296977 -0.4502368542592455 0.4240574025756201 0.37843625662915714
00000000: dd23 de13 69ba a23f 94c6 e501 3eb9 c53f
00000010: 117b ab96 d777 ddbf 66b4 74a9 ba0a c2bf
00000020: 2591 4ae7 5832 c1bf c27b 8b7a cd6a e8bf
00000030: f058 1844 8401 c2bf 88de 3fcf 4c44 9b3f
00000040: b396 77ff 6fc6 c83f 2d9d 865c 4665 c63f
00000050: 087d 2e5e a167 a13f 7bf4 3b2b 3850 b33f
00000060: 0000 0020 2dd7 c03f e9b8 1277 868a bebf
00000070: dbd9 d6e8 f25b db3f 3f54 8724 47ff ce3f
00000080: c6b6 67e0 40ea cf3f 1812 640b 726d c33f
00000090: cc60 a7f8 cc45 d03f 8031 14b0 eced c13f
000000a0: d542 9423 6b6f a1bf c2e5 f662 2358 c7bf
000000b0: 2f56 0288 e311 a23f d2ad 1d19 a3da b1bf
000000c0: 0c50 4122 9c34 b53f 265d aa9c 91dd bd3f
000000d0: a5ff 1dd5 a2fb cebf 274e 0929 aadc d53f
000000e0: b5da 1bd6 44ed c93f 14e2 b009 c695 a2bf
000000f0: 475f 7f3b b6be d33f 0000 0000 631f 993f
00000100: d770 b164 d5d6 dcbf eded d115 eae2 da3f
00000110: 25dd 85df 2a37 a53f 216a be0a 42fe e73f
00000120: 0000 0000 432f b3bf 1e39 addf 1c1c bc3f
00000130: 370f c195 35c1 e6bf 16df 16c6 12d0 bdbf
00000140: c2a0 c1ff 637b ca3f cfad 8ad4 1f4c c9bf
00000150: fc3c d1aa ce43 603f 549b ebf0 fdcd d63f
00000160: d7da 4814 95a4 833f 829f 7e4a 4782 bcbf
00000170: b778 876f dece a43f 6e16 c3db 32f9 aebf
00000180: 16a7 e3c9 c321 acbf 0000 0000 6a25 a9bf
00000190: 64f9 a4d9 cc89 e3bf 08f0 906f cfff b73f
000001a0: a11b 4d8a 1976 e9bf d799 9671 97fb 9abf
000001b0: e36b af3a 4d18 b7bf c9e3 3e22 2f62 bebf
000001c0: e933 df37 0a5c c63f e320 0976 c3aa a7bf
000001d0: 28e4 9f47 c22a c6bf 2afa 1be7 9252 b93f
000001e0: d4d1 f1d5 7161 b03f bd14 3472 b9bd a9bf
000001f0: 35b9 816f 4e66 bb3f a3ef a678 1825 d53f
00000200: 7ccd 2d88 b37e c5bf b575 3e2a 0046 c53f
00000210: 827d 35ec 0ec4 cc3f bdd3 793f 06c8 d4bf
00000220: afe7 45f2 6034 d93f 09d5 1f3d aed0 dcbf
00000230: 7c18 eca8 c123 db3f f6f1 75b4 4c38 d83f

weight f8 [50, 72]
-0.030582054404965715 -0.2645412191763705 -0.1995515575136579 -0.004986333500296301 0.10783391289561559 -0.5266339392335492 0.05223610271873807 0.0016941350469586534
-0.07959641417958668 0.16717873335858535 0.039984859855786564 0.2407416396533032 -0.032542385160923004 0.03678731034700565 -0.14230076052654506 0.27077907788487
-0.005883223583105112 0.3676781567184422 -0.2685519944471612 0.09181866472311248 0.004628589331052924 -0.07087546227584383 -0.04264807622434235 0.07491873136759238
0.2834944711508072 -0.08181672614926423 -0.01443824917068942 0.28574488897567235 0.59875299558077 0.42982778749875117 -0.3788358341890261 -0.09072429686784744
0.085890153456343 -0.2507251732676639 -0.5595220256194758 -0.4635422951260617 0.008652396500110626 -0.06808663590621217 0.25039249350265613 0.03737064256216496
-0.12498222464806008 -0.17255100488593694 0.24228473451457624 0.4634881707818001 0.08847152517353479 0.006043529801907645 0.1613408577499239 0.07091833587139833
0.06694446363804622 0.06592588871717453 -0.6159032673106417 0.002660476872892036 -0.23654039478775615 -0.10278053560467522 -0.08000215625744844 -0.14109458323229004
-0.10177131737480766 0.11799617762098512 0.08838844172662451 -0.06363955075265701 -0.06963506654099104 0.04754512251265125 0.10030674222785324 -0.18576074926636083
0.005554024071031068 -0.06652462804942545 0.20793578440768498 0.8874699478671814 0.38021073844477915 0.08903256127184793 -0.167466243350201 0.07215049814722849
-0.0371626569861973 -0.29372087670462416 -0.24953488288791445 0.07953333050030688 0.11050139936018122 -0.5526846335509367 0.015626487213335902 0.1435091446128037
-0.30747730327080924 0.09789972793595743 -0.040529684310531916 0.20006138787997357 0.09442014247179031 0.10334877435516097 -0.15633974522363708 0.2518560497077445
-0.028647928351063123 0.288320597108682 -0.31335353185045306 0.05343335941065799 0.09405495743584338 -0.07251973690782393 -0.07165924897289196 0.04826836667831162
0.24517249405045763 -0.04432980613334708 -0.029861615358556744 0.23138797729536711 0.5893400708376868 0.4874081045134677 -0.35804179233433775 0.09692827612161636
0.043832052603109274 -0.2467353258563222 -0.5571622063664831 -0.4217803270555986 -0.07247299700975418 -0.031620997441503165 0.2612164738126886 0.05443157555681788
-0.12495731600114193 -0.14592806199662978 0.3394610485424335 0.37029285370787973 0.151939522716031 0.11134862776699256 0.13236122150678636 0.11298812744213581
0.04117748790984036 -0.11359532177448273 -0.4620080392835512 0.09843644855714848 -0.2036264797758822 -0.06680028287179557 0.034195192851013516 -0.08057733870220123
-0.04611596124119769 0.018305042594539495 0.06487784576904833 -0.0009324109501908058 -0.08986742132543854 -0.10029369435402737 -0.054166863601411715 -0.33994893067437676
0.08430764550567996 -0.025940485348894548 0.29224654622466656 0.9207045553941968 0.26520384905832134 0.03861625931899006 -0.01637833153797014 0.13024881003008806
-0.006912423396716507 -0.23723491301029334 -0.20282776889544699 -0.016289734577499142 0.02163065791472544 -0.5058613705196632 0.06878624894590765 0.0865343064930562
-0.23660524918729636 0.1402828339680222 -0.00029652148293880917 0.11416501850219928 0.07634364813566208 -0.03607263468022471 -0.20082395703501812 0.26114652209439426
-0.13701654217681064 0.37068225561928636 -0.27266598306845485 0.052388403614122635 0.07789043869775322 0.07610061316600715 -0.09208987663061503 0.06961872664050536
0.18779664772379742 -0.1120975785761697 -0.043850272359082405 0.22158257443486645 0.6383818174790713 0.4622569082614797 -0.31567867482994455 -0.08196994662284851
0.08766341022423597 -0.20090648933502003 -0.49330775494926177 -0.32259161535338043 -0.10071905702352524 -0.08097606475254 0.30483078513178996 0.1357821250102554
-0.019791648544655958 -0.1527899119946339 0.23241745864267566 0.29078137388209235 0.11002192932280105 -0.07021831551384924 0.11979217907114298 0.13040911221903437
4.801511637857261e-06 -0.10009044408798218 -0.4955488332798879 0.007789982350182798 -0.1171800901399641 -0.10319222000850568 0.04124864167981664 -0.05252626818380742
-0.11168909035464446 0.019370222174010465 0.022470967527578305 -0.09344074712607099 -0.05493697660922163 -0.1153240507759423 -0.007990106705820508 -0.3799194320103378
-0.011469969679090692 0.024558768522310228 0.37357959048335465 0.7896344601083434 0.29442779454430573 -0.015111273383355439 -0.1445049052602786 0.08652998164248374
0.05407996841973886 -0.3402044176429429 -0.11596631351461695 -0.10999911970277576 -0.02256030846936991 -0.46205697679266183 -0.05169406680454249 0.12300514628844503
-0.22612788090951744 0.03109056234961463 -0.12306378250296085 0.16987428416837405 0.027607865631580353 -0.062428677519415846 -0.1426961745034294 0.278579544497983
-0.09185771616244277 0.22795577620404114 -0.25868402403466456 0.0037176701401004917 0.029438605357313914 -0.04461132588624204 -0.05992046612125406 0.00907793471212773
0.1743387052949287 -0.051895380407283205 0.1143778055104127 0.16296461215169578 0.4395160382628162 0.410227539840355 -0.24974396533911739 -0.08444594591856003
0.14159628949072128 -0.2160132338932781 -0.44834817351766165 -0.23112420910413212 0.025402583181858063 0.15261829046964626 0.19607194301605332 0.20818298402614763
00000000: f526 0eee e650 9fbf 5c9d 334b 3eee d0bf
00000010: ff89 b1ca e78a c9bf 71b7 f8b4 8c6c 74bf
00000020: 4e50 49d9 009b bb3f 8918 3f6b 2fda e0bf
00000030: 77e8 b1c1 b0be aa3f 28d9 c9a7 b7c1 5b3f
00000040: e4ba c73b 6e60 b4bf 6450 2edc 1c66 c53f
00000050: bcdc d442 e578 a43f 5455 8c3e 9fd0 ce3f
00000060: 0000 0040 65a9 a0bf 2e46 b24d c9d5 a23f
00000070: f426 544c e936 c2bf 2c38 fdc4 7154 d13f
00000080: 7fe1 26ce 0119 78bf 1ccb a3f6 0988 d73f
00000090: bb45 5bb4 f42f d1bf 9eed 2592 6d81 b73f
000000a0: 0015 db7c 6df5 723f 1f4a 90f0 e424 b2bf
000000b0: 17e2 3df9 f7d5 a5bf f5e4 14bd df2d b33f
000000c0: 4d21 8cfe c524 d23f 45ae 13e3 f0f1 b4bf
000000d0: 9f33 ffff cc91 8dbf 1794 49ee a449 d23f
000000e0: 98d8 cc0a fc28 e33f f206 8e68 4c82 db3f
000000f0: 8443 99a7 d83e d8bf 0000 0020 b539 b7bf
00000100: d1b6 24a8 e5fc b53f b9fc dd98 e10b d0bf
00000110: a1ac 2dbc 9ae7 e1bf 1045 784d adaa ddbf
00000120: 0000 0000 59b8 813f fc07 8332 206e b1bf
00000130: ce7f b03c 6e06 d03f 441f 45af 3e22 a33f
00000140: b0da 71c7 d5fe bfbf b242 70bd 2616 c6bf
00000150: e9b2 87a9 2f03 cf3f efcd e549 caa9 dd3f
00000160: ec60 3fe3 11a6 b63f c221 a0ad 19c1 783f
00000170: 8cb2 c535 d1a6 c43f 5320 413d b427 b23f
00000180: 6b42 f9b9 4523 b13f 0000 00e0 84e0 b03f
00000190: fa28 d3c4 7ab5 e3bf cb90 25a5 6ccb 653f
000001a0: 85ee e5a5 f446 cebf b562 163f d34f babf
000001b0: 9037 bc74 057b b4bf 470e 5026 630f c2bf
000001c0: c4ae cb5f af0d babf 3765 ef5b ff34 be3f
000001d0: cf6c 8ffa 9fa0 b63f befc 367d ae4a b0bf
000001e0: 6fc6 728d 9ad3 b1bf 9863 8d94 d557 a83f
000001f0: c4da 6fe1 b3ad b93f 765f 7d1b 02c7 c7bf
00000200: 48be f0fb d0bf 763f 15d1 d90d c207 b1bf
00000210: 8f7c d9c8 a39d ca3f 3fb7 4860 2766 ec3f
00000220: 6255 cd6b 5f55 d83f 7313 f182 d6ca b63f
00000230: 70c1 2fab 886f c5bf 5eb5 ee7d 7478 b23f
00000240: f7bf c6d8 fb06 a3bf e352 e6a5 52cc d2bf
00000250: ff7d 9b50 c2f0 cfbf c9d6 70dd 4b5c b43f
00000260: e809 6ad8 d149 bc3f eb4b 43af 97af e1bf
00000270: 596c 21ce 6300 903f 8bfb 64f5 815e c23f
00000280: 96dd 7348 b5ad d3bf 2db1 c5e1 f40f b93f
00000290: 6c0a 4389 4ec0 a4bf 8a84 118f 9c9b c93f
000002a0: 0000 0020 eb2b b83f c7e5 efb5 1075 ba3f
000002b0: 9276 66d6 f002 c4bf 4dd9 32d6 681e d03f
000002c0: 23c0 76ed e155 9dbf 2d14 d63b d873 d23f
000002d0: 0590 d8f8 fb0d d4bf 244e 5e06 9e5b ab3f
000002e0: c2af 3656 fc13 b83f a468 554a a790 b2bf
000002f0: dd63 cbb2 4258 b2bf 561e a1a0 a1b6 a83f
00000300: 01a9 e9f1 cf61 cf3f 8857 2977 65b2 a6bf
00000310: 4fa1 7b15 0b94 9ebf a1e9 9509 1f9e cd3f
00000320: c80b 4fb5 dfdb e23f 5434 2cc3 b131 df3f
00000330: 5057 2b1f 28ea d6bf 0000 00a0 4ad0 b83f
00000340: ddd0 e4a0 2771 a63f 3510 a9ed 0595 cfbf
00000350: f128 ddd5 45d4 e1bf df32 b3e9 72fe dabf
00000360: 0000 0020 978d b2bf a29d c19b a030 a0bf
00000370: 8dec 0c4d c5b7 d03f 40c7 c599 74de ab3f
00000380: 82ef 9ee1 33fd bfbf 440e ec4e c5ad c2bf
00000390: 155c 70d5 bab9 d53f f38a 27cc e0b2 d73f
000003a0: 8281 8418 c172 c33f bcb5 b6fa 5781 bc3f
000003b0: 56ac d066 36f1 c03f cf43 3338 caec bc3f
000003c0: 45f3 ce37 3715 a53f 0000 0040 9514 bdbf
000003d0: 5b90 cd2a 8a91 ddbf 0e8f 498f 2133 b93f
000003e0: a756 9eb7 6e10 cabf e443 4cc6 d219 b1bf
000003f0: d776 f345 0882 a13f bb50 866a b7a0 b4bf
00000400: 4587 b5e2 829c a7bf 4886 2e9d 8ebe 923f
00000410: 6920 d0a1 d59b b03f dddb cc44 a18d 4ebf
00000420: 8690 9123 8d01 b7bf 81dd 3ef9 d8ac b9bf
00000430: 49d1 6357 c2bb abbf a79f e328 b9c1 d5bf
00000440: 82e9 3f94 2f95 b53f d30c dd80 2490 9abf
00000450: 6bd9 99db 2ab4 d23f 0e48 5666 6976 ed3f
00000460: d5a4 9e90 19f9 d03f c2e2 bca5 82c5 a33f
00000470: 3146 4639 7bc5 90bf d908 b635 feab c03f
00000480: 8fcf cc86 3350 7cbf 699f 6cb0 b65d cebf
00000490: 2134 10a5 42f6 c9bf 5b61 1595 41ae 90bf
000004a0: 0abe 56e1 5826 963f 5722 562f 0430 e0bf
000004b0: be1e a3c1 f99b b13f c3a5 5ec0 1c27 b63f
000004c0: 9a22 a9af 1449 cebf f09a 0ab4 c9f4 c13f
000004d0: 1669 6012 ce6e 33bf 276e d02c eb39 bd3f
000004e0: 0000 00e0 418b b33f 81d8 76c4 1c78 a2bf
000004f0: c1fe db73 99b4 c9bf 1c03 f7e6 9fb6 d03f
00000500: 3288 d40f c289 c1bf 04e9 4511 42b9 d73f
00000510: 5daf 0006 5c73 d1bf 3bb3 6c20 a7d2 aa3f
00000520: dec0 e0b6 a0f0 b33f 81e8 c06c 547b b33f
00000530: 8dd1 6bc0 3393 b7bf c631 1c6a 88d2 b13f
00000540: 93d5 2276 b809 c83f 4c08 f249 6db2 bcbf
00000550: 49e9 67fb 8a73 a6bf 9ed6 475b d15c cc3f
00000560: 7be0 8db4 9f6d e43f f651 d5ff 9d95 dd3f
00000570: 591c 1c54 1434 d4bf 0000 0080 fbfb b4bf
00000580: 810b f8f7 1b71 b63f 36c1 9fc8 4db7 c9bf
00000590: 5db2 97b0 5a92 dfbf 6a05 7a4d 57a5 d4bf
000005a0: 0000 0060 b9c8 b9bf c5f5 deed d8ba b4bf
000005b0: 641f 3dfb 5882 d33f 8374 2605 4f61 c13f
000005c0: 19d2 ee0c 4344 94bf 617c 96ad 9e8e c3bf
000005d0: 7ee2 f1f3 dabf cd3f a002 c77a 299c d23f
000005e0: dec4 48ac 652a bc3f 3652 b6d8 d3f9 b1bf
000005f0: b458 6d43 b3aa be3f 0363 0aec 3eb1 c03f
00000600: b846 1c78 9523 d43e 0000 0000 879f b9bf
00000610: 4d84 2074 12b7 dfbf fd21 e376 63e8 7f3f
00000620: f7ba e4ae 83ff bdbf 075f 232a ce6a babf
00000630: 2bd9 09be 8a1e a53f bb8d 0f18 b9e4 aabf
00000640: e7a7 64fe a797 bcbf 50b7 039b c9d5 933f
00000650: 0bcc 8f1a a102 973f 2131 0599 bbeb b7bf
00000660: 0665 c10b b320 acbf de60 8682 e085 bdbf
00000670: dfc3 f1f7 1d5d 80bf df5a e697 9950 d8bf
00000680: dd2f 4345 917d 87bf a78e 880e ef25 993f
00000690: aa0f e55e bae8 d73f ecb7 be7c af44 e93f
000006a0: 117a 26ad e7d7 d23f a002 dcc7 a8f2 8ebf
000006b0: 3c2c 1a01 237f c2bf 9a27 4731 d426 b63f
000006c0: 0486 769f 5eb0 ab3f 69cb eebf e8c5 d5bf
000006d0: 70a3 fbe3 f7af bdbf 7853 b6fd e628 bcbf
000006e0: 7124 41ac 0c1a 97bf a7a3 0d6d 5792 ddbf
000006f0: 633f a50c a577 aabf e66e 8ce8 437d bf3f
00000700: 352e 9c26 c2f1 ccbf e8fb 0552 34d6 9f3f
00000710: 241a 2ca9 1b81 bfbf 39a0 77c7 70be c53f
00000720: 0000 0080 3c45 9c3f 428d 8ed0 a6f6 afbf
00000730: 3fd6 6045 de43 c2bf bb04 3d4c 3fd4 d13f
00000740: a18d cdbe fc83 b7bf ff85 dda5 a72d cd3f
00000750: ff7f ce6f 478e d0bf fdd5 68f5 8474 6e3f
00000760: 8280 ff5c 2725 9e3f edda 6cb3 4bd7 a6bf
00000770: 4727 b434 e5ad aebf 1168 a1c5 7397 823f
00000780: fd97 d50e bb50 c63f 5955 5303 0892 aabf
00000790: 5b33 0e26 dd47 bd3f d465 cc3f 06dc c43f
000007a0: 7f00 9ae0 0721 dc3f 681a e202 2b41 da3f
000007b0: 799f c039 9cf7 cfbf 0000 00e0 3f9e b5bf
000007c0: 0a7e 4cc4 d31f c23f f893 8957 52a6 cbbf
000007d0: 3eb3 9e89 bcb1 dcbf 3043 b563 7a95 cdbf
000007e0: 0000 0080 2203 9a3f e855 2b03 ff88 c33f
000007f0: 5764 75ab e218 c93f 63ed fc71 bda5 ca3f

bias f8 [50]
0.6735711452820647 0.6572498413670879 0.5254379498132413 0.4155407432150643 0.3648239209976857 0.2420308949387046 0.05630230187422023 -0.0049800953155226795
-0.05223706879369988 -0.09930447566597383 -0.18362369703198372 -0.181930692717409 -0.23418960200291172 -0.19810165297443075 -0.24861774939466935 -0.24829597733575454
-0.26711711771703994 -0.2443326356854142 -0.31150283043249755 -0.3007781652001646 -0.2588883804706138 -0.32636288265173763 -0.3357054866001464 -0.3387972281224948
-0.35564903460111075 -0.40144644116941186 -0.420671130539304 -0.46718386929490774 -0.4657744213055395 -0.503067992573839 -0.5266643840686207 -0.5615069476883187
-0.5511300650086564 -0.5700694765998283 -0.5633238531557735 -0.6070692247962831 -0.6382518306244345 -0.6113442688483522 -0.6229016297932587 -0.6474213463089431
-0.6736601046131205 -0.6601902801050249 -0.7481075645784744 -0.7226584753572942 -0.6904361200972278 -0.7227133009792539 -0.7370310788752817 -0.7496659917077094
-0.7760092711488427 -0.823540344329939
00000000: e280 1013 e58d e53f 6d21 bfd1 3008 e53f
00000010: 1ece 503f 63d0 e03f 3ae9 9033 3898 da3f
00000020: 72f2 5e6e 4659 d73f 8e11 314d defa ce3f
00000030: ed84 7ac2 a7d3 ac3f 7e99 2d28 0266 74bf
00000040: 3837 372c d1be aabf e4ef 54a3 046c b9bf
00000050: 16f1 c236 fb80 c7bf 1b11 ae43 8149 c7bf
00000060: b037 d5c4 ecf9 cdbf 2d84 671c 655b c9bf
00000070: 2278 6dd7 b4d2 cfbf 8a55 319f 29c8 cfbf
00000080: 58f9 3265 7218 d1bf 94a2 ceb3 4a46 cfbf
00000090: ab6a 5491 a9ef d3bf 8bad b80f f33f d3bf
000000a0: 5ee2 db91 a091 d0bf 1a85 e724 21e3 d4bf
000000b0: e943 82dd 327c d5bf 82bd b091 daae d5bf
000000c0: bcce 1d2b f4c2 d6bf fcc3 fa69 4cb1 d9bf
000000d0: fb68 029b 46ec dabf 94c8 f52b 57e6 ddbf
000000e0: 0085 b484 3fcf ddbf ba9b f80b 2219 e0bf
000000f0: e05d 3144 6fda e0bf 218a 196b ddf7 e1bf
00000100: bcbe a184 dba2 e1bf 1136 ce57 023e e2bf
00000110: 4b8b cbbe bf06 e2bf 390f 5d70 1c6d e3bf
00000120: 489c 641a 8f6c e4bf 5f9f 29db 2190 e3bf
00000130: e5c9 1266 cfee e3bf 6a22 a4f8 acb7 e4bf
00000140: 86dd bda2 9f8e e5bf 6b05 c65d 4720 e5bf
00000150: f526 7846 7ff0 e7bf 12c7 baaa 0420 e7bf
00000160: 5c6e 797d 0d18 e6bf 1ae2 02a5 7720 e7bf
00000170: 33f5 7c33 c295 e7bf 4bdb a988 43fd e7bf
00000180: 3444 1f65 11d5 e8bf 66ad ba47 715a eabf
