Sphere/NeuralNetworks/models/net_gridded_30_ep49.pt (torch_old, 70717 bytes, 6 tensors)

weight f8 [36, 6]
-0.08526278122145488 0.3580554978670892 0.2566855696099587 0.07178233326669839 0.16079638048146 -0.039175556028061255 0.0037844928763618286 0.6082790400643808
0.2739137465998476 0.11878330259435493 -0.07275782358517408 -0.1513719056572708 0.4930949970204507 0.4089840093421472 0.37496974526662075 0.24534537129764014
0.0971459911671717 0.2831891260904381 -0.10066524566863443 0.13411749387099434 0.02255865538491443 -0.21154027836689848 -1.2146551601112976 -1.755975718823846
0.2507176644748356 -0.07717741193811707 0.574861463044046 0.8380668979590696 1.399371841102709 1.21940856438253 0.0400330958836807 0.024242473662993713
0.03830337472483797 -1.5596708410296234 -2.495221159965016 -2.1664179517775395 -0.34691353703388844 0.2467427204832912 -0.416529258383199 0.058203142011633235
0.28393865332008916 0.1831534846945066 0.3988229375111538 0.5460734266545029 0.5629226167556699 -0.9870593638016644 0.6690585884703857 2.518991926497792
0.5212946145777617 0.40665660440117696 0.04536198430755076 -0.30553918424476345 -0.49164200412501524 -1.0618979469437022 -0.16831871249322206 0.23759667040609522
-0.4462415776791691 -0.08520991694593875 -0.6554372131232051 -0.6696494037094821 -0.21838484700958372 0.07756503320946731 -0.4091896278849405 -0.5458578000609781
-0.3070241184039002 -0.9345878196951739 0.42450504046113263 -0.12166558417617512 -0.03923688494224095 0.3584536166392467 -0.16433138259331737 -0.3590327944965019
0.9536136051702092 0.32641268344079394 -0.470394372108616 -0.16312869091531357 0.6013153319186337 1.2949172587922668 0.19698944290725723 -0.1171854700505772
0.19069934031265262 -0.4971782426205267 -1.1271746336109607 -1.0201758634401492 -0.20210853932402173 0.08340104075952497 -0.3149318310760507 -0.050965208171842136
-0.5928670619313078 -1.2639511327313901 0.3537168953321068 0.12753135721790415 0.3604280815756236 -0.04134894960243507 -1.0279816447818653 -1.6427575243158992
0.044088571762723364 0.03276518228488611 0.13628509018920285 -0.10295097656429462 -2.0015621276820985 -2.3280541839745124 0.23032112168996896 0.6057886046740116
-0.038576355023521476 0.10561605562524448 -0.20271475708641232 -1.3775408923703734 -0.07564860582351685 -0.3261844217777252 -0.10893702507019043 -0.027685433626174927
-0.12306636571884155 0.06885969638824463 -0.1166084952477854 -0.18463328158539724 0.14924244846570003 0.006812636328122898 -0.277355307932016 -0.48250081678173457
0.3230896329395751 0.2520995870152789 0.41684020510296244 0.3401771750902843 0.3714485351026571 0.15659371896716104 0.16382887155441103 0.22623198238568976
0.283283272470114 -0.27173519538420204 0.009471901567262265 -0.8284313425356346 0.0018966295072700159 -0.053199197949293 0.7361990760218013 0.9383553836830166
0.408266738056749 -2.3024483660007147 0.36192366363813205 -0.1888608048519176 -0.03445940126000838 -0.5613438380505366 -0.6777332257170591 -0.32615119278617527
-0.10310800310700115 0.47525727046784466 0.29647973730281774 -0.6503344300845262 0.7007450428583876 1.252133672712455 0.5082537766988214 -0.30529502361552713
0.10929212045069495 -0.5624267461750688 -0.5154582353917988 -0.6257855541282882 -0.15129020810127258 -0.21089255809783936 -0.12747451663017273 -0.10987886786460876
-0.3526848554611206 0.10430443286895752 0.08925588980933419 0.053654050802148044 -0.18103724999679816 -0.12154335744851934 -0.15880260736946375 -0.6088605519458705
0.22874659541710587 -0.2291131860633372 -1.0055252886800494 -0.5810696189244765 -0.5139650593199102 -0.31643270157074493 -0.2720904646364203 0.07696942025957723
-0.01070101531187035 -0.391083430869807 -0.9002083150541857 -1.1051449536564482 0.43012479807186316 0.23634416824495633 -0.36755157763970775 -0.26704632843003917
-0.5707712428977109 -1.0308347904354656 0.27162393527347706 0.6380269021411621 0.13757798238744987 -0.00430019465418713 0.13283621474382343 1.0803158162491457
0.05302703734713187 0.01967533906081478 0.7231337962945951 1.1681003512511667 1.3192904713596 1.566888678017666 -0.6793368076992881 -1.0617030008789103
-0.6237391205019519 -0.04643479127587375 0.3403072582257837 0.7530711509237489 -0.34819161891937256 0.17965173721313477 -0.3049064874649048 0.33981412649154663
-0.21475166082382202 0.3851168155670166 0.07854354381561279 -0.3189261257648468 0.2057233452796936 -0.04561799764633179 -0.2859154939651489 -0.01450321078300476
00000000: c582 e918 c8d3 b5bf 517f 5f9b 61ea d63f
00000010: 261d b54f 896d d03f 7aa0 cfb5 5360 b23f
00000020: 5ed4 bdcd f994 c43f 15e3 e287 d10e a4bf
00000030: db72 5924 a800 6f3f b966 fd9a 0577 e33f
00000040: 288e e485 cd87 d13f dc20 f41f 9568 be3f
00000050: e492 d3b8 41a0 b2bf f563 2a94 2760 c3bf
00000060: 168a 8151 de8e df3f e688 2d44 cb2c da3f
00000070: ac36 3a1a 81ff d73f 4163 f924 7a67 cf3f
00000080: 3f21 0047 8fde b83f 460a c948 c51f d23f
00000090: 5797 fd91 32c5 b9bf d7aa ff14 c32a c13f
000000a0: 04d2 7abc 9d19 973f 38b0 af78 c013 cbbf
000000b0: da87 c93f 3a6f f3bf 38b2 cefe 7918 fcbf
000000c0: 1bbb 5c1a c20b d03f 359e 431c e6c1 b3bf
000000d0: 0f28 f0dd 4365 e23f 1b05 d3ab 71d1 ea3f
000000e0: cdab 47ba d363 f63f b2c3 078e b282 f33f
000000f0: f8f4 27cb 377f a43f 630f 3ade 04d3 983f
00000100: 980a 8afb 7f9c a33f e8f3 6b69 69f4 f8bf
00000110: 07b2 f282 36f6 03c0 90d0 62ef d254 01c0
00000120: 436a 06d6 d433 d6bf 263b 80f5 4395 cf3f
00000130: 704f a555 6aa8 dabf f0c6 ed5e cdcc ad3f
00000140: c81f 8507 0d2c d23f dea6 74c9 9271 c73f
00000150: db52 60a4 5086 d93f 8a43 96fa 6e79 e13f
00000160: 779e a44a 7603 e23f 8da3 d784 fd95 efbf
00000170: c6d2 928e ed68 e53f 8491 393d e526 0440
00000180: 3c28 260b 72ae e03f efbf 266c a906 da3f
00000190: fc49 2a9e af39 a73f e893 fe38 f48d d3bf
000001a0: 3aa3 4306 1077 dfbf 0001 9db3 88fd f0bf
000001b0: a44a bbb2 778b c5bf 882e 8454 9169 ce3f
000001c0: a1d6 8fd5 388f dcbf 0be3 932e 51d0 b5bf
000001d0: ee41 5e76 57f9 e4bf e5fa 1696 c46d e5bf
000001e0: 608f ecdf 08f4 cbbf 12a4 f250 4ddb b33f
000001f0: e834 68b1 2930 dabf b7e8 f0c6 aa77 e1bf
00000200: e030 e87c 48a6 d3bf 3b95 1ab7 24e8 edbf
00000210: 5922 7130 172b db3f 40dd 15c9 7925 bfbf
00000220: ec67 3f63 db16 a4bf 984d 2670 e7f0 d63f
00000230: f4ed f88c cf08 c5bf 2774 a3af 64fa d6bf
00000240: 2b41 e7ad 0084 ee3f 0d2e 1806 f2e3 d43f
00000250: 1674 1bff f01a debf d8a1 42a4 66e1 c4bf
00000260: ba90 a5a6 f93d e33f bd9e d828 fbb7 f43f
00000270: aad2 7837 f336 c93f 7e01 6ff1 ddff bdbf
00000280: ae7c 0103 d668 c83f 68a0 15b1 c4d1 dfbf
00000290: 76d6 c344 e808 f2bf d64d 1aed a352 f0bf
000002a0: dcca 514f b1de c9bf c3b7 8346 c559 b53f
000002b0: e839 bcd6 d727 d4bf 00ee a99c 1c18 aabf
000002c0: bddb 3b58 c4f8 e2bf f52c add2 2439 f4bf
000002d0: 949e 5f30 4ca3 d63f f691 3b90 f252 c03f
000002e0: 4559 bbf1 4011 d73f 0067 8884 b02b a5bf
000002f0: 569f 93e1 9c72 f0bf 8a1d 231d bc48 fabf
00000300: 4a4d b2fb c692 a63f 6fdd b814 99c6 a03f
00000310: c3c3 a532 ca71 c13f 1f56 6fc5 fe5a babf
00000320: 4e74 3a01 3303 00c0 59e4 3bdf da9f 02c0
00000330: 1744 9e9a 297b cd3f c7a8 abc8 9e62 e33f
00000340: 6927 73ae 47c0 a3bf 0acb d760 a709 bb3f
00000350: 1926 0da2 8ef2 c9bf 7222 9a51 680a f6bf
00000360: 0000 0000 b55d b3bf 0000 00a0 34e0 d4bf
00000370: 0000 0000 4ce3 bbbf 0000 0000 9259 9cbf
00000380: 0000 0000 4781 bfbf 0000 0000 caa0 b13f
00000390: 0967 86e9 0dda bdbf d7ca 1439 10a2 c7bf
000003a0: 19e6 aa65 601a c33f fd48 a923 91e7 7b3f
000003b0: 4229 3c7a 30c0 d1bf cfbb 171b 4be1 debf
000003c0: 53bc c923 80ad d43f e834 644e 6622 d03f
000003d0: 5bcf 248a 82ad da3f a1f0 767c 76c5 d53f
000003e0: ec6e 9a13 d0c5 d73f 558a dc52 430b c43f
000003f0: 73bf bb2e 58f8 c43f c8f0 d36a 2bf5 cc3f
00000400: f0d4 b029 5021 d23f 753a 5604 1c64 d1bf
00000410: 2dd6 b21b 0166 833f 6780 6572 8282 eabf
00000420: 86e4 346d 0a13 5f3f a735 bbde ec3c abbf
00000430: 607d 5b5d f18e e73f f935 9ede 0107 ee3f
00000440: bbe4 ffcf 0a21 da3f 199d 850c 6a6b 02c0
00000450: a15a bede c129 d73f a1e8 2a42 972c c8bf
00000460: 0428 e7a2 a9a4 a1bf 219f 475a 87f6 e1bf
00000470: 5fc1 fb96 fdaf e5bf 575a a440 a9df d4bf
00000480: 65e9 4c3d 4965 babf a11e 7678 9d6a de3f
00000490: 021b e925 86f9 d23f 78a0 9526 8acf e4bf
000004a0: 0926 3dde 806c e63f 6753 6851 bd08 f43f
000004b0: 77ad 9f6c 9d43 e03f ebda 8323 f489 d3bf
000004c0: 92d5 0b83 91fa bb3f b1f6 2660 66ff e1bf
000004d0: cdc5 ee44 a27e e0bf 9c49 296d 6f06 e4bf
000004e0: 0000 0040 7a5d c3bf 0000 0000 87fe cabf
000004f0: 0000 00c0 1551 c0bf 0000 0080 0521 bcbf
00000500: 0000 0080 6392 d6bf 0000 0000 b2b3 ba3f
00000510: 38db b457 79d9 b63f f37d fc32 8b78 ab3f
00000520: fc08 0c86 3a2c c7bf eb94 4929 771d bfbf
00000530: a1ef 95d2 a453 c4bf 22d3 cd1f c97b e3bf
00000540: dda3 3185 9147 cd3f 04b9 9cb4 9453 cdbf
00000550: 89e8 62af a116 f0bf 995a 3f50 1f98 e2bf
00000560: 551a 22da 6672 e0bf d966 28f2 6e40 d4bf
00000570: fead ca1f ee69 d1bf 3295 ce96 44b4 b33f
00000580: a448 63f6 69ea 85bf 98f8 65cc 8207 d9bf
00000590: fad6 17ab 81ce ecbf bcb3 9479 acae f1bf
000005a0: 53b4 3a29 2a87 db3f 3930 9b94 8640 ce3f
000005b0: 6791 630d f785 d7bf deed c77b 4917 d1bf
000005c0: 2bc6 b70d c243 e2bf 4afd 079f 4c7e f0bf
000005d0: acdd b35b 4962 d13f 7343 d564 b76a e43f
000005e0: 3f7b 80c3 279c c13f c2a9 7fb6 149d 71bf
000005f0: b34a 06ef c600 c13f 1a44 c23c f948 f13f
00000600: 0f5e 6b1e 5c26 ab3f 6734 37a7 c525 943f
00000610: adf6 b67c e923 e73f 341e 71fe 89b0 f23f
00000620: 5d9f 4653 d01b f53f d2ef c8dc f911 f93f
00000630: 1033 818b 20bd e5bf 8e70 2d49 bcfc f0bf
00000640: 7f55 79be abf5 e3bf 7959 da0b 4dc6 a7bf
00000650: 6bf4 2a18 98c7 d53f 24ea 98ab 2819 e83f
00000660: 0000 0080 c548 d6bf 0000 0000 d4fe c63f
00000670: 0000 0080 9683 d3bf 0000 00c0 83bf d53f
00000680: 0000 0080 fb7c cbbf 0000 0000 c1a5 d83f
00000690: 0000 0000 6e1b b43f 0000 0020 4969 d4bf
000006a0: 0000 0080 2455 ca3f 0000 0000 3e5b a7bf
000006b0: 0000 0080 704c d2bf 0000 0000 dcb3 8dbf

bias f8 [36]
0.5315191633135743 0.18759627333585735 0.08151744080537153 0.07355977809034488 0.23939980992810336 0.0394273411234605 -0.3826172125847312 -0.027866417426216962
0.2535340142441738 0.5196491301585189 0.5130137044861184 0.13077797195348398 -0.17912018774260802 0.14162279346784432 0.2757201059356896 0.08319846575554712
0.02326355727124525 0.04679307990817214 -0.12029039859771729 0.5395877993600706 0.2542599124080881 0.30012592748564115 -0.018549766892251414 0.45661584921343273
-0.21526584226710233 0.30494830915602056 -0.07373952865600586 0.34595140381647926 0.10975832795920963 0.21364068360125502 0.28305340653164657 0.014691778472943546
0.1590475782709604 0.13292405093094803 -0.31871822476387024 -0.3973570168018341
00000000: 7621 f479 3402 e13f 271c 6a99 2703 c83f
00000010: 3b0c 50b6 53de b43f d9f4 3249 d0d4 b23f
00000020: 2fa8 2729 a7a4 ce3f 4512 6309 d22f a43f
00000030: d509 bce7 cc7c d8bf 5a57 029e 0389 9cbf
00000040: 7d8c e6ba e639 d03f 389f 6d36 f7a0 e03f
00000050: b15d 65b7 9b6a e03f dde8 4924 55bd c03f
00000060: 7635 340a 69ed c6bf c301 2819 b220 c23f
00000070: f5fa 75f1 65a5 d13f f058 7fa1 7e4c b53f
00000080: 13ab ace6 66d2 973f 3df9 c437 43f5 a73f
00000090: 0000 0000 5acb bebf c04e f2a1 4d44 e13f
000000a0: 0280 1e5e cb45 d03f 38e1 ce60 4335 d33f
000000b0: 4242 9ac8 b5fe 92bf d93e cdae 3139 dd3f
000000c0: 30d6 3dc4 d48d cbbf 34eb b2e9 4584 d33f
000000d0: 0000 0000 98e0 b2bf 9069 595b 1124 d63f
000000e0: 1367 0c2d 1f19 bc3f f1cb 94f2 9358 cb3f
000000f0: c4c9 0409 8c1d d23f 37af 7d20 b916 8e3f
00000100: 6844 97c9 ab5b c43f 53d5 ccc1 a703 c13f
00000110: 0000 0020 e165 d4bf 0000 0020 4c6e d9bf

weight f8 [72, 36]
0.23524709938846391 -0.10875844065182173 -0.03692521703460737 -0.9974560618910336 0.8731859977437629 -2.262400056564679 0.04340462386608124 0.35572092255022175
-0.29505082658931137 -0.008372768012740811 -0.12873935008874912 0.386754768000793 0.6790777794419625 -1.2350944688195606 -0.19302313499132692 -1.251513730883319
-1.1158102619428456 -0.21933109114209495 -0.14172975718975067 0.2679447586357542 0.24462604479157113 -0.16694857962518478 -0.035664128169438626 -0.1971315411404009
-0.2381272506870716 -0.17194300778138905 0.07990086078643799 0.1128127209779712 -0.3279741932026968 -0.7266729558182243 -0.25348317865250025 0.1420671095269263
0.9475342420001115 0.9783333520194447 -0.1339840590953827 0.01938338577747345 0.06152368308987218 0.5253969582346821 0.6985032226677271 -0.1413173298288847
-0.001746271960093961 0.9398338637312309 0.11985893547534943 0.12740140300879713 0.49358802947577435 -0.16481620186843896 -0.38351338512017286 -0.1566323815587138
-0.6557664779485463 0.41553577486239446 -0.9035534754650343 0.2717244857492908 -0.5999859389418917 0.37100136903024433 0.1150759607553482 -0.23817897569128732
0.16952914349514037 0.09204869628509257 0.3244259701984436 0.23991483299889607 0.21238225669806496 0.24611385142270897 0.15898065268993378 -0.1029592416303997
0.8502029867910088 0.03861743680640731 -0.18781200728748826 0.7597704486636163 -0.002633696536176199 -0.8741275276457375 0.05131824314594269 -0.09573080390691757
-0.025067137260931998 -0.09607791117598984 -0.007036449487814219 0.47570403264467204 -1.0115683451629385 1.801055754562403 0.0528611688482941 -0.007268011815786305
0.019121928974419423 -0.10918686800374519 -0.0130584340022455 -0.05751036833226053 -0.36116091780510595 0.3181315949009 0.15790043796911887 0.5837578460437901
1.1046236145668955 0.009055322423846988 0.08050179481506348 -0.06586412227000824 -0.009295091770865365 0.18703831558602607 2.115338734164922 0.03593765308532541
0.14117098003886483 0.29014763241243147 -0.022589698433876038 -0.001422874020789871 0.016641244369877742 0.25979118637877796 0.28131650961235216 -0.08760388180095288
-1.0784093289323564 -0.03286549803081065 0.13927249610424042 -0.019298747181892395 0.10300060143958896 0.19936481471294595 -0.12228531493898995 0.10473080170519587
-0.3748059886160334 1.4493069942701564 -0.1544191981604524 0.3812845912721924 0.23831060412428676 0.04324363588422568 0.10776803838742827 -0.045320576630350606
-0.34152504342959517 0.08239640872524244 0.13691433018384827 -0.027688473424392356 0.479596893681264 0.04855945264466721 0.047563597559928894 0.3210110953392021
-0.0724714408251921 -0.010602803513294293 0.8893260361895304 0.30900195798941593 0.005910845304588804 0.3630885553624882 0.13728393614292145 0.25808959266495607
0.29692109367695213 0.2303438731613564 0.3700272799570785 -0.09056880929005914 -0.7611237163097202 0.43098601928787356 -0.05231265723705292 0.10882370173931122
0.19818745088626932 0.16206636496144777 0.009322123890203142 0.39283022709645876 -0.49553708704973864 1.2472619874875552 -0.10181060923684179 0.11449121784453294
0.09353573890528646 0.282828716353553 0.10149159664196518 0.11433408523075123 -0.3312311094614633 0.1105544693150758 0.33308669323631757 0.10479362065320873
0.4617818046861902 0.17488276599603556 -0.08998899161815643 0.012101938410319583 -0.017970957367311736 0.08192351812588457 0.9298105024498194 0.07390306443380179
-0.13713552031896076 0.1954005773907993 -0.09105700254440308 0.26427734831265987 0.2594272227337823 0.360367307878728 0.14232020685043117 0.06427996472462312
-0.903802442427395 0.08670869404813764 -0.08489499986171722 -0.03704589605331421 -0.03967131715923709 0.00677561150773135 0.03309355011940404 0.0750527320351454
-0.047294482588768005 -0.07936207950115204 0.013123556971549988 -0.10185432434082031 -0.08836218767662414 -0.04061984581274237 0.004589029485514637 -0.09828919187705387
0.15026049315929413 0.014605949500997691 0.11929524289237507 -0.03938472242887564 -0.0864529013633728 -0.11258211826189983 0.036426857113838196 0.03696666971924349
0.12594825531071283 -0.03134224947663639 -0.07937423884868622 0.04222432739565541 -0.10943617671728134 -0.09745977859727471 0.11019532382488251 -0.07482849642322982
-0.156910655934311 0.15239808022975743 0.07183552471401426 -0.1499651074409485 -0.1316140592098236 0.08137274140726365 -0.02485080063343048 0.014945492148399353
0.12465371935683549 0.1764804909777586 -0.01498234707181512 0.1525080120334329 -0.5838768282543706 1.2677774433764282 0.039630435894480655 0.11268610178748022
0.24586157569597575 0.1583351167932633 0.107048209658973 0.09699686060509582 -0.1327927158048228 0.32641863242023283 0.3720521956409376 0.03855875993463903
0.46203180964537605 -0.0008368964761314728 0.1514274924993515 0.07084804337034373 -0.10229943022088613 0.06695433410319017 0.8630279809783835 0.21048832509994553
-0.18498974880411925 0.25155352712617485 -0.012343749403953552 0.1600310953897426 0.1227899219578815 0.0591846428200213 0.21970331862960865 -0.09664934976290385
-0.6588027662329475 0.2273021536612829 0.06482298672199249 -0.07008425891399384 0.2118587758218366 -0.12119948392721032 0.016150213370810466 -0.10900139186345827
00000000: a118 2db3 931c ce3f c976 c3d9 97d7 bbbf
00000010: 0e68 1faf dce7 a2bf 2b9b a0f9 28eb efbf
00000020: 934e f4c2 23f1 eb3f 8f4f 6b33 6519 02c0
00000030: 0000 0080 2139 a63f 2fcb 36b0 21c4 d63f
00000040: 8ef7 b6dc 1ce2 d2bf 906f 55e6 bd25 81bf
00000050: d373 2bf1 877a c0bf 98ab 0812 97c0 d83f
00000060: cc97 c452 01bb e53f dece f06a f2c2 f3bf
00000070: c75e 146a fbb4 c8bf 8738 0a43 3306 f4bf
00000080: 175f 79dc 5bda f1bf f9c3 b98b 0a13 ccbf
00000090: 0000 0060 3324 c2bf 5069 dec5 0126 d13f
000000a0: b097 10ff e74f cf3f fe49 cd30 925e c5bf
000000b0: 2d95 4190 9142 a2bf 09a3 1a39 9b3b c9bf
000000c0: 0362 fe28 f47a cebf 5035 997d 3a02 c6bf
000000d0: 0000 0000 6274 b43f 2d54 2c63 4be1 bc3f
000000e0: 5134 6f78 87fd d4bf c80f 84a4 e740 e7bf
000000f0: e482 9982 1139 d0bf e6b0 a04a 412f c23f
00000100: 4f61 a754 3352 ee3f 674e f0be 814e ef3f
00000110: 0000 00c0 6326 c1bf 0000 0000 3dd9 933f
00000120: 1bd7 993d 0880 af3f 9525 2148 0dd0 e03f
00000130: 9545 306e 235a e63f b58e fcae af16 c2bf
00000140: d57a 583d 659c 5cbf 42c4 8c77 1e13 ee3f
00000150: 0000 0040 13af be3f 0993 b16d b04e c03f
00000160: 0bea 123f f296 df3f d11c 7082 b218 c5bf
00000170: 60d7 aab9 7b8b d8bf c706 25a6 870c c4bf
00000180: 7f44 13fb 09fc e4bf 3887 d65c 2398 da3f
00000190: 1ae7 69fa e8e9 ecbf 2733 f418 ef63 d13f
000001a0: c116 3ab6 1533 e3bf 6164 b086 7cbe d73f
000001b0: 0000 0040 9e75 bd3f 802c 980f a67c cebf
000001c0: 0ce8 8387 21b3 c53f ae14 2fdc 8090 b73f
000001d0: b96c fe24 65c3 d43f 991c c77c 87b5 ce3f
000001e0: 336a 627f 572f cb3f 6e00 7a9f a880 cf3f
000001f0: 0000 0060 7a59 c43f 8f9f 9f6f 895b babf
00000200: 2c53 e7e4 dc34 eb3f 7419 4728 aac5 a33f
00000210: a845 8c4e 390a c8bf 8247 af1d 0a50 e83f
00000220: 31e4 b10f 4393 65bf 69b2 f84a daf8 ebbf
00000230: 0000 0080 6246 aa3f 0000 0060 d081 b8bf
00000240: 9bce f51a 33ab 99bf 376e 5ede 8f98 b8bf
00000250: 6fc3 e186 40d2 7cbf 0d30 b253 ef71 de3f
00000260: 6f4c 024a 622f f0bf d6e3 c1d6 1fd1 fc3f
00000270: 460f dd7e 9e10 ab3f 9153 e410 10c5 7dbf
00000280: 1a86 53ee b294 933f a68f 3aab abf3 bbbf
00000290: 861d d057 61be 8abf 9000 56be ff71 adbf
000002a0: d63d a4ae 421d d7bf ab1d fb9e 445c d43f
000002b0: 0ffc 8ce0 1436 c43f d153 31ef 24ae e23f
000002c0: 1944 afcf 89ac f13f 7f3e 52cd 988b 823f
000002d0: 0000 0000 c49b b43f 5e22 219b 78dc b0bf
000002e0: e97d 5a19 4e09 83bf 823c 451c dff0 c73f
000002f0: 609a d9b6 36ec 0040 3697 6489 6b66 a23f
00000300: fba1 3403 e411 c23f 4849 0e60 c791 d23f
00000310: 0000 0000 c121 97bf b101 ae58 f74f 57bf
00000320: b15e 5501 670a 913f 0e4c 5236 6ba0 d03f
00000330: f708 27f6 1601 d23f 4676 563f 356d b6bf
00000340: d373 f723 2a41 f1bf 140d 6b1e bfd3 a0bf
00000350: 0000 0060 aed3 c13f 0000 0000 0dc3 93bf
00000360: ddbf a656 3f5e ba3f 5b25 9547 c984 c93f
00000370: 6eab 7124 174e bfbf 572a 3548 a3cf ba3f
00000380: 1ada dc41 d2fc d7bf f211 e487 5c30 f73f
00000390: c2a1 fc1e 02c4 c3bf 16e6 7e7c f766 d83f
000003a0: fd7c 803d f680 ce3f 0609 c4a3 0724 a63f
000003b0: 7496 6da8 af96 bb3f e02a ed34 4234 a7bf
000003c0: c5e2 12db 8bdb d5bf 4f63 c858 ee17 b53f
000003d0: e126 3fa5 6886 c13f d3f1 55ff 5d5a 9cbf
000003e0: 30f3 672b b7b1 de3f d07f 0ada c8dc a83f
000003f0: 0000 0080 415a a83f 05a4 081f 728b d43f
00000400: a1fa 3c04 7d8d b2bf 6221 af32 ecb6 85bf
00000410: 834a 1de0 5b75 ec3f 7dba fd25 b0c6 d33f
00000420: c916 6674 f835 783f 865c b5c7 d73c d73f
00000430: 0000 0020 8592 c13f cdc5 fb35 8a84 d03f
00000440: a771 b554 c100 d33f 8cef 0775 e87b cd3f
00000450: 84c8 82e6 86ae d73f 3e3f f079 842f b7bf
00000460: ce53 b81f 205b e8bf 23fa 7762 4695 db3f
00000470: 0000 0080 b9c8 aabf 0000 00c0 dedb bb3f
00000480: 785e 04d6 345e c93f 1840 a534 97be c43f
00000490: 3cc6 e649 7a17 833f 5c9c 9064 2124 d93f
000004a0: e05b b52f e1b6 dfbf 22d9 5cfc c8f4 f33f
000004b0: bedd 0e95 4210 babf 8d4c 52e4 4b4f bd3f
000004c0: 82fb 9a4b f5f1 b73f 44ec c69d dd19 d23f
000004d0: 7164 6570 5afb b93f dc57 e2a4 ff44 bd3f
000004e0: 8881 a3f7 e332 d5bf e587 2236 4c4d bc3f
000004f0: 7ab2 8bd9 4a51 d53f 3ff3 8835 c1d3 ba3f
00000500: 85f6 4045 d58d dd3f 9b22 4bf8 8e62 c63f
00000510: 0000 00c0 8409 b7bf fc33 86ad e6c8 883f
00000520: 0d81 ae88 fa66 92bf 5dba 1f8f f0f8 b43f
00000530: 49fa 6ff4 01c1 ed3f 783e d1ac 4feb b23f
00000540: 96e7 711f a88d c1bf fca9 c1d8 e202 c93f
00000550: 0000 0000 834f b7bf f7e4 048a ebe9 d03f
00000560: 635b 55a3 749a d03f b1bf 780a 4210 d73f
00000570: 6ec4 fd6c 8c37 c23f 15c1 47da a674 b03f
00000580: a1a8 8819 f3eb ecbf f032 377d 8a32 b63f
00000590: 0000 00c0 adbb b5bf 0000 0000 aef7 a2bf
000005a0: 9e8a 9383 cc4f a4bf 27b2 605d bec0 7b3f
000005b0: 5c58 f146 a3f1 a03f a8ff 90e5 a736 b33f
000005c0: 0000 0080 fb36 a8bf 0000 00c0 1251 b4bf
000005d0: 0000 0000 86e0 8a3f 0000 0000 2013 babf
000005e0: 652c 4682 e79e b6bf 3128 abda 1fcc a4bf
000005f0: f07b f838 f2cb 723f f086 a900 7b29 b9bf
00000600: 0000 0060 bc3b c33f be72 785b b9e9 8d3f
00000610: 5387 ca0e 228a be3f d88e 96fd 3b2a a4bf
00000620: 0000 0000 c721 b6bf 939c 0c84 2ed2 bcbf
00000630: 0000 0080 8aa6 a23f 26ed f89a 4bed a23f
00000640: 531d c68a 121f c03f 996f f860 170c a0bf
00000650: 0000 00c0 de51 b4bf 7116 8552 6d9e a53f
00000660: 0000 0060 0204 bcbf 972d c0c1 1ff3 b8bf
00000670: 0000 00c0 c235 bc3f 0556 f2d8 f527 b3bf
00000680: f9dd d0fb a515 c4bf d4ad 47c1 c781 c33f
00000690: eb72 561d d063 b23f 0000 0080 0e32 c3bf
000006a0: 0000 00c0 bad8 c0bf c54b 210f d8d4 b43f
000006b0: 0000 0000 7d72 99bf 0000 0000 be9b 8e3f
000006c0: eb5d f65f 4ee9 bf3f ded4 90a8 e996 c63f
000006d0: 02b1 8695 10af 8ebf 7ce1 07ee 6185 c33f
000006e0: d5d4 4775 1eaf e2bf 3288 1e00 d148 f43f
000006f0: 2da0 2fc4 704a a43f 9b15 e411 ffd8 bc3f
00000700: fb86 7a61 6478 cf3f 64bb 373a 5344 c43f
00000710: d9a4 94ef 8267 bb3f 1812 1d48 c9d4 b83f
00000720: a1ad c309 5aff c0bf 4e32 c3f9 0ae4 d43f
00000730: 56b3 2b03 b4cf d73f 9884 c949 f9bd a33f
00000740: 9ede 08de ed91 dd3f 0f2b 607f 656c 4bbf
00000750: 0000 00e0 f961 c33f 0cdf 42ed 1823 b23f
00000760: 4db9 32a3 4b30 babf ef74 4c53 eb23 b13f
00000770: dfb8 3adb ec9d eb3f 143e 3f0c 48f1 ca3f
00000780: c9be 9a7c bead c7bf dcd2 0cf7 7319 d03f
00000790: 0000 0000 ae47 89bf 4960 8520 e67b c43f
000007a0: f765 160b 296f bf3f fbc3 ac12 734d ae3f
000007b0: 771d 2b04 3d1f cc3f 684d 6904 03be b8bf
000007c0: d583 ef89 e914 e5bf c78d 24aa 3c18 cd3f
000007d0: 0000 0040 3d98 b03f 0000 00c0 0af1 b1bf
000007e0: c63f c338 301e cb3f 0d6b c2eb ed06 bfbf
000007f0: 0114 0179 ae89 903f 01a4 45e5 83e7 bbbf

bias f8 [72]
0.17548042483979034 -0.13831164367673984 0.13390423569131407 0.23627853982758343 0.1436221646050221 -0.060809188891768194 0.3061325736235904 0.06941683015429337
0.0702212780777104 0.11204292302785218 -0.03500157796698196 -0.0604429692029953 0.012392223092826185 -0.061252474784851074 -0.1614859402179718 0.1488340244009152
0.30042854310167094 0.08837842100330472 0.2919764320415431 0.04562918524656494 -0.03928673848205405 -0.15088783204555511 0.023490156153978547 0.15056139145776495
0.31822200960842845 -0.1753598582929404 0.17205189307394453 0.17083436138874858 0.0496803715827898 0.059482475266453554 0.15624036448799933 -0.011412531829470083
0.0015781239954486906 -0.06004420231595727 0.27260424975386793 0.18612369580727628 -0.15879976749420166 0.08227763638276284 0.03877096424075258 0.13901933908910122
-0.0943921868381908 0.03211609982177345 -0.0743523562997046 0.21583888375352275 0.007329000595993323 0.2256700940768108 0.02336227185096024 0.07141622045042423
-0.06898609795051469 0.2706341864525846 0.07732426110190871 0.07773589121693357 0.01856498420238495 -0.16346653369769382 0.22003382948554515 0.15055783289559294
0.13795578111289913 -0.014459354657305384 -0.052586080957706255 0.2957882079335529 -0.11034505759949083 0.03922203667023597 0.03677977173128244 0.2503072384962575
0.2454731194112036 -0.08984054207246571 -0.10728109232512617 0.25903082570401725 0.31256360288298485 0.13684391225099563 0.18590459857773647 -0.03059059880671813
00000000: 0136 e37e 2476 c63f 73b1 1f29 32b4 c1bf
00000010: 6987 8b24 c623 c13f 6d2e a70c 603e ce3f
00000020: 4dca fa09 3662 c23f ab40 2ccb 6122 afbf
00000030: 5308 fd13 ad97 d33f 4aff 4d27 4dc5 b13f
00000040: 09bc d38c 05fa b13f 8422 2752 d8ae bc3f
00000050: ea68 5a11 baeb a1bf 0000 0080 61f2 aebf
00000060: 0874 4407 1861 893f 0000 0000 7c5c afbf
00000070: 0000 0040 92ab c4bf 68c0 aa49 fe0c c33f
00000080: c905 daa3 383a d33f bf9d e1db f79f b63f
00000090: 728e b4ea bdaf d23f 2616 c164 b55c a73f
000000a0: 98d3 e431 641d a4bf 0000 00e0 4a50 c3bf
000000b0: 234b d6b1 cd0d 983f 2df9 2c7e 9845 c33f
000000c0: a3ad 08d9 bf5d d43f ab1e 331c 3172 c6bf
000000d0: 68d6 fbe2 cb05 c63f e64e 997d e6dd c53f
000000e0: fd04 67a6 b46f a93f 5fba e8ab 7c74 ae3f
000000f0: 0242 e52b afff c33f b2ed c617 745f 87bf
00000100: a55c c4bc 21db 593f fbdb 851a 1dbe aebf
00000110: f561 5c18 5972 d13f 285f 40b9 e6d2 c73f
00000120: 0000 0000 8d53 c4bf fec5 74ad 2510 b53f
00000130: 0597 e5ae c9d9 a33f c719 73bd 62cb c13f
00000140: a5cb 771b 162a b8bf 92b5 d17c 8571 a03f
00000150: c011 b08a c108 b3bf 6798 76c9 9ba0 cb3f
00000160: ac59 f49d 0305 7e3f ef60 dff4 c1e2 cc3f
00000170: 3194 3d86 47ec 973f 3c0e 3d5b 5548 b23f
00000180: 287c 93aa 12a9 b1bf 2594 ff0c 1252 d13f
00000190: 70bc 9ed4 85cb b33f 778c 80d6 7fe6 b33f
000001a0: 0000 0000 b302 933f 046d 1cac 78ec c4bf
000001b0: 23b8 d38a 112a cc3f eeba 38a4 7a45 c33f
000001c0: d246 16f8 88a8 c13f 30c1 feba dd9c 8dbf
000001d0: 1456 e013 90ec aabf df7d e7a9 31ee d23f
000001e0: ad40 aadd 923f bcbf 55f6 8f29 e914 a43f
000001f0: f0fb 7a59 ccd4 a23f adc8 d2a6 0805 d03f
00000200: 4e88 f5c5 a96b cf3f ff5f 0e2e caff b6bf
00000210: a0fc 030f c676 bbbf 107f 4307 f693 d03f
00000220: b959 13c5 0a01 d43f 062a e3ef 1984 c13f
00000230: 1da0 88cd b8cb c73f 0778 c255 2453 9fbf

weight f8 [50, 72]
0.11711219415347063 0.9310251120675261 -0.03108637376088571 -0.296130042110427 0.09657359342151431 -0.024725995608694963 -0.23254440620249717 -0.7894927722685889
-0.359461694926379 -0.3007215086956947 -0.06776861816265994 0.09837276488542557 -0.050081932873453444 -0.015500515699386597 -0.07643954455852509 0.040298994147525434
-0.7937956352411922 -0.3012345677925093 -0.7402392416568729 0.24475011228954963 1.2365789278841954 -0.09574960172176361 -0.08141155339498415 -0.08273128629729992
0.06548160664519835 0.9912212044527509 -0.4562231627066986 -0.11935001284054576 0.05400582917850795 0.33168249277820805 -0.13203773981553008 -0.08172489067111514
-0.09471722852357485 0.7939578788746544 0.6749265840338434 -2.0434313734971745 0.039554886519908905 -0.6794491411697422 -0.10505570045956994 0.6527922806253056
-1.305804142133694 1.3263124575935348 0.5495623129286614 0.8276456488594586 -0.4660073012734281 1.0931076536302282 -1.406176653205101 -1.4562225942937965
1.8702158985334143 -0.03191996018971203 -0.13612777806716755 -0.7601542951837541 0.01692871004343033 1.8388388049367983 -1.0733560685999537 -0.13706681380177643
-0.27166717456122325 0.10007471993842286 1.914280509966767 0.33340644779222345 1.7180828438647902 0.11836193613207593 0.9786072454414171 -0.48614196967420825
-0.6590314392136977 0.9301435474517881 0.09288002180818383 0.18884380080640764 -0.6693556920316142 -0.4343001324431246 0.3559435214689952 -0.03118289155371928
0.1703179225466305 0.9997254458388745 -0.10408298084940137 -0.42812249764692306 0.02072822063607729 0.08035465064603159 -0.12235047180225277 -0.6624180669595194
-0.3478948835856915 -0.2964791772291892 -0.015366202586037492 -0.07804213464260101 -0.02606108427159236 0.07882844656705856 -0.0018278136849403381 0.12537116719460661
-0.8153494450497791 -0.25791922024956715 -0.6637411931350757 0.31948857400966063 1.3212635008168663 -0.10169824957847595 -0.11775968361588234 0.02260959681269481
-0.008735093544801167 1.081854930009678 -0.5872711822752043 0.05449902553114295 -0.02693363514486468 0.5063476678173521 -0.20929492540226605 0.06222534997144994
-0.003711534321510554 0.8395540282752453 0.6578344487583653 -1.9779253257148317 0.04030672460794449 -0.6467030317034713 -0.1835506345941429 0.5396586391692387
-1.2171609091728157 1.295839941289666 0.616704633675073 0.94245079771536 -0.4116423916609777 0.9872486819899793 -1.5760500607452497 -1.612802000114297
1.9168489272662042 0.061575230697355314 -0.12740606375229718 -0.9093807264757191 -0.027555540204048157 1.7238153516815817 -1.1423036926455323 -0.1214963607642806
-0.23848071407229315 -0.03544548343897219 1.7378295675953284 0.3196250361419263 1.7305491077614343 0.08618188383733894 0.9110187166392479 -0.4103700571541894
-0.7296302290024334 0.9557745833609054 -0.06467221264962 0.19208651400671364 -0.6202188022035862 -0.5248284595798783 0.4180482596232721 -0.0162278641048204
0.18448587511988795 1.0254248946553801 -0.03424597279962217 -0.3396293575891159 -0.10243900146892201 -0.006489856368438268 -0.2959071153939121 -0.5683116411982979
-0.3719231713297618 -0.0756965720068014 0.10724960480145211 0.03153074532747269 0.11307752346095153 0.03721830993890762 0.0402817502617836 0.0976702621716536
-0.8108606750485939 -0.36928142891897114 -0.7214445501325327 0.22490375387005737 1.3377706350650376 -0.04833989590406418 -0.08751205881717376 -0.09836151481514571
0.15103257139203757 1.0740478307782728 -0.5976283740288361 -0.1315859552448172 0.18158765982041242 0.478335119221357 -0.1988215864498173 -0.019705212105423687
-0.008012217398928892 0.8153053241871028 0.5487381825253151 -1.9572690247942504 0.0228554829955101 -0.8407623717561925 -0.1053530716194407 0.3601931955712179
-1.3009600414111138 1.2972824842141324 0.5658997542239664 0.78664964090095 -0.28290866527075414 1.057287233333167 -1.6059600810697703 -1.6451496701636505
2.0604596928836796 -0.07970451372384346 0.05517564857044978 -0.8129205972993824 -0.07167603075504303 1.8532726402601596 -1.0816293222386955 0.01830605266770757
-0.28909139201249057 -0.001534056567084242 1.8103900616290782 0.20389863319191318 1.6915824147709002 0.11295064289669209 0.7939633405493131 -0.4552630713660183
-0.7258606653668412 0.8291555042460985 0.07819399713266302 0.25993245166002077 -0.6050608974060754 -0.32389714171222106 0.30895395765103634 -0.06619850916410155
-0.06963929784794777 0.6416734084767316 0.03638716687939007 -0.4317776048025696 -0.09944090393081019 -0.05687544852868931 -0.28759054010323376 -0.6261850859985121
-0.20974816429992596 -0.07754894485755523 0.0744521069333484 0.06397240608930588 0.027548109602678353 -0.1116468757390976 -0.01598084717988968 0.032442236813690434
-0.8543060865821318 -0.4724037565547853 -0.7154070454568164 0.06117726014611645 1.0253147333447616 0.01874486356973648 -0.10289517140331347 -0.17121827789346003
0.01237924299202144 1.2669619691608842 -0.4454479166337284 -0.15376460464736402 0.007250773676193821 0.47085383036024475 0.13443876582024117 0.050404271773601864
-0.2127674157756922 0.5236813143111451 0.46760844259765244 -1.9040586619849127 -0.04748295247554779 -0.652898353793933 -0.1052589217086135 0.284858687864088
00000000: f819 da93 10fb bd3f 5ab6 022d f5ca ed3f
00000010: 36f0 9d3a 1bd5 9fbf 818d 8e6b cbf3 d2bf
00000020: 1a11 6709 0cb9 b83f ca64 007a c551 99bf
00000030: 9cf4 c0dd 03c4 cdbf 8a4d aa58 8643 e9bf
00000040: dee7 f79f 6b01 d7bf 8050 436d 053f d3bf
00000050: 0c28 b4be 4859 b1bf 0000 0020 f52e b93f
00000060: e4b7 9fcf 56a4 a9bf 0000 0000 bcbe 8fbf
00000070: 0000 00c0 8a91 b3bf 2bc3 d9db 11a2 a43f
00000080: df30 a21a c666 e9bf 45fc 455a 6d47 d3bf
00000090: 3f3a c434 0ab0 e7bf b6eb fcbf f853 cf3f
000000a0: 3ef7 62fc 06c9 f33f 0000 00c0 0b83 b8bf
000000b0: 7e17 5937 63d7 b4bf 1cbf 00a9 e02d b5bf
000000c0: 8bd9 070f 67c3 b03f ce3d 0788 15b8 ef3f
000000d0: 7430 e0a2 c232 ddbf 1d65 edf1 b88d bebf
000000e0: 62e8 3aec a6a6 ab3f 9cd7 c834 493a d53f
000000f0: fe37 2cd7 9ce6 c0bf 0b9d b324 eceb b4bf
00000100: 1d63 e066 633f b8bf a661 855a 1a68 e93f
00000110: 160b b4a2 ff98 e53f 6853 468c f258 00c0
00000120: 0000 00c0 8940 a43f 8dd1 1320 0cbe e5bf
00000130: 1a73 bb2d eee4 babf fdbd 0ba3 ace3 e43f
00000140: fa20 57e2 92e4 f4bf 1244 5a69 9338 f53f
00000150: 2791 24b4 0396 e13f fce5 50ba 127c ea3f
00000160: 75a9 aa49 10d3 ddbf 0596 7573 5e7d f13f
00000170: 60a2 1e17 b37f f6bf 9702 2310 b04c f7bf
00000180: 7690 8a81 67ec fd3f 8578 3522 d057 a0bf
00000190: ab14 7091 a26c c1bf 0a4d b719 2f53 e8bf
000001a0: 0000 0080 c255 913f bd1b 1d3d e26b fd3f
000001b0: 5499 b969 772c f1bf 6ca1 52c5 678b c1bf
000001c0: 82c7 88b7 fe62 d1bf ffb8 4a31 7f9e b93f
000001d0: e7d6 9a99 e4a0 fe3f a9c2 62ff 8756 d53f
000001e0: b77c a36f 447d fb3f 3a4c c7c4 f74c be3f
000001f0: c395 5924 c050 ef3f 0dae 3d35 f31c dfbf
00000200: 35ad ce19 c916 e5bf e081 9c66 bcc3 ed3f
00000210: c42f 1e30 fcc6 b73f ad07 429e 082c c83f
00000220: f459 d5a0 5c6b e5bf d477 5fc8 92cb dbbf
00000230: 94ac fb55 c7c7 d63f 2ff8 ab6d 68ee 9fbf
00000240: 1156 a149 facc c53f 6c6c db37 c0fd ef3f
00000250: e880 d1a6 2ea5 babf e3d2 84e7 5b66 dbbf
00000260: c7e4 f156 c739 953f a430 9b54 1f92 b43f
00000270: df74 0a4b 5c52 bfbf 90dc bb5f 8732 e5bf
00000280: b98f dce6 e843 d6bf 1f3d 89cc 83f9 d2bf
00000290: 00e1 90cc 5078 8fbf 0000 00c0 91fa b3bf
000002a0: 9d43 94c2 c1af 9abf 0000 00e0 192e b43f
000002b0: 0000 0000 68f2 5dbf d428 7b93 290c c03f
000002c0: 1c9e 29b8 5717 eabf 5ed4 fe9d bf81 d0bf
000002d0: cfbd b02b 5e3d e5bf 7b4c 3434 8072 d43f
000002e0: b482 5632 e523 f53f 0000 0080 e508 babf
000002f0: b3e2 eaa5 7f25 bebf 608a 8b5b f826 973f
00000300: 7bc2 d168 b4e3 81bf e886 761d 474f f13f
00000310: 112b 38ef ecca e2bf d1e7 a3d8 4be7 ab3f
00000320: 5e38 70a8 7d94 9bbf 05ce 3506 0034 e03f
00000330: a926 e915 2dca cabf 9514 3846 00dc af3f
00000340: 7a7f ecd0 a667 6ebf 035a d568 a0dd ea3f
00000350: 032e 73d4 fa0c e53f 6f01 be06 95a5 ffbf
00000360: 0000 0040 15a3 a43f a77e 6c8e cab1 e4bf
00000370: 40f6 5e52 967e c7bf 398b c731 e244 e13f
00000380: b3de adb7 7d79 f3bf e908 8ba9 c2bb f43f
00000390: 9aa2 1d5b 0bbc e33f c4d9 4893 8e28 ee3f
000003a0: 1c31 7554 5958 dabf 6850 458c 8a97 ef3f
000003b0: 9227 bc44 8037 f9bf f3a0 5678 09ce f9bf
000003c0: 4cb2 dfc7 69ab fe3f b776 2de4 c986 af3f
000003d0: 1a69 9086 d74e c0bf 0f6e fa9b a519 edbf
000003e0: 0000 0000 8537 9cbf c80a fd67 bf94 fb3f
000003f0: 9933 a03c e046 f2bf 57cb 10b0 621a bfbf
00000400: aa67 d539 8986 cebf 4895 5210 e925 a2bf
00000410: 0780 6d60 26ce fb3f d297 4d91 bc74 d43f
00000420: 4451 df42 54b0 fb3f 70cb 9614 0410 b63f
00000430: 814d 40b9 1027 ed3f 8208 afc5 8043 dabf
00000440: 51a1 777e 2159 e7bf 7942 3c94 b495 ee3f
00000450: 6242 4aae 5b8e b0bf 69ab d477 4a96 c83f
00000460: ac84 fa19 d5d8 e3bf f7fa bc0d 65cb e0bf
00000470: b2d3 ce7c 4dc1 da3f 0de0 7486 099e 90bf
00000480: ba5f 1bb0 3b9d c73f 20c9 30ef 2368 f03f
00000490: d15e 632a b088 a1bf ddd4 e6c5 7cbc d5bf
000004a0: aed7 2441 7139 babf a01a bb8d 1b95 7abf
000004b0: b450 d165 24f0 d2bf b33f 1ce5 9b2f e2bf
000004c0: 8219 5fd8 96cd d7bf eb42 30bd d960 b3bf
000004d0: cb93 21c9 b574 bb3f 0000 0040 cc24 a03f
000004e0: fd6d 2d09 a6f2 bc3f 0000 0040 470e a33f
000004f0: 0000 0040 cf9f a43f dda9 d115 eb00 b93f
00000500: 3947 1e16 92f2 e9bf 4b89 0e93 4ea2 d7bf
00000510: 0b4b 96e1 1216 e7bf c14c cf6d a5c9 cc3f
00000520: af74 722e 8267 f53f 0000 00c0 01c0 a8bf
00000530: 8b19 a0b6 3067 b6bf fce9 5061 382e b9bf
00000540: 223a 6109 0955 c33f cf84 38c7 4c2f f13f
00000550: 3bb2 338a c51f e3bf 2cd8 31ff ced7 c0bf
00000560: 8e96 24b2 433e c73f 1560 65e7 0a9d de3f
00000570: 0039 c559 fc72 c9bf add2 3666 9a2d 94bf
00000580: c821 939d b568 80bf d36c f430 fb16 ea3f
00000590: 1968 8060 438f e13f 2071 2f53 f950 ffbf
000005a0: 0000 0080 6d67 973f c6ce 4c7d 86e7 eabf
000005b0: 257e 233d 6bf8 babf 5416 cec2 670d d73f
000005c0: 7537 f479 bbd0 f4bf 2ef9 3547 abc1 f43f
000005d0: 9d9a 26cd d91b e23f 1a8d 22de 3b2c e93f
000005e0: 13f2 45f2 2c1b d2bf f24e 9a04 a6ea f03f
000005f0: cd04 ae32 03b2 f9bf 8f0c e675 8852 fabf
00000600: f94a 9d4a d27b 0040 0099 c9d7 8367 b4bf
00000610: 6295 4a8c fb3f ac3f 07a9 740e 7203 eabf
00000620: 0000 0040 5c59 b2bf c6d2 4736 01a7 fd3f
00000630: b78e 568c 5a4e f1bf 1f4c 1b66 d2be 923f
00000640: baeb 8f2e 7980 d2bf 6b37 4bb2 4c22 59bf
00000650: 7e34 bb91 5bf7 fc3f 2d12 a1b4 5919 ca3f
00000660: 26e0 deb8 b810 fb3f 07b0 4d55 55ea bc3f
00000670: 113b bcce 2568 e93f eefc a5b8 0723 ddbf
00000680: 1d82 6625 403a e7bf da21 c11f 7188 ea3f
00000690: 6da5 6d94 8504 b43f 0421 c3b8 bba2 d03f
000006a0: f651 ceab a85c e3bf deff ba13 bbba d4bf
000006b0: 9d2e 05d2 e6c5 d33f a25d e7af 62f2 b0bf
000006c0: 89f9 c58a e1d3 b1bf 69da 03ac 9688 e43f
000006d0: 266e 7bb7 56a1 a23f 876c f188 3ea2 dbbf
000006e0: 617b 4486 f574 b9bf e089 c05e c71e adbf
000006f0: ad78 1827 e267 d2bf ea68 334e b509 e4bf
00000700: 4138 0821 07d9 cabf 4ea4 0066 3fda b3bf
00000710: 83a3 6514 4b0f b33f 0000 00e0 7e60 b03f
00000720: f491 3d57 9235 9c3f 0000 00c0 e394 bcbf
00000730: 0000 0080 485d 90bf 346e 3fd4 449c a03f
00000740: a79b d4b7 7956 ebbf 2643 3af7 dc3b debf
00000750: 9414 f250 9de4 e6bf be43 2c37 a052 af3f
00000760: d429 fd6b b067 f03f 0000 0080 da31 933f
00000770: 9ef2 1784 5657 babf 25d2 0304 7bea c5bf
00000780: 4a56 66de 495a 893f ec25 ede9 7945 f43f
00000790: 3cd8 80fa 3782 dcbf 0214 1ffe 8eae c3bf
000007a0: 4b8e f5bc fcb2 7d3f 44fd a51a 7822 de3f
000007b0: dc9a 411b 4a35 c13f 5250 b1b5 96ce a93f
000007c0: b69c 3472 f63b cbbf e9c3 cf50 ffc1 e03f
000007d0: 1696 12f6 4bed dd3f 6240 2e37 0677 febf
000007e0: 0000 0080 af4f a8bf 9e07 a516 8be4 e4bf
000007f0: c0c8 59aa 3ff2 babf 0de5 16ef 1f3b d23f

bias f8 [50]
-0.9513092873734788 -0.8995063929886791 -0.9291738507926233 -0.9064104924590349 -0.8781501220283237 -0.7465756092845638 -0.7345896291948449 -0.5506295835388929
-0.33458516794256526 -0.19515939436945123 -0.14476152031271078 -0.06256856281090556 -0.14801243138474043 -0.00520569753563619 -0.12933992038788122 -0.16887039129714496
-0.13662388403573564 -0.14171833975831882 -0.13322088735798102 -0.06828400661054684 -0.1664185952148523 -0.10055798292363856 -0.18065083438389679 -0.11656858743283054
-0.13509814427411276 -0.13045676974107095 -0.20455301069980694 -0.1687154943591799 -0.13235366922182984 -0.21202493936230338 -0.14124218924205742 -0.04493125204674691
-0.116368528899817 -0.019435155690401572 -0.03401593937236218 -0.14915419802082452 -0.192347591302327 -0.2488826209273969 -0.10534415640737485 -0.07209068293957302
-0.1697212311145764 -0.24646219389953536 -0.17794468272314012 -0.15611531744537058 -0.19971877893350407 -0.18771957912440962 -0.2160183725524978 -0.13640083915769666
-0.26399417863337954 -0.20804757194705253
00000000: 16ce b42c 2071 eebf d4bc 8da1 c1c8 ecbf
00000010: 867c aecc cabb edbf 239c bb93 5001 edbf
00000020: c4e1 e248 ce19 ecbf 8dca 3b88 f2e3 e7bf
00000030: 8dec 2b1c c281 e7bf 034f b0ee c19e e1bf
00000040: 1f8f 82e8 d769 d5bf 8277 29a8 fbfa c8bf
00000050: b62d bba5 8b87 c2bf dcd2 074b 7e04 b0bf
00000060: b175 1944 12f2 c2bf a8de b1ca 9152 75bf
00000070: 7c0c 11e4 358e c0bf 9f25 f183 8b9d c5bf
00000080: 079b e434 e47c c1bf d0b0 4099 d323 c2bf
00000090: 515e 2ccd 610d c1bf f46d 3b87 0f7b b1bf
000000a0: 5270 f25b 344d c5bf b53d 0200 2bbe b9bf
000000b0: f643 d608 911f c7bf 0bd2 c35e 70d7 bdbf
000000c0: 5e2c b45f e54a c1bf ae33 cab3 ceb2 c0bf
000000d0: 5d83 a005 cb2e cabf 7df2 4c25 7898 c5bf
000000e0: 361c 680c f7f0 c0bf 4cad 3f1a a223 cbbf
000000f0: 1717 ce5b 3914 c2bf 67dd 37a4 3a01 a7bf
00000100: 4a89 e8f1 53ca bdbf 06ef 5438 cfe6 93bf
00000110: 7645 4b86 896a a1bf 14c0 4719 7c17 c3bf
00000120: a3ce 0d8b d89e c8bf 0985 b6be 62db cfbf
00000130: 8a29 98aa d5f7 babf 9a5f 92f5 8874 b2bf
00000140: a177 89e0 6cb9 c5bf 73dc 3fbb 128c cfbf
00000150: 7880 6530 e4c6 c6bf 2d90 6a33 96fb c3bf
00000160: 5b4e f58b 6290 c9bf ac40 94f6 3107 c8bf
00000170: 115c b972 7da6 cbbf 4d25 aa2b 9575 c1bf
00000180: d124 e4d6 47e5 d0bf 922c c386 4da1 cabf
