Sphere/NeuralNetworks/models/net_deep.pt (torch_old, 186617 bytes, 10 tensors)

weight f8 [36, 6]
000000 b7 da db 86 db 40 aa bf 0f 45 e0 ee 84 46 e0 bf
       -0.051276073658234216 -0.5086083093212056
000010 90 0f 39 3a 7f 77 da 3f e5 ae 50 a6 60 eb d4 3f
       0.4135435169775912 0.32686630479541484
000020 de df 5d 42 7d 51 00 40 b8 2a a5 34 2b 83 f9 3f
       2.039789694299528 1.5945236259891953
000030 59 c2 cc c6 5e 63 d8 bf 3d 2b 10 80 76 95 d0 3f
       -0.38106507696196484 0.25912249094169565
000040 cc 64 4d ed d3 5f a6 3f af a0 4f 77 9c b8 e1 bf
       0.043699858396118424 -0.55378554633082
000050 d4 49 1a 41 9a f5 04 c0 15 81 98 8b b5 be 0f c0
       -2.619923122992285 -3.968119707671699
000060 e6 77 69 e4 30 9b dc 3f f2 a9 1d 44 8b 82 ec bf
       0.4469721060357855 -0.8909355478656933
000070 9b 9b 2d 3a a8 a9 9b bf 4b d7 fd a0 a8 3f df 3f
       -0.027014378119385545 0.48826041910011914
000080 4b 61 b3 29 b7 61 be bf c8 2a dc 10 fb 2e b3 3f
       -0.11867851989825799 0.07493561898824475
000090 af 14 7a fc f1 f1 de 3f a3 ad 39 8b 68 95 a8 bf
       0.4835171666712296 -0.048014895434643344
0000a0 f5 bc fc 9d 6d 55 cf bf e1 e8 d2 d5 d0 2c df bf
       -0.2447945615217361 -0.4871103370784465
0000b0 18 0a 5d 0e 1a 08 d8 bf 79 8e 2e 22 92 5e b3 3f
       -0.37549449351004816 0.07566178640859701
0000c0 00 00 00 20 8a 21 d1 bf 00 00 00 00 fc 5d af bf
       -0.2676720917224884 -0.06126391887664795
0000d0 00 00 00 00 52 d7 bb bf 00 00 00 80 91 c5 d6 bf
       -0.10875427722930908 -0.3558086156845093
0000e0 00 00 00 00 16 55 a7 bf 00 00 00 00 77 4b a4 3f
       -0.04557102918624878 0.039638251066207886
0000f0 fe a7 59 f1 84 1c ab 3f 50 0f b7 b8 d7 71 b0 bf
       0.052951960050293664 -0.06423710117001957
000100 7f e2 5a fe 6a 8c c5 3f e6 b9 d7 8f c4 34 b3 bf
       0.16834771556547776 -0.07502392303260982
000110 99 2d 82 2b 87 9d e7 bf a6 f8 4b ae 28 d8 f0 bf
       -0.7379794931197693 -1.0527731712786959
000120 00 00 00 00 1e 0e 91 3f 00 00 00 c0 0a a8 d4 bf
       0.016655415296554565 -0.32275646924972534
000130 00 00 00 40 ff 83 ce bf 00 00 00 00 1b 18 c5 3f
       -0.23840323090553284 0.16479814052581787
000140 00 00 00 80 9e db bc bf 00 00 00 80 6b 10 d3 3f
       -0.1127261221408844 0.2978771924972534
000150 1e bb 2a f6 b0 a3 d9 bf 98 db b0 a8 5c 39 c3 3f
       -0.40061592139947944 0.15018804776056238
000160 f5 33 3c 1d 9f 47 ea 3f 2f d3 e8 a4 9f 39 e7 3f
       0.8212428637503978 0.7257841320884831
000170 1b 11 4e d3 2d 78 0c 40 ac 8f 21 55 3c be 16 40
       3.558681155033026 5.685777025388159
000180 0d a1 66 97 5a 3e d9 bf f0 5e 93 3e f4 ff 72 bf
       -0.3944307783626904 -0.0046386280821122255
000190 9a cc 52 53 7d 7e cb bf 80 3d fd 35 cf 25 e6 bf
       -0.2147976548054416 -0.6921154074170062
0001a0 2d 1d 85 85 48 93 e2 bf a6 61 62 1d 63 51 d5 bf
       -0.5804789169132271 -0.3330924784618453
0001b0 00 00 00 80 e7 91 d5 bf 00 00 00 40 3d e9 cd bf
       -0.337030291557312 -0.23368039727210999
0001c0 00 00 00 00 21 93 b0 bf 00 00 00 00 c0 39 49 3f
       -0.06474500894546509 0.0007698237895965576
0001d0 00 00 00 c0 e2 ad d1 3f 00 00 00 80 20 c3 bf bf
       0.2762381434440613 -0.1240711510181427
0001e0 c4 05 8d 57 97 d8 da 3f d8 a9 7e ac 5b c1 d8 bf
       0.4194696764935453 -0.38680164189523003
0001f0 8c 2b 31 85 ad b2 f1 bf 22 fe c5 5a 66 d5 09 c0
       -1.1061225130858672 -3.2291991321251468
000200 5e 2c 00 b3 9b 46 11 c0 76 bd 8f fe 8a e3 02 c0
       -4.3189533203941135 -2.3611049544921867
000210 94 33 bc 38 c9 d9 d2 bf 93 23 3c 24 7d c2 c8 bf
       -0.2945426038793866 -0.19343532819064232
000220 18 bf 7e 2f 77 6e fa bf cb 3b 4c 19 47 26 9c 3f
       -1.6519691329267001 0.027489767951063542
000230 27 06 c3 02 ae d2 e4 bf 66 53 50 65 fd ef ef bf
       -0.6507177404348042 -0.9980456332001324
000240 5a 4f 73 71 24 32 a0 3f 8f 60 23 67 82 a9 c0 3f
       0.031632555817536726 0.1301730159382299
000250 18 98 5a 92 c7 50 ea bf 30 4b ec 81 d6 8c 04 c0
       -0.8223607881998332 -2.5687685156093707
000260 36 21 d2 2f 34 92 0e c0 9f 76 b3 80 d0 f8 00 c0
       -3.8213886009217743 -2.1214914374130127
000270 ee 01 93 31 9f 02 e3 3f 38 9b b8 a5 78 67 dc bf
       0.5940700500723872 -0.4438153856630609
000280 32 c9 e8 7a 8a d7 a5 bf e2 67 21 19 01 97 cd bf
       -0.042660071853236295 -0.23117078520846152
000290 d6 72 0b da da 97 f1 3f 62 d9 7a 06 75 a2 f9 3f
       1.0995739476558604 1.6021623852844518
0002a0 08 15 ae f2 2b 9e b9 bf 1b e1 cf 7c 7c 98 c0 bf
       -0.1000697581749429 -0.1296535119470342
0002b0 94 87 cd c3 06 48 c7 3f e8 40 1d 1f e6 95 f4 bf
       0.1818855720585445 -1.2865964141274677
0002c0 9f 8f cc b1 ce eb 0c c0 fe 7a 99 e4 ba de 0f c0
       -3.6151403322746343 -3.983754907544948
0002d0 28 88 af a3 1a 3c a4 3f 27 21 cc ef ec d8 db bf
       0.039521057587777186 -0.4351150838633821
0002e0 b4 53 0e 2c f6 f6 d8 bf 7b 42 57 be 8e 2f e6 bf
       -0.39007334043827346 -0.693305370101441
0002f0 80 e5 c4 a4 c8 72 fb bf 87 e5 6f 06 1a a7 ed bf
       -1.7155233799261111 -0.926648151943639
000300 51 5e c8 e1 22 8f e1 bf b8 e7 07 0f b9 4f d6 3f
       -0.5487226877039096 0.3486158987794812
000310 50 1a 1f b1 98 d9 e4 bf 19 33 84 95 c6 6a e2 3f
       -0.6515620669750408 0.5755341453783301
000320 c7 bf 78 f0 19 3b 00 40 b7 28 61 e8 00 26 ed 3f
       2.028858069119426 0.9108891047155997
000330 0d 82 31 56 16 99 dd 3f e3 9d ac 96 5e 8b e8 bf
       0.46246870438884075 -0.7670128767830956
000340 d4 0b 4a 34 35 18 e1 3f 59 2e fe f1 5e df cd 3f
       0.5342050572656896 0.23337923828181564
000350 9b 84 36 93 03 b2 d8 3f b9 41 30 e7 c0 3d d7 bf
       0.38586511017099107 -0.3631441362095092
000360 aa 95 5c 1e c8 65 c1 3f 1a 0b 12 19 35 da ca 3f
       0.13591863138678423 0.20978416179794906
000370 1f 01 fa bc 85 ea d2 bf 79 a4 15 b9 3d 63 d3 3f
       -0.29556411223167517 0.30293219637548635
000380 03 f8 60 a0 4b 7a 10 40 c5 66 35 02 c1 8a 15 40
       4.11942911712504 5.385501894482961
000390 83 d6 ad 9a 37 7d e5 bf 00 10 43 26 7d fe cf bf
       -0.6715353032183916 -0.24995388382205874
0003a0 65 ce ac dc a1 f1 d1 bf 79 f8 01 c9 b0 b0 c1 bf
       -0.28037306356711716 -0.13820466818646418
0003b0 1f a9 63 66 c4 33 d1 bf 75 47 7a 92 06 c5 f0 3f
       -0.2687846183677198 1.0481019708426775
0003c0 c5 c3 43 69 45 99 c6 3f ed 73 33 f1 1f bb df 3f
       0.1765524639118025 0.49579618983062695
0003d0 d6 36 20 ee a4 2f e8 3f d1 48 5a 6a 85 cd dd bf
       0.75581594952538 -0.4656690157509163
0003e0 c4 6b 34 d7 5e 08 f2 bf 56 23 f6 02 6f ed f2 bf
       -1.1270435720859817 -1.1829671970064815
0003f0 6e 2f 6a 72 e3 71 da 3f 51 f7 45 0b 2b 3c d1 bf
       0.41320120023077933 -0.2692973718729848
000400 73 dd a7 f5 cc 6e cf bf b5 78 e5 49 29 64 00 c0
       -0.24556886668117847 -2.048906876864829
000410 f9 d4 2e d4 74 cc fa bf 69 59 ce 55 13 43 f0 bf
       -1.6749161041637406 -1.016375861339464
000420 99 3e 1f 28 52 67 d7 3f 75 a3 2d 92 15 43 cc 3f
       0.3656812087838062 0.22079724919901947
000430 04 70 3e 78 16 e1 d6 3f 49 17 3c ce 30 b1 e1 3f
       0.3574882673508457 0.5528797176382138
000440 5f 36 e7 cf 7a bc da bf bb ad 42 72 af 2c fa bf
       -0.4177538900665691 -1.635909506158767
000450 4e 9f 8e d6 90 bc b9 bf 83 20 17 e3 55 a3 c0 3f
       -0.10053353536806961 0.1299846037711668
000460 31 ae 42 83 fa 0d d3 bf 20 80 77 04 3e 5e dc bf
       -0.2977281839218647 -0.44325209079943484
000470 af d1 44 2b b5 c4 0b c0 dd 99 46 d3 64 ab 10 c0
       -3.4710486774804035 -4.167376805481095
000480 35 52 6d 4a cc 64 aa 3f 00 52 29 17 db 0b cd bf
       0.051550277791339395 -0.22692431097915744
000490 f7 85 64 d1 a0 94 d6 3f 8c 3f f2 f4 67 ce db 3f
       0.352821545109776 0.4344730274251496
0004a0 1e 58 2e d0 bc 99 f0 bf 0e 0e 38 57 3d 41 fe bf
       -1.0375335819312634 -1.890927639674263
0004b0 59 a3 f2 03 79 0e d0 bf d7 b8 bc 85 04 78 cd 3f
       -0.2508833445122512 0.2302251484883928
0004c0 75 66 07 01 0b 2f ed bf 9e 35 a9 2f dc cf 04 c0
       -0.9119925518127291 -2.6014941905511497
0004d0 b2 83 96 4d 13 a2 07 c0 27 e0 ab 37 6f 6c fb bf
       -2.954138380199276 -1.7139732527412066
0004e0 25 1b 23 a0 ae c1 c2 bf f9 85 30 e0 89 0f b7 bf
       -0.1465357095641703 -0.09008084987046762
0004f0 3f 73 8b c4 54 e6 b3 3f 08 ec d0 96 6a 90 f3 3f
       0.07773332403617149 1.222757901311299
000500 e4 ef e6 0c 0f 8f 0e 40 88 70 33 d4 13 9c 0d 40
       3.8198529251076128 3.7012096956441987
000510 7c 97 83 e3 75 d6 a5 bf 9b 9c 11 4e 0e 15 aa 3f
       -0.04265182878752591 0.05094189360607367
000520 8e 35 e8 77 72 1b a4 bf 3b 63 40 3c a8 42 da bf
       -0.03927190507611576 -0.41031843074738433
000530 a1 33 20 e8 19 62 b6 bf f8 1e 1f 32 08 f7 d6 3f
       -0.08743440549024097 0.358827637621729
000540 74 a8 3f 62 de da d0 3f ef 0e 1f 75 92 67 d6 bf
       0.2633586844882594 -0.3500715392840296
000550 1b fb 4b 18 fa fd c4 3f 90 2e 2e 26 e2 1c f5 3f
       0.164000760902092 1.319551610128574
000560 cd 61 36 f4 78 9a f6 3f 04 5f 75 ac 1c bc e9 3f
       1.4127130069301643 0.8042128914193829
000570 47 ac 1c 76 c1 c1 b0 3f ee 83 f3 2b 10 e3 c9 3f
       0.065456477485598 0.202241918049395
000580 47 5d d7 74 da 18 d8 bf 5c a7 51 49 bc e0 dc 3f
       -0.3765169278171538 0.45121676597647364
000590 0e 27 2a e0 79 0d f4 bf c0 ef 00 d6 34 e7 05 c0
       -1.2532900577957125 -2.7378937453304104
0005a0 cb dd 34 f7 c0 f6 d6 3f 3f ec 28 a2 86 11 ce 3f
       0.3588106550336902 0.23490984838449155
0005b0 89 e7 f8 46 c5 4b b1 3f a8 dc 03 9a 87 89 d0 bf
       0.06756241781923057 -0.25839414635215485
0005c0 f9 ae 0c 3a 52 b4 ce bf 2d 1a 4b 94 67 28 fc bf
       -0.23987796625566896 -1.7598644058904356
0005d0 cc 38 f1 4d e5 10 f6 bf 4e 7d fa 24 64 c5 f3 bf
       -1.3791249317760501 -1.235691208312193
0005e0 ca fa 4b c9 5d bd df bf 17 12 94 8f dc 82 cb bf
       -0.4959330049313563 -0.21493107805885422
0005f0 c2 73 1b 0e 3a 50 f2 bf 3d e7 df ba f0 76 ee bf
       -1.1445866156638975 -0.9520190858740772
000600 00 00 00 00 c2 ce d6 bf 00 00 00 00 81 bd d2 bf
       -0.3563694953918457 -0.2928164005279541
000610 00 00 00 00 48 de c9 3f 00 00 00 40 74 56 c0 bf
       0.20209598541259766 -0.12763836979866028
000620 00 00 00 c0 ff 4c d5 bf 00 00 00 80 2d 90 cb 3f
       -0.3328246474266052 0.21533745527267456
000630 a2 2d 45 e0 de e8 e5 bf c1 a8 2d 5c 8d f8 d0 3f
       -0.6846765880849726 0.26517042161743737
000640 00 2b 4a d1 5a 36 cb bf 1e 26 6f 9b f2 36 c2 3f
       -0.21259627551292937 0.14230187024649948
000650 da 74 bd 5b e2 9b bf 3f c3 3d 20 d0 18 6b eb 3f
       0.12347235431430495 0.8568233551940739
000660 64 f5 63 ce dd 16 dc bf 26 36 4c 64 f1 c4 cf bf
       -0.43889565615957893 -0.2481977214560384
000670 ef f9 b4 83 af 2a 84 3f 70 78 c4 b4 bc 2f dd 3f
       0.009847041327359 0.4560386433894399
000680 69 dd f0 4c 2e 93 d1 bf 15 67 44 29 81 1b f0 bf
       -0.2746082068801657 -1.0067149745941084
000690 54 f3 fa 40 3b 16 c6 3f f4 55 b5 c0 80 39 6e 3f
       0.17255345032563218 0.0036895289137344137
0006a0 ee 77 6b 3c 9f bb e4 3f a9 35 40 87 24 39 e7 3f
       0.6479030780862993 0.7257254258744769
0006b0 89 bf c9 94 54 67 fc 3f 59 3b 65 a8 c9 cd 00 40
       1.7752271472963648 2.1004822879689695

bias f8 [36]
000000 5c 71 af c7 1d dd cc 3f 05 51 02 57 5b ad c9 3f
       0.22549793482074676 0.20060292957771977
000010 6d 10 2d d0 26 c9 b6 bf cf 3e 29 51 f6 30 d3 bf
       -0.08900683004782346 -0.2998634140576372
000020 00 00 00 80 e7 0d be bf 6f c4 b5 d5 39 e0 bd bf
       -0.117399662733078 -0.11670266597299571
000030 00 00 00 00 e6 d0 d7 bf 0f 14 c0 0d ce 35 a8 3f
       -0.37212514877319336 0.04728549878931442
000040 54 dd 68 80 fa ce d8 3f 00 00 00 80 77 b9 d4 bf
       0.38763296642306 -0.32381999492645264
000050 76 0f 4e 5f f9 0c be 3f 48 10 bd 85 48 c5 e4 3f
       0.11738546921520573 0.6490824329453142
000060 6c 22 22 a1 2e 4b ba 3f fa c5 eb c7 74 c4 9a bf
       0.10270968851012591 -0.02614004583569416
000070 a9 d0 cb 19 8d eb d4 3f 67 17 58 39 d1 a7 d7 3f
       0.3268769027629426 0.3696177539826437
000080 f7 97 be 3d 35 ff c6 3f aa aa 08 a1 00 69 c3 bf
       0.17966332926624748 -0.1516419206903568
000090 d8 43 ec 87 87 00 9a bf 52 64 4b 79 ed 8d e6 3f
       -0.025392644568515838 0.7048251503976053
0000a0 b0 eb 1a 10 cc 91 e4 bf ef 55 dd 2f 69 2b 82 bf
       -0.6427975000909694 -0.0088718621952166
0000b0 ac d9 0b 51 33 52 b5 bf 80 5b 42 32 e0 13 bb 3f
       -0.08328552941006845 0.1057720301345011
0000c0 69 d5 f7 99 b6 5d ad 3f ad cd 90 5c 66 0f d0 3f
       0.05735560063832674 0.250939932247287
0000d0 76 29 fe e7 49 ae c0 3f f4 f9 31 96 4a 5a ae bf
       0.13031886890196248 -0.05928261836469409
0000e0 d5 3c 1a 32 f6 18 a2 3f 03 34 26 7d 6e 5e 92 bf
       0.035346692672754955 -0.017938352955344083
0000f0 e0 41 a2 3a e5 11 92 bf be 71 0f d4 f0 8b dc 3f
       -0.017646390632366393 0.44604130467430625
000100 00 00 00 00 a5 83 c9 bf 88 11 6d 3f 67 11 cb 3f
       -0.19932997226715088 0.21146860692000424
000110 39 90 61 94 e3 3c c7 3f 86 1e 07 3b f3 83 d7 bf
       0.18154568429156528 -0.3674285961574032

weight f8 [120, 36]
000000 76 98 61 2c 43 ad 9c 3f 5c 92 88 6b 78 59 c8 bf
       0.028004693588080852 -0.19023041964205134
000010 bb 82 d5 72 f1 4a b7 3f 4b d7 5b c2 7c a9 c2 bf
       0.09098729184689607 -0.14579734316037682
000020 00 00 00 80 b1 c5 c0 bf b2 1f b7 d8 3d fd 9a 3f
       -0.13103312253952026 0.02635666499352824
000030 00 00 00 60 44 75 bc bf 2b 33 82 17 8d 17 c2 3f
       -0.11116435378789902 0.14134372375374346
000040 10 03 eb d2 56 ce 91 bf 00 00 00 20 eb 40 c1 3f
       -0.017388683913625747 0.13479365408420563
000050 f8 e9 6b 55 8c 3e 94 3f 0c 2e f5 a4 e6 5d 90 bf
       0.019769852365223856 -0.015983203714581548
000060 3c 86 bf cc d5 8a a6 bf 0e f3 7e 37 2e ad 9d bf
       -0.044027978175801924 -0.02898094381065435
000070 b4 e9 96 5e 9f b0 c5 bf e1 53 8b 79 f1 15 a1 3f
       -0.16945259207370855 0.033370538794464506
000080 20 c5 47 a9 86 e5 a9 3f 00 00 00 a0 4a 41 c2 3f
       0.050579269565682816 0.14261753857135773
000090 8f 9b 41 89 8e 43 c3 bf 19 22 24 70 01 ed c2 bf
       -0.1504991693684272 -0.14785783744470463
0000a0 d3 fe bf 79 c3 89 97 bf 17 59 43 fe 9f 6f c0 3f
       -0.022986463838605097 0.12840652384938586
0000b0 58 09 c8 74 83 d8 a3 bf ca 25 fa 2b ed 9c a1 bf
       -0.03876124191812619 -0.03440037881689369
0000c0 79 4f d6 7c cb 89 a5 bf 07 4e 8e f2 a7 39 b7 3f
       -0.042066916455182964 0.09072351142668121
0000d0 68 af 9d 31 14 c9 6f 3f 1c 45 a0 ff 5a 98 c5 bf
       0.0038800615702054182 -0.1687120197462172
0000e0 dd 23 a0 c2 f3 77 c1 bf c1 60 12 43 6e 41 b9 bf
       -0.1364731502838187 -0.09865464341635556
0000f0 5a e0 e0 72 36 ab bc 3f a5 23 bd 6a 6d 4e c1 3f
       0.11198749832772262 0.13520591461044976
000100 00 00 00 c0 e9 c4 b9 3f 2c b7 dc 8d df e8 96 3f
       0.10066090524196625 0.022372715982036315
000110 94 03 4b 81 54 9a be bf 8d c0 12 76 01 47 b6 bf
       -0.11954239040916398 -0.08702096111915321
000120 2f ab 12 fb 1d af b7 bf 75 69 de 74 17 50 d7 3f
       -0.09251582507810661 0.3642634049698679
000130 e8 6b 8b 3b 41 3b e4 bf cd e5 45 46 9a ff b4 3f
       -0.632233253763272 0.08202518668794952
000140 00 00 00 00 28 b9 b1 3f 7d 69 2d 9b 16 8c 88 3f
       0.06923151016235352 0.011985947237623357
000150 00 00 00 c0 cf fd b0 bf c8 f8 65 a3 df 21 c7 3f
       -0.06637285649776459 0.18072123983797028
000160 d5 b3 8e 95 af 95 a4 3f 00 00 00 40 be 91 b9 3f
       0.04020451260235062 0.09988011419773102
000170 1c 30 20 8d 73 bc bd 3f 3b a3 1b 59 ff 89 d0 bf
       0.11615678973629467 -0.2584226961321751
000180 40 1e 53 c8 8d 6e c9 3f 74 ba 82 ca 05 76 d9 3f
       0.19868633538702518 0.3978285291331425
000190 2f d3 05 61 02 7f e2 3f 1e b9 6f 00 4b 77 b0 bf
       0.5780040640807779 -0.06432026634840723
0001a0 3d 41 52 6a fd 66 ba bf 5e 5b 4a 56 42 28 cc bf
       -0.10313400121436174 -0.21997861112023548
0001b0 ae b2 ff a1 44 24 e4 bf f3 9b af a7 ef e9 c7 3f
       -0.6294272579230744 0.18682666480819385
0001c0 d1 75 f6 42 15 b0 e1 bf 59 ef f6 66 16 bf b2 3f
       -0.5527445133081362 0.07322826398643424
0001d0 20 28 41 68 4c 99 b3 bf 88 57 3a 5d fc 11 d0 3f
       -0.07655789895321208 0.2510977659634297
0001e0 92 e5 61 08 47 f2 bc 3f ad 7f 0f ae f0 23 a0 3f
       0.11307186083458579 0.0315242016292808
0001f0 4e fa 59 52 91 31 cb bf 04 85 5c 9d 1d c2 bc bf
       -0.212450185023004 -0.11233697025138062
000200 15 25 b8 f1 a6 3e b1 3f bb 1c ba b2 ff 50 c2 3f
       0.0673622455725716 0.14309688784508076
000210 6c a9 81 cd fa 8b b4 bf 26 a9 7e cf 1c 38 c4 3f
       -0.08026092068909002 0.15796241885738843
000220 00 00 00 20 d9 12 c3 3f 70 ec 31 a9 68 2b d0 bf
       0.1490126997232437 -0.2526494648261126
000230 ce 74 23 96 da ab c3 3f c3 77 35 cb 25 43 c6 bf
       0.15368206339818474 -0.1739241831045871
000240 63 5d 65 9d 9a 53 a7 bf 73 95 8d fd 67 72 d9 bf
       -0.04555972262704235 -0.39760780106583765
000250 57 ea 85 42 6c 7c ca bf 06 f4 d6 64 09 c4 d7 bf
       -0.20692208526800712 -0.3713401303064646
000260 00 00 00 00 19 e6 93 bf 20 e7 a6 5c 75 5d bf 3f
       -0.019432440400123596 0.12251981269846768
000270 00 00 00 00 3c 34 97 3f af 63 10 f2 18 73 b4 bf
       0.02266019582748413 -0.07988124761358394
000280 34 50 37 38 8b d7 b0 bf 00 00 00 00 40 36 b5 bf
       -0.06578893778288447 -0.08285903930664062
000290 1a a5 93 6d 24 c3 e2 3f 25 1f 55 3c 79 c5 c7 bf
       0.5863210811777748 -0.18571391530917328
0002a0 04 7d e6 8b ad 75 c6 3f 50 bc 8b 89 02 29 c6 3f
       0.17546624499389207 0.17312652317147803
0002b0 d6 68 3b 60 c9 cd 70 bf 90 a3 f5 f6 9d a6 ba 3f
       -0.004102503418574174 0.10410487441335037
0002c0 fb 2f 23 e6 bc e3 da bf 9b bf 1e 8c 63 ea ce bf
       -0.42015001749382436 -0.24152798024942687
0002d0 35 6d 1d 6b 61 6f d4 bf 31 65 6d a6 97 73 b3 3f
       -0.31929812870449165 0.07598254979292986
0002e0 a0 2b 07 99 28 a1 de bf 01 19 a4 b5 4c c1 b2 3f
       -0.4785863394178538 0.0732620185336579
0002f0 b3 c8 30 12 64 db bd bf b1 ec a9 ee 53 06 a5 3f
       -0.1166288895044854 0.041063902744065024
000300 25 aa 98 76 ec 39 b6 3f 1d ee c3 cc 87 fc b7 3f
       0.08682134528559311 0.0936970591464434
000310 b3 ae 9a a9 d5 4d c1 bf 43 2c 11 95 21 4e b4 bf
       -0.13518782407242255 -0.07931718720753715
000320 56 06 c8 fc d4 97 bf bf 6d 90 12 35 62 c5 51 bf
       -0.12341052218837353 -0.0010846575790220095
000330 3d 97 4b ea 12 14 d5 bf 7b b9 98 85 ee e2 ed 3f
       -0.3293502128639039 0.9339516267116744
000340 00 00 00 00 72 d4 81 3f c4 c1 58 b6 f6 7e d2 bf
       0.0087059885263443 -0.2889992504815633
000350 f6 e0 57 ae 8b f3 c9 bf a5 81 47 a9 95 0c 8f 3f
       -0.20274492276053707 0.015160721996779378
000360 5f 52 41 fa b7 dc b8 bf 66 3f b9 e3 eb 4a df 3f
       -0.0971178995108146 0.48894784201274033
000370 0e 0d 3c 48 7d e8 f0 bf 92 66 66 20 8b 6d c6 3f
       -1.0567601033843093 0.17521800119429948
000380 00 00 00 00 3a 80 a5 bf 48 65 f7 93 85 ce b2 3f
       -0.041993916034698486 0.07346377241573976
000390 00 00 00 00 b2 f2 8d bf 06 20 a3 1e 95 35 e9 bf
       -0.014623060822486877 -0.787790832365318
0003a0 f6 d2 df 86 a9 2a c1 3f 00 00 00 80 51 3e a5 3f
       0.13411444745693019 0.0414910763502121
0003b0 4c 9c 55 ac 67 9a e5 3f f6 3e 2a 67 a2 2f c1 bf
       0.6750982633501592 -0.13426618611673974
0003c0 83 0b 72 e8 be 6e cf 3f 4a d4 cc c0 71 da c7 bf
       0.2455671915996299 -0.18635389246051864
0003d0 3d 78 d2 bb 27 dd e4 3f 68 79 97 3f 36 c7 c6 3f
       0.6519964855576813 0.17795446496070189
0003e0 c5 e5 5c ce a4 f5 ea bf aa 7e 60 bb 68 13 e9 bf
       -0.8424858122372646 -0.783619276018688
0003f0 af 83 4b b9 c3 62 ec bf 0d 95 08 44 17 5f be bf
       -0.8870562190096417 -0.1186384717080566
000400 ac 5a cd 72 03 d9 e0 bf 43 10 39 4c 0e 74 ac 3f
       -0.52649090215967 0.05557293587165237
000410 c0 19 78 74 3a ae 94 3f 83 9b 8b fe cc e6 d0 3f
       0.02019587837096437 0.2640869603914597
000420 64 81 5d 75 00 57 e0 3f bd 72 1c ff 74 84 d7 3f
       0.510620335797324 0.36745953477092624
000430 40 b5 65 c8 30 09 d7 bf e0 de 96 b5 16 79 c2 3f
       -0.3599359471325734 0.14432033411662015
000440 35 8a 86 5e 39 c4 9d bf e3 3b cf 7b 1f ea a8 bf
       -0.0290688480323615 -0.048661216605630185
000450 fd de 2e 9d e5 8c ca 3f 47 64 32 a4 fe ce b4 3f
       0.20742483305888718 0.0812834883567045
000460 00 00 00 c0 7f 83 c2 bf 07 e7 00 2b b5 eb d2 bf
       -0.1446380317211151 -0.2956364555317212
000470 f3 9d 1b 7b 6b 66 c1 3f 4f ef d1 c1 db bf e2 bf
       0.13593810568930528 -0.585920218043137
000480 00 00 00 60 a9 fd b1 bf 00 00 00 c0 be 6f b4 3f
       -0.07027681916952133 0.0798300951719284
000490 00 00 00 c0 51 c5 be 3f 00 00 00 c0 6b 9c c0 bf
       0.12019835412502289 -0.1297735869884491
0004a0 00 00 00 00 bd 12 9b bf 00 00 00 60 75 b6 b1 bf
       -0.026438668370246887 -0.06919034570455551
0004b0 00 00 00 c0 a4 e6 b3 bf 00 00 00 00 40 e7 a7 bf
       -0.07773809134960175 -0.04668617248535156
0004c0 00 00 00 e0 cf 5f c3 bf 00 00 00 a0 08 5d c2 3f
       -0.15136145055294037 0.14346416294574738
0004d0 00 00 00 c0 41 29 b5 3f 00 00 00 e0 ee c8 c4 bf
       0.08266077935695648 -0.16238199174404144
0004e0 00 00 00 80 d0 b3 a3 bf 00 00 00 20 26 d4 c4 3f
       -0.038481250405311584 0.16272427141666412
0004f0 00 00 00 60 ef 3d c1 bf 00 00 00 60 b3 fe c2 3f
       -0.13470260798931122 0.14839784801006317
000500 00 00 00 00 59 8f b7 bf 00 00 00 00 81 ce 91 3f
       -0.09203106164932251 0.017389312386512756
000510 00 00 00 00 ad fd 9e 3f 00 00 00 00 80 16 70 bf
       0.03026457130908966 -0.003927707672119141
000520 00 00 00 40 c6 f7 bd 3f 00 00 00 00 f5 0c 93 3f
       0.11706198751926422 0.018604114651679993
000530 00 00 00 00 40 85 95 bf 00 00 00 00 3e 76 af 3f
       -0.02101612091064453 0.06144899129867554
000540 00 00 00 00 25 24 96 3f 00 00 00 00 2c 09 71 3f
       0.021622255444526672 0.004159137606620789
000550 00 00 00 80 a3 57 c2 bf 00 00 00 00 63 67 bb bf
       -0.14329952001571655 -0.10704630613327026
000560 00 00 00 00 7c 67 90 bf 00 00 00 00 00 47 5e bf
       -0.016019761562347412 -0.001847982406616211
000570 00 00 00 40 1c 04 c2 bf 00 00 00 00 80 e0 6d bf
       -0.1407504379749298 -0.0036470890045166016
000580 00 00 00 00 be 56 b0 3f 00 00 00 c0 c6 64 b0 3f
       0.06382358074188232 0.06403772532939911
000590 00 00 00 00 f0 46 8e 3f 00 00 00 00 44 07 9b bf
       0.014783740043640137 -0.026394903659820557
0005a0 a8 a1 1c 95 73 83 da bf 36 c0 f8 17 63 2c c6 3f
       -0.414273162476571 0.17322958631985025
0005b0 80 9f 88 7b a6 aa d1 bf 51 3b 0d 1f d3 45 b6 bf
       -0.2760406690963393 -0.08700294025514423
0005c0 00 00 00 a0 57 25 c0 3f a5 6f e4 1a c9 00 ba 3f
       0.1261395961046219 0.10157448679495802
0005d0 00 00 00 40 66 99 b8 3f a3 8e ff 76 6b 03 b5 bf
       0.09609068930149078 -0.08208343177062231
0005e0 fe 26 9a 0f 16 15 a2 bf 00 00 00 00 50 50 a9 bf
       -0.03531712475257896 -0.049440860748291016
0005f0 fb d7 49 0c bc 7e c3 3f 8e 54 16 b7 c9 28 e7 bf
       0.15230513191244185 -0.7237289977953354
000600 9f f9 17 aa 42 f4 57 bf 40 68 83 d1 8e ac d7 3f
       -0.0014620448131378095 0.3699070974377072
000610 d7 3f 9c 35 22 f1 ac 3f 61 9d c7 7b 23 ef d5 bf
       0.05652720360205848 -0.3427208622728895
000620 5e 55 8a 25 23 0a c0 bf 18 46 15 34 72 e9 d5 bf
       -0.12530936558747902 -0.3423734196304351
000630 f6 5f 94 fe ab fd cf bf 6f 7c df a8 4a 24 bf 3f
       -0.24992895060199743 0.12164751646877091
000640 dd 7e a0 e0 64 33 ee bf 64 c6 8a 45 d8 dd c0 3f
       -0.9437736880535926 0.13177016635522698
000650 c8 09 ba f7 10 cc a8 3f 77 66 01 9a 48 cf 81 3f
       0.04843190216071808 0.008696143340944247
000660 4a bf e3 bc 34 90 bb 3f e2 6d bf b9 09 b7 a6 3f
       0.10766915904582422 0.04436521904400671
000670 9f dd 5a ed 11 6b a6 bf d9 12 60 45 f4 52 c3 3f
       -0.043785629486076554 0.15096906077828612
000680 7c 36 b7 ca e3 f5 c0 3f f8 94 c4 a5 1e 5d 61 bf
       0.13250396154619526 -0.002119598253687568
000690 63 66 52 18 43 1f bd bf c9 75 19 2e 38 d7 dd 3f
       -0.11375827163501522 0.4662609529676414
0006a0 00 00 00 00 63 c6 9e 3f ec 3b 8e 52 13 a1 d3 3f
       0.03005366027355194 0.3067062669951486
0006b0 5d e6 5e 1a 88 09 b8 bf 0b b4 bf ac b2 60 aa 3f
       -0.0938954414731596 0.05151899679899693
0006c0 73 3f a7 0f b4 cc c2 3f 36 86 1a 57 7d d7 bb 3f
       0.14687205089876051 0.1087568605094241
0006d0 e4 e6 30 86 41 53 e4 3f 62 cf c0 32 34 4a 80 bf
       0.6351630803030415 -0.007954032706130657
0006e0 00 00 00 60 f1 9e b2 bf 8e c0 9f 4a 9c 65 a2 3f
       -0.07273777574300766 0.03593147669732942
0006f0 00 00 00 80 9b e7 af 3f 25 61 91 75 3a 18 dc bf
       0.06231389939785004 -0.43897878152121655
000700 a9 09 6f 07 3b a5 a0 3f 00 00 00 00 38 a3 8c bf
       0.03251060930007849 -0.013983190059661865
000710 40 39 08 43 22 a2 e1 bf c4 da 1f ca 88 ad d6 3f
       -0.5510417279454387 0.3543416952010541
000720 0b 0f 55 02 f1 66 c6 bf ed 10 bf 08 2c b8 dd bf
       -0.1750165234935753 -0.46436596731315555
000730 2c 41 0c e6 49 89 b7 3f a5 90 8e 31 8d 7a 93 bf
       0.09193860880282462 -0.0190221845147255
000740 fd 81 36 91 07 93 c3 bf 37 59 d3 59 8e 87 c8 3f
       -0.15292448606943757 0.19163684259428646
000750 0a 6d a7 3e f7 76 d8 bf a1 30 1f c7 17 44 d8 bf
       -0.3822610961776297 -0.3791560596989801
000760 d0 e1 59 f0 b1 ae ce 3f 3d 76 65 06 30 0c df bf
       0.239706270560204 -0.48511887192384845
000770 b2 c1 78 3c 66 25 c0 3f 2e 1b f9 56 74 1e b1 bf
       0.12614133789749143 -0.06687094806066504
000780 a1 0f 48 7f 94 22 cf 3f 4d 06 d1 aa b3 66 b2 bf
       0.2432427999011653 -0.071879605487106
000790 ee 33 31 1c 45 e5 c3 3f c5 0a fd aa bd c4 a8 3f
       0.1554342639596195 0.048376013872731195
0007a0 e1 b0 a9 c0 81 6e c5 3f c5 de ae 61 cf d1 c7 3f
       0.16743490130773522 0.1860903956382939
0007b0 3f be a2 49 27 62 d1 3f be ce 67 01 c4 9b d8 bf
       0.27161581221568903 -0.3845071805692263
0007c0 00 00 00 40 17 1b b3 3f 47 e3 ff 40 10 18 d4 bf
       0.07463212311267853 -0.3139687189828248
0007d0 f8 cc 99 10 c7 b2 c7 3f 6e 99 9a 73 b5 cf b1 bf
       0.18514335928521297 -0.06957563469277314
0007e0 30 13 8f 16 a4 53 99 3f da d9 68 a5 91 97 a1 bf
       0.024733127476582684 -0.034359504167173774
0007f0 2b ab 7c d4 b3 b5 c7 bf 2a 92 37 ce 39 7a d4 bf
       -0.1852326190504184 -0.3199600709761251

bias f8 [120]
000000 21 52 5c 58 73 20 a5 bf a7 5b f2 cf b1 f4 c6 bf
       -0.04126320317860555 -0.17934248593948363
000010 ff 60 b1 0c f3 98 95 3f ae 21 08 39 e2 1b be 3f
       0.021091268205368326 0.11761297123314904
000020 00 00 00 00 67 c4 c0 bf 4b 03 e0 e6 25 8f be 3f
       -0.13099372386932373 0.11937176596258074
000030 cf 55 1b d5 6d 8d 99 3f 36 7b 7b 56 b9 f8 c0 bf
       0.02495357144547033 -0.13259045336504877
000040 2c fb 1c 32 3c 17 9d 3f e3 ba f8 60 a0 cc b1 bf
       0.0284089475237536 -0.0695286022898745
000050 c2 08 67 55 12 42 d0 bf 00 00 00 00 ca 8e b3 bf
       -0.25403269138417894 -0.07639753818511963
000060 55 a0 c2 1d 9e d4 b8 bf 1a 61 91 14 31 8e ba 3f
       -0.09699428774422476 0.10373217346330357
000070 4f ce eb 3e a7 2c c6 bf 38 00 04 82 dd 7e a2 bf
       -0.17323771068878321 -0.036124155159996396
000080 04 6a 82 17 d7 d9 71 3f ea aa 3f 48 70 ba a4 3f
       0.0043581392311815605 0.04048491365377578
000090 f6 3c 55 79 7d a8 a4 bf 1b be 36 98 c8 8e 7b bf
       -0.040347977696564216 -0.006727965900992251
0000a0 5a 61 88 34 07 81 c5 bf db 2b b4 df 0d f5 87 3f
       -0.16800012650561308 0.011697872533224121
0000b0 9e 95 a9 36 36 b6 a4 bf 33 e9 b3 68 02 5b 94 bf
       -0.04045266549364189 -0.019878423347998008
0000c0 21 6e 2d a4 c7 dd b0 3f 0b c6 78 25 8c 9f ad bf
       0.06588409193266688 -0.05785787541789141
0000d0 4d 6a ba 5e 34 b8 af bf 76 7e 3c 12 a3 d3 b4 bf
       -0.06195224434232625 -0.08135432429525644
0000e0 6a 4e cd d5 3d c3 dc bf 61 4d b1 b9 60 ac 9e bf
       -0.4494165981206836 -0.029954444249893245
0000f0 20 ec 64 ea 63 5b 9d bf 9e 24 0b ee 43 15 b8 bf
       -0.02866893880966981 -0.09407448350534017
000100 ab e0 b4 30 c9 91 c6 bf 36 be 2e f3 73 41 c6 3f
       -0.17632403257608095 0.1738724648871412
000110 b5 75 e8 aa 7c 10 b3 3f 76 b4 c8 9b e8 16 c4 bf
       0.07447032139358252 -0.15694911581650545
000120 e7 18 75 a1 8a da d2 bf 51 09 ea 5d e2 8b ac 3f
       -0.29458871619534793 0.05575473209775573
000130 da c1 ab 3b fd 48 83 bf f8 ef 97 a7 17 bf 90 3f
       -0.009416559585106055 0.016353959659667766
000140 e7 de 51 6c 02 8c b0 bf a3 10 85 c8 87 19 bb bf
       -0.06463637489821004 -0.10585831304075781
000150 a2 1b 42 c9 ca 03 da bf 8f 5e aa 8a 9d bc b7 3f
       -0.4064814534580653 0.0927217925585586
000160 78 a3 7e f6 dd 09 a0 bf 6e 8e ba a5 81 6e c2 3f
       -0.031325279559786645 0.1439973887655585
000170 46 c9 b8 6e e2 1d a0 3f c9 36 27 c6 44 a9 b6 bf
       0.031478000655982316 -0.0885203346035396
000180 04 ef 87 18 7e 99 b9 bf e5 ad c6 18 dd 11 c9 bf
       -0.09999836062337059 -0.19585765561838211
000190 00 00 00 e0 07 bc c1 bf d0 5c 39 85 e7 fd d2 3f
       -0.1385507434606552 0.2967470932976086
0001a0 e4 3c c4 c9 44 0b 82 3f cb ec 53 28 37 a4 a7 3f
       0.008810555846621111 0.046174739525633855
0001b0 1e 0d 2e 04 db bf c1 bf 0d 7b a8 63 2c 3d 94 3f
       -0.13866746620269849 0.019764607985162153
0001c0 cf fa 35 56 03 ef bb bf ed 53 a2 82 7a 8b b8 bf
       -0.10911579947240145 -0.09587827386197008
0001d0 11 ac 62 02 07 d7 8b bf f9 b1 33 3b dd 56 c7 bf
       -0.01359372592954425 -0.1823383845397897
0001e0 59 75 4a 10 61 51 b6 3f 01 34 8e e0 dd af cb 3f
       0.08717924735761552 0.21630452599166008
0001f0 b1 39 a4 b8 59 1e 8c 3f 78 e9 18 39 28 47 a1 bf
       0.013729763934432567 -0.03374601075161626
000200 f8 78 bd 4a f3 22 a1 3f f1 fd 81 e2 aa 5f c0 bf
       0.03346977507929866 -0.12791954097700356
000210 14 47 1a db 01 66 a2 bf f3 6b 6b 6d 9c 05 ca 3f
       -0.03593450355141506 0.20329623549227413
000220 e8 42 19 b1 2e 00 a1 3f 33 dd a2 43 3d 53 cd bf
       0.03320451652382933 -0.22910276224659185
000230 2e d1 58 9c 37 85 c2 bf 94 0c 9f 21 86 94 93 bf
       -0.1446904672062685 -0.019121261407928872
000240 02 14 ba 10 ec 3a b6 3f 00 00 00 00 85 31 b5 3f
       0.08683658035631939 0.08278685808181763
000250 e2 87 cc ac 0d 16 a2 3f e7 83 5d 5b 38 77 c5 bf
       0.03532450422632373 -0.16770081006237023
000260 23 65 16 50 ff 1a b5 bf 00 00 00 e0 79 97 c2 bf
       -0.08244319634686241 -0.145247682929039
000270 d7 3f 5f 1a 81 29 b5 3f 62 7c ee db f0 3a 92 3f
       0.08266455549096406 0.017802966521795922
000280 d3 bf e7 66 79 a5 a6 3f 00 00 00 e0 f6 b2 c2 bf
       0.044231218158415374 -0.14608655869960785
000290 c5 5e 20 2c 8e bc c2 bf 64 ca 63 29 b0 e4 b5 bf
       -0.1463792529545939 -0.08552075396054587
0002a0 9a f9 da 87 38 ec bb bf 56 67 2f 07 3b e6 72 3f
       -0.10907319371015092 0.004614096239459039
0002b0 d7 3e c7 38 0f 6e 92 bf 2e 4c 5e 6c 2b 57 aa bf
       -0.017997968521568843 -0.05144630143981775
0002c0 00 00 00 00 fa 24 b9 bf 67 ae ab 3d 15 fa aa 3f
       -0.09822046756744385 0.05268923166098887
0002d0 77 00 1d df 92 08 c0 bf 00 00 00 c0 45 f5 b0 bf
       -0.12526164907649548 -0.06624256074428558
0002e0 96 d1 17 b0 4d ad cb bf 83 f8 fc a9 90 79 c1 bf
       -0.21622630213063293 -0.13652237224772898
0002f0 6f fa c0 bb fb b4 bb bf 05 71 28 47 c9 e5 95 3f
       -0.10823033651193169 0.021384377449167342
000300 5c 34 30 1c 13 69 85 bf 67 95 8d 34 bf 1a 96 3f
       -0.010454320237864127 0.021586406309685027
000310 71 a3 00 5e c6 5e bf bf f3 e2 90 b5 05 2f 82 bf
       -0.12253989977820169 -0.008878750422910175
000320 e4 c2 ec 72 9e c5 c5 bf d9 be b1 bb e2 f5 b5 3f
       -0.17009335147442706 0.08578316767102069
000330 50 3e 28 6e ca e3 a1 3f a5 b2 a2 95 41 1c a9 3f
       0.03494103045170205 0.04904370261769956
000340 00 00 00 80 1f ca a6 bf 06 c9 0d 7b 5a c8 c0 3f
       -0.04451082646846771 0.13111430176247313
000350 cf c0 37 61 1c 64 c4 bf 93 ba 04 0d 70 fa a6 3f
       -0.1593051409431667 0.04487943800846952
000360 c9 76 71 cc 27 14 af 3f 9b c7 6c 06 4a d3 a9 3f
       0.06070064898152123 0.050440133365909655
000370 ca 1d a2 2a 18 f4 8f bf 38 68 47 98 69 74 9e 3f
       -0.015602291871131952 0.02974095336853841
000380 75 79 80 72 04 ce bc bf c9 b8 78 3a 70 22 96 bf
       -0.1125185756249943 -0.021615747040578257
000390 28 3d 49 a7 70 62 c1 bf 48 3a 8e 38 a2 f9 ab bf
       -0.13581665199533544 -0.05463892879844373
0003a0 06 be b3 35 bf 0b e0 bf 77 09 2c b9 68 c4 a1 3f
       -0.5014339493627069 0.034701607326513555
0003b0 e0 91 61 87 b8 c5 b9 3f 6d 7e 7d 45 7f 48 b0 bf
       0.1006732302208273 -0.06360621878183688

weight f8 [96, 120]
000000 00 00 00 c0 a0 46 b4 3f 9a eb 33 8b 70 92 81 3f
       0.07920269668102264 0.00858009266675257
000010 fa 9c ae 18 b3 cc b4 bf 9d 95 e8 7e 3b c3 8a bf
       -0.08124846794691001 -0.013067688761178082
000020 00 00 00 80 b7 aa ad 3f 00 00 00 00 fd 6a 97 3f
       0.05794309079647064 0.022869065403938293
000030 8f 08 37 12 74 17 a1 3f 26 aa 25 d0 21 f6 bc bf
       0.03338206026411782 -0.11313067752568226
000040 72 1b b9 ac e1 fb 84 bf 00 00 00 80 68 7f b3 bf
       -0.010246050914373337 -0.07616284489631653
000050 00 00 00 a0 3f 4e b6 bf 00 00 00 c0 34 63 b0 3f
       -0.08713147789239883 0.0640137642621994
000060 00 00 00 20 3b d3 b4 bf 2f 42 3a 11 04 e4 ad bf
       -0.08134812861680984 -0.058380248167967934
000070 00 00 00 80 9b d5 b1 bf 00 00 00 00 4b 9b 82 bf
       -0.06966564059257507 -0.009085260331630707
000080 97 57 d6 14 35 b2 92 3f f5 d2 91 5f 82 51 a1 bf
       0.018257932087713504 -0.033824991384710325
000090 00 00 00 80 7a a2 9b 3f 31 56 58 7d e4 34 ad 3f
       0.026986993849277496 0.057044163037215496
0000a0 00 00 00 00 2f aa 9b bf 00 00 00 00 7c 21 61 3f
       -0.02701638638973236 0.0020911619067192078
0000b0 00 00 00 40 21 9c b5 3f 18 22 95 fd 64 92 92 3f
       0.08441360294818878 0.018136575677347805
0000c0 fb b6 c3 40 43 1f b7 bf 00 00 00 00 6a 01 95 3f
       -0.09032078105130019 0.020513206720352173
0000d0 00 00 00 80 75 0e 9a 3f 15 c1 e3 79 12 16 9e bf
       0.025445781648159027 -0.029381073655657525
0000e0 f8 cf 97 80 c3 12 b5 bf bd 91 0c e5 af c1 9b bf
       -0.08231756104925114 -0.027106045107886823
0000f0 00 00 00 60 e2 4c b4 bf 00 00 00 80 7b e8 a6 bf
       -0.07929816097021103 -0.04474245011806488
000100 00 00 00 80 a4 70 b5 3f 00 00 00 40 e8 75 b5 bf
       0.08375003933906555 -0.08383037149906158
000110 00 00 00 c0 b8 15 b3 bf 00 00 00 a0 72 5e b2 bf
       -0.07455019652843475 -0.07175365835428238
000120 00 00 00 80 2e 6f a6 3f 6c 41 9d 57 32 15 78 3f
       0.04381699860095978 0.0058795897001150225
000130 fc a8 86 5d 72 54 b2 bf 00 00 00 00 6f 36 97 3f
       -0.0716010549864769 0.022668585181236267
000140 11 cb 23 aa 6f 1c b6 bf 92 92 e7 f9 9f 47 ba bf
       -0.08637140182308324 -0.10265540934740106
000150 00 00 00 20 29 6e a2 bf bd 12 95 fb 65 17 ab 3f
       -0.035996709018945694 0.05291289039681633
000160 00 00 00 80 73 3f a8 3f a4 ab 93 e4 37 2a b8 bf
       0.04735909402370453 -0.09439420061577991
000170 3f 63 96 28 ef a6 99 3f 00 00 00 e0 79 38 b5 bf
       0.025050865986119716 -0.082893006503582
000180 ba 83 a8 8b ff e2 a5 bf 78 92 6d 30 f9 03 a9 bf
       -0.042747484014632645 -0.048858439599631376
000190 00 00 00 40 1b bd b3 bf f1 b2 73 25 2a 07 ad bf
       -0.07710428535938263 -0.05669528681923975
0001a0 00 00 00 40 d1 89 b2 3f 00 00 00 00 20 cb a8 3f
       0.07241542637348175 0.048424720764160156
0001b0 10 f2 a2 7a bd fc b1 bf 00 00 00 80 2f 0d b1 bf
       -0.0702627586751492 -0.06660744547843933
0001c0 00 00 00 80 15 1a 95 3f 00 00 00 c0 5f 23 ae bf
       0.020607315003871918 -0.05886363238096237
0001d0 d1 f7 73 4b 74 2c a3 3f 00 00 00 80 9f d8 98 3f
       0.037448534212657265 0.02426385134458542
0001e0 48 66 8a 85 ce d5 b1 3f a6 ba ff 83 f0 30 a4 3f
       0.06966868171948548 0.039435878861572335
0001f0 a3 9d 22 18 b5 08 b6 bf 86 73 54 4f ec fb a5 bf
       -0.08607036437262265 -0.04293764561064166
000200 00 00 00 c0 c8 cd b6 3f 00 00 00 a0 64 cf b5 bf
       0.08907751739025116 -0.08519581705331802
000210 fa 9d 80 47 b3 39 ba bf b4 06 3c dc 05 94 97 3f
       -0.10244293685592956 0.023025600020452244
000220 95 6b 87 90 e7 8e a8 bf 00 00 00 00 0f 99 8d 3f
       -0.0479652751852974 0.014452092349529266
000230 da 49 c2 27 79 a5 84 3f 00 00 00 00 fe 0e b6 3f
       0.010081240201803721 0.08616626262664795
000240 89 e3 31 7c 0e 15 b2 3f 00 00 00 20 a7 e6 b5 bf
       0.07063379795171278 -0.08555073291063309
000250 00 00 00 80 87 c6 ac 3f 06 81 89 25 54 44 b8 bf
       0.05620215833187103 -0.0947926131862041
000260 00 00 00 a0 6d 79 a5 bf 00 00 00 00 38 ad aa 3f
       -0.041942048817873 0.05210280418395996
000270 87 26 fd b9 ad c6 a5 bf 00 00 00 80 ae 1d b2 bf
       -0.04253142257091463 -0.0707654058933258
000280 da ae 6c 87 fb e3 a7 3f 00 00 00 20 38 ef b4 bf
       0.04666124370700482 -0.08177519589662552
000290 00 00 00 00 dc 93 61 3f 8a 04 cf 46 41 19 a3 bf
       0.00214570015668869 -0.03730205525744974
0002a0 00 00 00 e0 a1 a2 b3 bf 00 00 00 e0 2c 69 a2 bf
       -0.07670032232999802 -0.0359586738049984
0002b0 00 00 00 80 87 aa a5 bf 94 a8 ed cf f9 e1 80 bf
       -0.04231666028499603 -0.008243514688462995
0002c0 00 00 00 80 48 d9 a9 3f 8a 75 7c 86 b8 1f af bf
       0.05048586428165436 -0.060788885514038674
0002d0 00 00 00 20 af 41 b7 bf 00 00 00 00 78 2b 70 bf
       -0.09084600955247879 -0.003947705030441284
0002e0 00 00 00 40 d1 7e b0 3f 00 00 00 40 01 5a b4 3f
       0.06443507969379425 0.07949836552143097
0002f0 00 00 00 40 17 15 b7 3f 00 00 00 00 c6 aa 8d bf
       0.09016557037830353 -0.014485880732536316
000300 00 00 00 80 a2 de af 3f 00 00 00 e0 49 6c b6 bf
       0.0622454434633255 -0.08758985251188278
000310 00 00 00 80 62 cd b3 bf 00 00 00 80 cc 10 ae 3f
       -0.07735267281532288 0.058721914887428284
000320 00 00 00 40 6a f8 b1 bf 8b ca 69 31 86 21 a4 bf
       -0.07019676268100739 -0.03931826928319023
000330 2b 84 cf e2 10 70 b6 bf 32 d2 6f 62 ce 66 b5 bf
       -0.08764749085777683 -0.08359994796030248
000340 00 00 00 40 98 4e b0 3f 2c 0f a6 6b 63 92 b2 bf
       0.06369926035404205 -0.07254620912686666
000350 00 00 00 80 12 fa 9c 3f 3c 5b 70 d5 a4 39 b7 bf
       0.028297699987888336 -0.0907233258334203
000360 1a a4 5b c1 94 19 81 bf 00 00 00 80 b2 2c ac 3f
       -0.008349573279206313 0.055028513073921204
000370 00 00 00 80 2d 9e b0 3f 34 a8 d1 75 ec f9 b0 bf
       0.06491360068321228 -0.06631353260459677
000380 6e 0a 9d ef 44 7b a8 3f 00 00 00 00 e6 f3 a3 3f
       0.04781546997994189 0.03897017240524292
000390 00 00 00 00 75 07 a3 bf 00 00 00 00 20 1c 71 3f
       -0.03716626763343811 0.004177212715148926
0003a0 68 77 fd 5e 0c 5d a8 3f 12 66 d2 7e 43 3d 91 bf
       0.04758490237757834 -0.016835264793007516
0003b0 99 f0 f2 ed ce 74 6e bf dc b0 62 2b f3 a3 b4 bf
       -0.003717807921559024 -0.08062667664734441
0003c0 eb 95 46 f4 0b 8a ac 3f 56 ab 62 36 17 c8 89 3f
       0.05574071270829591 0.012588673922740472
0003d0 46 1e 12 41 b2 1a b0 3f de a3 d2 d5 0a 69 bb bf
       0.06290735329286531 -0.10707156868251341
0003e0 00 00 00 00 83 50 8b 3f 3a b2 49 7e 3e 9f 9e bf
       0.013337157666683197 -0.029904343088150244
0003f0 a9 c9 47 08 a0 6a bc bf e6 0a 53 9e e7 94 a2 bf
       -0.11100197031172478 -0.036292303158480796
000400 6d 05 89 cc d2 a2 ba bf 92 df f9 b6 9e d7 7b bf
       -0.10404698842559919 -0.006797428111546726
000410 52 1f 20 d2 fe 06 9d bf 00 00 00 80 3b 06 9d bf
       -0.028346997809449555 -0.028344087302684784
000420 ec 87 10 28 38 98 ae bf 41 eb d7 ef 07 2f b8 bf
       -0.05975509156293399 -0.09446763616135191
000430 3c 42 2a 8e b4 75 94 3f 2f 19 05 fe d1 84 ab 3f
       0.01998026006418939 0.053747713335314244
000440 89 8f 47 fb 0f 31 a2 bf 7d aa 10 dd 4c 9a 2b bf
       -0.035530566619654876 -0.00021059215808468318
000450 c9 bc df ce 5e 4a 91 bf 41 7c 63 76 77 c3 a9 bf
       -0.016885262848458624 -0.05031941719220657
000460 93 7b 95 ee 38 6b 9f 3f 31 87 e6 8d 97 fb 7f 3f
       0.03068245845986046 0.0078082962121770886
000470 93 81 ba cd d4 63 82 bf dd c7 69 4b 9b af 82 3f
       -0.008979475525223523 0.00912400554554787
000480 85 7e d4 c8 8a ce a5 bf c2 d9 1b 45 97 d2 a8 3f
       -0.04259141637362255 0.04848168104756524
000490 16 c1 bd 7f 09 31 95 bf ad e9 78 20 33 a6 a4 3f
       -0.020694874211984425 0.040330503190904345
0004a0 0e 72 ad 62 85 94 a5 3f 7d 14 3c f8 88 79 95 3f
       0.042148750587077996 0.020971431876223513
0004b0 b4 64 84 68 74 2d b2 3f b9 be 71 a6 1c 79 a4 bf
       0.07100608398140446 -0.03998651057997677
0004c0 73 4d 47 7f 31 79 b2 3f a6 90 0e 3a cc 7d b7 bf
       0.07216176373849752 -0.09176327149777083
0004d0 cc e5 33 93 ee 04 b1 3f f9 80 b5 99 18 9f 99 bf
       0.06648150533501179 -0.025020965940144333
0004e0 a3 22 c4 55 a4 84 83 3f 81 9d c2 e5 ed 6e 74 3f
       0.009530338160872736 0.004988602912056606
0004f0 70 73 77 bc 7e b4 a2 bf ed 61 cd 9c a7 21 90 3f
       -0.036533318048646346 0.01575338263077868
000500 2d 5e a0 dc 1d e9 a6 3f 90 fd 5b 85 a8 27 aa 3f
       0.04474728887742816 0.05108381870195011
000510 37 4c 2f 47 91 74 b2 3f b7 47 2d 25 9d 73 94 bf
       0.07209117877873515 -0.019972281831833274
000520 b3 7e bd 3c cf 32 4f 3f 5e f8 60 be 56 69 a4 3f
       0.0009521018887248184 0.03986617158851467
000530 e6 e4 d6 f0 ad af c0 bf 54 99 34 c4 83 f6 af 3f
       -0.1303613115285664 0.062427633000242594
000540 3d 97 f3 f0 08 9b 9d 3f a7 f1 be db 63 aa aa 3f
       0.028911723810686175 0.05208122308201562
000550 00 00 00 80 28 59 a4 bf 06 1f 9d 82 0c c5 b2 bf
       -0.03974272310733795 -0.07331922711193437
000560 07 70 c9 27 f7 df 94 bf 49 37 a7 d0 62 25 aa 3f
       -0.02038561039294964 0.0510664825156782
000570 12 e7 cf be ec 5d 9a bf 0f c3 d8 f3 5c 87 c0 bf
       -0.02574891962647203 -0.12913095385149417
000580 81 21 28 40 44 ad b5 3f 07 b0 1f ea 8a ba 87 bf
       0.08467508856131724 -0.011586270589724291
000590 93 24 55 20 b8 d2 b3 bf 4d f8 b7 4d b2 e7 b1 3f
       -0.07743407048578126 0.06994165799548675
0005a0 43 a5 18 c7 07 34 85 3f 96 f2 b5 dd 90 59 a2 3f
       0.010353146327434564 0.03583958345823139
0005b0 29 dc 58 c2 80 e6 ac 3f 44 3a 32 c8 9c 19 b6 bf
       0.05644609806443441 -0.08632831466295793
0005c0 e3 8b 9a c6 d3 a2 96 bf fa 82 93 a7 86 fc 7d 3f
       -0.022105511662299803 0.007320905680189277
0005d0 aa 42 84 37 1e fd b1 bf 24 f1 66 02 b5 df c8 bf
       -0.0702685246981313 -0.1943269979218566
0005e0 06 06 e3 be 6f c4 80 bf 4e 04 20 d2 2f 03 ab 3f
       -0.008187172902014882 0.05275868835452312
0005f0 ab 8e 15 12 6d 9e a2 bf 71 75 0a ac 8b 5c aa 3f
       -0.036364944894356675 0.051487316847878335
000600 8c 34 c6 e2 fa 25 a2 3f 00 00 00 80 41 52 b0 3f
       0.035446014578249224 0.06375512480735779
000610 5a 93 86 1a 6f cf 65 3f 26 40 cf a6 92 a3 a3 3f
       0.002662388800859378 0.03835733686685243
000620 25 4c 81 27 db 37 b5 bf 00 00 00 80 2a bc b4 3f
       -0.08288354601363375 0.08099618554115295
000630 27 c6 e1 3e 6c f5 b9 bf af 20 73 70 ad f9 a6 3f
       -0.10140110526278844 0.04487363813092437
000640 f9 04 58 1e d6 28 ba bf 00 00 00 00 70 2e 90 bf
       -0.10218561402145444 -0.01580214500427246
000650 2e b6 50 54 ac 33 84 bf 0d a2 b1 0b ad 36 a1 bf
       -0.009864183734033718 -0.03362026946780725
000660 4c 9b 7e 1d 74 67 ae 3f 2d 3d d3 91 5c 1c 5f 3f
       0.059383038139734085 0.0018988517761505217
000670 13 13 bc b9 a9 f3 a2 3f 7a 25 dc 1b bf 7d 8e bf
       0.03701525108593819 -0.014888279950826745
000680 00 00 00 80 2d 6d b0 3f bc 15 54 4b 32 ea a2 bf
       0.06416592001914978 -0.03694302720581841
000690 86 fa 84 06 c8 0e b4 bf 00 00 00 a0 93 58 b4 bf
       -0.07835054549375728 -0.07947657257318497
0006a0 5c 55 f6 33 e8 3f 9f bf 52 44 90 33 20 d3 8c bf
       -0.030517223521731793 -0.014074565480799137
0006b0 07 74 4a bf 67 3b 8c bf 92 bd 23 99 45 42 93 bf
       -0.01378518154643339 -0.018807494613552196
0006c0 c9 30 ac 67 d5 11 96 bf 7e 5e f5 16 89 7b 7e bf
       -0.02155240483539059 -0.007442031389778612
0006d0 69 ee 74 a7 49 df 94 bf 37 fb 76 59 ad a8 a8 3f
       -0.020383025022267996 0.04816190449809315
0006e0 00 00 00 00 d8 1f 66 bf 27 ef a4 0b 84 48 9b 3f
       -0.0027007311582565308 0.02664381333418855
0006f0 d2 99 6b f0 22 f8 97 bf db 3c c3 f5 86 ee a5 bf
       -0.023407503055659813 -0.04283544302017513
000700 00 00 00 00 a0 7d 82 3f 15 c1 5d a3 38 7f a4 bf
       0.00902867317199707 -0.040033121053854405
000710 e5 9f cf ae a9 90 85 bf a6 3f 51 82 2f 8c bc bf
       -0.010529828688916562 -0.11151406222893331
000720 44 5e d5 9d cd 61 ba bf 8b 1e d8 fc d2 98 b0 3f
       -0.10305485823970978 0.0648319117827844
000730 31 fc 72 af 40 45 a6 3f d5 50 1e 11 e6 59 9a bf
       0.04349710599625956 -0.02573356132013845
000740 d9 00 12 f0 8d ff b3 bf 6e 2b ff 40 c5 0e b5 bf
       -0.07811820136157922 -0.08225663029513239
000750 00 00 00 e0 fa 6d ab bf 9a 6d 6c 28 b9 04 8a 3f
       -0.05357345566153526 0.01270432142842175
000760 9f 46 00 31 e9 12 a4 3f 35 24 84 25 08 e1 c1 bf
       0.03920677874715505 -0.1396799262222729
000770 55 ec 2f bb da 7c b0 bf 41 e4 05 97 4e 50 8f 3f
       -0.06440512723922727 0.015289892181259758
000780 00 00 00 00 5e 24 7d bf e9 81 17 3f b7 d3 aa bf
       -0.00711476057767868 -0.05239651341594593
000790 67 47 04 29 24 00 a5 3f 3b 2b 9c cd b9 5d b8 bf
       0.04101670265857998 -0.09518014211441266
0007a0 00 00 00 80 fb fa b2 3f 96 fe 42 d7 20 f5 a1 3f
       0.07414218783378601 0.03507330539423241
0007b0 99 8d 89 fa ab b4 a2 3f 8e 07 9c 9f 2e 4a 6a bf
       0.03653466637913567 -0.003209200917695782
0007c0 ee 5d bd 6e df ae aa bf 00 00 00 40 3c cd b3 3f
       -0.05211542345812946 0.07735039293766022
0007d0 95 b3 52 b6 78 48 af bf 00 00 00 80 95 d0 ad 3f
       -0.06109978891013338 0.05823199450969696
0007e0 68 de ff f1 32 07 a5 bf 26 12 c2 f4 85 28 41 3f
       -0.04107054905028634 0.0005236295778706143
0007f0 6d fc 16 fb 6d fe 9d 3f 00 00 00 80 30 42 9e 3f
       0.02929088444738819 0.02954936772584915
