Sphere/NeuralNetworks/models/net_l2_var_30ep49.pt (torch_old, 71305 bytes, 7 tensors)

weight f8 [36, 6]
000000 10 19 96 57 10 74 a2 bf d1 e8 5c 82 1a df c0 bf
       -0.036041746799172825 -0.13180858006837196
000010 1b 33 4f 20 29 62 ad 3f fc 10 38 9c 9d 6a d2 3f
       0.057389531320586516 0.28775730376970876
000020 15 01 c1 97 9e 90 ba bf 02 2b 6c 05 59 77 cc bf
       -0.10376921849183803 -0.2223922039487079
000030 00 00 00 40 7b e4 d4 3f 00 00 00 00 cc 84 ba bf
       0.32644540071487427 -0.10358881950378418
000040 00 00 00 00 8f e8 ae bf 00 00 00 80 23 06 c6 3f
       -0.06036803126335144 0.17206233739852905
000050 00 00 00 00 20 a4 70 bf 00 00 00 c0 31 48 d3 3f
       -0.004062771797180176 0.3012813925743103
000060 3d 4b 6b ea 2b aa d2 3f e8 15 ee 00 e5 07 d7 bf
       0.29163644688121676 -0.3598568448145145
000070 90 bf 09 09 6f bd c3 bf ad e7 c8 a0 14 b5 b8 3f
       -0.15421855870544876 0.09651307034883301
000080 a2 56 05 2d 13 57 d4 bf 1f f5 d6 88 c7 92 cb bf
       -0.3178146304756898 -0.2154168527758111
000090 59 7d ed 34 42 ab b7 3f 45 9f f5 d1 9d ba c4 3f
       0.09245694915943171 0.1619450831597026
0000a0 df 45 50 0f 0b c3 d8 bf d2 fa d2 bf c1 b4 ca bf
       -0.38690449233498997 -0.20864126078045914
0000b0 99 dc 71 8f 1e a9 be bf c5 b7 f2 26 8a 7f d1 3f
       -0.11976805688924443 0.27340940288092624
0000c0 00 00 00 c0 a5 16 d5 3f 00 00 00 40 7f fb d8 3f
       0.3295072913169861 0.3903501629829407
0000d0 00 00 00 00 f6 a0 93 3f 00 00 00 80 ae 76 d5 3f
       0.019168704748153687 0.3353687524795532
0000e0 00 00 00 40 db a1 d2 3f 00 00 00 00 a1 8a c7 3f
       0.291128933429718 0.18391811847686768
0000f0 11 c8 2b f8 ab eb a1 bf cd 13 23 18 09 d8 9c 3f
       -0.035001157802881384 0.028167860124785272
000100 3c 14 93 35 c3 1e d5 bf a5 9b 40 88 9c ca b1 3f
       -0.3300025962055917 0.06949785543893812
000110 b7 d6 9d 3f 4f 00 d7 bf e0 78 39 fb 30 52 cc bf
       -0.3593938943152852 -0.22125828043767282
000120 c1 14 5a 63 78 7a d7 3f 0f f1 3e ba 1c 66 ce 3f
       0.3668499918206401 0.23749121755634703
000130 e0 3b d2 83 2e 2b b1 3f ff e1 37 20 44 76 d3 bf
       0.06706515043536809 -0.3040933909065017
000140 0c 71 ab 23 a9 1f a4 bf db a4 d8 29 d3 f2 b1 bf
       -0.03930405197545114 -0.07011146327626554
000150 38 fe 46 c7 50 19 b6 bf ea 47 f2 7d 9a 3e c5 bf
       -0.08632378449601041 -0.16597300672270815
000160 d6 d4 f9 6b 5f 0d d2 3f 4d 63 4e 2a fc 78 da bf
       0.28206620735666144 -0.4136343396326552
000170 12 50 fa f6 b6 17 d1 bf 76 4a 1c d7 e2 4e c9 bf
       -0.2670724307911324 -0.19771991256182603
000180 6d 7a de 94 50 6f bc 3f 49 10 c6 27 47 a1 c6 bf
       0.11107352861879756 -0.17679681245874893
000190 49 0c d8 4d 3a 1b b1 bf 2b 22 fc b8 94 aa cc bf
       -0.06682171249853854 -0.2239557173964085
0001a0 ff ba 54 fa 26 c2 c3 3f b2 cd 5b f6 aa 40 d0 bf
       0.15436255667869855 -0.2539470105977798
0001b0 be ce 93 21 63 06 c8 3f 5a c9 68 e8 75 5d d4 bf
       0.18769492282409844 -0.31820438095305337
0001c0 9a 12 06 52 4b 42 c9 bf f7 42 73 a0 e4 33 bf 3f
       -0.19733563904823798 0.12188557545892907
0001d0 f6 57 7a bd 43 44 d4 bf 6b 28 2e 41 a6 47 c0 3f
       -0.3166665411348498 0.1271865671408848
0001e0 ec 76 b5 1f f1 88 d3 bf 1f 3e 0f 90 70 09 af 3f
       -0.30523326965872744 0.060618894181626574
0001f0 25 96 df f4 bd 09 c7 3f 94 37 6b 4b f2 8b c7 3f
       0.17998480278690568 0.1839583271270696
000200 24 a6 4f a7 79 c0 d4 bf c1 d1 e7 38 3a 13 cd 3f
       -0.3242477544687026 0.22714927462187798
000210 59 0c 66 7d d5 e3 d8 bf ce 28 c0 dd c6 c6 cf 3f
       -0.38890588041266977 0.24825368716876145
000220 f7 fa cc 8e fc b7 b5 bf ae f4 a8 37 26 19 a8 bf
       -0.08483866201730082 -0.047066873831206876
000230 f5 25 c2 02 00 18 bf 3f e6 7f 52 a8 6c f8 ce bf
       0.12145996157973811 -0.24195631235943366
000240 53 fd 9c 8f ff b1 c0 bf 6f 8a c7 09 36 56 d4 bf
       -0.13043207657208686 -0.3177619071485997
000250 2a 58 0b 36 56 7b b3 3f 70 40 f3 11 69 62 c3 3f
       0.0761007196373106 0.151440747990367
000260 c6 c5 84 25 27 ce d4 bf 8d 0a 74 33 23 8f c4 bf
       -0.32508257545404395 -0.16061820995681267
000270 e6 ee 18 21 36 ec bf bf 13 48 15 79 6d fa ab 3f
       -0.12469805057565572 0.054644986181884424
000280 fb 0b bf ea 58 ff c1 3f 03 b6 45 26 1a 51 90 bf
       0.1406050821516088 -0.015934380136448222
000290 f2 b0 82 16 44 f8 c0 bf 95 37 38 6e 4b bd d0 bf
       -0.13257647608896367 -0.2615536285746825
0002a0 21 0d 73 40 63 f8 d6 3f f2 83 e4 b0 6e a3 d9 bf
       0.35891038221252997 -0.40060012125655853
0002b0 fd 04 1e 95 70 fc ba 3f 7c fb f1 ae 43 01 c5 bf
       0.10541442528303331 -0.16410108606575224
0002c0 64 a9 eb a3 be 00 b2 bf 9f 05 57 02 56 c9 d9 3f
       -0.07032386304823529 0.4029135725832819
0002d0 4d 81 00 72 70 ee c4 bf 8d 44 19 48 4b 73 89 bf
       -0.16352658812048518 -0.012426937234666613
0002e0 9d 15 5f 29 f3 55 cb bf 33 32 a5 0a b5 aa ca 3f
       -0.21356048126305618 0.2083345701197615
0002f0 30 1b 2c 46 5f bd b8 3f 43 c1 0b 84 f1 0c d9 bf
       0.09663958991232557 -0.3914150037299075
000300 00 00 00 e0 46 6e c9 bf 00 00 00 00 ec 34 d2 3f
       -0.1986778825521469 0.28448009490966797
000310 00 00 00 80 0f 8e b0 bf 00 00 00 00 d1 01 a3 3f
       -0.06466767191886902 0.03712323307991028
000320 00 00 00 80 3e 09 cc 3f 00 00 00 00 e8 3e bd 3f
       0.21903210878372192 0.11424112319946289
000330 aa 96 45 8f 76 ad 9c bf e5 33 b6 94 29 66 cc 3f
       -0.02800545930349211 0.2218677497989169
000340 05 92 de 9a 78 09 c9 3f a0 93 3e 2f 9b 78 b0 bf
       0.19560153543456252 -0.06434030440739358
000350 62 ba 42 8a e8 51 c5 bf ce bc d1 c6 53 57 cc bf
       -0.16656214476593606 -0.22141501625035293
000360 bc be 58 4e 4f 38 d8 bf 96 b5 0c ba 8c e9 c8 3f
       -0.3784368767837625 0.19462737163977967
000370 a7 64 1e be 5a 53 c8 3f e6 2a 19 26 e9 75 d6 bf
       0.19004377635136402 -0.3509467002919976
000380 a5 c1 5d a5 cb 1f ad bf 56 1c 70 e2 98 72 a4 3f
       -0.05688320535307704 0.0399368072904102
000390 00 00 00 00 2b 0a b8 3f 00 00 00 80 5f d6 d1 bf
       0.09390515089035034 -0.2787092924118042
0003a0 00 00 00 00 37 b7 bb 3f 00 00 00 00 98 7f 96 3f
       0.10826438665390015 0.02197110652923584
0003b0 00 00 00 00 67 c2 c1 3f 00 00 00 80 d9 03 da 3f
       0.13874518871307373 0.4064849615097046
0003c0 b4 1c f6 11 8a 5d d3 bf 20 c5 b0 54 89 6d d0 bf
       -0.30258418802300047 -0.25668557425076877
0003d0 28 72 6d e1 47 51 bf bf 79 14 71 d5 6b 39 a0 bf
       -0.12233399633027686 -0.0316880891846631
0003e0 e1 5a 25 40 ae 69 d2 bf b8 3b 54 e5 18 55 a9 3f
       -0.28770023597955513 0.04947736548830711
0003f0 77 81 2f 27 e7 d8 c9 3f ae 16 01 3e 70 88 c0 bf
       0.20193185246808884 -0.12916377093840964
000400 09 3f 09 12 77 4e d4 bf 61 c0 ac 6d 50 5c d6 bf
       -0.317289130795857 -0.349384410003955
000410 a6 eb 14 cc d9 d6 c7 bf e2 33 55 96 ef 8c d7 3f
       -0.1862442251675393 0.36797704392375696
000420 9b c0 ae 4f 42 61 85 bf 73 ed 4c 04 08 af c3 3f
       -0.01043941312477186 0.15377903184876693
000430 93 44 9a 1e b6 a7 93 bf d5 6c 47 e2 e1 2f 83 bf
       -0.019194455736002935 -0.009368672101962275
000440 a7 13 0a 72 f8 e3 b7 bf 21 5f 8d 6a c2 ba d1 bf
       -0.09332230362094994 -0.2770238915013455
000450 ca 5b 50 a1 1b 79 b9 3f 3c 34 96 aa e5 41 d7 bf
       0.09950421036079074 -0.36339704188214106
000460 39 cd db db 9e f6 c4 3f 26 eb 0b df f7 a0 a4 bf
       0.16377626166613782 -0.04029059026466646
000470 f8 de be 4b 49 3c d9 bf f6 54 04 23 9c d5 d5 bf
       -0.39430458447485206 -0.34116271419163924
000480 f1 c5 16 5b 52 60 d1 3f db 11 b2 06 04 93 d4 3f
       0.27150401015668907 0.3214731278788158
000490 b1 a3 fc 30 a2 97 c2 bf a0 d2 f0 da bb 76 da bf
       -0.14525248901307244 -0.41349693661622133
0004a0 17 e2 e5 c6 85 47 d1 bf 7a ec 16 29 bc 74 8d bf
       -0.26999039100295036 -0.014382810596421648
0004b0 7c 93 47 c7 c4 c9 b1 3f 59 b4 48 42 4e db 9c bf
       0.06948499551033466 -0.0281803348499817
0004c0 29 6b 52 ea 20 e3 c3 3f d2 4a 14 2f de 45 e3 bf
       0.1553689140463004 -0.6022787971035888
0004d0 d1 7b 2a 37 fd 6f b8 3f e1 5e bb 47 f1 20 d1 3f
       0.09545881840538974 0.2676356506831166
0004e0 a8 3b 58 25 52 88 c2 3f 14 60 f6 0e 53 97 dd bf
       0.14478518317670575 -0.4623611112706396
0004f0 42 a7 37 1a 47 3a 90 3f aa 54 46 c6 60 f3 d0 3f
       0.015847311949904304 0.2648546158100752
000500 69 f0 24 73 82 ba ab 3f b0 d7 e6 ed b7 bf ce bf
       0.05415733008928287 -0.240225783503488
000510 6a 47 e7 94 19 73 d4 3f e6 95 ac 4c ec 42 a2 3f
       0.31952514211035654 0.03566683231319327
000520 d2 7f da 4a 72 21 bc bf 3e a0 87 78 ad ff c9 bf
       -0.10988535239675848 -0.20311516175502392
000530 1a ac 76 0a b6 1b c3 3f c1 e5 01 d6 ff 14 cc bf
       0.14928317557254972 -0.21939084958630242
000540 00 00 00 40 46 a8 d2 3f 00 00 00 00 f3 e0 a5 bf
       0.2915206551551819 -0.04273185133934021
000550 00 00 00 20 2a 78 cb bf 00 00 00 00 7b 94 ac 3f
       -0.21460463106632233 0.055820316076278687
000560 00 00 00 00 4b 6e ba 3f 00 00 00 80 f0 fe c9 3f
       0.10324543714523315 0.20309263467788696
000570 00 00 00 00 96 87 d2 3f 00 00 00 00 40 57 b6 3f
       0.28952550888061523 0.08726882934570312
000580 00 00 00 80 b4 f1 c0 bf 00 00 00 00 74 d6 98 3f
       -0.13237625360488892 0.024255573749542236
000590 00 00 00 80 30 cb d3 3f 00 00 00 80 48 15 c9 3f
       0.3092767000198364 0.19596201181411743
0005a0 03 d2 35 c0 4d af 6c 3f b6 cc 1a 28 26 19 ae 3f
       0.003501560074875566 0.058785622020331926
0005b0 59 ab 75 be 89 f1 cc 3f 46 91 16 62 5e c1 cb bf
       0.2261211566904773 -0.21683864392719893
0005c0 b2 f9 37 20 d6 59 c3 3f 73 28 e6 72 f0 a9 cd bf
       0.15117909024406867 -0.2317486344366589
0005d0 0d 1a 83 cd 6d e1 ba 3f 9e cb e6 65 af 22 d5 bf
       0.10500227229486132 -0.3302420134670515
0005e0 e3 f4 5b 3b d2 9d be bf 2c d0 60 58 3b 10 a6 3f
       -0.11959566067885734 0.04309258893809473
0005f0 02 d5 f4 ef f7 6f a8 bf fc 29 be 73 a2 d7 a5 3f
       -0.04772925190119716 0.04266078627468414
000600 e2 6e 29 19 bb 80 d9 bf 90 fc 34 13 33 66 c3 bf
       -0.39848210770808923 -0.15155638158646356
000610 2b 68 27 5f 64 05 8c bf f2 bf 8d 52 99 bf b7 bf
       -0.013682159570567695 -0.0927673174426216
000620 3c 9a d6 9a 93 f2 c7 3f 45 1f 1d 94 b4 3b ad 3f
       0.18709034977401184 0.057096140938084385
000630 7a 01 bb db 7c 3e d7 bf 64 7d 95 8b 50 37 ca bf
       -0.36318894823127545 -0.20481306853887837
000640 c7 0b a3 d9 22 d6 c4 3f cb d8 1c 1e fb be c3 3f
       0.16278491617967303 0.15426577539773798
000650 97 5c ef 31 28 b8 db bf 09 4e ac aa 1c e8 cd 3f
       -0.43311505199876293 0.23364599546094691
000660 40 60 c6 d1 b1 b1 cf 3f 53 27 19 9a 96 4c c4 3f
       0.24761030905642833 0.158587289088525
000670 b2 77 6d 8e 18 c5 d5 3f de ab 5b 88 57 88 c7 bf
       0.3401547804731947 -0.18384832532987522
000680 0b 25 d1 bb e3 5b da bf 67 d0 d2 eb 2a ac bf bf
       -0.4118584951543915 -0.1237208200207661
000690 d3 9d 53 0e 4d 41 b0 bf 7a b0 9a 6a 21 1b dd bf
       -0.06349641418238798 -0.4547809163148099
0006a0 57 00 73 47 1e 82 d8 bf fa 50 89 fe 34 01 cf bf
       -0.38294178941214824 -0.24222433498892554
0006b0 33 8d 82 33 d7 ea c1 3f 7d 3b 10 c7 f1 9f 6b 3f
       0.13997926726470097 0.0033721658915121786

bias f8 [36]
000000 0c 8b a5 43 db 6d cf 3f 00 00 00 40 e3 fb d9 bf
       0.2455400543504641 -0.40599900484085083
000010 91 48 0c 6c bd 88 d0 bf 86 43 9d a5 1b fd ce 3f
       -0.25834594298897523 0.2420992430366164
000020 00 00 00 00 cb 91 a5 bf 09 f0 ff 56 ad 9f d7 3f
       -0.04212793707847595 0.3691209172827717
000030 80 2c 74 2f eb f5 d0 3f f2 40 79 47 c5 2e a3 3f
       0.2650096858421378 0.03746620652657552
000040 78 2d 7c 0d 9b ce d4 bf 5a 1a 5a 83 39 64 ac bf
       -0.32511020962620973 -0.05545215347688233
000050 d7 bf 9c b2 02 61 a1 bf 5b 19 c5 a8 6e 3e ca bf
       -0.03394325666738467 -0.20503028145521793
000060 de 82 4e 3a d6 72 bf bf cc 5c da b1 ca 22 d8 bf
       -0.12284602092268979 -0.3771235215039723
000070 7a 43 12 83 f6 26 d7 bf 15 ad c2 4b 8d 3c cc 3f
       -0.3617531089776588 0.22059789847603697
000080 00 00 00 80 fa 77 b3 bf ad 3e 2a cf 1e 0e b0 3f
       -0.07604947686195374 0.06271545942058294
000090 53 56 c5 22 a0 62 a3 bf 00 00 00 a0 74 74 d5 bf
       -0.037861828083504044 -0.3352328836917877
0000a0 0d eb af f5 19 f7 d5 3f af cf 06 98 b5 f3 d3 3f
       0.3432068728722449 0.31174983831737796
0000b0 09 83 fd 87 cf a9 4e 3f 46 5b b4 02 ab 76 97 bf
       0.0009357703529354343 -0.02291362003333155
0000c0 62 ee f9 00 b6 f1 c4 3f 5a c6 b7 fa ce eb e6 3f
       0.16362643287344542 0.7162852188905149
0000d0 d0 86 dc bd 6c b5 bd 3f 70 4b ef 61 ea 5d c1 3f
       0.11604957232750768 0.13567857534379923
0000e0 00 00 00 80 90 4c b5 bf 00 00 00 20 6c c0 c9 bf
       -0.08319953083992004 -0.20118476450443268
0000f0 6c d5 ba df e1 e9 cb 3f 8a b6 01 e6 12 61 de 3f
       0.21807502197558948 0.474674915901098
000100 0f d1 c2 18 53 e0 d3 bf 5d d2 d7 4f f3 c7 98 3f
       -0.310566686802546 0.024200250385506872
000110 ed 5e f4 d5 dd 52 7b bf 9f bc 11 08 82 06 cd 3f
       -0.006670824571550088 0.22676110643394495

weight f8 [72, 36]
000000 d0 5d 3c e4 9a 80 c3 3f 00 00 00 40 ce d7 be 3f
       0.15236221451117027 0.12048043310642242
000010 ca 0e 4a d8 4e 8b b3 3f 00 00 00 00 1c 36 99 3f
       0.07634442120075416 0.024620473384857178
000020 00 00 00 60 23 c1 c3 3f d5 9f 82 a5 21 d8 c3 bf
       0.15433160960674286 -0.15503330785327188
000030 40 fd 66 28 ee b5 c0 bf 24 c0 52 39 de b6 5f 3f
       -0.13055207226532595 0.001935688987298797
000040 72 1f 0a 41 4c 4f a2 3f b8 2d ad b1 59 f3 bd 3f
       0.035761244716069465 0.11699448192410145
000050 00 00 00 00 ba 2d c5 bf 48 16 99 2f da a2 a1 bf
       -0.16545796394348145 -0.03444558936147907
000060 c8 88 e0 09 50 a3 c0 bf 09 b0 f0 d4 36 40 c2 3f
       -0.12998390657691616 0.1425846614596369
000070 67 cc 7c ee 6b b5 9d bf cc d4 48 41 1f 1c bb bf
       -0.029012381011125046 -0.1058978590379695
000080 00 00 00 e0 08 62 c2 bf b7 f2 0b e2 18 63 c0 3f
       -0.14361678063869476 0.12802420651850863
000090 c4 7c 67 58 66 cb ac bf 00 00 00 a0 a2 58 c3 3f
       -0.05623931721833622 0.1511424332857132
0000a0 5c 34 a1 ef 9d de 6e 3f 05 11 d9 1f f3 3a a1 bf
       0.003768261402945101 -0.033652875554738094
0000b0 c9 11 84 01 c1 c1 9d 3f a5 85 5a 5a 35 7a b6 bf
       0.02905942508461282 -0.08780225234888535
0000c0 5f 7d ae 9d 0e 9e b7 bf 52 a6 f3 83 52 94 bc 3f
       -0.0922555098500104 0.111638219084534
0000d0 20 d9 d5 fd b7 2f c3 3f 67 e2 f0 09 b5 fb 9e bf
       0.149893759673156 -0.030257061702487677
0000e0 00 00 00 e0 ed 78 c2 3f 00 00 00 00 1a 7d a6 bf
       0.1443154662847519 -0.04392319917678833
0000f0 98 e3 9d 58 d1 6a a8 3f 8a 22 62 7d 39 14 c4 bf
       0.04768995482203947 -0.15686720487817168
000100 67 4d 55 97 9e cd a8 3f 17 f5 65 4f 5e 53 90 3f
       0.04844375226334812 0.015943025203786734
000110 bf 0f cc f6 2f 07 ba 3f c2 cb 98 31 89 4e 51 bf
       0.10167217040367314 -0.0010563220770449665
000120 7c 6e 6a bd 80 03 b1 3f 00 00 00 40 f0 95 c3 bf
       0.06645969986350936 -0.15301325917243958
000130 52 b1 73 9c 8e 37 b4 3f 90 aa 94 f0 44 6f a4 bf
       0.07897273368479787 -0.03991141735817394
000140 00 00 00 c0 1d bb b2 bf 28 ff cf 06 4a 2d ba bf
       -0.07316766679286957 -0.10225355783768164
000150 03 c8 03 2d 9a 8e b0 3f 1d 97 39 be 43 68 b1 3f
       0.06467593764298844 0.0679972018639003
000160 da e1 21 96 a5 77 c1 3f ff 1d 54 fe de f1 ca 3f
       0.1364638312404754 0.2105063192213805
000170 8d ce 32 79 16 32 da bf 4b d1 66 04 90 f4 c6 3f
       -0.40930711589610597 0.1793384572498645
000180 c3 0a bb da 53 b3 c9 3f 28 80 fc 25 41 dc 93 bf
       0.20078514270979583 -0.019394891685010546
000190 2c 9f 18 d8 fc d3 bc bf 2c 65 78 4c 40 cc a6 bf
       -0.11260967517648329 -0.04452706273532167
0001a0 00 00 00 00 aa 45 8b 3f c2 d8 c5 1e 4c 95 b4 bf
       0.01331646740436554 -0.08040309668817527
0001b0 0e e0 16 4c 4e 52 b3 3f 00 00 00 20 9b 1d c1 3f
       0.07547463758135128 0.13371600210666656
0001c0 67 16 7b c0 07 08 9a 3f 16 2a 55 0d 50 88 72 bf
       0.02542125809011111 -0.0045245291742710605
0001d0 59 37 0f c1 4f 81 9f bf 61 bb 8f 43 91 d4 b7 3f
       -0.03076672187653826 0.093087271685119
0001e0 f2 61 c9 37 01 b2 9a bf b3 1f 18 81 67 f2 99 3f
       -0.026069659261652896 0.025338761572157597
0001f0 d5 09 c6 7b 0a fa 98 bf 6c b7 7a 84 ce cd a7 3f
       -0.0243913305325892 0.046492055579945596
000200 00 00 00 00 51 43 96 bf 00 00 00 00 31 44 97 bf
       -0.021741166710853577 -0.022721067070961
000210 d6 8e d4 74 9d 51 a0 bf b2 76 86 60 df 62 b1 bf
       -0.031872673522483616 -0.06791492563794568
000220 3b cc c9 9f 99 6b c7 3f 69 08 69 1d 36 06 c6 3f
       0.18297119428788897 0.17206455646561672
000230 a5 9c 59 93 01 fe ba bf 4d 31 26 4c 38 4a 9d 3f
       -0.10543832633412593 0.028603438995149322
000240 00 00 00 c0 76 a6 b1 3f 00 00 00 80 56 1b a8 3f
       0.06894628703594208 0.047083571553230286
000250 00 00 00 00 42 07 a9 3f 00 00 00 80 34 0c af 3f
       0.04888349771499634 0.060639992356300354
000260 00 00 00 40 f5 7f bd 3f 00 00 00 60 d6 09 c3 bf
       0.11523373425006866 -0.14873771369457245
000270 00 00 00 c0 ba 32 ba 3f 00 00 00 60 5a e1 b2 bf
       0.1023365706205368 -0.07375111430883408
000280 00 00 00 40 26 75 c4 bf 00 00 00 00 dc 31 b4 3f
       -0.15982511639595032 0.07888579368591309
000290 00 00 00 c0 08 28 b6 bf 00 00 00 40 ff 18 b1 3f
       -0.08654837310314178 0.06678767502307892
0002a0 00 00 00 00 e8 1c a3 bf 00 00 00 00 70 a6 9a 3f
       -0.037329912185668945 0.02602553367614746
0002b0 00 00 00 00 74 77 9b bf 00 00 00 60 a1 21 b4 bf
       -0.02682286500930786 -0.07863815873861313
0002c0 00 00 00 40 0f 3d be 3f 00 00 00 00 27 76 c3 bf
       0.11811919510364532 -0.15204322338104248
0002d0 00 00 00 00 15 60 c4 bf 00 00 00 00 8c 78 c4 bf
       -0.15918219089508057 -0.1599287986755371
0002e0 00 00 00 c0 f8 2e b1 bf 00 00 00 40 02 b9 bd 3f
       -0.06712298095226288 0.11610426008701324
0002f0 00 00 00 00 7e 53 81 bf 00 00 00 00 00 58 e9 be
       -0.00846002995967865 -1.208484172821045e-05
000300 00 00 00 40 48 65 c2 bf 00 00 00 80 5b e9 aa 3f
       -0.14371588826179504 0.052561625838279724
000310 00 00 00 80 74 34 a1 bf 00 00 00 80 bf d7 a0 3f
       -0.033603325486183167 0.032896026968955994
000320 00 00 00 40 86 65 c0 bf 00 00 00 c0 26 58 c1 bf
       -0.1280982792377472 -0.1355026662349701
000330 00 00 00 00 53 9f 97 3f 00 00 00 c0 57 d4 b4 3f
       0.023068711161613464 0.08136509358882904
000340 00 00 00 60 85 bc c0 3f 00 00 00 00 70 4f 7f 3f
       0.13075320422649384 0.0076441168785095215
000350 00 00 00 c0 9c 57 bc bf 00 00 00 00 d2 a9 a2 3f
       -0.11071185767650604 0.036451876163482666
000360 00 00 00 c0 99 13 bb bf 00 00 00 60 6e 41 c5 3f
       -0.10576783120632172 0.16605930030345917
000370 00 00 00 00 00 fc ff be 00 00 00 00 e9 a3 c0 bf
       -3.0502676963806152e-05 -0.13000214099884033
000380 00 00 00 00 0a 58 a0 bf 00 00 00 c0 92 e5 c0 bf
       -0.03192168474197388 -0.13200601935386658
000390 00 00 00 00 39 23 b0 3f 00 00 00 00 a3 c9 9b bf
       0.0630374550819397 -0.027136370539665222
0003a0 00 00 00 60 be 02 b8 bf 00 00 00 e0 ba 9e c1 bf
       -0.09379186481237411 -0.1376565545797348
0003b0 00 00 00 60 da 55 b3 bf 00 00 00 00 20 f8 99 3f
       -0.07552876323461533 0.025360584259033203
0003c0 00 00 00 60 63 a6 c4 bf 00 00 00 60 76 dc bc bf
       -0.1613277643918991 -0.11273898929357529
0003d0 00 00 00 40 13 5f b6 3f 00 00 00 00 a6 66 bd bf
       0.08738823235034943 -0.11484754085540771
0003e0 00 00 00 20 78 73 c0 3f 00 00 00 80 48 a4 c2 bf
       0.1285238415002823 -0.14563852548599243
0003f0 00 00 00 80 a3 ea a3 3f 00 00 00 60 24 10 b1 bf
       0.03889952600002289 -0.0666525587439537
000400 00 00 00 e0 a3 13 c3 3f 00 00 00 00 64 5e 7c bf
       0.14903686940670013 -0.006925955414772034
000410 00 00 00 c0 fe ec bc bf 00 00 00 00 d4 42 bc bf
       -0.11299125850200653 -0.11039471626281738
000420 00 00 00 00 39 0f 91 bf 00 00 00 00 47 56 b4 3f
       -0.016659632325172424 0.07944148778915405
000430 00 00 00 20 76 4d c3 3f 00 00 00 80 66 81 a2 bf
       0.15080143511295319 -0.03614349663257599
000440 00 00 00 40 9c 4c b7 3f 00 00 00 00 9f 48 9a 3f
       0.09101273119449615 0.025667652487754822
000450 00 00 00 00 54 5a a6 3f 00 00 00 00 84 15 a0 bf
       0.043657898902893066 -0.031414151191711426
000460 00 00 00 40 30 7a b0 3f 00 00 00 00 fc 0c 91 bf
       0.06436444818973541 -0.01665109395980835
000470 00 00 00 e0 17 33 c5 3f 00 00 00 00 a3 3a 98 bf
       0.16562174260616302 -0.023661181330680847
000480 14 84 64 ea 8d 38 c2 3f 00 00 00 00 48 2d ae bf
       0.1423509020324053 -0.058939218521118164
000490 25 9c 16 f9 49 8e c2 3f 37 fc 16 ff 56 d4 c2 bf
       0.144967314362675 -0.1471050973468395
0004a0 00 00 00 00 38 49 9d bf d0 b4 ab cb 63 48 c2 3f
       -0.02859961986541748 0.1428341621862388
0004b0 e7 20 5c 30 f0 93 a7 3f 76 65 d6 78 0d b6 a2 bf
       0.04605055418329745 -0.03654520130221332
0004c0 7e f0 a1 da a3 2b c3 3f 8d 6d a7 e9 73 10 93 bf
       0.1497692887822985 -0.01861744989024099
0004d0 28 ee 92 a6 ba fc b0 bf 64 e4 02 3d ae 85 96 3f
       -0.0663563400911974 0.02199432608970077
0004e0 62 bf 5a ee 86 2a c2 3f 7b 93 54 1d 3b 00 b8 bf
       0.1419228233185051 -0.09375352350305192
0004f0 70 64 54 01 7d 95 c3 bf 2b 20 99 8e ec 15 b4 3f
       -0.1529995209209889 0.07845953446769786
000500 00 00 00 e0 4f 54 c0 3f 05 9c 08 e2 be 1a b7 3f
       0.12757299840450287 0.09025185602568804
000510 34 88 0d 85 75 1b 7a bf 00 00 00 60 92 a0 c3 bf
       -0.006373843251681822 -0.153337761759758
000520 fa 59 cd 7d 30 6e 9d 3f 48 db 2f 8b 26 c5 c0 3f
       0.028740651777605188 0.13101655765759745
000530 ff 1a 5b 94 42 57 b3 3f b5 ef 73 37 14 b1 b2 bf
       0.07555023309678786 -0.07301451066808691
000540 19 d3 e4 95 8d 1e b2 bf 35 30 e3 dc f1 63 ba 3f
       -0.070778702826669 0.10308753626594654
000550 a3 dd f5 aa 6b ea c5 bf 4b b3 02 21 3d 30 c7 bf
       -0.171216448284878 -0.181159630888397
000560 00 00 00 60 38 c7 b9 bf 00 00 00 00 fe 3b 8a 3f
       -0.10069610923528671 0.012809738516807556
000570 7c b1 09 5c 99 80 c2 bf e8 c0 de 28 b5 ea bb 3f
       -0.1445495318797717 0.10905010459714826
000580 76 93 32 f7 dc 57 b6 3f c8 7d 48 85 85 67 b8 3f
       0.08727818522545569 0.09532961372359872
000590 f1 2f 87 68 8b 2c a8 3f 05 b4 07 7a 15 67 aa 3f
       0.04721484805085641 0.051567717691661165
0005a0 25 b5 a9 36 de 3b 94 bf 00 00 00 c0 00 21 c0 bf
       -0.01975962837825764 -0.12600716948509216
0005b0 56 77 e9 72 25 13 56 3f 0f e9 e0 a8 b2 63 a8 3f
       0.001347338267485528 0.04763563453203023
0005c0 00 00 00 80 6b d6 af 3f b4 c3 63 2b d0 30 c3 3f
       0.06218276917934418 0.14992715948713242
0005d0 ce ea 47 7e e7 08 c3 3f b5 43 9c c4 f1 64 23 3f
       0.14870923677502507 0.00014796687383314208
0005e0 0b 87 2e 03 d9 ba ad bf ec 0a ba da 66 2a cb 3f
       -0.05806615985717486 0.21223149948135445
0005f0 af 0b 9c 7a ea 1f d7 bf 25 03 2c dd d7 08 d3 3f
       -0.3613229939803046 0.2974147472269116
000600 cd c4 eb e2 61 a2 b6 3f 7d ec 5e c2 fb 79 c4 3f
       0.08841525831282411 0.15997263899575734
000610 ef 2b 4e f4 9a e5 c1 bf ad c3 a6 7d 7d 95 c1 3f
       -0.13981949738476326 0.13737457881282236
000620 00 00 00 00 8f e5 b0 3f 6a a7 24 73 7f 5c b7 3f
       0.06600278615951538 0.09125515519249708
000630 2c 73 76 da 15 31 a2 3f 00 00 00 00 e1 96 9c bf
       0.035530741613206324 -0.027919307351112366
000640 0a 9b 3a 60 64 38 c5 3f 09 f1 52 41 b4 ee 70 3f
       0.16578345011404166 0.004133895990147581
000650 6c e3 3b 20 2e 5c 27 bf 7d 75 72 95 0f c8 bb bf
       -0.00017822325764152035 -0.10852143667803733
000660 9b b1 88 d1 85 de 96 3f 02 75 77 82 23 1a 79 bf
       0.022333231843889228 -0.006128443440926336
000670 28 b2 65 fc 3f 12 c9 3f 56 d2 56 5b cb 74 cb 3f
       0.1958694441231199 0.21450178108138357
000680 00 00 00 e0 5f 06 c1 3f 00 00 00 80 c9 f3 c4 bf
       0.13300703465938568 -0.16368979215621948
000690 67 48 e3 2c 30 c4 b9 3f d5 a9 bc 0b 03 6c cd 3f
       0.10064984413046006 0.22985876153081955
0006a0 88 dd f3 9b ae ee a5 bf cc a9 6d 5e c3 9f c5 3f
       -0.04283662465780497 0.16893808470497473
0006b0 32 6a 4d b9 b6 f2 b0 bf d0 d7 41 bc f0 1d c1 3f
       -0.06620351814255157 0.13372620765920695
0006c0 c5 18 c1 c4 3f ea b2 3f 00 00 00 00 7a 72 a3 3f
       0.07388685754367248 0.0379827618598938
0006d0 1e 7b 5b ef c1 92 b3 bf 43 99 91 14 03 16 ad 3f
       -0.0764580926292919 0.05680856348117171
0006e0 00 00 00 60 68 ea b8 bf cd b4 20 db d5 02 8d bf
       -0.09732677787542343 -0.01416556429838991
0006f0 9e 17 ce 52 17 f1 ac bf ba a4 61 31 b2 56 b6 bf
       -0.056526879175222464 -0.08726037698365277
000700 20 66 0c 8a 63 f1 ad bf be de db 6b 01 39 b5 3f
       -0.05848227558290042 0.08290108569405683
000710 51 00 5f ed c6 8b d8 bf ea 77 0a 53 ac 31 d1 3f
       -0.3835313146664748 0.26865680798971303
000720 99 18 0f 00 f2 c2 91 3f e7 7b c8 46 67 92 ba 3f
       0.017345219853972613 0.10379643896202105
000730 8e bf f8 58 2b 21 c6 3f 61 00 73 d5 55 fe c4 3f
       0.17288724750823942 0.1640116970284025
000740 00 00 00 00 c7 13 97 bf f1 d1 81 31 b3 b4 ac bf
       -0.02253638207912445 -0.056066131394718506
000750 0b aa 38 23 44 51 a3 3f 00 00 00 c0 dd e2 bd 3f
       0.037729386615257786 0.11674295365810394
000760 26 06 b2 5b df c5 c5 3f 14 73 e4 fb c8 dc 9b 3f
       0.17010108926119577 0.027209415792742567
000770 3d b6 0b 4a 83 1a bb bf e2 88 90 c9 f3 de c8 3f
       -0.10587330396421009 0.19430396406193667
000780 3e a1 ec 7d 4e b8 b1 3f 3c 6d 4e e1 fc 58 d1 bf
       0.06921854566883653 -0.27105638506482754
000790 ad d7 f6 f2 3e 54 c4 3f 6d a8 4e 8b b8 99 b8 3f
       0.15882098067748754 0.0960955944161996
0007a0 00 00 00 00 46 77 ad bf 00 00 00 40 04 45 b0 3f
       -0.05755060911178589 0.0635531097650528
0007b0 d1 8f 47 c1 bf 84 aa bf 93 e0 31 2d c9 fd c6 3f
       -0.051794044822400694 0.1796199293783088
0007c0 a1 43 0b 6a 2c f9 a1 bf cd 3f c3 ca cd ee c7 3f
       -0.035104167885612776 0.1869752159168442
0007d0 6f 77 d3 a3 73 96 bb 3f 75 ad 88 00 95 97 c5 3f
       0.10776446103724678 0.1686884167296331
0007e0 d0 e1 ff bd 93 29 b3 bf 00 00 00 00 b7 59 b0 bf
       -0.07485316647205953 -0.0638689398765564
0007f0 c5 c1 a5 a6 5d 97 c6 bf 4f ec 89 f8 f8 fb b5 3f
       -0.17649431836208698 0.08587604587403173

bias f8 [72]
000000 ef a0 c2 57 14 05 a5 bf 87 a0 a9 5c 20 80 ae 3f
       -0.041054378235743864 0.05957127696166347
000010 00 00 00 00 64 75 a8 3f 00 00 00 00 c0 9e 58 3f
       0.04777061939239502 0.001502692699432373
000020 6f c0 91 67 19 fd b6 bf bd 3d 68 2f e9 94 c8 3f
       -0.08979948786304857 0.1920443994026594
000030 c6 08 f1 d9 ad 34 b6 bf 20 98 eb 70 43 74 b5 3f
       -0.08674131937826521 0.08380528933375375
000040 ab d4 3e af d8 c5 b8 3f e4 1c e0 14 aa ad af 3f
       0.09676889685109084 0.06187182907893332
000050 40 49 94 59 46 a8 b7 bf fb 16 ee a3 c3 57 b0 3f
       -0.09241141974442701 0.063839175722105
000060 95 7d a3 06 3c d9 b9 bf 62 51 94 2c 13 80 c0 3f
       -0.10097098505092668 0.1289085357353868
000070 12 73 30 57 d4 e4 e0 bf 00 00 00 00 94 a8 96 bf
       -0.5279332831301835 -0.02212744951248169
000080 a9 2a 23 12 1d d4 ad 3f 07 e5 59 a8 71 2a bb bf
       0.05825892301944197 -0.10611639366279145
000090 6d fd ad 86 76 40 be 3f b0 f6 8c 65 93 69 b1 3f
       0.11817112720563268 0.06801720837844516
0000a0 95 9a ca c7 59 11 c0 3f 35 1b 12 cf d8 73 cc 3f
       0.12552950149002542 0.22228536711573957
0000b0 0d e9 e7 f1 ad a4 bd 3f 00 00 00 c0 76 99 aa bf
       0.1157940593329025 -0.05195208638906479
0000c0 f4 eb a5 53 37 ba b3 3f 0e 9e 9f 62 c5 4f a4 bf
       0.07706018249693597 -0.039671104706766255
0000d0 f2 4e de 0b 06 3e 8d 3f 00 00 00 60 a8 22 b6 bf
       0.014278456914133628 -0.08646633476018906
0000e0 4f 68 e9 3a 13 97 aa 3f dc 9b 03 2a a8 af 7d bf
       0.051933861676574204 -0.007247597590526813
0000f0 16 c9 c6 99 86 ca 98 3f c6 63 64 fd ec 39 bc 3f
       0.024210074554226933 0.11025887667018627
000100 d3 59 c5 23 e5 08 b7 3f 00 00 00 40 6f ef b7 3f
       0.08997947810471567 0.09349723160266876
000110 70 6c e0 30 a8 bd bd 3f 9c 8e b2 59 7a 6a a1 bf
       0.11617518609311772 -0.034015487145805795
000120 08 12 99 dc 8f 40 c7 bf 00 00 00 00 3a 0d 87 3f
       -0.18165777465232247 0.011255696415901184
000130 d7 71 f5 b3 bc d1 c0 3f 00 00 00 60 4d 3f c3 bf
       0.13140066897439226 -0.150369331240654
000140 44 94 f4 a1 0d 60 b3 bf 16 e4 f7 a2 f9 39 b9 3f
       -0.07568440631855916 0.09854088047713136
000150 7e bf aa 7c d1 dc e4 bf e1 ee d5 32 fe 96 c5 3f
       -0.6519553599264183 0.16867043955050234
000160 fd d5 cf 1e 28 eb a7 bf 41 5c d5 6f cf de b2 3f
       -0.046715978394711734 0.07371231537159507
000170 c3 db d4 99 a0 01 84 3f 3c 8a 24 ba 44 1f b7 bf
       0.009768728918613584 -0.09032086891651486
000180 67 84 b0 de 0c 9b b1 bf 7d 49 4f a2 78 c9 80 bf
       -0.06877212940936915 -0.008196775868701373
000190 01 18 06 4f 7a 1b bc 3f 73 7c ea 2f c1 ad c0 bf
       0.1097942774705132 -0.1303025707211166
0001a0 19 4d 40 6a 0e 40 ba bf c2 18 29 91 ac 08 da 3f
       -0.10253992170355665 0.40677942443688775
0001b0 cd e7 bd 90 eb 0e c6 3f 0f 99 bf 1f 07 f8 c2 3f
       0.17233032767745585 0.14819420862404128
0001c0 00 00 00 00 64 d8 b0 bf 00 00 00 00 11 2e b4 bf
       -0.06580185890197754 -0.07882791757583618
0001d0 e4 07 ab df 13 dc c5 3f 92 17 9b 55 f6 41 bd 3f
       0.1707787363175718 0.11428775396333737
0001e0 6a 5b fe 7f 2f f7 99 bf 3a 31 fe f0 0a f5 b2 3f
       -0.025357000529392527 0.07405155547730127
0001f0 04 f8 9f 26 8e b8 94 3f 10 75 a1 64 9f e4 ce 3f
       0.020235272510028338 0.24135200894935638
000200 1e 2e 9c ea e1 4a b8 3f 79 b7 f8 d0 71 ce c0 3f
       0.09489261606011509 0.13130018905343002
000210 56 69 48 8b 11 42 c8 bf 74 ac 0a 88 a6 7d c4 3f
       -0.189516251572807 0.16008454935704075
000220 c9 17 e3 91 9b 3d e5 bf 00 00 00 c0 86 b0 a7 bf
       -0.6637704705578865 -0.04626866430044174
000230 37 dd 30 d3 d5 eb bf bf 60 fa a0 b6 50 5a b6 3f
       -0.12469231039073213 0.08731560190879284

weight f8 [50, 72]
000000 f6 2d 16 5b 36 e3 9f 3f 26 a9 6a 53 f2 07 c3 bf
       0.03114018374394153 -0.14868001053884788
000010 00 00 00 80 ad 07 98 3f 00 00 00 40 29 a7 aa 3f
       0.023466788232326508 0.05205658823251724
000020 f6 ed 99 77 51 67 a3 3f 38 41 82 e8 9b 7b ba bf
       0.0378976305482545 -0.10344862390980303
000030 70 3f 5d 95 3d ea a9 bf d3 ca 19 6a 66 b7 b7 3f
       -0.05061523865026529 0.09264221277571076
000040 a3 04 13 6c ec 26 bd bf 02 aa 56 76 f8 e2 aa bf
       -0.11387517584354838 -0.05251289791643289
000050 1a 5b bf b2 e7 c7 81 3f e5 19 d1 20 8c c9 aa 3f
       0.008682069914284041 0.05231893444629402
000060 a0 ad a1 47 b4 57 b6 bf 92 f1 aa ec 83 01 c0 bf
       -0.08727576016251826 -0.12504624420206462
000070 45 ef 2f ac 06 aa ca bf 00 00 00 60 99 e0 b6 bf
       -0.20831378371792134 -0.08936461061239243
000080 37 41 37 31 05 65 bf 3f 89 4d 1a 75 6d ae aa 3f
       0.12263519717749181 0.052112026734131574
000090 d1 24 bc 33 04 b2 a9 3f 30 26 3a a6 fc 11 ba 3f
       0.050186282458591365 0.1018369584873191
0000a0 d5 4e ef 61 d4 62 a0 bf cf b9 74 49 1f ff b6 3f
       -0.03200401015751956 0.08983035605772403
0000b0 b1 82 67 c0 d8 e0 b4 bf 00 00 00 a0 c0 f7 b4 bf
       -0.08155588815089733 -0.08190540224313736
0000c0 48 0a de 47 96 68 a7 3f d0 c1 f1 b2 9c f7 a7 3f
       0.04571981074606818 0.04681100544337691
0000d0 eb 02 b3 43 5a 78 b0 3f 00 00 00 a0 89 d0 b1 3f
       0.06433643486799283 0.06958828121423721
0000e0 7e 73 7e ae 71 7e bf 3f bb aa 41 8c ad 3c 9c 3f
       0.12302313337427326 0.02757521790082749
0000f0 68 c8 d0 b4 09 80 b3 bf c5 72 15 7f 6e cc b0 3f
       -0.07617245354120572 0.06561937906867417
000100 44 d1 8f 55 71 4f bc 3f 00 00 00 c0 b4 73 a1 3f
       0.11058719958220303 0.034085892140865326
000110 d4 11 8d f9 1a a4 94 bf c3 18 0b 41 0c 4d cd bf
       -0.02015726230753663 -0.2289138143152681
000120 ef a0 3e ee c0 d4 b9 bf 00 00 00 c0 d5 c6 a8 3f
       -0.10090261284370049 0.04839199036359787
000130 f9 1e ad bc 54 0e ad bf 00 00 00 80 21 9e 92 3f
       -0.05674996188332488 0.018181346356868744
000140 14 db 58 4a 9d d8 9c bf 5b 55 1a 27 fa fd 81 3f
       -0.028170068419252806 0.008785204237293944
000150 56 36 8b 26 83 9b d7 bf 71 eb b4 1e f7 9c c1 3f
       -0.36886671794932135 0.13760270118094867
000160 30 c2 25 54 9c 5f c2 3f ec 45 69 2c dd 78 af 3f
       0.14354280575527545 0.06146899382714452
000170 63 aa a8 0c b7 78 7e bf 77 4e 92 8c 24 2f a0 3f
       -0.007439341580303879 0.03160967079125226
000180 63 16 d3 35 85 20 a1 bf d1 f7 02 8f f7 bb b8 3f
       -0.03345123559988108 0.09661814919942847
000190 dc eb 07 b0 4e 9f a3 bf 91 d6 38 12 9e f4 bb bf
       -0.038324793804313834 -0.1092013163077701
0001a0 dc 46 66 23 7c bd b1 bf 05 7a ca eb 0a ee d1 3f
       -0.06929756035085738 0.28015397097070177
0001b0 1f 27 59 2e 94 c1 b7 3f ba 02 e2 b6 e4 36 87 3f
       0.09279752856778288 0.011335169631139553
0001c0 00 00 00 80 59 0d be bf 00 00 00 60 2d f6 ba bf
       -0.1173911988735199 -0.10531886667013168
0001d0 6c 96 39 34 fc 0a 9a 3f 8f 4a c1 55 0e 5b 94 3f
       0.025432530105169368 0.019878601059029107
0001e0 6e 3f 82 00 af 67 dc 3f 16 9d e4 cc d8 ba a8 3f
       0.4438283448189314 0.04830052853713533
0001f0 90 91 0f 8c dc 67 b5 bf 13 7b 03 3f 26 d1 b2 3f
       -0.08361605090573776 0.07350386656206025
000200 90 95 2e d1 3d 4f 91 bf d1 1d cf 72 1e 4f 85 bf
       -0.016903844730810358 -0.010404813650793184
000210 74 77 b1 02 03 1a d3 bf 8d ed 75 5e 44 72 95 3f
       -0.29846263182650223 0.020943706765576265
000220 1e 31 b0 a7 a1 38 de bf 00 00 00 00 16 a0 bd bf
       -0.4722065103130876 -0.11572396755218506
000230 55 3d f9 96 05 89 be bf a8 5e 15 cc 28 59 6e 3f
       -0.119278287276065 0.0037046238727887655
000240 1e fc a9 52 0d 10 a9 bf 5c 18 33 d1 1b a6 d2 bf
       -0.04895059236604758 -0.2913884680714369
000250 00 00 00 40 2a 0f b6 bf 00 00 00 80 84 d8 9c 3f
       -0.08616890013217926 0.028169699013233185
000260 e1 61 93 d9 a8 82 b1 bf 96 4c 4e 8c af b5 b7 3f
       -0.0683999568167404 0.09261605430065098
000270 f4 60 0c 39 ea e9 9e bf 84 68 ba ca 4a 8c 52 3f
       -0.030189189655261253 0.00113208106896548
000280 40 ac 50 38 4c 8c 4a 3f 74 3b 6e 28 f0 26 be bf
       0.0008101818244815664 -0.11778164851260248
000290 bd ec 94 1e 80 15 b1 bf 53 70 bc 77 ab 8d c0 bf
       -0.06673432108520934 -0.1293234190605995
0002a0 94 5c 91 ba 02 ca b0 bf 49 3f e8 44 bf 87 b7 bf
       -0.0655824380386199 -0.09191508705430097
0002b0 22 47 fb 77 0c c7 cb bf 00 00 00 80 d9 71 b0 bf
       -0.21701198442911457 -0.06423720717430115
0002c0 6e 5e d0 9c f4 57 cb bf f3 85 ef df a9 f6 c1 bf
       -0.21362168938570697 -0.14034007486684139
0002d0 28 c3 2a f4 01 ff 85 bf 95 b7 d6 b9 db 08 ad 3f
       -0.01074029470814393 0.056708208499329484
0002e0 9d ac c7 df e1 20 9b bf dd b6 ff c3 66 45 c7 3f
       -0.026492623599477672 0.18180546350725182
0002f0 2f 67 74 1b 74 a6 a3 bf 00 00 00 40 b8 42 af 3f
       -0.038379314757732146 0.06105590611696243
000300 fd 3e 45 63 ff 16 b0 bf 06 71 a5 51 c0 f8 88 3f
       -0.06285091565700536 0.012193205348630897
000310 44 4d 3a d0 96 27 a1 bf 00 00 00 a0 a3 15 b1 3f
       -0.03350516597597644 0.06673643738031387
000320 61 7e be 74 e3 60 c3 3f e0 95 cc 73 5e 2b 8a 3f
       0.15139430237194332 0.012778032215986224
000330 45 ff 80 22 b8 6f b1 bf a8 2d 09 75 da 5e c1 3f
       -0.06811095087414028 0.135707194467938
000340 29 fd 81 8e a5 72 bf 3f 00 00 00 c0 24 4e b3 bf
       0.12284311989968856 -0.0754111260175705
000350 cf 57 d3 79 53 21 bf 3f 7c 26 ea 41 60 77 b2 bf
       0.12160226558930208 -0.07213403329128626
000360 0d 31 e6 52 05 07 be bf 00 00 00 60 65 8f b0 bf
       -0.1172946288481322 -0.0646880492568016
000370 aa bf 77 f8 38 b6 66 3f 00 00 00 c0 47 72 a3 3f
       0.0027724373537622764 0.03798126429319382
000380 0f 7c 81 95 19 12 ad bf 12 ac 09 73 d8 2c 7f bf
       -0.056778716564387925 -0.007611127381646392
000390 b0 9d 9d 73 34 08 cc bf 87 db 93 40 48 40 b2 3f
       -0.21900039334580645 0.07129336907006066
0003a0 05 79 c3 71 41 03 c3 3f 2d 36 85 e3 d7 d1 91 bf
       0.1485368543134841 -0.017402051221600146
0003b0 b1 3c 1b 95 47 3c 39 bf a9 04 af d4 dc 5a 93 bf
       -0.00038506267183619896 -0.018901300889187542
0003c0 29 ab ee 4c b9 8d ba bf 1f cf 50 7d a2 91 a5 3f
       -0.10372503402929269 0.042126729771920994
0003d0 e4 07 25 d9 0e a2 a5 3f 07 c2 74 ca b2 ed a7 bf
       0.04225202942554043 -0.04673536988628162
0003e0 96 8b 9a d8 fa 13 b6 bf 66 4a 3a 61 db 82 cb 3f
       -0.08624236858535847 0.2149309372658365
0003f0 35 f8 13 7e 42 c3 b7 bf e4 d2 9e 12 2f 04 c9 bf
       -0.09282317712856598 -0.19544018181991085
000400 00 00 00 a0 00 a0 b6 3f 00 00 00 00 c3 68 9d bf
       0.08837894350290298 -0.0287199467420578
000410 a6 ca 72 c1 c0 e1 c8 3f 16 16 6e 68 c0 e5 90 3f
       0.1943894333431519 0.0165014327754048
000420 e1 14 6e 82 d0 c7 ca 3f f2 87 de 49 40 ac c3 3f
       0.2092228543153061 0.15369418723008682
000430 66 2d 52 c3 79 e9 a2 bf f9 5a 5f 24 13 cb c1 3f
       -0.036937527745147844 0.1390098502731332
000440 ad d2 73 7f aa f0 8d bf 59 39 3a d3 a6 af c1 3f
       -0.01461919022993049 0.13817296327438092
000450 ac 0b 0e 3c 87 7b bd bf 34 52 73 dd b2 72 a3 3f
       -0.11516614166434519 0.0379844565701756
000460 2b 63 e8 a9 82 16 d6 bf 00 00 00 00 b4 2c 61 bf
       -0.34512392609171866 -0.002096511423587799
000470 32 89 1e 6b cd cc a4 bf 60 b5 83 60 d1 10 72 bf
       -0.04062501843079004 -0.004410570029205502
000480 e9 73 5b 3d 36 c9 9a 3f e5 ec 18 f6 af 1c b0 bf
       0.026158187384556362 -0.06293773420559352
000490 00 00 00 00 82 b5 9d bf 00 00 00 a0 87 e1 bd 3f
       -0.029012709856033325 0.11672256141901016
0004a0 74 70 74 9e 13 ee b7 bf 0e 07 2c cb 1e fc ad bf
       -0.09347651117826833 -0.05856415014387838
0004b0 66 13 7a ef cc fa c9 bf 24 a2 08 3e e4 66 af bf
       -0.20296632474142057 -0.061331875393367846
0004c0 1d b1 8d c4 03 58 b9 bf 13 d2 11 cc a8 55 c3 bf
       -0.09899924801510847 -0.15105161632858763
0004d0 7f bb bb 95 96 5f 83 bf 3e 25 00 8e ae e0 93 bf
       -0.009459663815020168 -0.019411780755068657
0004e0 1f 20 c7 a1 70 ca bb bf 88 c4 55 23 1b d8 af 3f
       -0.10855773877767703 0.062195632994993366
0004f0 8b 78 54 59 0c 11 cd bf 00 00 00 80 26 2e b4 bf
       -0.2270827709371058 -0.07882919907569885
000500 06 66 29 01 4b ae b0 bf 01 c9 3c 51 ba 8d bd bf
       -0.06515949991571554 -0.11544384463630665
000510 8f 77 1d 2b 0d 28 b1 3f cd ee 83 d5 ce 36 a7 bf
       0.06701738646139986 -0.04534002643955901
000520 21 df 1f 91 13 24 ab 3f 24 a7 66 bf e0 87 c2 3f
       0.053009616341965556 0.14477166505576478
000530 4e ef 37 08 34 e0 c9 bf 00 00 00 40 25 44 ab bf
       -0.20215464021009172 -0.05325428396463394
000540 26 ad 27 f4 ad 74 b8 bf 1d f1 86 3d aa ce c1 3f
       -0.09553038798155863 0.13911941532376995
000550 d1 ed 46 7e 29 0c ab 3f 00 00 00 c0 89 1c a1 3f
       0.05282716433017821 0.033420853316783905
000560 72 84 88 5f fc 09 c8 3f ef 95 73 61 53 08 b5 bf
       0.18780474343023773 -0.08215829018771335
000570 6d 19 8c a2 2b 0a 9d bf 4e 46 fc e6 99 fb 96 3f
       -0.02835910968408355 0.022444157336457153
000580 53 da 2e 6e 24 1e 93 bf 00 00 00 e0 11 b7 b7 3f
       -0.01866967127326753 0.09263717383146286
000590 42 7f 32 a8 d4 db bf 3f 01 d3 fe 13 83 fa c8 bf
       0.12444810015085486 -0.1951450202592682
0005a0 fc e0 3f 4d 35 bf c0 bf 00 00 00 40 76 f0 a8 3f
       -0.13083521148633526 0.048709578812122345
0005b0 48 67 38 89 bb 4c c0 bf 00 00 00 c0 72 36 af bf
       -0.12734169197283962 -0.06096228212118149
0005c0 78 43 e2 82 99 56 af 3f 18 bf 74 cd 6a 24 a3 3f
       0.061207577921897405 0.037387216167529214
0005d0 7b da af a9 e7 71 cb bf c6 ae 92 9f 03 92 b6 bf
       -0.21441360269064433 -0.08816549917053881
0005e0 f7 ad 28 7f 20 27 cd 3f e0 0a e1 e8 21 ae 74 3f
       0.22775655945711978 0.005048878154471054
0005f0 6b 95 87 4a 3d c7 b9 bf d7 ef f8 4d 0a 49 b5 bf
       -0.10069640225954905 -0.08314575580237658
000600 5a 9d 0c 51 72 18 9b bf 01 d6 55 b3 5c c4 b0 bf
       -0.026460443684439873 -0.0654962480383219
000610 2b ff 96 d9 fa 75 89 bf 20 c5 0f ce 62 b0 b0 bf
       -0.012432060017885846 -0.06519143610764333
000620 6a 88 ab 95 5b 30 c0 3f 0b 17 61 3b c7 04 c9 3f
       0.1264757614908974 0.19545832061174226
000630 00 41 23 07 b0 f3 b0 3f b8 3f fb 79 cd 2b bd bf
       0.06621837782154572 -0.11394962528288388
000640 00 00 00 00 7f b6 93 bf 00 00 00 a0 be cb b0 3f
       -0.01925085484981537 0.06560889631509781
000650 3e 42 9a 2c 7d 69 cc 3f 06 b0 06 af 92 ff a8 3f
       0.22196926763401054 0.04882486712025984
000660 56 31 c0 f0 01 f6 bf 3f 13 d9 64 21 02 92 ca 3f
       0.12484752776817251 0.20758082037509293
000670 53 6c 40 7c 26 5b ad bf 6c 7a 5a 5b fb 45 88 bf
       -0.05733604685539064 -0.011852229810128644
000680 79 59 72 86 ee d7 c7 3f f6 d1 ac 56 47 12 87 bf
       0.18627721371440112 -0.011265332539189803
000690 93 b7 83 44 ae 16 cf bf 9a f1 67 46 91 38 9a 3f
       -0.24287966103969136 0.025606412813418446
0006a0 27 34 74 14 cb c8 d5 bf 00 00 00 40 94 61 ae 3f
       -0.3403804492707558 0.059338219463825226
0006b0 2a 6a 7a 94 3b a6 87 3f d9 ce fe 23 80 96 c1 3f
       0.011547532528585942 0.1374054122694506
0006c0 78 9b 43 85 af 9c b2 bf 9a a6 45 24 bb 9e bf bf
       -0.07270333293454978 -0.12351579318569819
0006d0 00 00 00 c0 36 5a a1 3f 00 00 00 20 f2 8b b6 3f
       0.033891402184963226 0.08807290345430374
0006e0 57 f3 6e 29 12 f6 bc bf 2f 39 3c 6e b9 b9 bc bf
       -0.11312974463994628 -0.11220892850198959
0006f0 3d f5 8c dc d9 09 92 bf 6d 7b 96 fb 0a dc b3 3f
       -0.01761570366510522 0.07757633821755201
000700 3c 93 c4 d4 13 8c a4 bf 91 e7 61 9c 8e c8 b3 bf
       -0.040131206247940615 -0.07727900808268219
000710 64 eb 59 0e 8b 69 83 3f 77 8b 9f 79 1c 26 c0 bf
       0.009478651404824574 -0.12616306246408346
000720 36 da 61 83 19 26 b5 bf b7 29 f6 eb ce 95 b0 bf
       -0.08261260469030493 -0.06478589306622139
000730 d5 47 97 56 87 64 cb bf 00 00 00 80 ba 94 9b 3f
       -0.21400539138863786 0.026934541761875153
000740 5c 07 99 12 4a 69 aa bf 7d 2b 38 e5 b0 c2 c0 bf
       -0.05158454396270315 -0.13094149772981814
000750 9a 2d f8 c9 c2 45 ab 3f 3b 2d 8a 93 4c b6 b1 3f
       0.0532666083855375 0.0691879139141535
000760 7c 1d a3 2e de 48 9c bf a3 51 11 67 b3 e4 c1 3f
       -0.027621718975550533 0.13979189426994507
000770 44 bc e5 c4 8b b6 b8 bf 00 00 00 20 e0 7e b7 3f
       -0.09653543049874808 0.09177971631288528
000780 7b 70 c5 86 f6 63 a2 3f 8a 5d 4e 62 d0 50 a4 bf
       0.03591890711933928 -0.03967906188989463
000790 91 53 60 be 68 80 84 bf 00 00 00 e0 36 9e b2 3f
       -0.010010546026060914 0.07272665947675705
0007a0 16 37 a8 9a a0 54 7c bf 98 1d 98 bb d4 b4 71 bf
       -0.00691664443958275 -0.004322844493351317
0007b0 7e 97 1d 15 84 91 a1 3f 98 f9 fc 08 91 27 a7 3f
       0.03431332357176496 0.04522374376982724
0007c0 33 e6 59 97 90 45 b4 3f 00 00 00 40 8a 27 ba bf
       0.07918647475335021 -0.1021658331155777
0007d0 d8 02 d1 49 f5 7e ba 3f bc ee 81 16 72 ee ac bf
       0.10349972774657645 -0.05650669598341326
0007e0 84 bf 2a e7 e5 32 af bf 00 00 00 40 ae 22 a5 3f
       -0.06093519636976821 0.041280217468738556
0007f0 11 ee e4 1a a0 f5 b1 3f 00 00 00 40 53 2c ad 3f
       0.07015419632528387 0.056978799402713776

bias f8 [50]
000000 00 9e bc 58 83 c7 91 bf 67 6b cc 88 59 64 c3 3f
       -0.017362644473136513 0.15149993114104207
000010 30 14 cd 84 1c 4c a1 bf 30 af d3 5f e9 7d 95 3f
       -0.033783808909483404 0.02098812720662052
000020 48 2d 6b ca c4 0f 80 3f b1 4b b4 d6 84 58 b8 bf
       0.007842576434447537 -0.09510069124034605
000030 fb fc 48 70 c6 a2 b6 bf c9 58 c1 4f c3 e7 b6 bf
       -0.088421251691205 -0.08947392174863746
000040 30 51 36 2f 76 5e aa bf 9e f7 8f a9 4a 0e 9b bf
       -0.05150193525619995 -0.026421705817476153
000050 68 22 61 e6 f9 94 bf bf b0 58 40 50 30 70 b5 3f
       -0.12336694597719033 0.08374311408292345
000060 1a 16 ee 58 5b 4a 80 3f 85 69 37 e4 10 b9 b8 bf
       0.007954324389866808 -0.09657388278666275
000070 eb 58 9e 6b ce d4 b2 bf 6e 77 70 25 25 e4 bc bf
       -0.07355966689496866 -0.11285621799512821
000080 43 a9 93 97 70 a3 b2 bf 8c ae 2f cb 45 d6 7f 3f
       -0.0728063936291266 0.007772705680490721
000090 37 9f 3a e0 09 9d ab bf 38 2b 26 7c a3 78 b2 bf
       -0.053932484265998 -0.07215329915031254
0000a0 c9 ed 2f 04 b3 70 c0 bf d1 7f ab 3f e1 01 75 bf
       -0.1284393091626568 -0.005128745916152825
0000b0 8f 8e 6d ba 46 3b a6 3f 31 c1 5a 6e a6 61 c0 bf
       0.043420992142981445 -0.1279800452080138
0000c0 92 b7 a0 12 e0 bc a5 bf 2e 7d bd 5e 78 d8 af bf
       -0.0424566290606513 -0.06219841152664639
0000d0 c1 f4 3f 9f 3b 3a b7 bf 5b 64 18 19 c7 cc 8a 3f
       -0.0907323135179068 0.01308589501700135
0000e0 60 0a 79 c7 10 93 ad 3f 5b a9 a0 e4 61 8b ad bf
       0.057762646054943856 -0.057704028280869145
0000f0 7f 8a 6a 71 62 07 a1 3f d7 dd b4 67 2e 84 91 bf
       0.03325946459269335 -0.017105794028990786
000100 ee 09 f8 32 3c d4 95 bf 6a a5 b4 43 1c 6a ae bf
       -0.021317425356764667 -0.059403308167314275
000110 39 4c 9a ea 13 86 a2 3f 90 68 40 41 f3 15 bc bf
       0.036179182422664664 -0.1097099336915639
000120 a0 8e ed 8b 11 25 94 bf 1c 15 5e 7c 26 60 7b bf
       -0.019672655263447525 -0.0066834929801917985
000130 6a 35 b9 e5 9a d7 bc bf 73 c2 8e 90 4f 8f b1 3f
       -0.11266487225039659 0.06859299926032651
000140 75 12 00 37 e1 e8 a7 3f 04 82 00 f6 90 e5 a1 3f
       0.04669860645666272 0.0349545765204802
000150 fd 58 a8 e1 1c 12 9e bf f0 6e 57 73 cd f6 95 3f
       -0.029365969918296198 0.021449289479149536
000160 80 ab ee fe 61 99 b5 bf 68 d0 c7 c0 29 98 a8 3f
       -0.08437168573315823 0.04803591230657461
000170 78 ed ee d1 e0 01 b3 3f fe e5 f0 30 78 70 b4 3f
       0.07424740910840011 0.07984114832733977
000180 c8 fc 08 97 2e e8 b2 3f 0f b6 9f f2 0a db bd bf
       0.07385531604176088 -0.11662357734140748

two_l_plus_1 f8 [50]
000000 83 c8 c9 6d 30 5f b4 3f c4 ac ae a4 c8 8e ce 3f
       0.07957747154594767 0.238732414637843
000010 a4 3a 3c 89 fc 76 d9 3f 73 8f 10 60 4a d3 e1 3f
       0.3978873577297384 0.5570423008216338
000020 93 01 83 7b 16 eb e6 3f b4 73 f5 96 e2 02 ec 3f
       0.716197243913529 0.8753521870054244
000030 ea f2 33 59 57 8d f0 3f fb 2b ed 66 3d 19 f3 3f
       1.0345071300973196 1.1936620731892151
000040 0b 65 a6 74 23 a5 f5 3f 1b 9e 5f 82 09 31 f8 3f
       1.3528170162811104 1.5119719593730057
000050 2c d7 18 90 ef bc fa 3f 3c 10 d2 9d d5 48 fd 3f
       1.6711269024649011 1.8302818455567964
000060 4c 49 8b ab bb d4 ff 3f 2e 41 a2 dc 50 30 01 40
       1.9894367886486917 2.148591731740587
000070 b7 dd 7e e3 43 76 02 40 3f 7a 5b ea 36 bc 03 40
       2.3077466748324826 2.466901617924378
000080 c7 16 38 f1 29 02 05 40 4f b3 14 f8 1c 48 06 40
       2.626056561016273 2.7852115041081684
000090 d7 4f f1 fe 0f 8e 07 40 5f ec cd 05 03 d4 08 40
       2.9443664472000637 3.103521390291959
0000a0 e8 88 aa 0c f6 19 0a 40 70 25 87 13 e9 5f 0b 40
       3.2626763333838547 3.42183127647575
0000b0 f8 c1 63 1a dc a5 0c 40 80 5e 40 21 cf eb 0d 40
       3.580986219567645 3.7401411626595404
0000c0 08 fb 1c 28 c2 31 0f 40 c8 cb 7c 97 da 3b 10 40
       3.8992961057514357 4.058451048843331
0000d0 0c 1a eb 1a d4 de 10 40 50 68 59 9e cd 81 11 40
       4.217605991935226 4.3767609350271215
0000e0 95 b6 c7 21 c7 24 12 40 d9 04 36 a5 c0 c7 12 40
       4.535915878119018 4.695070821210913
0000f0 1d 53 a4 28 ba 6a 13 40 61 a1 12 ac b3 0d 14 40
       4.854225764302808 5.013380707394703
000100 a5 ef 80 2f ad b0 14 40 e9 3d ef b2 a6 53 15 40
       5.172535650486599 5.331690593578494
000110 2d 8c 5d 36 a0 f6 15 40 71 da cb b9 99 99 16 40
       5.490845536670389 5.6500004797622845
000120 b5 28 3a 3d 93 3c 17 40 f9 76 a8 c0 8c df 17 40
       5.80915542285418 5.968310365946075
000130 3d c5 16 44 86 82 18 40 82 13 85 c7 7f 25 19 40
       6.12746530903797 6.286620252129866
000140 c6 61 f3 4a 79 c8 19 40 0a b0 61 ce 72 6b 1a 40
       6.445775195221762 6.604930138313657
000150 4e fe cf 51 6c 0e 1b 40 92 4c 3e d5 65 b1 1b 40
       6.764085081405552 6.9232400244974475
000160 d6 9a ac 58 5f 54 1c 40 1a e9 1a dc 58 f7 1c 40
       7.082394967589343 7.241549910681238
000170 5e 37 89 5f 52 9a 1d 40 a2 85 f7 e2 4b 3d 1e 40
       7.400704853773133 7.5598597968650285
000180 e6 d3 65 66 45 e0 1e 40 2a 22 d4 e9 3e 83 1f 40
       7.719014739956924 7.878169683048819
