Sphere/NeuralNetworks/models/net_l2_sqrtsqrt19.pt (torch_old, 53513 bytes, 7 tensors)

weight f8 [36, 6]
0	0xbfdb14ea73c3d12b	-0.42315160088698417
1	0x3fc1bef922eccbb8	0.13864053922006092
2	0xbfaecd53799be71b	-0.060160263628814735
3	0x3fdb1be26c58a1e6	0.42357693272290786
4	0xbfcdc02e9b5ffdbd	-0.23242743097942578
5	0x3fd88392ca4c842d	0.3830306029868236
6	0xbfc5d6592517efe1	-0.17060388861852885
7	0x3fcd2c1cc683f582	0.22790870373857436
8	0x3fb50a0f583203bc	0.08218475249488127
9	0xbfd2c777701c5b5f	-0.2934244723159533
10	0x3fc875e113c3dac1	0.19109738793459566
11	0xbfcce066187a2587	-0.22559810824558843
12	0xbfc7697111a84271	-0.18290532457514844
13	0x3fcf2631c1263776	0.2433530991660821
14	0xbf99904e6e5fd7a6	-0.024964547621457854
15	0xbfd74b0b44735766	-0.36395532307266476
16	0x3fd984f7dace16ca	0.39874073379210684
17	0x3fd6f00a1766ba0d	0.358400843479928
18	0xbfd449a3b1e4002a	-0.31699459430820076
19	0x3fd0bf0de70daed9	0.2616610294705715
20	0x3faf5ad8020514cb	0.06123995804458956
21	0xbfd95cafe5ba4255	-0.39628217157681905
22	0xbf938ceda9152188	-0.019092286534289765
23	0x3fc64dc5b0171468	0.17424841974403482
24	0x3f8fcfb0bcf696f6	0.015532856718731374
25	0xbfd6c2a5066d4062	-0.35563016536344183
26	0x3fcbd331a3755ec8	0.21738262635584804
27	0x3fde33ce7a5b6c42	0.47191202114999353
28	0x3fbd494db39c13f2	0.11439977297784745
29	0x3fcae70aba4ce5d0	0.21017583939264606
30	0x3fad77a75bba28af	0.05755351061550706
31	0x3fd3af16b339aca8	0.3075615644690495
32	0xbfc3707662b20969	-0.15186958140482013
33	0xbfd676dbe705b9b7	-0.35100457726266704
34	0xbf65060d9505f827	-0.0025663628841235023
35	0xbfbd7a1738cf6110	-0.11514420639958112
36	0x3fccf847186c2f73	0.226326834607217
37	0x3fb81f1aa979386c	0.09422461164032975
38	0x3fc70241a67e5947	0.1797563612896715
39	0x3fd4599c370f364a	0.3179693734826726
40	0x3fd88e918c69d57f	0.3837016936516519
41	0xbfd582fabceb80eb	-0.3361193509026765
42	0x3fd32696dca47ad6	0.2992303042137058
43	0x3fc38d812cba4d95	0.15275587734195697
44	0xbfa88fdf2da16174	-0.04797265464793812
45	0xbfc4af95e818f0ba	-0.16160844643480293
46	0xbfc1026cad06cdbd	-0.13288649033129998
47	0xbfbb988eec643590	-0.10779660483622977
48	0x3fd6108c427a9b38	0.34476000301440335
49	0x3fb4bcee18e28760	0.08100784404316874
50	0xbfd8b8eff1d700a7	-0.38628767602132047
51	0x3fd109dfc1add048	0.26622766412697674
52	0x3fdc91a240d5a06f	0.4463887818478786
53	0x3fd0050f9a192dfb	0.2503088955752159
54	0x3fdc300e3838f26e	0.44043307772134355
55	0x3fd782a03f16a8c5	0.36734777604091234
56	0xbfc40884720908fa	-0.15650992935304214
57	0x3fd5cc3217480802	0.34058811448642257
58	0x3fbc2ccd8bc75554	0.11005863821568102
59	0xbfd2f8c4b15ebb27	-0.2964336139802292
60	0x3fc92372a14aab2a	0.19639428020067246
61	0xbfa452f7feb84b04	-0.03969550117849077
62	0xbfc9a5518d4ff092	-0.20035762214672964
63	0x3fca66f1de3ca7d0	0.20626662589466926
64	0xbfdc0103597489fc	-0.43756183372366286
65	0x3fb9a51d5c5212cf	0.10017570022507559
66	0xbfd0e36c0c6b9ffc	-0.2638807412427011
67	0x3fd0e33703e5f4c1	0.2638680971211436
68	0xbfc93963ae61d861	-0.19706388487583396
69	0xbfdeb9d9071b4887	-0.48009324735642916
70	0xbfd602cbdadc2557	-0.34392067311326485
71	0xbfb6544348f70a89	-0.08722324878093891
72	0xbfceb3c617056dfb	-0.23986126064379207
73	0x3fae657df9c8ff35	0.059368073216772656
74	0xbfd367e543647920	-0.3032162817124959
75	0x3fce7e33af757c8d	0.23822637622194912
76	0x3fd986f340a1a910	0.39886170684498357
77	0x3fd0d0a634432354	0.26273493865715136
78	0xbfd9100f80000000	-0.3916052579879761
79	0xbfd40cf900000000	-0.3132917881011963
80	0xbfd3ae7180000000	-0.307522177696228
81	0xbfd6cec600000000	-0.3563704490661621
82	0xbfc1974480000000	-0.13742882013320923
83	0xbfc3974ac0000000	-0.15305456519126892
84	0x3fdab810a22d73ad	0.4174844344868756
85	0x3fc6925f64f41f6b	0.1763419382989427
86	0xbfb715a34ac7a4b6	-0.09017391753845314
87	0xbf9cacec2e4e30c5	-0.028003397299060113
88	0x3fb0a373d205b658	0.06499408605096713
89	0xbf87565f38a68672	-0.011395210186324809
90	0x3fb6ff9b9c01a928	0.08983776625396855
91	0xbfc7772680cbf584	-0.18332368172552205
92	0x3fddcfc55733f412	0.46580632701790237
93	0x3fc298a65c93b610	0.14528350372658894
94	0x3fdeca8b9f3c8be9	0.48111239004555145
95	0xbf4d591025aa1123	-0.0008956269114866227
96	0x3fd8818fcb69d2ff	0.3829078184565304
97	0x3f7e1f228e4f7c74	0.007353911384568968
98	0x3fdd390e13aa3aa6	0.4566073600807762
99	0x3fd76a160d239979	0.36584998400794394
100	0x3fd58de53cde127a	0.3367856115731126
101	0x3fc3ddaf5c6191d1	0.15520278940961288
102	0x3fd89b7280000000	0.38448774814605713
103	0xbfd66cbe40000000	-0.3503871560096741
104	0xbfd5c24300000000	-0.3399817943572998
105	0xbfc99fa0e0000000	-0.20018397271633148
106	0x3fb5b2d880000000	0.08476021885871887
107	0xbfca6b7fc0000000	-0.2064056098461151
108	0xbfb5c7e9c0fc2f6b	-0.08508168183851487
109	0xbfd9f0706ae9aaf3	-0.4053002399511307
110	0x3fd16433cded4ea6	0.2717408667569806
111	0xbfc14df7e6fd5948	-0.13519190577307882
112	0xbfd89058209ce4f4	-0.38381007370806164
113	0xbfd8a1edfcf81e61	-0.38488340095543633
114	0x3fd26835851d7a04	0.28761041640783014
115	0x3fe085b03a29269b	0.5163193832351739
116	0x3fcb3b7cd776735f	0.21275291939391658
117	0xbfceb6fbeb661740	-0.23995923036653188
118	0xbf7bcdb603254d1a	-0.0067879781584736735
119	0xbfd3457d84185730	-0.30111635112676804
120	0x3fc00c8a23b69cf2	0.1253826784497743
121	0x3fd05cc872da6236	0.25566302505606886
122	0x3fd43218c25b3f5a	0.31555766086693426
123	0x3fd12953b76e4654	0.2681474009815237
124	0xbfccb9f249cc69b3	-0.22442463496629514
125	0xbfd49dec01c6f903	-0.322138787971099
126	0x3fbcdc7bc384346d	0.11273931048727244
127	0xbfbcb22a1a36e34d	-0.11209357395172255
128	0xbfd926b7c22e2174	-0.3929881473818775
129	0x3fb1a9098cb37cf5	0.06898555455289908
130	0xbfdbfd3e6cda6bf6	-0.43733177786060595
131	0xbfbee47327e4bd8e	-0.1206733677288325
132	0xbfd1abed20000000	-0.27611854672431946
133	0x3fae96a300000000	0.059743016958236694
134	0xbfcd2f9220000000	-0.2280142456293106
135	0xbfc892e2e0000000	-0.19198261201381683
136	0x3fd503e680000000	0.3283630609512329
137	0x3fc69b6380000000	0.1766170859336853
138	0x3fa3377b00000000	0.037532657384872437
139	0xbfbc1b2e80000000	-0.10978975892066956
140	0x3fd78862c0000000	0.3676993250846863
141	0xbfd8ffb3e0000000	-0.3906068503856659
142	0xbfaf1dad00000000	-0.06077328324317932
143	0x3fc0f78780000000	0.13255399465560913
144	0xbfb71b1f224e26d3	-0.09025759303599594
145	0x3fcaf8d93af70ee1	0.2107192552485833
146	0x3fe3bd5b97ebd0c3	0.6168649642190974
147	0x3fd83dfd31ed7ced	0.37878351093054513
148	0xbfaa069eedc452a9	-0.050831762813833344
149	0xbfc4dcacfb9bf417	-0.16298448834996357
150	0x3fe102b267753cca	0.5315792103446253
151	0x3fd10ce445630ed1	0.26641184593266326
152	0xbfd5614627a06385	-0.3340621363618584
153	0xbfc09ace0bc5dcda	-0.12972426962708178
154	0xbfd5feb39e100e8a	-0.34367075382054024
155	0xbfc7d043848ab983	-0.1860432049920285
156	0xbfcb7d1740000000	-0.21475496888160706
157	0xbfc14edb40000000	-0.135219007730484
158	0xbfc7e1e580000000	-0.1865813136100769
159	0xbfd58b7f00000000	-0.3366391658782959
160	0xbfcda420a0000000	-0.2315712720155716
161	0x3fd6d8f7c0000000	0.3569926619529724
162	0x3fd51dfa7c636084	0.3299547400215561
163	0xbfc784940ce70527	-0.18373346929551213
164	0x3fd767074c7b84a5	0.36566336125367577
165	0xbfd6362b8010a9a0	-0.3470562697063091
166	0xbfdc36dfa13474d0	-0.44084921591440906
167	0xbfe2baa42de73fd4	-0.5852833649205373
168	0x3fd5a9e069caae59	0.33849344569418843
169	0x3fd4f5b0acb7f5e0	0.3274957358078989
170	0x3fdf40f1bfd9a9cf	0.48833888755202975
171	0xbfae7bef4c8fdad0	-0.05953929719537643
172	0x3fcc1a2d67cec061	0.21954886978847113
173	0xbfd26f5cb1b9c464	-0.28804700237294
174	0x3fcb1695c376534a	0.21162673992207665
175	0x3fdd26c8316083d3	0.45549206563924577
176	0x3f9a19673085fe95	0.025487530075678128
177	0x3fcffd69522ee446	0.24992100251054888
178	0x3fdd2513eea6cfd2	0.4553880529958835
179	0x3fdb6ad6570177e8	0.4283958291688337
180	0xbfcf543780000000	-0.24475759267807007
181	0xbfd598bd40000000	-0.33744746446609497
182	0x3fd4872d40000000	0.32075053453445435
183	0xbfd53dedc0000000	-0.3319048285484314
184	0x3fc9ed8880000000	0.20256143808364868
185	0x3fd8db3840000000	0.38838011026382446
186	0x3fd3cfa128215cea	0.309547700109262
187	0xbfbbd3b7e4ef0db5	-0.10869931544498608
188	0xbfde3fa1dc45de44	-0.4726338053801309
189	0xbfd16ec05ce5d5ee	-0.27238473007250164
190	0x3fc385923f863e01	0.15251377202774566
191	0x3febd7f95a858394	0.870114018249398
192	0xbfd4247760000000	-0.31472572684288025
193	0xbfd3a812a0000000	-0.30713334679603577
194	0xbfc7a338e0000000	-0.1846686452627182
195	0xbfd8a83a80000000	-0.38526785373687744
196	0xbfd48441a0000000	-0.32057228684425354
197	0xbfd5cd58c0000000	-0.34065836668014526
198	0x3fd685c57ea493bd	0.3519147621867054
199	0x3fc94de14462f553	0.19768920745074556
200	0x3fcb639615522c26	0.21397663155616548
201	0x3fda7a20ab5fdc4a	0.41370407806193
202	0x3fd75c49aa313bd4	0.36500779743522327
203	0x3fd4c5a67eb1475e	0.3245636212569617
204	0xbf90b10d2ce2cc51	-0.016300397743816145
205	0x3fd8f8126d28f9ba	0.39014111194765244
206	0xbf91aae129d55347	-0.01725341623144352
207	0x3fde749519f20aae	0.47586562665689314
208	0x3fe2547a18f0f8ed	0.5728121268400891
209	0x3fdf5a7e45b96b9e	0.48989826973927986
210	0xbf887a45f49d10bd	-0.011951967742455211
211	0x3fa5b8bab64e32d2	0.04242499804886325
212	0x3fb2f2d663745546	0.07401790550314499
213	0xbfd7b651348b12f7	-0.37050275927712967
214	0x3fbeda7d5a55f991	0.12052138762917354
215	0x3fd5b4d459b815f6	0.33916195642117886

bias f8 [36]
0	0x3fd3f7e35730c731	0.3120048858137237
1	0x3fb7c581c3f5b03f	0.09285746606991639
2	0x3f9dab3e0cdbffe8	0.02897355035292995
3	0x3fdc6d2992682320	0.444162743544938
4	0x3fbac3e263d1a9b4	0.10455145775782776
5	0x3fc5c87f0cc5b80e	0.1701811611523571
6	0x3fd295254e101b75	0.2903531324704354
7	0x3fca6625d761d02e	0.20624230400756133
8	0x3fb8b88aa8062265	0.0965658817496063
9	0xbfbb8418e3c9e330	-0.10748439370389629
10	0x3fc5befefa8975e0	0.16989123566865683
11	0x3fd51b3848399298	0.3297863679238531
12	0x3fcb31f6417ffac1	0.21246221731413154
13	0x3fac25d000000000	0.05497598648071289
14	0xbfb42b34af66ed51	-0.07878426821019004
15	0x3fd2af7d5f1563f4	0.29196104321960026
16	0x3fb6a647cd44708c	0.08847473870668149
17	0xbfd1a88380000000	-0.27591025829315186
18	0x3f99e275d10a9e26	0.025277939685706262
19	0xbfc5992a3bec7a86	-0.16873672414745416
20	0xbfc234c1fd184381	-0.14223503931182438
21	0xbf95b4393d7f76fa	-0.021195310953649994
22	0xbfd3287d40000000	-0.29934626817703247
23	0xbfd8aefd40000000	-0.38568049669265747
24	0xbfb6c0462ce80787	-0.08887137028071211
25	0xbfbee2c0a6bee463	-0.12064746924342411
26	0xbfac05c200000000	-0.05473142862319946
27	0x3fd3c1082112ddb9	0.30865672330716226
28	0xbfd31b10cc9ad773	-0.2985269544691313
29	0x3fd27f08aba90987	0.2890035320634969
30	0xbfd248f240000000	-0.28570228815078735
31	0x3fc29cb6fd1f790f	0.14540755614775278
32	0xbfc231e100000000	-0.14214718341827393
33	0x3fbc057746250f10	0.10945840322989064
34	0xbfc24f9d5693b6cb	-0.14305464484589545
35	0x3fc45ca1bcc674fb	0.1590768977884308

weight f8 [72, 36]
0	0xbf96ebbef449053c	-0.022383674297320896
1	0x3f8cb16195bb297e	0.014010202772074317
2	0x3fa44895fab9b525	0.03961628614056626
3	0x3fbb76392fa74356	0.10727269566929229
4	0x3f856ba9648eb1eb	0.010459254628437406
5	0xbfb4bd39bf596e30	-0.08101235314955413
6	0xbfc14c91676f00dc	-0.13514916944951139
7	0x3f6fe265b198b2e6	0.003892134304598438
8	0x3fafdcfaf7c52ade	0.06223282122171779
9	0xbfc7c8d14b7ca97b	-0.18581596551787158
10	0xbfc45ac2ce41415a	-0.1590198046783467
11	0x3fb2b27db468595b	0.07303605703814268
12	0x3fc3a0176835a81e	0.15332310284003453
13	0x3fc29d68e0000000	0.14542876183986664
14	0x3fb5feb0bce11101	0.0859175168162132
15	0xbfc182c779299c50	-0.1368035642255756
16	0x3fb36afcece9ba7a	0.07585125717171506
17	0xbfa3db3200000000	-0.038781702518463135
18	0x3fb9482f49b779e2	0.09875770139431198
19	0xbfc06e66716e5ade	-0.12836914576174413
20	0x3fbfe09d7a55fda2	0.1245211051627764
21	0x3fac6e179a12b8f1	0.05552743678832595
22	0x3fb26f62c0000000	0.07201211154460907
23	0xbfb3981660000000	-0.07653941959142685
24	0xbfa2622a73e69f28	-0.0359051958542394
25	0xbfb2f61bfa7c1de2	-0.07406782975532836
26	0x3fb3f0c600000000	0.07789266109466553
27	0xbfb6712c9abb93fe	-0.08766440179495302
28	0x3fab94bd57e1e143	0.05386916826040757
29	0x3fa166a4b687ee0f	0.033986232072461424
30	0x3fc214a5a0000000	0.14125509560108185
31	0x3fb709d6f164f8ae	0.08999389069956251
32	0x3fb896e4c0000000	0.09605245292186737
33	0x3fbc8c4d0f4d715b	0.11151582358929117
34	0x3fca731c4574363f	0.20663789168649946
35	0x3fcd0538ec706bbe	0.22672187371139602
36	0x3f9e3e37ecdf31b0	0.029534219582090848
37	0xbfbb4eab85d6ed67	-0.10666915910308249
38	0xbfd2bdf3047d8213	-0.2928435844278578
39	0xbfb1f435aed43cce	-0.07013259428298399
40	0xbfba280fd6361c76	-0.1021737955071432
41	0xbfbcb5afcfa9372c	-0.11214731998299204
42	0xbfc5a52450403921	-0.16910222929477306
43	0x3fac4b006e6077f4	0.055259717439397976
44	0xbfa926f5e2829a3e	-0.04912536993042636
45	0xbfa3fe7b5b569ef4	-0.0390509175297761
46	0xbfb6d08554fdb76b	-0.08911927533128298
47	0xbfb113a2e15e13b5	-0.06670587541709845
48	0xbfcdd6de536cec7b	-0.23311976502904827
49	0x3fc1262620000000	0.13397671282291412
50	0x3fa80bb794875074	0.046964394455842134
51	0x3fa7677e70551bc6	0.045711470806558505
52	0xbfb3b3389763d91b	-0.0769534463505334
53	0x3f9dc3a100000000	0.029066577553749084
54	0x3f855db841c025de	0.010432662493275065
55	0xbfc2ec4f7406527a	-0.1478366199995838
56	0x3fc957b210b512e6	0.197988756330367
57	0x3fb36beec0289566	0.07586567107553818
58	0xbfc4682980000000	-0.15942877531051636
59	0xbfbae9d2c0000000	-0.10513035953044891
60	0x3fd1c33627400fe2	0.27753976662665825
61	0xbfb11fb9fae0b744	-0.06689035773225976
62	0xbfbfc44600000000	-0.12408864498138428
63	0x3fc3dfb3e7f9946e	0.15526436640644498
64	0x3fb72069d2092c91	0.09033833864048037
65	0xbfa716a568e12162	-0.04509465127245239
66	0x3f999a8400000000	0.025003492832183838
67	0xbfc70362ea28f43b	-0.17979084428398714
68	0xbf81471200000000	-0.008436337113380432
69	0x3fbf6c1bb52f038b	0.12274335072926428
70	0xbfc231b31662a039	-0.14214171021490232
71	0x3f94787e1df1fec4	0.019990892961230924
72	0xbf792a1000000000	-0.006143629550933838
73	0x3fb830cc40000000	0.09449459612369537
74	0xbfb8ebe960000000	-0.09734972566366196
75	0x3f74032c00000000	0.004885837435722351
76	0xbfb79d55c0000000	-0.09224449098110199
77	0xbfb4655160000000	-0.0796709880232811
78	0xbfc047ec80000000	-0.12719494104385376
79	0xbfb462de60000000	-0.07963361591100693
80	0x3f9e35d900000000	0.02950228750705719
81	0x3fc4db4ce0000000	0.16294251382350922
82	0xbfb8840400000000	-0.0957643985748291
83	0x3f9e63e400000000	0.029677927494049072
84	0xbfb147aa00000000	-0.06749975681304932
85	0xbfb4607dc0000000	-0.0795973390340805
86	0xbfad3c8780000000	-0.05710242688655853
87	0xbfb3adce60000000	-0.07687082141637802
88	0xbfb22192c0000000	-0.07082478702068329
89	0xbf95653500000000	-0.0208938866853714
90	0xbfc3ca0ee0000000	-0.15460382401943207
91	0x3f8e51d800000000	0.014804542064666748
92	0x3fbf0cf340000000	0.12129135429859161
93	0x3fc53deb20000000	0.16595210134983063
94	0xbf82771e00000000	-0.009016260504722595
95	0x3f9656d400000000	0.021815598011016846
96	0xbfae53aec0000000	-0.059232197701931
97	0xbfa3fabb80000000	-0.03902231156826019
98	0x3fb23b1540000000	0.07121403515338898
99	0xbfa2d80780000000	-0.03680442273616791
100	0x3fc14dece0000000	0.13519059121608734
101	0x3f48342000000000	0.0007386356592178345
102	0xbfc194da00000000	-0.13735508918762207
103	0x3fc1270f20000000	0.13400448858737946
104	0xbfb4231660000000	-0.07866039127111435
105	0xbfa550f180000000	-0.04163317382335663
106	0x3fbe2e8e40000000	0.1178978830575943
107	0x3fb2341900000000	0.07110744714736938
108	0xbfa3c9c82b7082cb	-0.038648848822281666
109	0xbfa0c64666f66bc8	-0.03276271826617677
110	0xbfd2342171fb604e	-0.28443180209206254
111	0xbfa9b0f8a393ed05	-0.0501783084564185
112	0xbfd46d092c255726	-0.31915501891249887
113	0x3fb4c29782dc55f8	0.08109423584786402
114	0x3fc2a8995f70ecb8	0.14577023658953236
115	0x3fc75f77257feb0b	0.1826008732894809
116	0xbfc1bf0c47e41139	-0.13864282141015297
117	0x3fc6857af783b281	0.17594849668184412
118	0x3fc0f513f6f17489	0.13247918660900762
119	0x3fcb310378bfd328	0.21243327518427546
120	0x3fa4a8c63ee0c766	0.040350146461050326
121	0xbf9869c000000000	-0.023840904235839844
122	0xbfb21dd925f4aec5	-0.07076794792800019
123	0xbfa1f835996a7726	-0.03509681222679566
124	0x3fa54cd8daa9ef60	0.04160192174182842
125	0xbfc43650e0000000	-0.15790759027004242
126	0x3fa529f180000000	0.04133562743663788
127	0x3fa680d4ec048be1	0.04395165806842961
128	0x3fce2d07707cc361	0.23574917786165897
129	0xbfbfb992b3fb08c4	-0.12392537015969923
130	0xbfc3d962c0000000	-0.15507158637046814
131	0x3fbc4920c0000000	0.1104908436536789
132	0xbf7e570a9408acc2	-0.0074072278226068895
133	0xbfb9dbe030af1263	-0.10101128758021498
134	0xbfc1de90e0000000	-0.13960467278957367
135	0x3fbdf2fe921b9b1e	0.11698905055127937
136	0x3fcec4238169f94d	0.24036067790070562
137	0xbfb51426a9834a2f	-0.0823387302255376
138	0x3fb5d6fa40000000	0.08531154692173004
139	0xbfd6f843631db096	-0.3589027851037455
140	0xbf5c658000000000	-0.0017331838607788086
141	0xbf91a45de2af5ff2	-0.017228571854360504
142	0xbfc1251f8d4a7560	-0.1339454116722818
143	0xbfb4738c3059540d	-0.07988811664957059
144	0xbfc50fef60000000	-0.16454879939556122
145	0xbfb13c0c00000000	-0.0673224925994873
146	0xbfb468d1c0000000	-0.07972441613674164
147	0x3fbce71bc0000000	0.11290143430233002
148	0x3fa19ccf80000000	0.03439949452877045
149	0x3fbf0cfc40000000	0.12129189074039459
150	0x3fc1a652a0000000	0.13788826763629913
151	0xbf95a4cb00000000	-0.02113644778728485
152	0xbfba9dd800000000	-0.10397100448608398
153	0xbfa70f8d80000000	-0.04504053294658661
154	0xbfb9073300000000	-0.09776610136032104
155	0xbf9f2eb400000000	-0.030451595783233643
156	0x3f8e608a00000000	0.014832571148872375
157	0x3fb13e85c0000000	0.06736026704311371
158	0xbf6acf9800000000	-0.00327281653881073
159	0xbfc15b0340000000	-0.13558998703956604
160	0x3fa69e1d80000000	0.04417507350444794
161	0x3fc1371920000000	0.13449396193027496
162	0xbfad5d98c0000000	-0.05735471099615097
163	0xbfb72971c0000000	-0.0904761403799057
164	0xbfb715af60000000	-0.09017463773488998
165	0xbfc50600c0000000	-0.16424569487571716
166	0x3fbe38bd40000000	0.11805327236652374
167	0x3fb0446140000000	0.0635433942079544
168	0xbfb279db60000000	-0.0721718892455101
169	0xbfa9aa5580000000	-0.05012767016887665
170	0x3fbb612840000000	0.10695125162601471
171	0x3fb38bab40000000	0.07634992897510529
172	0xbfba97a400000000	-0.10387635231018066
173	0x3fbd564e40000000	0.11459816992282867
174	0x3fb85ebac0000000	0.0951954573392868
175	0x3fb84b7740000000	0.09490151703357697
176	0xbf92ad6300000000	-0.018239542841911316
177	0xbfbdaee960000000	-0.11595018953084946
178	0xbfb6850760000000	-0.08796735852956772
179	0x3fafea3880000000	0.062333837151527405
180	0xbfa4722c00000000	-0.03993356227874756
181	0x3f9e715300000000	0.029729172587394714
182	0x3fbe6abec0000000	0.1188163012266159
183	0xbfb0204d60000000	-0.0629928931593895
184	0xbfb90e4b60000000	-0.09787436574697495
185	0xbfc2d0ce40000000	-0.14699724316596985
186	0xbfc3eeb0c0000000	-0.1557217538356781
187	0xbfc0edc7e0000000	-0.13225649297237396
188	0xbfb4d899c0000000	-0.08143006265163422
189	0xbfa8ca3b80000000	-0.04841791093349457
190	0xbfc1e183e0000000	-0.1396946758031845
191	0x3fb9358840000000	0.09847308695316315
192	0x3fb669ca40000000	0.08755172789096832
193	0xbfb0e1dbc0000000	-0.06594632565975189
194	0xbf9f2fb800000000	-0.030455470085144043
195	0xbfbe486e00000000	-0.11829268932342529
196	0xbfb1f33900000000	-0.0701175332069397
197	0xbfc50db580000000	-0.16448086500167847
198	0x3f80ad5600000000	0.008143112063407898
199	0xbfc29c09c0000000	-0.14538690447807312
200	0x3f9b447100000000	0.026628270745277405
201	0xbfbea9d5c0000000	-0.11977897584438324
202	0x3f8616ba00000000	0.010785534977912903
203	0x3fa2e02e00000000	0.036866605281829834
204	0xbf9f699700000000	-0.030676230788230896
205	0xbfc2243900000000	-0.1417304277420044
206	0xbf94ce0b00000000	-0.020317241549491882
207	0x3fbac0a6c0000000	0.1045021265745163
208	0xbfb0b372c0000000	-0.06523816287517548
209	0xbf880b0200000000	-0.011739745736122131
210	0x3fa44a2600000000	0.03962820768356323
211	0xbfbfda9960000000	-0.12442930787801743
212	0xbfb41dbd00000000	-0.07857877016067505
213	0xbf89db3200000000	-0.012625113129615784
214	0xbfc27a0840000000	-0.1443491280078888
215	0xbf96fc6400000000	-0.022447168827056885
216	0xbfdf1edf8c1775b6	-0.4862593525011464
217	0x3fd1b010e522c1a5	0.27637121559657835
218	0xbfc6f7309b19dd5b	-0.17941863606732053
219	0x3fb9ca326cd5eebb	0.1007415309631438
220	0xbfd5f657c12828c4	-0.3431605707452372
221	0x3fcfb00abb010c36	0.247559872923462
222	0xbfc4974e90864b3c	-0.16086751992096449
223	0x3fbdc0bab1f90063	0.1162220654014177
224	0xbfd556d8dcbbcf05	-0.3334257274247963
225	0xbf9fee0aa1d84126	-0.031181493881434673
226	0x3fb6f546140c642c	0.08968008031332947
227	0x3fcac61dc4741590	0.20917102901891527
228	0xbfd80a91e0f05d26	-0.3756451317471651
229	0xbfbf5b6fc0000000	-0.12248896062374115
230	0xbfb264817af0ab38	-0.07184609652965157
231	0xbf978186448b8dc2	-0.02295503419271739
232	0x3fad008cc9e38521	0.0566448208280781
233	0x3fad07d080000000	0.056700244545936584
234	0xbfc485c300000000	-0.1603320837020874
235	0x3fb9f5342b8cac9f	0.10139776290150103
236	0x3fb4cca6368bec7a	0.08124770003989737
237	0xbfc175b6ed82efce	-0.13640486333122087
238	0x3fbb556b40000000	0.10677213966846466
239	0xbfb8060a00000000	-0.09384214878082275
240	0x3fbc1c77db7ab3e7	0.10980939014798673
241	0x3f9355a7c0fb180e	0.01888143649446055
242	0x3fa25ff800000000	0.0358884334564209
243	0x3fbf2729e7716248	0.12169134045087404
244	0x3fca24a520272e14	0.20424331731770506
245	0xbfb1b48127156e78	-0.06916053013031298
246	0xbfb2a15800000000	-0.07277441024780273
247	0xbfd0a4f0b5b7f31d	-0.26006715532257535
248	0xbfb8332ec0000000	-0.09453098475933075
249	0xbfc13ef1fedb1938	-0.13473343795903658
250	0xbfd2b7f6ee51b7ef	-0.2924783065162719
251	0x3fd118aaf197f0d3	0.26713059990994487
252	0x3f9b5ab2d5979962	0.026713175093300186
253	0xbfbf8244dce933e7	-0.12308149712880799
254	0x3f8fcf1893cef08e	0.015531723032715907
255	0xbf9de943f52ff7c8	-0.029210149612474173

bias f8 [72]
0	0x3fc01103a9750e79	0.1255192353656758
1	0x3fbee1c6b3b90ee1	0.12063257110372262
2	0xbfbb9592c0000000	-0.10775105655193329
3	0xbfa2f06268628f8b	-0.03699023746710769
4	0xbfc539e3e0000000	-0.16582916676998138
5	0x3fb3e1fb40000000	0.07766695320606232
6	0x3fc03e411d316a04	0.1268998520416319
7	0xbf91ed1cb9c1b87a	-0.01750607379693079
8	0x3fbad2283c6bf8b7	0.10476924395695418
9	0xbfc3ca1760000000	-0.15460483729839325
10	0x3fc50c0f2fc6b0b4	0.16443052132433922
11	0xbfc0995000d18bda	-0.12967872657745155
12	0xbfa10bce9fc2d22f	-0.03329320621688613
13	0xbfad75d780000000	-0.0575396865606308
14	0x3f59217985dd77f4	0.001533859896390319
15	0xbfab81d4b9dd4581	-0.05372490662433461
16	0x3fbc023e71f4eebe	0.1094092395987287
17	0x3fb184f0044a87ee	0.0684347162701042
18	0xbfc4420f9ca1e36e	-0.15826602123322736
19	0xbfb8f120f8df30dc	-0.09742933345768584
20	0x3fb6a8c017d4f3d8	0.08851242620308086
21	0x3fa7950266225419	0.04605872627977465
22	0xbfa8f3ae00000000	-0.04873412847518921
23	0xbfbe40de00000000	-0.11817729473114014
24	0xbfae5ade5a06475c	-0.05928702210361678
25	0x3f8d586b114e8cca	0.014328800645506585
26	0xbfb5648800000000	-0.08356523513793945
27	0x3fb0deaf40000000	0.06589789688587189
28	0xbfaa9b462a81a639	-0.051965897263312084
29	0x3fbaa97d1faeb1c0	0.10414869330879295
30	0xbfb5ce8200000000	-0.0851823091506958
31	0xbf9d725211fc3c5a	-0.02875641093038115
32	0xbf99fc6700000000	-0.025376901030540466
33	0x3fbad86acf920a70	0.10486476485861274
34	0xbfae50a200000000	-0.05920892953872681
35	0x3fb868fcc74671ce	0.09535198083035043
36	0xbfa43fc380bed928	-0.03954897829628329
37	0x3fb70e5928aab253	0.09006268732873339
38	0xbfc171201a69d491	-0.13626481332508836
39	0x3f80661800000000	0.008007228374481201
40	0x3fbc0d7e9b58deea	0.10958091061263145
41	0x3fbae195a3da7b45	0.10500464678123674
42	0x3fa8a12a243203d0	0.04810458843076726
43	0x3f9ddae34b41f256	0.02915530344806635
44	0xbfb63694c0000000	-0.08677034080028534
45	0x3fbed9c8400cce92	0.1205105930683266
46	0x3fbb2908805dd08c	0.106094867076367
47	0x3fc42a273d2f1a24	0.15753641593455925
48	0xbfc0716fe0000000	-0.1284618228673935
49	0xbfc1990480000000	-0.13748222589492798
50	0xbf826ba8ae9276c5	-0.008994405581968743
51	0x3fb0b589be4055aa	0.06527005095298102
52	0x3fc8e88044fca8f8	0.19459536903861596
53	0x3fa54e12d67f78f1	0.0416112791860871
54	0xbfbec24a60000000	-0.12015213817358017
55	0x3fafad76616f7fea	0.06187028827093839
56	0xbfb529bc909c7ca4	-0.08266809969471695
57	0xbfb5389d21eef6d6	-0.08289510801747765
58	0x3f8df040768fcac3	0.014618400209632459
59	0xbfab97f84a35d64d	-0.053893813189387
60	0x3f8dfdb0fc61bfdc	0.014644034101564722
61	0xbfa3e0c1deb430b3	-0.0388241371493633
62	0xbf74e65189960ed0	-0.005102461343429801
63	0xbfc1dc53a44b56c3	-0.13953633806402452
64	0x3fc00a7ff5f60192	0.1253204298955209
65	0x3f89d21e00000000	0.012607797980308533
66	0x3fc29c0231a48daa	0.14538600372280303
67	0x3fc65d84f56666c8	0.17472898466512832
68	0xbfb3861c60000000	-0.0762651190161705
69	0xbfab24d11636a749	-0.053015264474494624
70	0x3fb482a2c96512fd	0.08011834542146441
71	0x3faa1cca28b7270d	0.05100089785589832

weight f8 [20, 72]
0	0xbfba30f367efb864	-0.10230943000326104
1	0x3faa8e196020c92a	0.05186538027227734
2	0xbfb317c3e0000000	-0.07458137720823288
3	0x3fc8cf71db8bbf73	0.19383071155561601
4	0xbf7a968600000000	-0.006491206586360931
5	0x3fb3a5bde0000000	0.07674776762723923
6	0xbfcd5d8db5752031	-0.22941752777319516
7	0x3fc535f1cbf38a39	0.16570875605164462
8	0x3fc878450bcd09a6	0.19117034031121455
9	0xbf80834900000000	-0.008062906563282013
10	0x3fc6f19566171bc2	0.17924754605175336
11	0x3fc549f198e7cda7	0.1663190838440702
12	0x3fc810ffae3d1d0a	0.18801876075506413
13	0xbfb94f8180000000	-0.09886941313743591
14	0xbfc142d7795f49dc	-0.13485234667184798
15	0x3fad428264f82641	0.05714805109535038
16	0x3fadb71e206fdcf1	0.058037702045050106
17	0x3fcbd9ad9aa0592c	0.21758050966372744
18	0x3fd23ee749d6ae54	0.2850893231468252
19	0x3fc19b3b37cf124f	0.1375497839454902
20	0x3f9c87f6943be906	0.02786240844486889
21	0x3fb67ef3b5539c8d	0.08787463356894616
22	0xbfa96b1240000000	-0.049645014107227325
23	0x3fb08be7e0000000	0.0646347925066948
24	0xbfa8af147234bf94	-0.048210753384750366
25	0x3fc1ec39fc6a0213	0.1400215609064764
26	0x3f80ca8f00000000	0.008198849856853485
27	0x3fba759fe0000000	0.10335730761289597
28	0x3fc9d1481b7bce18	0.2016992696950275
29	0x3fa5fc21817740a0	0.04293923097032004
30	0x3fafe7cac0000000	0.062315307557582855
31	0xbf900d47655da7c1	-0.015675654947166388
32	0x3fbdbbca60000000	0.11614670604467392
33	0x3fb2f89a4ebd7f47	0.0741058771359323
34	0xbf9d207c00000000	-0.028444230556488037
35	0x3fc4459df39b80c6	0.15837454218763564
36	0x3faf34ec872d1d3b	0.0609506526002925
37	0x3f9152fc2f8f1879	0.016918125536698334
38	0xbfb3ba9cb82074d2	-0.07706622596056725
39	0x3f92e98280000000	0.018468894064426422
40	0x3fb8732a956ad030	0.09550729892618004
41	0xbfb8fd6066119065	-0.09761621944341099
42	0xbfb7b2b21880e417	-0.09257042978505613
43	0xbfb327ad06a88322	-0.07482415592722849
44	0xbfadbb4240000000	-0.058069296181201935
45	0x3fc9a9fab45865f5	0.20049985700533993
46	0x3fbd92bf9650a3cd	0.11552045268821516
47	0x3fb613a934a59d0b	0.08623750243497257
48	0x3fb93eab20000000	0.09861249476671219
49	0x3fb74b1b20000000	0.09098977595567703
50	0xbfccf28f9313d6f1	-0.22615236932295305
51	0x3f83702ed5ff8952	0.009491315751749472
52	0x3faa20bfc47f0ce0	0.05103110574375491
53	0x3fb143e8334e9b77	0.06744242909063113
54	0xbfb6096f60000000	-0.08608146756887436
55	0x3fca5a715e81fb4f	0.20588509668956553
56	0x3fc1dc1996aaa123	0.139529417579305
57	0x3fd1eaee7f626d43	0.2799640888203678
58	0x3fbc329ad274c1aa	0.110147167569045
59	0x3fca85c9880b599d	0.2072078623084054
60	0xbf9db2dcd688f004	-0.02900261935631933
61	0xbfb7f123fc486569	-0.09352326306579574
62	0xbfb10e2abc97c565	-0.06662242035215156
63	0x3f9e5c51858be29c	0.029649041915919314
64	0xbfccdf68c9501072	-0.22556791143154303
65	0x3f82323700000000	0.008884839713573456
66	0x3fc512ae6cc3f461	0.16463260947049022
67	0x3fb81849a8744222	0.09412060129785307
68	0xbfa7abba80000000	-0.046232059597969055
69	0x3fb67e7261dac9f6	0.08786692513493918
70	0x3fbcc2fcb52ba8e1	0.11235026763066315
71	0x3fb1f6df0742bc81	0.07017320563567077
72	0xbfa07393084e03d8	-0.03213176227928444
73	0xbfaf6ff8417536e5	-0.06140113638921977
74	0xbfa729fdc0000000	-0.04524224251508713
75	0x3f7298ff646a26e0	0.004540441156345415
76	0xbfb5c6e780000000	-0.0850662887096405
77	0x3f99ccf180000000	0.025195859372615814
78	0x3fd9d5afab399a43	0.40366737099831
79	0xbf7c92b6afbd1342	-0.00697585451036248
80	0x3fb306e9762e098c	0.07432421813249429
81	0xbfbcf0f020000000	-0.11305142194032669
82	0x3fb49a101a1ffd8c	0.08047581327263326
83	0xbfd1a73aa9e32049	-0.275831857591133
84	0x3fc3104f1347eb5a	0.1489352077622595
85	0x3fbd214ea0000000	0.11378947645425797
86	0xbf700dc48a42f4d9	-0.003919379934982114
87	0xbfa8cdcf8f604ee9	-0.04844521165082744
88	0x3f85035f578c4b30	0.010260338649037942
89	0x3fcc5d38b3bb1e56	0.22159489417957684
90	0x3fce3e68bfd18a69	0.2362795769323214
91	0x3fac88c05148c11e	0.05573082916487436
92	0xbfb746e2f50c0eec	-0.09092539293856888
93	0xbf9b36ec7aad1eea	-0.026576704967083233
94	0x3fbd947de0000000	0.1155470535159111
95	0x3fb12c77a0000000	0.06708476692438126
96	0x3fc476c727146f22	0.15987481506533024
97	0x3fb53c394539a6d6	0.08295019092625053
98	0xbf91a88c80000000	-0.017244525253772736
99	0x3fb6c5bea0000000	0.08895484358072281
100	0x3fbf092d3850dcc2	0.1212337744226373
101	0x3fc77a7a5ac391db	0.18342523032983035
102	0x3fb2de4de0000000	0.07370459288358688
103	0xbfcd7e5bb452d87a	-0.23041864685882613
104	0x3f53521800000000	0.001179240643978119
105	0xbfa1cc59cb515059	-0.0347621975603551
106	0x3fb356dfe0000000	0.07554434984922409
107	0x3fc6a8e1ef885e8e	0.177028886756251
108	0x3fa019afa050b6e4	0.031445968932855256
109	0x3fbb7851fd4401f5	0.10730469163173224
110	0xbfb252aa992cf1f5	-0.07157388915670267
111	0xbfa21cb800000000	-0.035375356674194336
112	0x3fb1205de91c7a2b	0.06690012875740396
113	0xbfc0fac4727823f7	-0.13265281285592298
114	0x3f68f59668f19eb2	0.003046792764098993
115	0x3fab5b4c691dddef	0.05343092711603591
116	0x3fb5dea0a0000000	0.08542827516794205
117	0x3fc2f837993dd4f6	0.14819998724457378
118	0xbfa8fe0941d9de09	-0.0488131420979095
119	0x3fc0fde6c7c267ec	0.1327484584224402
120	0xbfa3d7ec00000000	-0.038756728172302246
121	0x3fa277a8c0000000	0.036069177091121674
122	0xbfc3b229e925c3cc	-0.15387462505489535
123	0x3f5f94b27a22b6e1	0.0019275420132020481
124	0x3fc9d7a9965f4c65	0.201893995689349
125	0xbf8862f17b7874e0	-0.011907469349404953
126	0xbf8f528400000000	-0.015294104814529419
127	0x3fc3a3fd0cd6fe6e	0.15344203116363836
128	0x3fb841a6793188c0	0.09475174387765417
129	0x3fb4acc4b73bf868	0.08076123689167647
130	0xbfa29e8df17bb544	-0.03636592457574264
131	0x3fc558a8e29a50b5	0.1667681795557933
132	0x3fb4cccb79f849c3	0.08124992110996403
133	0xbfba1fa5b5345774	-0.10204539941727636
134	0x3fa48efc8d460e2d	0.04015340065509707
135	0x3fbb620a3f9a752b	0.10696472218338175
136	0xbfc57384e020745c	-0.1675878614777585
137	0xbfa9c49a40000000	-0.0503280833363533
138	0x3fc8fa4ed82c328a	0.19513879351906765
139	0x3fa57515fe194bdd	0.04190891958992158
140	0xbfa124bb40000000	-0.033483363687992096
141	0x3fb4787d5d0a6762	0.07996352693080902
142	0x3fc4fa9449791e08	0.1638970717196886
143	0xbfa85af39f81e62d	-0.04756890604126016
144	0xbf8c0fb84aaad922	-0.013701858309428664
145	0x3fa8ae9a8ca9e748	0.0482071205814934
146	0x3fb02f3c60000000	0.06322076171636581
147	0x3fc2b1caca0f1d55	0.14605078569568755
148	0x3fbb3cafe0000000	0.10639476031064987
149	0x3fb204d6a0000000	0.07038632780313492
150	0x3fdb0937350cfbb4	0.4224374788354297
151	0x3fc28d6532f11581	0.14494004237546323
152	0xbf8f5048b320fa10	-0.01528984829576266
153	0x3fbb029820000000	0.10550833493471146
154	0xbf4c940c34bf70eb	-0.000872140846236683
155	0xbfdeda35871c2974	-0.48206842607819245
156	0xbf716c21df873f15	-0.004253513638516689
157	0xbfb64dce00000000	-0.08712470531463623
158	0x3fb867f653700b6d	0.09533633744289967
159	0x3f5baf9d80f10fbb	0.0016898191568239646
160	0xbfa2165ed6fe61bb	-0.035326923126550246
161	0x3fbb3af092212bd9	0.10636809890381417
162	0xbfb5dbd2e133a732	-0.08538549421396338
163	0x3fb344d3107329b3	0.07526892806632794
164	0xbfb15349b818f639	-0.06767712349479717
165	0xbfafb82f5af8a579	-0.06195209489335247
166	0x3fabd9c6c0000000	0.054395876824855804
167	0xbfb5638340000000	-0.08354969322681427
168	0xbfce105ccc150f2c	-0.23487434353784786
169	0xbf88dd0bfa5c3cf5	-0.012140363290682002
170	0xbfa19b8ec0000000	-0.034389935433864594
171	0x3fbc82afe0000000	0.11136912554502487
172	0x3faf0c661b5e36be	0.06064147075731573
173	0x3fbd3c3a175d2e9a	0.11420023985300035
174	0xbfb2b315a0000000	-0.07304511219263077
175	0xbfd72031e7458aca	-0.36134002289888356
176	0xbfaf06f180000000	-0.06059984862804413
177	0xbf81e8bd65728511	-0.008744697245051588
178	0x3fb121fda0000000	0.06692490726709366
179	0xbfab81ad03840e7a	-0.05372372310560265
180	0xbfb3a33d7d158586	-0.07670959762392301
181	0x3fc6aa248735e561	0.1770673427779839
182	0xbf7006e8886340b7	-0.00391283829795002
183	0x3fb9650a20000000	0.09919799119234085
184	0xbf9c1847a675b65a	-0.027436370406056156
185	0xbf8a09ef3f95dddc	-0.01271426117703716
186	0x3fadd9b16d7ef105	0.058301491371340254
187	0x3fa249c1814df1e9	0.035718962702023856
188	0x3fae9edf40000000	0.05980584770441055
189	0x3fb962c3dc30f436	0.09916328550112116
190	0xbfaa6ceb8d35236e	-0.05161224459386103
191	0x3fc17ee339409b59	0.13668480201269054
192	0xbf650c3000000000	-0.0025692880153656006
193	0x3fb30cb420000000	0.07441259175539017
194	0x3fbf8029c5ed0717	0.12304936487364802
195	0x3fc36c25066a3be0	0.15173781216841942
196	0x3fbf020bc3e8ea07	0.12112496884302724
197	0x3fa81da0f20a4332	0.047101048990163
198	0x3fb5219aa0000000	0.0825440064072609
199	0x3fc50e06e93b1603	0.16449056995604402
200	0x3fcda258711e26cf	0.23151689074830137
201	0xbfd57cdb7fdbb132	-0.3357456921210257
202	0xbfa138e79b8d45e5	-0.033637273538839975
203	0xbfbfd7c490e31dd6	-0.12438610589298746
204	0x3fc233ff2384ec6b	0.14221181139314196
205	0x3fabe4cdcf3203a8	0.05448001054992996
206	0xbfa192fa50ab5567	-0.03432447657329867
207	0x3facf97e704a246e	0.05659098740313416
208	0x3fc943b208da5f2f	0.19737840111042135
209	0xbfb33e6fa0000000	-0.07517144829034805
210	0xbf9f7fef26f60a81	-0.030761467698094073
211	0x3fb9a45faf0c73b5	0.10016439460419131
212	0x3fae57f3c0000000	0.05926477164030075
213	0x3fc2516333085aee	0.1431087493117142
214	0x3fc49070bf774f6e	0.16065797184875968
215	0x3fb01cbe8a3efc46	0.06293860316417108
216	0xbf9ccefe50f1f6d0	-0.02813336724329113
217	0x3fc2e7b52e037c04	0.14769615885504106
218	0xbfade7d240000000	-0.05840928107500076
219	0x3fb91beabbfb497d	0.09808222855943956
220	0x3fbd2bdfe0000000	0.11395072191953659
221	0x3f8056d500000000	0.00797811895608902
222	0xbfd4f76143815707	-0.32759887306507135
223	0xbfab5fa0437d34b7	-0.0534639437088144
224	0x3fb29f074e77969d	0.07273908296300609
225	0xbfad73cb80000000	-0.057524070143699646
226	0xbf70c95988faed59	-0.004098272081758247
227	0x3fa527e3c7bf4bf9	0.0413199597675415
228	0xbf7864f791359fee	-0.005955664691420266
229	0xbfaa9e2cc0000000	-0.05198802798986435
230	0x3fbea7f6e62ebf52	0.11975043410961675
231	0x3fce04e4c9255b15	0.2345243436963861
232	0x3fa26549a5bd4769	0.03592901371179275
233	0x3fb68262c9e83399	0.08792703084345845
234	0xbfd044c88bd37159	-0.2541982045638825
235	0x3fb4c78d2f1ea0c8	0.08116991424924713
236	0xbfb69acd29817c64	-0.08829958213162709
237	0x3fb56ce3a6991202	0.08369276826221753
238	0x3fb95814e0000000	0.09900026768445969
239	0x3fb495f5e0000000	0.08041321486234665
240	0xbfd0461e02bf1043	-0.25427961605260324
241	0x3fb616e45d2be9b9	0.08628680491157227
242	0xbf93c63b80000000	-0.019310884177684784
243	0xbf971e7d80000000	-0.022577248513698578
244	0x3fa3697ab2ed73e6	0.03791411813902083
245	0x3faf690107b54e41	0.06134799212545917
246	0x3fb9dff960000000	0.10107382386922836
247	0xbfca8d396abd1211	-0.20743482314914322
248	0x3fbb1a5f60000000	0.10587116330862045
249	0x3fb9d1789ddf7459	0.10085252622907727
250	0xbfa954f2c0000000	-0.04947622865438461
251	0x3fb2c871c7012a35	0.07337103947171715
252	0xbf2d4253f1802bc5	-0.00022322916697733848
253	0x3fc281f311d6b572	0.1445907437422807
254	0x3faa17ebfcd8950d	0.050963759055131154
255	0xbfb7f73300000000	-0.09361571073532104

bias f8 [20]
0	0x3fad18afeb8ef810	0.05682897329778325
1	0x3f86170a69fcd767	0.010786134109007596
2	0xbf75fc21b6b09bd2	-0.005367404645801837
3	0x3fc028e43c5298e7	0.12624791093293838
4	0x3fb4c60ad251f2b9	0.08114688524978932
5	0x3fb1e160bedcdbe4	0.06984524402365327
6	0xbf9518c4aded54b0	-0.02060229598585711
7	0xbf8613b053787d21	-0.010779740855524413
8	0xbfa7c97f5089a047	-0.04645917757153533
9	0xbfa5d660bc9303e9	-0.04265119840557203
10	0x3fab8da98ac80a8d	0.053815172377672395
11	0x3f5cf7b34067d633	0.0017680407050851942
12	0xbfa1cd242c01f06c	-0.03476822888566819
13	0xbfb1229d69c37a74	-0.06693443138235883
14	0xbf92405651b7235b	-0.01782355188132399
15	0xbf98a1522dc32c58	-0.024052890818705513
16	0xbfa5b4200bbf8027	-0.042389871057594335
17	0x3fb7031ebc6489a6	0.08989135837013026
18	0xbfaa80652af89e1e	-0.05176082753706289
19	0x3fa1ab96d823171e	0.03451224697486864

two_l_plus_1 f8 [20]
0	0x3fb45f306dc9c883	0.07957747154594767
1	0x3fce8ec8a4aeacc4	0.238732414637843
2	0x3fd976fc893c3aa4	0.3978873577297384
3	0x3fe1d34a60108f73	0.5570423008216338
4	0x3fe6eb167b830193	0.716197243913529
5	0x3fec02e296f573b4	0.8753521870054244
6	0x3ff08d575933f2ea	1.0345071300973196
7	0x3ff3193d66ed2bfb	1.1936620731892151
8	0x3ff5a52374a6650b	1.3528170162811104
9	0x3ff83109825f9e1b	1.5119719593730057
10	0x3ffabcef9018d72c	1.6711269024649011
11	0x3ffd48d59dd2103c	1.8302818455567964
12	0x3fffd4bbab8b494c	1.9894367886486917
13	0x40013050dca2412e	2.148591731740587
14	0x40027643e37eddb7	2.3077466748324826
15	0x4003bc36ea5b7a3f	2.466901617924378
16	0x40050229f13816c7	2.626056561016273
17	0x4006481cf814b34f	2.7852115041081684
18	0x40078e0ffef14fd7	2.9443664472000637
19	0x4008d40305cdec5f	3.103521390291959
