Sphere/NeuralNetworks/models/net_l2_sqrtsqrt_12019.pt (torch_old, 160746 bytes, 7 tensors)

weight f8 [120, 6]
00000000: ff00 a381 7aff db3f 91b9 bb58 e22e d83f
00000010: d74d eb08 993c d03f 4f80 4d60 f227 c93f
00000020: a57c c38c 42b7 e0bf dae6 327b 20cc b9bf
00000030: f43a 0557 b7fe a0bf a0d6 6821 5606 d33f
00000040: 6f52 ffaa 8a2b b33f 7a4b a9d2 a816 d33f
00000050: b763 213b 1a98 c8bf 36c1 3642 a8eb debf
00000060: 2b2b 8e61 30fc d53f 44a9 1b98 a692 8dbf
00000070: 3c88 33ee 09e7 d7bf f3ed 0194 ba11 dcbf
00000080: a35e 60a1 3e44 ddbf 4191 b85f 8c68 ddbf
00000090: 0000 0000 605a a5bf 0000 0000 c8db d2bf
000000a0: 0000 00e0 c129 d7bf 0000 0000 0840 d4bf
000000b0: 0000 0080 6f45 c1bf 0000 00a0 d1a2 cfbf
000000c0: 8903 be2c 9e00 c73f 64d6 67ce 6671 d43f
000000d0: 7d4c d70e 6bff cb3f e998 2941 877f c4bf
000000e0: 7532 6a4c 713e a23f 1ec3 d23f 2873 b63f
000000f0: 0000 0000 b49b 99bf 0000 0040 cc65 c6bf
00000100: 0000 0000 5d4c d5bf 0000 0080 7d4c d63f
00000110: 0000 0080 8a2e d53f 0000 0080 d6b9 d9bf
00000120: eb6f 8e31 8e13 e03f f984 0ecb ef26 cabf
00000130: 3ba9 1866 9f90 bd3f 3eb6 dba8 2625 e4bf
00000140: 42e6 64b2 54df cebf b187 be14 a3b2 d2bf
00000150: ba1b 2f32 9253 b93f c229 c184 a8db a83f
00000160: 89e8 c474 b171 b53f 20c1 8556 6e38 d93f
00000170: f76b 58b5 f6b8 c1bf b5b8 1c62 9b01 ba3f
00000180: c71c 2cd4 9c35 b93f 8bd1 28dc db29 d1bf
00000190: cf81 6f2c 8671 d13f 4a64 1853 b416 b03f
000001a0: 3103 5c77 3fce da3f 3e38 78c5 0067 d3bf
000001b0: 3473 bed5 0a1a d2bf ced0 0035 7a2e c5bf
000001c0: c8cc 67b4 4b36 9cbf 2134 d91d fd4f d63f
000001d0: a801 ce97 3fbd e7bf 6eb1 f642 a825 e3bf
000001e0: 6e5e 508e bbb1 a13f 4a1c f710 1440 c2bf
000001f0: 18d5 87dc dc46 cd3f 934e ff5f 8a2e c1bf
00000200: 11d4 34cb 9331 d63f e0c8 7fe9 39cb da3f
00000210: 23d8 be09 cb81 c43f 733c 107d 83cb c0bf
00000220: 46e9 2177 e7c7 c13f 8f0b 18a1 7622 b9bf
00000230: 8c1d 52b2 9594 d7bf dd13 f2a2 de81 c8bf
00000240: 1bc1 0f27 af3c dcbf c6b7 58f0 80c1 cbbf
00000250: b73b 0f12 5f0c dc3f ac0e 01d6 0633 e23f
00000260: 8aa1 f509 0712 c43f 9e8a a2e9 918e ce3f
00000270: 0000 00c0 3ba7 c1bf 0000 00c0 cf0b d9bf
00000280: 0000 00c0 8e88 d1bf 0000 0000 55f0 c63f
00000290: 0000 00c0 64f7 d43f 0000 0080 6ffb c63f
000002a0: 0000 0000 45a5 c6bf 0000 0000 12dc c13f
000002b0: 0000 0080 657c bbbf 0000 0000 e776 d5bf
000002c0: 0000 0040 07f5 d6bf 0000 00c0 7a73 d43f
000002d0: 9cd0 3eaa 5348 d43f 8dfe 259d db02 d8bf
000002e0: 98cf 1210 361a d63f d535 8d40 8c64 d53f
000002f0: 7cb3 3b91 f1dd debf 8901 6024 73ab 963f
00000300: 0000 0080 0eb6 cb3f 0000 0000 90a5 a7bf
00000310: 0000 0000 67fe acbf 0000 0000 dad6 d3bf
00000320: 0000 0060 5d16 dabf 0000 0080 d9af cb3f
00000330: c9a6 9ce9 524d c7bf bb5a a12d d1b3 d8bf
00000340: c9aa 382d 01f1 ca3f 1f4b a186 eb6c c73f
00000350: 3259 2cb0 4198 cbbf 4433 552a 6f9a cc3f
00000360: 6e1c 55ae eb6e dd3f fa0d 6f1a 9175 88bf
00000370: 44e3 d593 f95f bfbf 7872 7998 59b7 d0bf
00000380: 5020 4ddc c6bd e0bf 8ea1 095c 7f09 e23f
00000390: 2886 0799 126f c6bf f456 d424 517d d63f
000003a0: 2560 2a92 d661 c03f 7561 cd2d 4cda c23f
000003b0: 741c f4b6 37f8 d33f bbb4 9944 548e c8bf
000003c0: 1efb 284f 9d44 c2bf d63e 09ac 0daf d3bf
000003d0: f49c 56e2 fdef c9bf a79c ab19 b4c0 d03f
000003e0: bc89 9325 c37f a43f a145 a890 53ee b83f
000003f0: 0000 0080 3d84 c83f 0000 0080 ac2e c7bf
00000400: 0000 00a0 af91 d3bf 0000 0000 347f 863f
00000410: 0000 0080 8e9f d23f 0000 0000 3b23 b93f
00000420: 760a c3f0 cfbf bebf dee9 5c22 430b d63f
00000430: e15c 0593 9ca1 85bf 510b b37a f767 8b3f
00000440: 9093 c640 e3f6 7a3f 50c8 4191 35b9 b3bf
00000450: dc07 8e5e 988a d1bf 6e4d c5f2 565a c33f
00000460: 2937 ccbd 93e2 dabf b41c 8f1b 0f1f d1bf
00000470: 5d44 4af3 333e b6bf e1a8 d72b 3420 bcbf
00000480: 495d 65cf 302b cabf 492c 63cc 44de d73f
00000490: 8915 00d4 fb55 cc3f 63c0 9262 59e1 a43f
000004a0: 4167 a4f6 cd1f d23f c9ba 3c4d 5f00 bbbf
000004b0: a193 a881 78a7 c43f 86b4 56e9 792b c73f
000004c0: 3e10 3cbd 0971 913f 7061 6669 ba7f b2bf
000004d0: 1b72 5389 02a6 903f cf25 f0d0 7d0e d9bf
000004e0: cdd2 4964 0ee4 d93f 952b 79f7 053c c2bf
000004f0: 65b0 6259 670c 733f cad6 7c06 576a d2bf
00000500: 4e13 4b5d bb76 bf3f c037 935d 0ca7 cf3f
00000510: 1a91 9529 5fe6 d6bf 33e8 c681 c11c d83f
00000520: 4f80 03e2 5f5f d1bf 9e75 c44f 7a13 cfbf
00000530: 2c21 4c85 4f7c adbf 75e0 346d 1e48 d3bf
00000540: 8bb8 7025 2a66 cbbf 584a 4d19 b195 d23f
00000550: b21b 7279 14e4 d63f 1b40 225c 7040 d5bf
00000560: 0791 2b7f 7431 b23f 5b9b d07b 8f20 d93f
00000570: 7229 5a04 bd7a d93f 921e 20b3 319e d53f
00000580: f28a 691e e668 d63f 9402 1a74 efab b03f
00000590: 7eb3 9806 971d a6bf 0e0b 17d3 c476 b9bf
000005a0: 17b4 d588 aafc 87bf 7d5e 1c4b 8790 d63f
000005b0: 880b b2d9 353f d3bf 3033 16c6 fafe cfbf
000005c0: 6b73 52ba 0443 c93f 148e 9083 6440 de3f
000005d0: 2e57 fc57 8d89 d43f e1e1 715e 76ad b23f
000005e0: 1069 3ac5 9854 c1bf 7b39 a872 476d ca3f
000005f0: eb1f 24d0 4d77 d73f 6625 014b d73e 94bf
00000600: 6f1f 8027 626a d83f f1ab 5e78 8364 b33f
00000610: 4bdd e41b 4a8f cebf e24d edb6 a674 c1bf
00000620: e28c b983 628e da3f 9897 35f2 da7d d63f
00000630: 4bd5 d69f ea06 b8bf 74a7 ac3c 6835 b9bf
00000640: c076 7e07 3b94 d0bf e6e7 0f68 d433 d4bf
00000650: 183c 2d29 e5d2 aebf cb6e c379 8d67 a33f
00000660: 617f 2407 64c6 d53f 7310 5eed f5be c43f
00000670: 4d84 4abb 976d b6bf 983b 680d 48b7 d13f
00000680: 51da 00b2 dd07 c53f 2486 9fd2 a771 ca3f
00000690: a562 7cf8 6fe6 a7bf e4a2 5961 add2 d63f
000006a0: 4887 1b39 2043 c83f e63e 9e13 a187 dcbf
000006b0: 5605 1303 bb09 acbf e97f 9ea3 80e2 bdbf
000006c0: 0000 00a0 42a1 cebf 0000 0000 ad6f c43f
000006d0: 0000 0040 2ef1 d7bf 0000 0060 55c0 d6bf
000006e0: 0000 0040 e47f d33f 0000 0080 88cf d23f
000006f0: 87f5 c99c ce57 bc3f 40ba bbe2 9b03 d53f
00000700: 98ea 842d f1d4 d63f 3302 02fc ee07 2b3f
00000710: 12dd 77c7 01fa acbf 6224 2bf7 1c02 e1bf
00000720: 0000 0000 3e34 acbf 0000 00e0 9bd8 d6bf
00000730: 0000 00c0 2c8b d63f 0000 0000 dd3f bdbf
00000740: 0000 00c0 daff d03f 0000 0000 bd94 d83f
00000750: 022a 8c61 8312 93bf e917 682b df22 c7bf
00000760: 15f8 6271 8399 dd3f 00ef 375c 0b8a db3f
00000770: b641 2383 fa61 d63f 116d f8e8 f7de d93f
00000780: 0000 0000 ef0e cc3f 0000 00c0 dde5 d8bf
00000790: 0000 0000 6644 953f 0000 00a0 0158 c9bf
000007a0: 0000 0040 2217 d73f 0000 00c0 fd84 d43f
000007b0: 95c2 9a7f 9840 c63f cffc 6a8c abba cd3f
000007c0: 1f1f f6ab 2698 923f 5dd6 a12b f33a cbbf
000007d0: ff6e 81b4 2cc2 cfbf 09ab 7fef 46c7 b03f
000007e0: 61a6 4d07 e003 d73f ca52 028f 5e32 ca3f
000007f0: a159 f3ed cf27 d5bf 97c3 4a67 3657 e0bf
0.4374681726440172 0.3778615824257026 0.2536985957242143 0.19653157903940374 -0.5223706006326166 -0.10077097900184687 -0.033193330166445906 0.2972617460503475
0.07488314318408994 0.29825802395242074 -0.19214179885127944 -0.48313337770652554 0.34351739432229306 -0.014439870373696657 -0.3734764887032076 -0.4385820813547234
-0.45729032287042964 -0.4595061239981711 -0.04170513153076172 -0.2946643829345703 -0.3619236648082733 -0.3164081573486328 -0.1349315047264099 -0.24715633690357208
0.17970635590247877 0.3194214835815272 0.21873224472674116 -0.1601418560196131 0.03563264901922462 0.08769465978799615 -0.025008022785186768 -0.17498162388801575
-0.33278584480285645 0.34841859340667725 0.33096563816070557 -0.4019676446914673 0.502387139119944 -0.20431325354460464 0.11548801653467404 -0.6295350358975111
-0.24119051657344143 -0.2921531393604893 0.09893144345470165 0.04855085964716778 0.0837660703736295 0.39406927537403824 -0.1384571443057607 0.10158702035252783
0.09847431354511392 -0.2681798601145366 0.27255396212970323 0.06284644154256216 0.4188383737201092 -0.3031618050016539 -0.2828394973128525 -0.16548087680860707
-0.027550871740413624 0.34863212504279956 -0.7418516125617787 -0.5983468349345864 0.03455911743384098 -0.142580517085863 0.22872505920501207 -0.1342328041779309
0.3467759594380491 0.4186539440407966 0.16021097160199912 -0.1312107430135004 0.13891309086813858 -0.09818211968381106 -0.36844389356743856 -0.1914633079178704
-0.44120386900523706 -0.2168427632872733 0.4382550884592393 0.5687288455742041 0.15680015550902865 0.23872589023547602 -0.13791605830192566 -0.39134591817855835
-0.27395981550216675 0.17920935153961182 0.3275997042655945 0.1795482039451599 -0.176918625831604 0.13952851295471191 -0.1073668897151947 -0.33538222312927246
-0.3587053418159485 0.3195483088493347 0.3169144785454223 -0.37517443033719006 0.3453498036353664 0.334261954344439 -0.48229636366777817 0.022138403983264197
0.2164934277534485 -0.04618501663208008 -0.05662843585014343 -0.30998849868774414 -0.4076150357723236 0.2163040041923523 -0.18204723746139553 -0.38597516494830203
0.2104798765952494 0.183011475312548 -0.21558400251587667 0.22346295897514257 0.45989505791334906 -0.011942990893550654 -0.12255821093812097 -0.2611907948501435
-0.5231661131629242 0.5636593625650208 -0.17526466819895004 0.3513987407362571 0.12798578392971752 0.1472869132655991 0.31202500216063034 -0.19184354161862935
-0.14271894803274504 -0.3075594120063959 -0.2026364665191306 0.2617616892516232 0.040037248932793784 0.09738657266304653 0.19153565168380737 -0.1811118721961975
-0.3057669699192047 0.010984808206558228 0.290988564491272 0.09819382429122925 -0.12011432292914911 0.34443739276653484 -0.01056215594932869 0.013381894523609413
0.006583106715344025 -0.07704481884300773 -0.27408417924755013 0.15119444707907398 -0.4200791696065261 -0.2675206917887849 -0.08688664140415044 -0.10986639089938734
-0.20444307448154067 0.37294120750147336 0.22137401439264817 0.040781777651660155 0.283191195355915 -0.1054744304244465 0.16136080103856634 0.18101428884020637
0.01703276841637113 -0.07226147721519793 0.016258277541839044 -0.3915094890986354 0.404544446885933 -0.1424567659726931 0.004650500972427894 -0.287740475020979
0.12290545489947854 0.2472854096326369 -0.35781077443086107 0.3767551200249983 -0.2714462001004038 -0.24278191466229954 -0.057589039823201155 -0.3012767855138983
-0.21405531719341683 0.2903864619339962 0.3576708971017367 -0.3320580386871385 0.0710671244119717 0.3926123341683955 0.39811635422724756 0.3377804040214666
0.3501525208468329 0.0651235254717995 -0.04319450336001916 -0.09946851876797444 -0.011712391186586442 0.352571318960578 -0.30073305377316517 -0.24996885940745406
0.19735774133450987 0.47268021438705543 0.32089551536897687 0.07295932584555188 -0.13539418821603322 0.2064599332665685 0.36665673567085716 -0.019770969345960586
0.38149312837094035 0.07575246514049618 -0.23874784814845848 -0.1363724129865736 0.4149404798865374 0.35143159535652435 -0.09385553743671442 -0.09847117883023576
-0.2590472768004979 -0.31566343462293245 -0.060202752376987856 0.0378994189393019 0.3402338094474456 0.16207765665251692 -0.08760975191627658 0.27681161221783546
0.1643025511891261 0.20659349235852276 -0.04667997272753625 0.35660871989106924 0.18954851902440795 -0.44577814975580876 -0.05476173794296339 -0.11673740381820576
-0.23929627239704132 0.15965807437896729 -0.37409549951553345 -0.3554891049861908 0.30468088388442993 0.29391682147979736 0.11071482971052236 0.3283452715103614
0.3567469543956263 0.00020623009004695907 -0.056594901656291566 -0.5315079524526818 -0.05508607625961304 -0.35697075724601746 0.3522445559501648 -0.11425572633743286
0.26561611890792847 0.3840782642364502 -0.018625309780910378 -0.18075170154059997 0.4624947173396106 0.4303005600520322 0.34973013693254573 0.40423391104714407
0.21920573711395264 -0.38902992010116577 0.020768731832504272 -0.19799824059009552 0.36078697443008423 0.320617139339447 0.17384630423250216 0.2322592197069526
0.018158535237971948 -0.21273650770642663 -0.24811323941946026 0.06554072711120908 0.3596115180322155 0.2046621511732581 -0.33055494534837676 -0.5106460587904732

bias f8 [120]
00000000: 00fe 6303 5ebb d3bf a137 f73c 8e7b b2bf
00000010: 92c9 ba06 17cc cf3f 0000 0060 5134 d8bf
00000020: 9162 f3e7 0c65 cb3f 0000 0040 16ee d0bf
00000030: 7a44 274e 7c7a af3f faac 1d6d 2f75 a1bf
00000040: 2061 c130 4d1b ca3f bd19 b106 e6e7 cb3f
00000050: 9ce5 850e 9670 d23f 9da7 3ae8 0237 c93f
00000060: a610 36e7 e3ff ccbf 0000 0000 7836 b8bf
00000070: 0000 0080 992a bcbf cf5b 35b0 c31a b73f
00000080: 0000 0040 5c02 d9bf 3ab8 2542 a64e cb3f
00000090: e55d 3eb5 02f4 92bf b29a 0681 0bf2 d23f
000000a0: 6f45 831b ea7f d43f 0000 0000 4359 d1bf
000000b0: 4b41 d4e2 f516 93bf a40e 4b15 7556 d43f
000000c0: 72a2 e17f ed02 cd3f cbcc 7754 fa71 8bbf
000000d0: 3842 096b 2a5c b23f e7d6 9da4 b6e8 cd3f
000000e0: f563 2dc9 a1d1 d93f a25b 6030 ca29 aa3f
000000f0: d212 c158 caee d43f 05f8 71c4 e984 8e3f
00000100: 88b8 5f25 98a1 cb3f 40b5 c749 529e d53f
00000110: 7a22 6192 cf1d d73f a8a9 43e1 6d97 bd3f
00000120: 0000 00e0 0841 cabf f701 05c1 e9cd b8bf
00000130: 0000 00a0 4357 d5bf cd3d f550 4638 a0bf
00000140: 0000 0000 2276 b8bf e5e8 2d50 391c d13f
00000150: c7ef a13d 30ab 8cbf 2766 bbb6 62a6 d43f
00000160: 0000 0080 6ec9 d2bf f3bd 958c 575b bebf
00000170: e103 3710 e874 c03f 8138 9232 148c c03f
00000180: 0eff d5e2 1f29 a8bf 35a1 10d7 4136 72bf
00000190: 0000 0000 3d9e a33f 0e6f 2ff5 1f6f c1bf
000001a0: e690 5259 e7a2 b1bf ab3b 7ec2 9809 a2bf
000001b0: 0000 0080 fd2d d9bf 3e96 f52f bf7b 87bf
000001c0: 8dc2 5765 5ce4 a6bf 0b28 cd37 e726 d33f
000001d0: 1798 c508 9c2e c3bf f272 a0fe b069 d53f
000001e0: 0000 0040 edae d1bf 5b13 1bc9 670f d23f
000001f0: 3554 8bbf 192f ca3f 24e6 afc8 074e c0bf
00000200: 517c 10b4 ae56 d13f e885 cc18 6d42 c4bf
00000210: 0000 00c0 c944 ccbf 1394 cc3b 916a 8bbf
00000220: c6bc 3d0c c62b c6bf 074e 65e0 247f a23f
00000230: 0000 0040 e6a1 d7bf de79 5010 66d4 babf
00000240: 425d ceaf 4177 b63f 2920 1f6d d605 a83f
00000250: c471 ec0f 8df6 d5bf 1824 52f4 bced cd3f
00000260: 591d a8da 681c d63f 4701 274e cce6 d83f
00000270: 0000 0000 943e bbbf 6905 fb1d a1eb c13f
00000280: 1abc 74df c2dc c13f b078 50ae 1c0d b0bf
00000290: cfea 5337 1340 d93f 9040 c71c b445 d03f
000002a0: 32ee 1da7 574d c63f 3ad1 d2e6 4efd d53f
000002b0: 0000 0000 a017 b4bf 82a0 42b5 4bea 9abf
000002c0: f4b9 b1b3 ef81 c13f fdc2 d0af 9cad c5bf
000002d0: 9fdd d3b5 8410 d3bf 3b2f f5d5 0007 bdbf
000002e0: db42 6650 3daf d33f 0000 00e0 e900 dabf
000002f0: b8dd 186b 22c0 af3f 47a9 c84e b8f3 d83f
00000300: 0000 0040 b102 d0bf ce84 3afc 66d0 be3f
00000310: ce22 8c66 34bf c63f 7242 60c2 9855 c03f
00000320: cd8e 1742 4427 cf3f 0000 0000 d651 9c3f
00000330: 0000 00c0 97f5 d7bf 0000 0060 92bd d9bf
00000340: 04e5 d70f ca0d ccbf 3293 7044 089a 9c3f
00000350: c1c9 a5b4 2f36 d33f 4b94 ebed 3a8b 51bf
00000360: 6d87 a413 3830 d63f c43b 9c43 6cbd a8bf
00000370: 0000 0020 8226 d6bf ae51 1b14 86d7 d53f
00000380: 2e93 745a ac41 d63f 0000 0060 d7ca d7bf
00000390: a418 62e6 fff1 ac3f cfa8 a3ac b74a a73f
000003a0: 0000 0000 10b8 a73f 72da 0239 58bc c0bf
000003b0: aaae 798e 003b d1bf 0000 0000 7e9a d3bf
-0.30831098872292273 -0.07219780910892705 0.24841583088489166 -0.3781932294368744 0.21402131391257176 -0.264531672000885 0.06148136571904046 -0.03409717757207349
0.20395817642816727 0.2180144817995834 0.2881217138124954 0.1969913133555651 -0.22655915059670412 -0.09458112716674805 -0.11002501845359802 0.09025214244807887
-0.3907690644264221 0.213337690638072 -0.018508951484902076 0.29602325058150847 0.3203072804145312 -0.2710731029510498 -0.01864227482752882 0.3177769382420854
0.22665184730728388 -0.013400989248998482 0.07171883691013015 0.23366435087125767 0.40341992040845237 0.05110008087665753 0.32707461039926244 0.014901949222117858
0.21586896729371952 0.3377881737240678 0.3611945085035938 0.11559187650315172 -0.20510970056056976 -0.09689198458091385 -0.33345118165016174 -0.031679341681065766
-0.09555256366729736 0.26734764890683343 -0.013998391037823311 0.32265537114071424 -0.2935444116592407 -0.11858126814126262 0.12856770316832836 0.12927486867232932
-0.047188755454952255 -0.0044462749365624015 0.03831663727760315 -0.13620376083314806 -0.06889196329808875 -0.03522946714576077 -0.39343202114105225 -0.011466497088529978
-0.044711005564640784 0.29924946259836877 -0.1498599093276318 0.3345758902158159 -0.27630168199539185 0.28219027175173544 0.2045623955988575 -0.1273812990109927
0.2709156759683014 -0.15827716551670723 -0.22084924578666687 -0.013386854779648549 -0.17321086499894117 0.03612628211217488 -0.36925655603408813 -0.10480344675349992
0.08775721113339777 0.04691953737307159 -0.34317328028717164 0.23381769113282824 0.3454839835471453 0.38908679611269686 -0.10642361640930176 0.1400033375157748
0.13954959784447923 -0.06270007377358655 0.3945358314810336 0.25425436792739564 0.17423530254369407 0.3435857061515609 -0.07848548889160156 -0.026284392297981636
0.13677784227498047 -0.16936071953525547 -0.29788320309259037 -0.1133881113393586 0.3075707707549051 -0.4063057601451874 0.062012744496708405 0.38987548536046684
-0.25016433000564575 0.1203674665253118 0.17771010405728876 0.12761220446602156 0.24338582255506083 0.02765592932701111 -0.37436479330062866 -0.402195543050766
-0.21917081616974354 0.02793133657191333 0.3001822723519148 -0.001070792721003205 0.34669305723411165 -0.048320182088097435 -0.3461003601551056 0.34127952540918727
0.3477583773949843 -0.371755450963974 0.05653381049437314 0.045491924118168485 0.0463261604309082 -0.13074782165286397 -0.26922620690923316 -0.3063044548034668

weight f8 [120, 120]
00000000: 0817 8d9c a4f4 b03f de8e 6585 1053 a2bf
00000010: c30e f2ce a0bf a3bf 0000 0040 c7db b0bf
00000020: 4a64 abdb 51d0 903f 0000 0080 b944 b63f
00000030: 541f 10d1 cbc9 943f 3839 8619 0ada c03f
00000040: 0d0b 7394 af73 b43f 6fd1 70aa aad1 c3bf
00000050: a238 c47f 233f a13f 8ef6 d4ca dfb5 b7bf
00000060: f3aa 42a0 1446 b63f 0000 0000 6011 883f
00000070: 0000 0000 4833 523f ac47 9a58 058c cd3f
00000080: 0000 0040 c66f a8bf 68df 3594 be38 93bf
00000090: 0c06 41dc 1562 99bf 2c19 1a19 f758 aebf
000000a0: 9cfc 7460 63b7 aebf 0000 0000 7c6d 863f
000000b0: 5618 60c6 6aa0 b03f d995 a296 4fbd 93bf
000000c0: 8825 722a 808b b53f c697 504a f5d4 9dbf
000000d0: 729a 25ff d145 a03f d847 1418 32ee 80bf
000000e0: 9435 bf64 3748 86bf fcce 3003 6550 b3bf
000000f0: 66db 3541 5703 84bf 0c7c da53 e6b4 9d3f
00000100: d4f3 e1b1 acfa 9a3f ba83 8342 0808 9c3f
00000110: 2b94 f355 8e44 a53f 9163 b39d 80c8 a13f
00000120: 0000 00e0 3a6f a5bf 9c67 7ca8 b1f6 9f3f
00000130: 0000 00c0 bec3 a2bf 1543 b7c0 e3bc 803f
00000140: 0000 0000 0806 853f 8c9b 47f9 6d34 a2bf
00000150: 471c efc4 3602 bcbf 95fd 7aba b6eb b73f
00000160: 0000 0040 3a24 b7bf ed68 bb27 a9fa af3f
00000170: c68e 11c8 b246 b33f 7220 515e daac b5bf
00000180: 3034 a32a 320a 8e3f d5f7 9d79 dcf0 d5bf
00000190: 0000 0080 287f b1bf d1c4 6774 5c02 b13f
000001a0: 243b 52fa 27b9 ae3f 87a8 4148 76b9 a53f
000001b0: 0000 0080 d788 a53f fbf0 45b2 eee3 a3bf
000001c0: d0d6 56ce be30 ae3f e649 8746 a398 aa3f
000001d0: c826 8137 933c ad3f 0170 b747 8345 af3f
000001e0: 0000 0000 eac0 b13f 9a3e 8b74 8c2a ae3f
000001f0: cab9 61e1 95c6 ad3f 6713 1e3e a41c a33f
00000200: f949 b155 6c73 babf 7f7b f761 03c6 a6bf
00000210: 0000 0000 9a4b b7bf 03f1 2eda 4c8d b33f
00000220: 5750 6634 6cb5 b0bf b254 3024 c773 b4bf
00000230: 0000 0080 cd56 97bf 86f5 1baf c92d aabf
00000240: f582 fab7 bf91 c0bf bbad f3e1 7bfa acbf
00000250: f2f9 9ffe b7a1 bd3f e06d f280 05a9 993f
00000260: d0a5 8bae 4c24 a13f b800 7510 b2e8 b3bf
00000270: 0000 0000 41cd 973f c87b 80b2 cb19 b43f
00000280: f682 de36 0243 b3bf 0eea 3938 7b1d aa3f
00000290: 3e5a af53 6bb4 abbf 45f7 11c5 ccd8 a23f
000002a0: f59e 2eb6 b94d cbbf ec97 e086 c5f6 af3f
000002b0: 0000 0000 8f3b b73f dbf5 ed61 35fa 993f
000002c0: 0478 dca4 3255 b33f e9e6 b1ec 96e7 a23f
000002d0: 36bf b5a3 3ec7 a3bf 33e5 428e d2a3 b03f
000002e0: 6972 d5b4 b215 97bf 0000 00c0 39d2 9dbf
000002f0: 8263 8431 21cb 99bf c342 a883 efd1 be3f
00000300: 0000 0080 6009 b7bf e524 6966 b235 b1bf
00000310: 0291 d347 541e 933f cc96 2a22 cc33 b8bf
00000320: f15f e4b0 d9e7 983f 0000 0040 1c44 a7bf
00000330: 0000 0000 f854 993f 0000 0080 1067 a33f
00000340: 89f0 c4a4 eeb9 843f e828 215a 31ff b2bf
00000350: 65e1 e691 853b b9bf 6161 7f84 8354 90bf
00000360: e0ac 7ca0 0ed6 b23f cba2 9d90 e46b 5e3f
00000370: 0000 0060 c40f aebf 1b14 44ac 0f2e b2bf
00000380: 880d 2fcd 8475 b2bf 0000 00c0 7dcd b13f
00000390: 479c 20a2 05e4 903f 5a05 1cc7 a21b b23f
000003a0: 0000 00a0 87dd b3bf d0a7 5069 9cc3 ae3f
000003b0: bd41 4294 ef58 a43f 0000 0000 3a19 a53f
000003c0: e16a 5844 2c09 a3bf 8bcc 0523 1eed a4bf
000003d0: 0d31 afc4 b69c 9b3f 0000 0000 fa6b b13f
000003e0: 8796 6a4f 44ef ac3f 0000 0020 939e b6bf
000003f0: ca3a 0e9b ec49 7e3f bc47 01e1 5833 98bf
00000400: f00e 63f1 62b4 ae3f 3d38 bb6d 7966 76bf
00000410: 5ec5 64eb 3f2d 88bf a79a f74a fd6b a73f
00000420: c89e 0126 77a0 52bf 0000 0000 2601 b3bf
00000430: 0000 0060 827c acbf dcf6 56fc 793e 94bf
00000440: 0000 0040 2807 adbf 850e 728a 0954 b03f
00000450: 1a4c 5592 c4ec a3bf 0711 ba8f 7872 893f
00000460: 7194 0099 2ecf a7bf 0000 0080 7985 a83f
00000470: 8fc6 ac7b 8f35 a5bf 4f27 13bc 8c81 88bf
00000480: 97fb b33e 39b2 67bf 277f 610d 7291 94bf
00000490: c4ac ecdb cf67 b0bf e9ba 9c99 fd63 803f
000004a0: 7d7e 395d 7bea 7f3f 1897 669c 891d 8d3f
000004b0: ab48 83be ead8 b9bf 74b9 1d9e f659 b23f
000004c0: 4732 ff40 6af6 aebf b3be 86cc e51d acbf
000004d0: 671b ba39 dc73 9bbf 9320 0a7a c379 a33f
000004e0: 0000 0000 f120 a1bf cd73 7510 2702 94bf
000004f0: 0000 0080 eec8 a33f 29ac 1d63 4c7d 9e3f
00000500: 0000 0000 7683 a23f 60e4 736f 74a3 b5bf
00000510: 3b95 de42 80ba 973f 9ad8 2383 e21c 88bf
00000520: 0000 0080 b7d9 a33f bd35 901d b499 a8bf
00000530: 6f25 4f29 738f b4bf 8584 4222 8bf9 98bf
00000540: 3b22 f638 575e a0bf ded4 8d8a c6ad a3bf
00000550: 0000 0080 7e10 a63f b4a7 ed36 82a2 b03f
00000560: aaa0 b98c f0ff b73f 6837 695c bc25 ab3f
00000570: 0000 0080 e51e 9abf 5157 ef97 2050 aebf
00000580: df27 b5c5 2c9a 82bf 296b b108 b7ba a33f
00000590: f213 bd4c b637 703f c57b 05c9 8866 b3bf
000005a0: 0000 0040 d03f b5bf 90d0 dc33 adfe ab3f
000005b0: e460 6b4b 4c20 79bf d7ce 7187 c741 673f
000005c0: 86df 9a1d 0d0d acbf 6f9f e580 21f3 9e3f
000005d0: 0000 0000 e818 b2bf 1b8d 1ef8 0870 803f
000005e0: cbe9 340d 175f 7c3f 793d 0b4a 524a b43f
000005f0: 0000 0080 a8e8 b03f b8a7 f770 8e1f b9bf
00000600: 1407 b5e3 cdec 893f 1508 5be0 5a44 b13f
00000610: 750c 9d9f d93b b7bf 59ad 5803 ec31 b1bf
00000620: 2b00 d3f9 b539 a9bf 33cd edc2 b5b2 b9bf
00000630: 0000 0080 93ea adbf 7ffe f52e aa75 aebf
00000640: e3d4 5e7f d078 9f3f 5c86 7479 96e6 a0bf
00000650: 729c c4c0 7ffd a83f 0e48 3fa3 9573 b0bf
00000660: 0047 b38b dd86 b2bf 3f0d af02 d367 723f
00000670: 0000 0000 7aae 883f 798f a32f 25fc b7bf
00000680: 40bf f20f 3963 9abf 2c79 a066 db3e 3fbf
00000690: 2525 20de be29 b4bf f79b aedc 333e b43f
000006a0: 4136 0e45 600e b7bf 0000 0040 c1b5 9dbf
000006b0: ac61 2212 4347 a3bf e8ff b6b2 2a14 9dbf
000006c0: 0000 0000 4290 99bf 5863 2a5c a049 83bf
000006d0: 0a65 514e 7456 a7bf de72 73d2 3627 a63f
000006e0: 5e55 fe2b 2a25 b13f 0000 0000 f096 97bf
000006f0: 0000 0040 bc3c b43f 0000 0000 40c9 503f
00000700: e042 f94f 8b9b a43f 8406 33e5 0aaa b3bf
00000710: 8efc 1ce3 c5b6 853f 29ff f45c b985 79bf
00000720: ef06 68c6 cb1d 9cbf f51a b837 b36a b3bf
00000730: 0000 0080 0a25 a2bf e210 6568 23af af3f
00000740: 0d74 90f8 657c 723f 0000 0000 0b92 8dbf
00000750: 2047 f752 efff 813f 0454 c52f 3f6e a3bf
00000760: 0000 00c0 5e2e b03f aae2 d870 49fe b03f
00000770: 9c35 090c b291 b13f 0000 0000 2f44 973f
00000780: a2ee 696e 578b b8bf 596c 0a8c 62dd 9e3f
00000790: c294 934e fa12 9cbf 0000 0000 22c3 853f
000007a0: d514 83ec a315 aebf 0000 0080 4d86 94bf
000007b0: 9625 e9d9 3deb a1bf 1323 3ef2 aa40 b83f
000007c0: 6afc 118f 2f7a 903f 37fe fec8 6b55 b5bf
000007d0: 9af0 eba2 5a73 933f 5151 a2ce fd82 a73f
000007e0: d54c cceb 99a3 953f 0000 00e0 0e65 afbf
000007f0: 0000 0080 ffb3 94bf fabc 3fb8 eac7 bcbf
0.06623295614289415 -0.03578998211267302 -0.03857138181868216 -0.065853551030159 0.016419676811754415 0.08698615431785583 0.02030104125517991 0.13165403600982883
0.0798902261185896 -0.1548360187749824 0.03368483481072927 -0.09261892988157625 0.08700684464080748 0.011751890182495117 0.001110859215259552 0.23083559824277466
-0.04772777110338211 -0.018771150394484876 -0.02478822857688638 -0.05927250081463095 -0.059992890858205444 0.010951012372970581 0.06494777053021158 -0.019276851243054203
0.08415986095692152 -0.029132683430496596 0.031782686611042346 -0.008266822204436794 -0.010879929315616356 -0.07544547393700535 -0.009771997144282184 0.029010390155800578
0.026346872670263213 0.02737439065902312 0.041538665763973213 0.03473283696229779 -0.041864242404699326 0.031214500340048454 -0.0366496667265892 0.008172778433534181
0.01026540994644165 -0.03555625598874376 -0.10940878208121872 0.0934404568933956 -0.09039653837680817 0.06245926485071771 0.0752975214432424 -0.08466877749117588
0.01466788475627298 -0.34282600285211845 -0.0683465301990509 0.06644227830817619 0.060006379420079164 0.04243058807408411 0.04205964505672455 -0.03884836126505494
0.058965647399799814 0.051945783957893885 0.05710277607483999 0.06107721567579461 0.06934988498687744 0.058918370462945194 0.0581557119011112 0.03732789285917342
-0.10332371799567132 -0.04447947092898285 -0.09099733829498291 0.07637482001058875 -0.0652682903221956 -0.07989163049235762 -0.022792063653469086 -0.05113058340610181
-0.12944790347412263 -0.05659854062272581 0.11574888197353753 0.02505882834939921 0.03348006849939689 -0.07776940252097375 0.023243919014930725 0.07851861103016156
-0.0752412208517049 0.05100617467265432 -0.054110864606333284 0.036810301834505434 -0.21330949206934915 0.062429592813984275 0.09075254201889038 0.025368532278198557
0.07551876568729204 0.036923138039993315 -0.038629491314053174 0.06499973271538266 -0.022543709075181804 -0.029122259467840195 -0.025188940665518363 0.12039086307801043
-0.08998683094978333 -0.06722559929143619 0.018670384296357596 -0.09454036554469808 0.024321938916813172 -0.04544151574373245 0.024738192558288574 0.03789569437503815
0.010120262530670015 -0.07420643282344808 -0.0985644799428705 -0.01594739433480308 0.07357875269069636 0.0018567783431199688 -0.058714043349027634 -0.07101533847533441
-0.07210569390649912 0.069541797041893 0.016494834919424297 0.07073418961592406 -0.07759902626276016 0.060086143356172905 0.03974102673339839 0.041208088397979736
-0.037179358809415815 -0.04087156465075122 0.02696500373331028 0.06805384159088135 0.05651296109617215 -0.08835715800523758 0.007394718399963815 -0.023633373959746726
0.059969989744358076 -0.005468820887200518 -0.011805056925910658 0.045745768929738966 -0.001136890750808849 -0.07423627376556396 -0.055637430399656296 -0.019769578959077147
-0.056695230305194855 0.06378230695741578 -0.03891577039998868 0.012425367246813325 -0.04650254838660651 0.047893330454826355 -0.04142425903991153 -0.011965846528614014
-0.0028926008286584526 -0.020086080614759496 -0.0640840446400715 0.00800321698224367 0.0077919787323420505 0.014216494641754049 -0.10096614028160171 0.07168523178345315
-0.06047374766749108 -0.05491560098323358 -0.026809159301162035 0.03803835739842145 -0.033454447984695435 -0.019539461497845956 0.038642361760139465 0.029774850415759033
0.0361592173576355 -0.08452537270558613 0.023172382432354182 -0.011773843409610674 0.03877042233943939 -0.048047665222934445 -0.08031387098812613 -0.024389432874731404
-0.031969762519171906 -0.03843517724355093 0.04309459030628204 0.0649796852209466 0.09374907909080102 0.05302227619232164 -0.025508485734462738 -0.059205072924369724
-0.009083127769049014 0.03853389721981266 0.003959381206930056 -0.07578329952001102 -0.08300496637821198 0.05467740305030688 -0.006134317422685085 0.002838983254656795
-0.05478707300556977 0.030224345676657046 -0.07069253921508789 0.008026189872742997 0.006926622433918127 0.07925905521118705 0.06605008244514465 -0.09813776262276874
0.012658699523516094 0.0674492643111367 -0.09075698992551103 -0.06716799813937281 -0.04926842379200055 -0.10038314827925347 -0.058430299162864685 -0.05949146102193214
0.030734308027338463 -0.03300924522978896 0.04880904415249966 -0.0642636798432081 -0.07237038288738162 0.004493545779897189 0.0120515376329422 -0.0936911813074043
-0.02576913032379413 -0.0004767690321631098 -0.07876198695170851 0.07907413614030633 -0.09006311117101352 -0.029013652354478836 -0.03765306087842943 -0.028397242696655584
-0.024964362382888794 -0.009417774975462187 -0.04558146911649359 0.04326793021184526 0.06697333883342568 -0.023036718368530273 0.07905174791812897 0.0010245442390441895
0.04024920798531695 -0.07681339355169753 0.010602518075414371 -0.006231044840489899 -0.027457412705195357 -0.07584686384516799 -0.03543885052204132 0.06188307427740526
0.004513166736640717 -0.014438711106777191 0.008788938254756185 -0.03795049150600252 0.06320755183696747 0.06638010983523182 0.06862938684317615 0.02272103726863861
-0.0958761829914985 0.03014139156094262 -0.027416144414833317 0.010626092553138733 -0.058758852597330304 -0.020043574273586273 -0.034997876024657135 0.09473675169114086
0.016091101748767413 -0.083334671565347 0.0189947282733419 0.0459212603319964 0.02113190175721232 -0.06131788715720177 -0.020217888057231903 -0.11242548940912292

bias f8 [120]
00000000: 6e75 74f3 f5bb 883f edf2 562e 07f3 803f
00000010: c77a 0ca9 1014 a0bf 45d5 2ce6 af5f b5bf
00000020: f79e a300 dfd9 983f 0000 00e0 4bc0 b1bf
00000030: 2ee3 963d 11fe aebf 2ca4 5d38 9332 8d3f
00000040: ba22 34ce c8f0 8e3f 0000 0000 9062 9bbf
00000050: 2521 3a02 1fdb a6bf a2b5 97a6 38d0 9e3f
00000060: 809e 6299 f916 a6bf 9b15 7f79 fbdf 85bf
00000070: 2424 6737 3d4e a0bf f1dd d0ed 6cb9 a4bf
00000080: 0000 0040 21ab a9bf 93ca 8b16 1c04 a53f
00000090: df10 bef3 c65c 60bf cb41 4a09 8388 bb3f
000000a0: d1c4 9e1b 3d82 b1bf 9b32 7fed b27e a6bf
000000b0: c779 6e4c 7b10 a1bf 9c97 e8a5 a997 963f
000000c0: 829d 217f d187 993f 0000 0000 c06f 37bf
000000d0: d149 efc1 14e6 9ebf ace5 3c2f 2038 b0bf
000000e0: f678 7a6c bb9d 96bf 7c3f e954 4250 99bf
000000f0: 8c8d 5a90 3bd0 ba3f c21c 41fc 0362 a73f
00000100: 0000 0000 6ded a8bf ff86 3913 0148 b3bf
00000110: 56cd ea67 7de6 7c3f 213a 13ef 98eb ae3f
00000120: 6851 27df a3de a1bf de79 0491 de5c b93f
00000130: a446 aa37 59ce 6fbf 0000 00a0 77a6 a5bf
00000140: c49a 6c74 5be3 b43f c4ab 055a 6271 a6bf
00000150: 0000 0000 6bed a93f 29ff 12b3 4256 b0bf
00000160: 7367 d8d1 50f9 b13f bc1e 3b7b 6df7 aabf
00000170: 31b2 f0dc 43a0 a7bf 082a e010 3bdf b03f
00000180: cb6f ed30 97b6 ad3f 0000 0000 0e6e 9e3f
00000190: 9d8b ce75 e494 b9bf 27f3 d46f f8d4 b23f
000001a0: 7628 c144 d659 bc3f 0000 0000 a83f 713f
000001b0: 0000 00e0 8db4 adbf 3b34 1352 c31f b93f
000001c0: e27f 3890 7a7d b23f a884 7c7a d089 aabf
000001d0: 8f28 2a4d 4170 b73f 0000 0000 028d 88bf
000001e0: 7117 4caf 6b44 b53f 0000 0080 587b ac3f
000001f0: 1cca 17af 1061 93bf 5d63 effd f564 b63f
00000200: 0000 0080 0fd5 a33f 3cf8 b370 ba18 a8bf
00000210: f3ca e5f3 0317 433f 5907 5098 305c a43f
00000220: 68c2 7a55 97fc 843f 08ba dfc7 eb45 8dbf
00000230: 0000 0080 203a 96bf f6bb d446 854b a83f
00000240: 0000 0080 1598 af3f 0000 0040 c169 aabf
00000250: b141 1616 5075 aa3f 832a a3a5 f610 86bf
00000260: 0000 0000 65d0 90bf d05f 1d77 93e3 b2bf
00000270: ae75 1bf0 fb30 943f 6f1e 5a4e 433f 933f
00000280: 0000 0040 66df a3bf c280 b5e2 77e6 abbf
00000290: 84a8 852e e593 5d3f 39de 4733 da48 be3f
000002a0: 68e1 d233 b281 b83f 3979 0f83 2550 94bf
000002b0: 0000 0000 8c77 7d3f ade9 3939 0f80 b2bf
000002c0: 8a13 7a3c d194 91bf 0000 0000 e3e8 993f
000002d0: 7ee2 bc30 c495 b6bf 73e3 3845 6155 ac3f
000002e0: bcc6 78f8 d55b a7bf dc27 aa44 d00a bb3f
000002f0: 0000 0000 fa20 b6bf 22e7 a739 9dad ba3f
00000300: c44a 6e63 dde4 b2bf 763e c3a5 66fc aa3f
00000310: 89c0 9aad 9df9 abbf 0000 0040 dd15 acbf
00000320: b1f9 2b63 d5a8 aabf ce8d d6ed 2eaf b73f
00000330: 9ac1 6880 6d32 97bf 4d01 f3a7 bc9d 9c3f
00000340: 7f99 2259 2569 bb3f 0000 0000 fa43 753f
00000350: ef9a 252b 4af8 a2bf c1db a6e1 cec3 943f
00000360: 464c edd5 3366 b43f 62ab cfce 7fa8 963f
00000370: 1119 6aa5 dd09 a23f 60ed cf34 01f5 bc3f
00000380: 0000 00e0 911c aabf 2277 bef8 7362 b33f
00000390: 7a12 eef6 6769 b73f c06f 2055 cce2 98bf
000003a0: 0000 0080 ba7a a83f 2fee 9a63 157f a1bf
000003b0: 5f39 2874 c1c5 60bf 82d2 6996 ee24 ac3f
0.012077256672052807 0.008276039220498766 -0.031403084407647656 -0.08349131936559669 0.02426861230278995 -0.06934046000242233 -0.06053213002036838 0.014256620557448661
0.015107697289310596 -0.026743173599243164 -0.044640511533602635 0.030091176193243314 -0.04314403531435307 -0.010681118626858324 -0.031846917164849026 -0.04047718432451209
-0.05013374239206314 0.04104697966785866 -0.0019973645957539333 0.10755175568397772 -0.06839353489228307 -0.04393538617259659 -0.033328869895956674 0.022062922240500535
0.02493216837356505 -0.0003576129674911499 -0.030174564682804054 -0.0633564105345587 -0.022086075302120776 -0.024720226700366763 0.10473987840901183 0.045669674437300425
-0.04868641495704651 -0.0753174468932478 0.0070557497662549675 0.060391215499852054 -0.034901734342983215 0.0990733245894044 -0.0038825743225253274 -0.04228566959500313
0.08159419624699199 -0.04383380268958306 0.05063948035240173 -0.0638162314598928 0.07021050570656744 -0.05266897324832828 -0.04614460060142667 0.06590623056414568
0.058033680651277196 0.029716700315475464 -0.09992816806929601 0.07356217127103247 0.11074580362870443 0.004211097955703735 -0.058018144220113754 0.09814091447624744
0.07222715397847382 -0.05183269019313147 0.09155662664321283 -0.011987701058387756 0.08307526616780848 0.05562855303287506 -0.01892496174509449 0.08747804116809506
0.03873489797115326 -0.047063661821070885 0.0005825776386657308 0.03976585253987137 0.010247404380920602 -0.01429352000920138 -0.02170611172914505 0.047451176544534165
0.061707183718681335 -0.05158809572458267 0.05167627591720548 -0.010774542741633702 -0.01641996204853058 -0.07378503473353182 0.019718109636291885 0.018796016366222575
-0.03881377726793289 -0.05449270861095236 0.00180528050449394 0.11829913856478748 0.09572900548199004 -0.019836984752936025 0.007194086909294128 -0.0722665323936897
-0.01716925555821861 0.025302454829216003 -0.08822275342834904 0.055338897418954945 -0.04562252672293485 0.10563375164397776 -0.08644068241119385 0.10421164186109569
-0.07380469968328912 0.05270691655607333 -0.0546387934131199 -0.05485431104898453 -0.05206934772103312 0.09251683527559537 -0.02265330406425079 0.0279454686649399
0.10707314897681462 0.005191780626773834 -0.0370505502385664 0.020278198740665724 0.07968448613000687 0.022127148626093336 0.03523152012080478 0.11311347522125947
-0.050999220460653305 0.07572102377750103 0.09145211962283809 -0.024302666373941184 0.047811344265937805 -0.034172695549809944 -0.0020474222558341383 0.054969268666273954

weight f8 [20, 120]
00000000: 5efa 797d 4fbe ae3f 4108 3c72 4bd8 623f
00000010: 7681 7715 e006 b73f e15f 44e7 199d 97bf
00000020: 044d 8d00 e067 913f 0000 0080 9bb8 aa3f
00000030: 8109 8ac6 98d5 c03f e54a 71e7 c102 a6bf
00000040: 2b1d c85d 6ef7 833f 0000 0000 609e 53bf
00000050: 5643 211c b546 a7bf ba78 ce2e e301 a8bf
00000060: 17bd ae35 374b b83f cba6 2c34 79ec a6bf
00000070: 7935 4397 8fad b73f 461b d773 cf96 c43f
00000080: 0000 00a0 f3c6 b5bf 8f7d 6ab4 ca4f acbf
00000090: c452 09a4 d35f 9d3f e25a 62eb 8b08 663f
000000a0: f47b f05c 118f b33f e996 03c7 177b bd3f
000000b0: 4a70 b8cf dfc6 b43f 9e96 74c9 ae18 943f
000000c0: 9530 8f1c d892 aa3f 0000 0000 3ba9 ab3f
000000d0: da33 b71c 6388 b53f 609c 930c ef27 afbf
000000e0: 298a 5083 f22c 9f3f b4e1 331d 5438 a13f
000000f0: 7ef6 697d 5a8b c23f dba4 8b22 78b8 c23f
00000100: 0000 0080 52b4 ad3f 6e55 00b7 f846 a63f
00000110: a1e4 9332 a24a b63f 7c59 ac2f f1d5 753f
00000120: 27fa eff3 717a a43f be51 5b6f a8b0 b2bf
00000130: bde0 ba46 3f28 c03f 0000 0000 e1a4 8a3f
00000140: 0317 c93e 9e6e 8c3f d774 1873 e669 b0bf
00000150: 0000 0000 0cd3 68bf 4d9e e4a1 1b86 b13f
00000160: ec55 4178 9052 9a3f 8b1a 3a85 1ceb 95bf
00000170: 397c 83c1 4a16 7f3f da38 fc36 67b9 adbf
00000180: 869d 62c5 1556 c13f 0000 00c0 3bb2 b23f
00000190: 9de9 00aa 285a 683f 94e3 b08b f080 b0bf
000001a0: 79a3 c12a b207 b13f 0000 0000 5a3f b13f
000001b0: 0000 00a0 b2c4 adbf 21bf cc33 355f 9b3f
000001c0: 3d6e 6381 3092 b53f a280 14d6 bd54 ba3f
000001d0: 00af 3961 6e9b bf3f 0000 0000 1719 ac3f
000001e0: 8296 fbea dd72 433f 0000 0080 966f 99bf
000001f0: ac0a 2e0a a8a2 b83f e4a1 a9e8 2659 be3f
00000200: 0000 0040 e2b1 9dbf 1219 018f 89bb b33f
00000210: bb29 edcc 1b66 8f3f ea49 f846 dc8a b33f
00000220: 3603 5042 4c5b 8cbf ca00 44c9 78f2 a33f
00000230: 0000 0000 a90d 9cbf fdbb 63b2 ed2b a4bf
00000240: 0000 0080 da66 aabf 0000 0080 6ed8 a53f
00000250: 46d5 6c35 8678 bf3f 6b11 56af b9f3 c3bf
00000260: 0000 0000 d40f 9c3f a794 d458 b05b b43f
00000270: a8a5 7d50 2d1b 7c3f 1a49 2bbb c913 b33f
00000280: 0000 00c0 001e b33f 04e6 28bc 50d9 abbf
00000290: 916a cecd 2471 b33f f8da 7c14 a5e9 c1bf
000002a0: 8da5 5ba1 ed4c bc3f 9745 819b 5ed8 91bf
000002b0: 0000 0000 9514 8a3f e03f ac47 269e a83f
000002c0: 2bbe a2fb cdd3 9cbf 0000 0080 c7f3 adbf
000002d0: 7725 66ee 0526 afbf ccaa b662 801a bdbf
000002e0: 4ce4 0356 36b3 abbf 9753 9a63 1558 c03f
000002f0: 0000 0000 1d46 a23f ebe4 0c1c e5a5 b03f
00000300: e2de 029f 4fc4 ae3f 68a5 f84f 9b95 943f
00000310: 5edd e7df 644b b53f 0000 0080 4d40 973f
00000320: 6daa c60c 8626 a1bf 4db8 0be1 f1bc bb3f
00000330: 17f5 c32a 5c80 9b3f d85a 602b 1d3b acbf
00000340: fc59 fc4c 20bc c03f 0000 0080 a2c7 ab3f
00000350: 6c85 2e00 3d05 a6bf 0fb1 e0e4 6273 b83f
00000360: 2dc9 f655 03e1 a23f 6ee1 0f8b 2543 b63f
00000370: 4d2f 1bc8 af61 91bf 3d2b 2bf3 ab13 b03f
00000380: 0000 0080 1029 933f a648 2688 0349 b4bf
00000390: 009e 0f31 945c b0bf 45cb 7ec8 483a ca3f
000003a0: 0000 0000 b025 483f 69c5 57b6 5b1d 963f
000003b0: 1749 cee3 6dac a43f a6c2 605a 78b1 b23f
000003c0: e303 ffa4 e03f a5bf 672d b6c0 c2ba a23f
000003d0: e7f9 d372 914b a13f 7b8a fe34 f084 b2bf
000003e0: 9f24 b4a0 98e3 aa3f 0000 00a0 8636 b2bf
000003f0: 45c9 350b 1f47 ba3f 3968 2968 4cff aabf
00000400: 340c 57b7 a3c0 76bf 0000 0000 ab29 933f
00000410: cbd9 2729 7c3f a3bf 65c5 e049 cc10 9ebf
00000420: 5ff5 266d c37b aabf 3917 da32 6ad4 9abf
00000430: c964 9d54 fcb2 7b3f aa6d e5e4 134f 583f
00000440: 0000 0000 6132 b73f 7d09 1320 0abd 88bf
00000450: 4e72 2052 48ff a4bf d7c8 0f28 72cc bb3f
00000460: eddf e324 fab2 8cbf 2be2 4f5e 3c6e bf3f
00000470: 7f1b 9ff3 73fd 8b3f b2d0 aa57 fb4e bb3f
00000480: 1797 108f 1400 b33f 0000 00a0 51f1 b4bf
00000490: 6860 f0d7 eb95 ae3f 614e bfce 62e0 a7bf
000004a0: 8169 6484 ea9d b8bf d664 41c6 2f21 ac3f
000004b0: 75ef ffc3 675f be3f f3ad b98d 2070 bb3f
000004c0: 0000 0000 552f 9f3f f080 51d5 3c7d b1bf
000004d0: efce c574 008b 97bf d0b1 3d05 b054 b8bf
000004e0: bea2 4e8e 2c77 62bf 7445 cb7d a0b7 b8bf
000004f0: 82ee f5f0 cf38 a8bf 0000 0000 2007 b03f
00000500: 6f2a 7eea 67fe b23f f98a 6f7c 549b ae3f
00000510: 0000 0080 9312 953f 0d5c b905 9ba1 b13f
00000520: f532 902e c6f7 463f 2601 9fbd 7d5c a8bf
00000530: 798b 6dc1 ca37 b0bf 9b79 e3b8 4fc3 b1bf
00000540: b6a7 67bb f329 6dbf 0000 0000 7de9 ad3f
00000550: 1df9 c9d7 03b2 b53f 1ba8 911e 956d b4bf
00000560: 6fd5 c454 6a16 b73f 0000 0060 8004 b6bf
00000570: 0000 0000 d3da a63f ebe0 2bfc 7a3f b53f
00000580: 40b0 d250 a537 a23f e4a1 6dbf 69aa b53f
00000590: 982f 3f9e 37c9 7fbf 0000 0000 6d32 b23f
000005a0: cae9 eb93 ca06 a4bf 0000 00c0 b87b b03f
000005b0: b817 d470 46a5 a03f 8c3b f47a 8a13 b03f
000005c0: 0000 00e0 49f8 b6bf b56c fd6f 0fcd 75bf
000005d0: cfaf 4ae8 15fc ae3f 07c6 e918 a5be ad3f
000005e0: c8b5 fb07 d697 aebf 2f24 0531 f265 a9bf
000005f0: 0000 00c0 476f b2bf 8790 dc5b 51af 9a3f
00000600: 0000 00e0 b5dd a6bf 0000 0080 7766 a13f
00000610: bc85 1c6b 6d52 b03f d675 6964 e222 abbf
00000620: 0000 00c0 cdcd aabf 05a4 11b7 6c49 8dbf
00000630: 7c3f 816f 2cf8 a43f 58d4 1e08 9cde b83f
00000640: 0000 0000 719f b6bf 8c43 a761 a547 b23f
00000650: d29d dd07 0428 b1bf 103b 3530 7229 bcbf
00000660: e849 fbbc 70cc bd3f 89aa 022c bd56 96bf
00000670: 0000 0000 7106 b03f 68f5 84dd fa81 aabf
00000680: b92e 9bcd 2441 bb3f 0000 0040 30b5 9fbf
00000690: ecd6 ccb1 47a5 adbf 2d57 5afd 6955 87bf
000006a0: b3c2 1226 7aee abbf 6539 0256 76b4 b63f
000006b0: 0000 0000 842b 9dbf b591 0e56 3bc3 af3f
000006c0: 8a33 12cb 31a9 b53f bced a90f 9e04 993f
000006d0: ebeb 1717 4766 ad3f 0000 0080 94bc aa3f
000006e0: 7cc7 e9e1 3924 b6bf e0c1 d286 fbfe bb3f
000006f0: d311 a0c9 1638 bc3f 1d71 6700 c7bd a0bf
00000700: 9235 eae4 a330 bc3f 0000 0000 031e 933f
00000710: bc35 418e 718a ae3f 25f4 a375 80f4 b63f
00000720: 5de8 4124 258c b53f ede2 4058 d58c a63f
00000730: f098 10b6 9104 b3bf 32a2 bdfb 0e8b bc3f
00000740: 0000 0080 2109 b53f fe71 dae3 d36e 303f
00000750: cb9a e8bb fcc6 7bbf d058 3503 0fb9 ab3f
00000760: 0000 00c0 db82 b0bf d426 d2be 0db9 b53f
00000770: 038f 241b 9249 823f 11f6 cbdd f734 71bf
00000780: 6c30 a4d7 da01 c13f ab6e 2f3a cede a7bf
00000790: 0975 2b95 1b30 a9bf de82 2748 19dc b83f
000007a0: 295e 0ff0 b485 bf3f 0000 0000 5752 8cbf
000007b0: 7db1 5aa7 c738 a13f 06b8 08a3 a945 853f
000007c0: a285 ec1d 927d abbf 0000 00c0 e498 a0bf
000007d0: 9f91 7767 ac2d af3f f0a8 9eca a993 bf3f
000007e0: 9fe8 74e7 b925 b1bf 7cde 4ec8 8a9e b33f
000007f0: eb70 4b2c aacc b2bf 5c9a 73fe 0803 d9bf
0.06004570395179053 0.0023004029807234543 0.08994865917293801 -0.02306023096124921 0.01699781421059489 0.05218969285488129 0.13151845640465967 -0.04298978758074216
0.009749281155576902 -0.00119742751121521 -0.04546133011229496 -0.04688939997071047 0.09489769993409812 -0.04477289926428581 0.09249207919056869 0.16085236698401156
-0.0850670114159584 -0.05529626324027525 0.02868586243342254 0.002689622192586825 0.076401791754037 0.11515949829808005 0.0811595804338491 0.019625407262671694
0.051901582227942424 0.054025501012802124 0.08411235285821253 -0.06085154560587891 0.030444897904212596 0.033632877888467944 0.1448777305958408 0.14625455557624076
0.058016374707221985 0.043510219897295296 0.08707631811911877 0.005330984243093414 0.03999668219329449 -0.07300808638257814 0.1262282462464607 0.013009794056415558
0.013882862368642451 -0.06411590871762783 -0.00303032249212265 0.06845257475344475 0.025705582942768077 -0.021404691344765452 0.007589618697436734 -0.05805513902861188
0.1354396070284844 0.07303212583065033 0.002972678586982981 -0.06446746263908515 0.0665236811052078 0.06737291812896729 -0.0581413097679615 0.026730376516922342
0.08426192435165887 0.10285555340351718 0.12346544145264815 0.05487892031669617 0.0005935271819594442 -0.02483973652124405 0.09623193977862837 0.11854785137405305
-0.028998885303735733 0.07708034268680233 0.015331475440366718 0.07633759243643792 -0.013846011899660487 0.03895928818565293 -0.027395859360694885 -0.03939764788253084
-0.05156596004962921 0.04266686737537384 0.12293280414890714 -0.15587540685022402 0.02740412950515747 0.0795240609046056 0.006861855515901828 0.0745206911044857
0.07467655837535858 -0.05439235970375125 0.07594518684929087 -0.13994277477623718 0.11054883183864757 -0.017426946870107676 0.012734569609165192 0.04808158516800609
-0.02815172050821794 -0.058500513434410095 -0.060836968757096814 -0.11368563089369416 -0.05410165595999014 0.12768809665126632 0.03569117188453674 0.0650313561899513
0.06009148422293521 0.020101954227503965 0.0831816717762783 0.022706232964992523 -0.033497036990714026 0.1083518194606949 0.026856842146107143 -0.05513850359436895
0.13074115523404817 0.05425746738910675 -0.04300871493547728 0.09551065528711809 0.03687296318402598 0.08696207661694697 -0.016974207485687832 0.06280016600355239
0.018711335957050323 -0.07923910211528326 -0.06391264150408205 0.2049036959629921 0.0007369145750999451 0.021596367840122897 0.0403780308326011 0.0730204792641965
-0.04150297178376385 0.03658112146794217 0.03377966429433226 -0.0723409776096932 0.05251767121996775 -0.07114449888467789 0.10264772437748089 -0.05272902270799346
-0.005554809109017223 0.018713638186454773 -0.037593727134595044 -0.029360954293399816 -0.051725489687195696 -0.02620092330337018 0.0067624909077832 0.0014836973455974825
0.09061247110366821 -0.01207931433089437 -0.041010150933492015 0.10858834722583609 -0.014013246775434108 0.12277581503429562 0.013667016861189428 0.10667391672433515
0.07421997540276624 -0.08180723339319229 0.05973755846952217 -0.04663380407114626 -0.0961596081946592 0.05494069380865489 0.11864326987409675 0.10717967472162808
0.030453994870185852 -0.06831722457855327 -0.02299118721698695 -0.09504222991899458 -0.0022540922386336806 -0.09655192443030619 -0.04730844322599827 0.06260871887207031
0.07419442629740457 0.059778824033648044 0.020578674972057343 0.06887215509173945 0.0007009236989020383 -0.047580651661976156 -0.06335131857262678 -0.06938646568185051
-0.003560043372307721 0.05842199921607971 0.08474754350934117 -0.0797970962172773 0.09018578118851449 -0.08600618690252304 0.044638246297836304 0.08299988419082964
0.03558079349144849 0.08463154719868943 -0.007760255106358381 0.07108193635940552 -0.03911431365664304 0.06438784301280975 0.032510949395188005 0.06279817106063329
-0.08972608298063278 -0.005322513868885871 0.06051701031296341 0.058095130244407094 -0.05975216720058146 -0.049605911716362854 -0.07201050221920013 0.026059409362588794
-0.04466026648879051 0.03398488461971283 0.06375774254822536 -0.05300052142841209 -0.05235140770673752 -0.01430020269090627 0.04095591412681096 0.09714675138714435
-0.08837038278579712 0.07140573152652346 -0.06701684181245263 -0.11000741650535084 0.11640076268967159 -0.02181525784605268 0.06259828805923462 -0.05177291826337688
0.10646276492769403 -0.030964616686105728 -0.05790161176120798 -0.011393383068291374 -0.054553811214082336 0.08869113540479175 -0.028486311435699463 0.06203637528895759
0.08461295326033116 0.024431676584283343 0.05742094189550769 0.05222000181674957 -0.086490266470518 0.10935947457870254 0.11023085043422691 -0.03269788627560131
0.11011719073049722 0.01866917312145233 0.05964999066837204 0.08966830131608157 0.08416969428245254 0.04404322340309883 -0.07428847022001484 0.11149686475767664
0.08217057585716248 0.0002507464704224748 -0.006781565897233842 0.0541462603966224 -0.06449674069881439 0.0848549452658987 0.008929387524922122 -0.004200905063723962
0.13286910561908216 -0.04662174663800774 -0.04919515796584945 0.09710844050961095 0.12313395367470349 -0.013828925788402557 0.03363632123850644 0.010386777198700525
-0.05369240393907694 -0.032416485249996185 0.06089533579850869 0.12334691235324491 -0.06698190594480245 0.07663791075071374 -0.0734354360715234 -0.3908102497938779

bias f8 [20]
00000000: d37a 4bda 252d b53f a5de 9f71 c990 9abf
00000010: 10ff 9393 cd97 b13f f5be b9c6 c01e b03f
00000020: efcc 9c7d cd2c b43f 3846 db81 15c1 b83f
00000030: 78d6 1f17 e68a af3f 096e 5653 d03f a5bf
00000040: f890 79e2 7f8c 94bf f3a0 ee9d 022f a7bf
00000050: 16a4 289d 86ed a43f 67ce 2e49 359e b43f
00000060: 4049 9140 6168 85bf a959 bfb1 b322 a2bf
00000070: 8f86 834b d1ca adbf 019c b033 9135 78bf
00000080: 2dc1 97c4 6592 b3bf 76b3 70b8 c08a 8ebf
00000090: 8147 6210 a6cc adbf 2374 fd3e dfbe a7bf
0.08272015170539797 -0.02594294315346581 0.06872258046132296 0.06296925403307425 0.07880863491736866 0.09669622822118462 0.06160658867149221 -0.041502485440300836
-0.020067213247231458 -0.045280534533334825 0.0408746783107931 0.08053906475725513 -0.010452995093292672 -0.03542100472229787 -0.05818800017165159 -0.005910460658049566
-0.07645259904507347 -0.014913087490720161 -0.058201970577228763 -0.04637811321183729

two_l_plus_1 f8 [20]
00000000: 83c8 c96d 305f b43f c4ac aea4 c88e ce3f
00000010: a43a 3c89 fc76 d93f 738f 1060 4ad3 e13f
00000020: 9301 837b 16eb e63f b473 f596 e202 ec3f
00000030: eaf2 3359 578d f03f fb2b ed66 3d19 f33f
00000040: 0b65 a674 23a5 f53f 1b9e 5f82 0931 f83f
00000050: 2cd7 1890 efbc fa3f 3c10 d29d d548 fd3f
00000060: 4c49 8bab bbd4 ff3f 2e41 a2dc 5030 0140
00000070: b7dd 7ee3 4376 0240 3f7a 5bea 36bc 0340
00000080: c716 38f1 2902 0540 4fb3 14f8 1c48 0640
00000090: d74f f1fe 0f8e 0740 5fec cd05 03d4 0840
0.07957747154594767 0.238732414637843 0.3978873577297384 0.5570423008216338 0.716197243913529 0.8753521870054244 1.0345071300973196 1.1936620731892151
1.3528170162811104 1.5119719593730057 1.6711269024649011 1.8302818455567964 1.9894367886486917 2.148591731740587 2.3077466748324826 2.466901617924378
2.626056561016273 2.7852115041081684 2.9443664472000637 3.103521390291959
