Sphere/NeuralNetworks/models/net_l2_var49.pt (torch_old, 67594 bytes, 7 tensors)

weight f8 [36, 6]
000000 6d 53 aa f9 12 1d d0 bf 5f 61 6e 94 02 03 f0 3f
       -0.25177454358463686 1.0007348821728426
000010 29 ac e1 27 64 12 cc bf 4d b4 9c 72 5b da a1 bf
       -0.21931125590649117 -0.034869058361757334
000020 da ea 02 2a e1 08 ce 3f e4 38 87 1e fa 12 96 bf
       0.2346459822782297 -0.021556766618055515
000030 87 17 59 27 b7 f3 f1 3f 74 e2 c8 ad 95 03 de 3f
       1.1220008408576818 0.4689687916866554
000040 54 23 b0 11 71 c1 df bf b6 07 e4 f8 eb ab 87 3f
       -0.49618174292895856 0.011558383496325191
000050 36 f7 23 45 4f 26 a5 bf cd 0c 7d 3c 20 2a cc bf
       -0.041307904424668626 -0.2200355811456575
000060 00 00 00 c0 66 6c d4 3f 00 00 00 80 45 e1 b3 bf
       0.3191162943840027 -0.07765612006187439
000070 00 00 00 80 5b b8 c1 bf 00 00 00 40 4a 0c d5 3f
       -0.1384386420249939 0.3288751244544983
000080 00 00 00 00 e5 bc d7 3f 00 00 00 00 35 b6 c9 3f
       0.37090420722961426 0.2008730173110962
000090 ff 49 4e 2a a0 89 ca bf f7 98 c3 48 d4 9f e3 bf
       -0.20732500138963414 -0.6132604046986491
0000a0 26 98 c7 85 41 70 c4 bf 42 7c fd f6 5b 1b d2 bf
       -0.15967577964983198 -0.28291987533697605
0000b0 82 9e 5e d8 57 6a 91 3f de 64 05 df 5e e4 74 3f
       0.01700722940554878 0.0051006036668123905
0000c0 3a 45 d3 ad ab af e2 3f 15 42 ae 26 05 ef 92 3f
       0.5839441676163581 0.01848991440380317
0000d0 19 bb 6e d2 ea 60 c2 bf a6 9e fe 99 b5 d5 d5 bf
       -0.14358268046404346 -0.34116878546272245
0000e0 ec 38 b6 6e e0 db b4 bf d7 8f 33 8f 75 2f be bf
       -0.08148005202221825 -0.11791167017105351
0000f0 00 00 00 80 f6 4e b5 3f 00 00 00 80 8e fb d5 3f
       0.08323612809181213 0.343478798866272
000100 00 00 00 40 b1 ca d6 3f 00 00 00 00 fa a2 c7 3f
       0.35612136125564575 0.1846611499786377
000110 00 00 00 00 59 c2 c8 3f 00 00 00 00 16 eb d0 3f
       0.19343101978302002 0.26434850692749023
000120 d3 60 34 0a 14 d0 b3 bf ed 7b c8 72 7b 3f 8f 3f
       -0.07739377259383966 0.015257801475909683
000130 e0 a5 3e 95 f9 df af 3f b9 82 0e 1d 59 34 bc bf
       0.06225566813311523 -0.11017376860992102
000140 b0 3b 8d 19 1f b8 d6 bf 25 fb 0b a0 2c 11 d7 3f
       -0.35498788352281974 0.36042323712892915
000150 8f df 4f 9e 22 d4 c0 bf 97 70 7e 5e 78 aa c8 bf
       -0.13147385339811676 -0.19270233739814976
000160 a1 d3 57 d0 a1 bf dd 3f 6e b7 ff 07 86 e8 d3 3f
       0.46482129426959246 0.3110671117891489
000170 78 53 a4 0a 17 3e be bf b2 45 51 fb dd 08 d5 bf
       -0.11813491830646494 -0.3286662058136144
000180 00 00 00 c0 d9 88 d4 3f 00 00 00 00 d6 be d0 3f
       0.32085269689559937 0.26164770126342773
000190 00 00 00 c0 0c 59 d7 3f 00 00 00 80 d3 e2 c0 3f
       0.36481016874313354 0.13192218542099
0001a0 00 00 00 00 55 41 d0 3f 00 00 00 00 d0 03 b8 3f
       0.25398755073547363 0.09380817413330078
0001b0 bb 76 04 7e c8 0e b5 3f 35 3f 26 ae c1 9d a0 3f
       0.08225682331655097 0.03245358706328575
0001c0 ec 3a 11 27 b2 88 c1 3f 1f 0b 5d 86 ef 4e ca 3f
       0.13698412807067173 0.20553392468181017
0001d0 bf b7 fa d0 99 74 b3 3f 95 92 e4 dc 27 c1 dc bf
       0.07599793769870099 -0.4492892892033436
0001e0 00 00 00 00 1c b7 a3 bf 00 00 00 80 5c 77 b6 3f
       -0.038506388664245605 0.08775880932807922
0001f0 00 00 00 00 0e f3 ab bf 00 00 00 00 c8 9d d5 3f
       -0.05458873510360718 0.3377552032470703
000200 00 00 00 00 62 bf cc 3f 00 00 00 00 de 17 c0 3f
       0.22459053993225098 0.12572836875915527
000210 00 00 00 80 b9 22 c0 3f 00 00 00 00 ca 2e ba 3f
       0.12605971097946167 0.10227644443511963
000220 00 00 00 80 1f 23 d7 3f 00 00 00 40 0f c6 c0 bf
       0.3615187406539917 -0.13104429841041565
000230 00 00 00 00 10 15 d4 3f 00 00 00 00 1a d8 a8 bf
       0.3137855529785156 -0.04852372407913208
000240 af 54 a4 ec f1 96 e2 3f 23 59 74 5c 82 45 a2 3f
       0.5809259054100461 0.03568656328768529
000250 3e 44 1a 30 dc b5 d0 bf f3 d5 32 4d da d1 aa bf
       -0.26109986016769315 -0.052382299350408966
000260 c0 c9 81 f6 8b d5 b7 3f 2c 58 82 71 30 dc b3 3f
       0.0931022145103162 0.07757857104510951
000270 00 00 00 00 cf 09 cd 3f 00 00 00 00 fe e2 cb 3f
       0.226861834526062 0.2178647518157959
000280 00 00 00 60 11 e1 d5 bf 00 00 00 00 18 00 ba bf
       -0.3418620526790619 -0.10156393051147461
000290 00 00 00 c0 93 de d8 3f 00 00 00 00 21 bb bc 3f
       0.38858503103256226 0.11223036050796509
0002a0 df e9 47 f6 c4 43 cd bf 04 99 f2 89 d6 bb a4 3f
       -0.22863065743861363 0.040495590533554476
0002b0 3b d7 a8 09 86 82 bf 3f 65 62 c4 8b 36 80 b4 bf
       0.12308538184956046 -0.08008137619288787
0002c0 4c d3 8c bd 5b 4d da 3f 4d ad 1c 75 89 9b d3 bf
       0.4109715796542346 -0.3063682216331543
0002d0 f5 3f 28 f2 bb fa a2 bf bd b4 1d fd 61 82 c8 3f
       -0.037069199857910386 0.19147896632367703
0002e0 09 8a 37 18 d7 d3 c3 bf 36 f6 b7 30 5c 4e e3 bf
       -0.15490235025852453 -0.6033154441390198
0002f0 78 ff aa 9d 28 0f d4 3f d7 f1 93 8c e4 8b cd 3f
       0.3134252109266451 0.23083168853908262
000300 49 fa bc f6 36 0f 81 3f c2 cf 45 ab 9e 72 bf 3f
       0.008329800991870988 0.12284270936453281
000310 ca ff 0c ff 55 06 b0 bf bf 14 fe 9a 69 37 cd bf
       -0.06259667851281772 -0.2282535559462868
000320 86 e8 bd 8b cf 33 c8 bf 2a e6 48 6e 00 c5 d8 3f
       -0.18908113787967212 0.3870240284919385
000330 0a 57 d7 6f f8 b6 bf bf 7b 85 83 13 ec 87 a5 3f
       -0.12388565760133133 0.04205262888150237
000340 f8 8f 3c 2c aa 47 b6 3f 13 ac 92 79 76 2e a8 3f
       0.0870310171126788 0.04722948297543197
000350 e7 19 27 61 a6 fc bb 3f 6e f3 aa c6 d0 63 9a 3f
       0.10932388183491747 0.02577139103481179
000360 00 00 00 80 2a fa cc 3f 00 00 00 80 d9 06 c5 bf
       0.2263844609260559 -0.1642715334892273
000370 00 00 00 00 63 2b b9 bf 00 00 00 00 43 eb ba 3f
       -0.09831827878952026 0.10515230894088745
000380 00 00 00 c0 12 75 d1 3f 00 00 00 c0 a3 f6 d1 3f
       0.27277058362960815 0.2806786894798279
000390 00 00 00 80 ca 5b be bf 00 00 00 00 64 2d 8b 3f
       -0.11858811974525452 0.013270169496536255
0003a0 00 00 00 80 88 3b d1 3f 00 00 00 00 6b 98 a7 bf
       0.26925861835479736 -0.04608473181724548
0003b0 00 00 00 00 15 ed a7 3f 00 00 00 40 07 57 d0 3f
       0.04673066735267639 0.2553117871284485
0003c0 bf e4 55 43 1d ac 89 3f f0 30 39 62 34 06 d2 bf
       0.012535313241402666 -0.28162870018128583
0003d0 99 d9 78 32 88 31 cd bf ce dc ad a8 94 3d c8 3f
       -0.22807409729439312 0.18937929378782886
0003e0 90 31 21 26 cb 3a d0 3f e6 26 23 5c 71 2f cb 3f
       0.2535884735450731 0.2123853397263737
0003f0 7a 83 b1 2d fe 80 d6 bf 95 1f ec d3 b8 eb dd 3f
       -0.3516231008743983 0.46751232810537974
000400 dd 5f 6f ce 66 4a e5 bf c4 02 e1 00 a2 3c d2 3f
       -0.6653322250303934 0.284950734003399
000410 21 73 f8 fd 7f 97 a2 3f 3f dc 36 01 6d de bf bf
       0.03631210303522026 -0.12448769836088135
000420 b9 2d 79 0e 67 ce d5 bf bb 54 00 dc 7f 3e dd 3f
       -0.3407228127805087 0.4569396637392164
000430 13 d2 b9 5e 19 06 d4 bf 7a e6 bf 94 d5 3a cd bf
       -0.31287225962231097 -0.22835798037685945
000440 03 f7 d3 7c 9b 07 d1 3f e3 27 4f 8d e8 d8 bd bf
       0.26608931722863377 -0.11659100961620043
000450 00 00 00 80 6e 4c c2 3f 00 00 00 80 47 90 c0 bf
       0.14295750856399536 -0.12940305471420288
000460 00 00 00 00 b4 c2 d4 3f 00 00 00 00 21 d0 c0 3f
       0.3243837356567383 0.13135159015655518
000470 00 00 00 00 0c e5 ca 3f 00 00 00 40 1f 32 d9 3f
       0.2101149559020996 0.3936842083930969
000480 d3 c7 53 38 3f 96 97 3f 31 74 9f 3c 97 0d 7c 3f
       0.023034084141677468 0.006848898667127166
000490 c2 17 39 0f 51 c5 a7 bf 83 29 79 e9 b0 57 c2 bf
       -0.04642728148296228 -0.14330111885130856
0004a0 f3 0f 77 45 a8 b9 c9 bf d3 8a 75 30 4e 28 b0 bf
       -0.20097831146097142 -0.06311501200756746
0004b0 00 00 00 80 ff 81 ca 3f 00 00 00 40 23 68 d9 3f
       0.20709222555160522 0.39698106050491333
0004c0 00 00 00 00 90 d2 d1 3f 00 00 00 00 dc 66 d5 3f
       0.2784767150878906 0.33440303802490234
0004d0 00 00 00 80 c3 4a bf bf 00 00 00 00 b9 e6 bf 3f
       -0.12223455309867859 0.12461429834365845
0004e0 21 be 8a ee 70 66 d9 bf 26 0b 79 0c cb bb ac bf
       -0.3968775109778751 -0.05612024810081655
0004f0 04 a9 15 e3 f4 c3 c9 3f b6 f4 03 60 ad 00 bd 3f
       0.20129262054553732 0.1132915839588858
000500 a6 3f 81 9a 35 3c cd bf c3 81 fc 99 e0 a6 c1 3f
       -0.22839994472678632 0.13790519255509368
000510 c0 ae f5 59 b1 c6 c9 3f 90 7e 4f 6f 77 bb ce bf
       0.20137612240374914 -0.24009602484783388
000520 cd 64 13 a1 ca 8c da 3f e4 ce b5 65 75 22 d6 3f
       0.4148432324414671 0.3458531850112492
000530 0b 3f 70 37 95 e9 b0 3f 3d e7 db d0 f6 1e ab 3f
       0.06606419185140681 0.052970612521632245
000540 af 7d 23 85 92 d9 a2 bf 63 2f e9 c5 2d 39 ce 3f
       -0.03681619525172707 0.23611995853058962
000550 3f 14 61 0e 81 1a 98 bf a5 3c 1b be 8e f5 e0 bf
       -0.023538605215680738 -0.5299752915397177
000560 bc 52 f7 8f 11 25 d3 bf d3 cd 9b 7b 48 52 c3 3f
       -0.2991374879759794 0.15094858203484182
000570 b3 49 f6 1a 3e 46 ec 3f f5 9e 05 cd 1b 05 e8 bf
       0.8835745359995627 -0.7506236080489247
000580 bb a4 c4 c0 97 eb cf 3f 1d ff 84 96 aa f3 b2 3f
       0.24937722122675673 0.07403055357735551
000590 43 a7 72 a3 bd aa cc bf 75 cc 6e 04 9c 3e b8 3f
       -0.2239605949483182 0.09470534427855333
0005a0 43 79 e0 c1 6e 6d d0 bf 2e 5a 72 83 df fc e3 bf
       -0.25667923863683856 -0.6246182982748161
0005b0 5a 8e 25 b1 76 b3 c7 bf 4f 41 6c 59 64 3e 84 bf
       -0.18516429567090392 -0.00988462827584216
0005c0 66 71 f1 c2 55 66 d1 3f 30 6f d0 9c a1 62 99 bf
       0.2718710330716675 -0.02479031104677104
0005d0 00 00 00 00 77 9e d6 3f 00 00 00 00 7f ec c4 3f
       0.3534219264984131 0.16346728801727295
0005e0 00 00 00 80 18 6f bb bf 00 00 00 c0 d3 67 d2 bf
       -0.1071639358997345 -0.28758710622787476
0005f0 00 00 00 00 20 45 d2 3f 00 00 00 40 1b 08 d8 3f
       0.28546905517578125 0.3754947781562805
000600 ae 02 4d c1 b8 0d e7 bf c8 0b b5 c5 53 e8 f4 3f
       -0.7204250121504481 1.3067205164850169
000610 41 36 30 17 e5 c5 c3 3f 5a 41 e5 86 77 ef c9 bf
       0.15447677261583873 -0.20262044989295697
000620 a1 c0 ad 88 3d a9 c3 bf 33 16 33 b7 2d 90 c7 3f
       -0.15360230611577655 0.18408748097697156
000630 84 20 09 40 17 d4 cb bf 60 50 cc 4a fc 6d d5 3f
       -0.217409998195084 0.334837983174344
000640 2c 16 89 95 53 cd d1 bf e2 cd 48 fc 82 8a e5 3f
       -0.2781571350390972 0.6731581618718645
000650 41 b1 33 88 b0 2c c8 bf 64 91 59 b5 2b 4c c1 bf
       -0.18886381769642394 -0.1351370463845668
000660 0c e4 4e 8e 02 a7 8d 3f fb a4 20 6d fd e7 d5 bf
       0.014478702514553653 -0.34228454262718316
000670 49 2b 46 6e 2c b3 ed 3f 98 1f cd 94 dc 58 e4 bf
       0.9281217721739746 -0.635847368838756
000680 25 73 be df a5 ff c2 3f 46 95 71 19 38 06 8b 3f
       0.1484267561435441 0.013195455814818968
000690 f2 89 c0 b5 7b f7 bb 3f 35 b8 04 a5 ee 04 dd bf
       0.10924504458720444 -0.45342603793222064
0006a0 d7 b2 26 2a 72 2a e1 bf 0d 67 7a e9 47 4a b3 3f
       -0.5364313910737007 0.07535218668126849
0006b0 5b e7 68 7b f9 40 c4 bf 48 81 af ff 3a 1f c1 3f
       -0.15823286558025526 0.13376557812353895

bias f8 [36]
000000 c9 7e c8 4e 8e 9c ed 3f 6e 8c 2f 4b 2a 48 c5 3f
       0.9253608263715815 0.166264807426248
000010 00 00 00 e0 2e 1f da bf d9 e3 9d b9 75 a3 f3 bf
       -0.4081532657146454 -1.227407193246327
000020 a3 2e c3 49 36 c2 ee bf 00 00 00 00 33 90 d9 3f
       -0.9612075272247761 0.3994262218475342
000030 f3 61 98 ee 68 83 e4 bf 02 85 e5 16 b9 7c f1 bf
       -0.6410412464202281 -1.092949952544871
000040 00 00 00 80 64 cf d8 bf 86 24 3c 07 39 ee e4 3f
       -0.3876582384109497 0.6540799275691291
000050 00 00 00 80 c9 06 d1 3f 00 00 00 00 1a 0c 98 3f
       0.26603925228118896 0.02348366379737854
000060 a8 84 fe 6c 76 d0 f8 3f 00 00 00 40 b6 e1 c9 bf
       1.5508941896044153 -0.20220068097114563
000070 5b 70 16 f3 4c 63 e5 bf c7 19 70 55 5f c7 e4 3f
       -0.6683716533475591 0.6493374508580069
000080 64 53 1d 05 b9 26 f3 3f fd 0e e6 9f a0 d2 c2 bf
       1.1969537925517324 -0.14705283935119687
000090 00 00 00 00 36 43 ca 3f 00 00 00 00 d8 a8 ab 3f
       0.20517611503601074 0.05402255058288574
0000a0 ae 10 0e 43 75 54 f4 3f 74 6f 52 ce 03 ba dc bf
       1.2706196421941445 -0.4488534464705858
0000b0 06 0f b2 c1 98 a4 d6 bf 00 00 00 00 f7 68 bb bf
       -0.35379618564205406 -0.10707038640975952
0000c0 ba d2 48 89 14 b7 e7 bf 00 00 00 80 a6 22 c7 3f
       -0.7410986596429077 0.1807449460029602
0000d0 3d 4b 3e 49 63 a9 db bf 0a 96 b9 d8 31 ae c3 3f
       -0.4322136130587529 0.15375350076935518
0000e0 be 58 a8 14 99 15 9d 3f c7 c7 83 23 ae 61 e5 3f
       0.0284027022226716 0.668173856129436
0000f0 9b ba 38 99 16 c8 e6 3f 00 00 00 40 82 f6 c0 bf
       0.7119248383149456 -0.132522851228714
000100 fe 6d dd d9 a2 43 ca bf 74 45 c0 c3 9c 08 e7 bf
       -0.20518909109055977 -0.7198013137114416
000110 ba f3 b7 e6 05 9e b6 bf 43 a1 09 ba 70 1a f4 bf
       -0.08834874041345034 -1.256455160817567

weight f8 [72, 36]
000000 5f 8a 60 b9 56 bb b0 bf 14 f9 85 71 17 fa de 3f
       -0.06535856271561034 0.48401437841666106
000010 00 00 00 c0 77 2d b4 3f c7 53 32 2e df 9b d5 3f
       0.07881878316402435 0.33763865958581757
000020 9d 1c 7f 3f 5d 2c cb 3f 00 00 00 00 ab 36 9a bf
       0.2122913894693043 -0.025599166750907898
000030 e1 fd cc 95 8f 3a d3 3f 49 04 24 b5 6b 66 c6 3f
       0.30044927243213065 0.175000632712939
000040 00 00 00 80 70 d5 a7 3f ea c7 74 bd 07 3c d5 bf
       0.046550288796424866 -0.3317889547498668
000050 00 00 00 00 9c f9 c1 bf 00 00 00 c0 c8 05 b7 bf
       -0.14042997360229492 -0.08993200957775116
000060 da 40 d6 7a 9c e1 e7 bf 00 00 00 c0 e7 ee b9 bf
       -0.746290435710786 -0.1013016551733017
000070 bc 97 4c ea c2 ce d0 3f 32 6e 52 bc fc e2 d5 3f
       0.2626197135999708 0.34197920218295785
000080 47 ca 0c d5 18 0e dc bf 5c f2 a0 e9 75 35 c6 bf
       -0.4383604126516371 -0.17350648791934276
000090 00 00 00 00 11 1c b5 3f 00 00 00 00 5b 09 be bf
       0.08245950937271118 -0.11733025312423706
0000a0 8b 17 f8 6c d7 01 a8 3f 6c a6 b2 a8 34 34 b3 3f
       0.046889049579518526 0.07501534575080776
0000b0 a8 03 52 5b df 40 b5 bf 00 00 00 40 47 c7 b5 3f
       -0.08302112559796504 0.08507199585437775
0000c0 67 f2 c1 68 d6 63 b5 3f 00 00 00 e0 0b 71 c4 bf
       0.08355464990195004 -0.15969990193843842
0000d0 18 86 f7 fd ab b3 a2 3f 00 00 00 c0 08 09 be 3f
       0.03652703738385926 0.11732535064220428
0000e0 49 8e 9b 44 7e 40 b1 bf c1 e3 e4 19 37 bc a0 3f
       -0.06739033865920264 0.03268596831407634
0000f0 43 b6 5b 40 12 62 ee bf 00 00 00 00 8a c5 89 bf
       -0.9494715935704295 -0.012583807110786438
000100 c3 00 ed 4c 14 c0 e4 3f 63 32 b6 21 ee 3e b0 bf
       0.648447180028619 -0.06346023867644983
000110 d3 1c d5 15 88 27 c6 bf 81 7b c7 5d a7 05 a4 3f
       -0.1730814081767905 0.039105634877834035
000120 f8 2a f2 4b ce 82 cb bf 39 b1 3c 72 e7 4e b1 bf
       -0.21492937763499476 -0.0676102308177108
000130 00 00 00 c0 4e 76 b5 3f 61 19 3f 1a 95 20 c7 3f
       0.08383648097515106 0.1806818369061132
000140 53 ad 97 3f 83 e5 bf 3f 00 00 00 40 01 bb bf 3f
       0.1245958357100581 0.12394721806049347
000150 ef db 61 c3 25 5c c0 bf 35 12 6c ce 1d 96 d2 bf
       -0.1278121189131691 -0.29041237982190476
000160 00 00 00 60 66 89 b7 bf d5 a4 3f f5 05 5d b2 bf
       -0.09194030612707138 -0.07173192250742784
000170 00 00 00 40 c5 54 c3 bf 00 00 00 00 33 dc b2 bf
       -0.1510244905948639 -0.07367247343063354
000180 6c 31 c1 aa ba 16 c9 bf 00 00 00 80 dc 54 c3 bf
       -0.1960061391604414 -0.15102726221084595
000190 6e 97 1e 1f 5a eb ad bf 60 ab 4b 74 81 da d1 bf
       -0.05843621854664503 -0.27896152836790655
0001a0 c4 4c 3f 33 6a fd af 3f 66 da c5 ce d2 0e b7 3f
       0.062480276828546205 0.09006993816533679
0001b0 00 00 00 c0 c8 0d b7 3f 00 00 00 80 68 f4 c4 bf
       0.09005407989025116 -0.16370874643325806
0001c0 a2 a7 d6 ac 5f 03 9d bf cc 90 90 a8 ee b8 c8 bf
       -0.028333182262634822 -0.19314368467997267
0001d0 99 da 6f f5 83 9f d3 bf 00 00 00 00 b7 c6 9d 3f
       -0.3066110512585652 0.029078349471092224
0001e0 a4 18 93 52 ec 2b c9 3f 00 00 00 00 a6 85 8b 3f
       0.19665292770350107 0.013438507914543152
0001f0 5f fe 86 13 34 b5 b9 bf a1 64 7a 41 63 c8 9f 3f
       -0.10042119480839905 0.031037855979410115
000200 8b ed aa 61 d0 79 c7 3f 57 18 48 a4 64 ac 85 3f
       0.18340496796541247 0.010582720054127899
000210 16 3f e2 60 e7 77 c2 3f 00 00 00 00 af 01 b6 bf
       0.14428417425778467 -0.0859631896018982
000220 d6 b9 74 dc 97 76 b5 3f 1d 98 e5 65 69 af da bf
       0.0838408387396393 -0.4169562811933945
000230 1f cc 7a e4 fe 85 c4 bf 36 8c 55 c3 04 3e c8 bf
       -0.16033922344431148 -0.18939265764046959
000240 28 92 65 20 b0 6e de bf c0 b4 45 7b 59 82 bb bf
       -0.4755058590292571 -0.10745772609307647
000250 00 00 00 c0 05 91 bc 3f c1 5c b6 e1 09 68 d7 3f
       0.11158786714076996 0.36572501222822146
000260 75 a3 00 e2 b1 4f c6 bf 00 00 00 c0 97 15 bc 3f
       -0.17430709395673785 0.10970447957515717
000270 4c 14 86 87 fd 3d ca 3f fe c4 64 36 56 2f d9 3f
       0.20501679532404393 0.39351420699956907
000280 00 00 00 00 71 00 93 3f 6f 44 e0 1a f7 89 b2 3f
       0.018556371331214905 0.0724176827063887
000290 00 00 00 00 16 76 83 bf 00 00 00 e0 72 c5 c0 bf
       -0.009502574801445007 -0.13102565705776215
0002a0 e6 89 73 6f 28 d9 d9 3f 00 00 00 20 51 0e c1 3f
       0.40387926944654706 0.1332494169473648
0002b0 25 a9 07 87 8a 78 bc 3f 89 b6 b9 00 93 54 e3 bf
       0.11121431156758328 -0.604074002663496
0002c0 3e a2 26 49 cd d5 e0 bf 15 84 13 3b c7 4b af 3f
       -0.5260988644341251 0.061125017129377714
0002d0 00 00 00 40 b0 09 bf 3f 00 00 00 00 b3 f2 c4 bf
       0.12124158442020416 -0.1636565923690796
0002e0 d1 4a c1 bd ef a3 e0 bf 6e 41 a0 b3 aa a6 7b bf
       -0.52001177846463 -0.006750742724776477
0002f0 81 26 f4 bb df 48 be bf 00 00 00 40 e5 5a c4 bf
       -0.11829946840966878 -0.15902391076087952
000300 82 e1 18 e9 9d fc b4 3f 00 00 00 60 eb 38 c4 3f
       0.08197962704514875 0.15798704326152802
000310 42 a4 a7 b3 50 13 a3 3f 00 00 00 80 85 20 aa 3f
       0.03725673859646196 0.05102936923503876
000320 cf b2 b5 01 e1 aa d3 3f bc 63 2e 3e 6b 27 ce 3f
       0.3073046223351356 0.23557796989623891
000330 a5 87 77 c2 a6 29 e0 bf 00 00 00 a0 d4 9a c4 3f
       -0.5050844000036149 0.16097505390644073
000340 51 8e b7 d7 16 0c c0 bf 96 e2 85 93 09 7b b0 bf
       -0.12536893399293317 -0.06437740184436289
000350 7d 69 ea 23 69 aa bb bf d3 e5 1e ce e7 58 97 bf
       -0.10806901099059547 -0.022800085025414262
000360 73 8b 4c a0 19 d4 b5 bf 65 f0 26 8f 66 85 a9 3f
       -0.08526764071988939 0.04984589097463824
000370 00 00 00 80 68 a9 ac 3f e3 3e 08 a1 d4 e3 a0 3f
       0.055979982018470764 0.032988209397556444
000380 ba d7 76 e5 df 8e 86 3f 00 00 00 40 a2 af c0 bf
       0.011014699163620512 -0.13035991787910461
000390 01 ab 30 4d e5 71 aa bf 00 00 00 60 a3 c4 b6 bf
       -0.05165020529996945 -0.08893796056509018
0003a0 00 00 00 20 e9 5f c2 3f 2a e7 e6 9e c6 19 c6 bf
       0.14355196058750153 -0.17266161688694953
0003b0 00 00 00 80 45 f6 a8 3f 00 00 00 00 14 d8 a4 3f
       0.048753902316093445 0.040711045265197754
0003c0 ad 43 55 cd db e0 cb bf 00 00 00 60 7c ae b6 bf
       -0.21779963995007048 -0.08859994262456894
0003d0 30 7b ba 06 4e 2a a0 bf ed 98 14 65 63 ff b2 3f
       -0.0315727599347525 0.07420941560539847
0003e0 a1 c2 a4 c8 5d 6c c4 bf 22 2d 22 44 bd a7 b8 3f
       -0.15955707833338287 0.09630949891486698
0003f0 00 00 00 80 b6 f9 a3 bf 00 00 00 c0 c5 6c bd 3f
       -0.039014533162117004 0.11494098603725433
000400 61 88 e5 ed 55 69 93 3f 9f e2 3b c8 ce 3e cc bf
       0.01895651115899744 -0.22066674019858554
000410 87 2a 84 2a 06 8a b1 bf 00 00 00 40 fa 42 c2 bf
       -0.06851233041758507 -0.14266899228096008
000420 cf f6 4a e4 c6 c8 b0 bf 00 00 00 00 a9 5d b8 bf
       -0.06556361268573173 -0.09517914056777954
000430 5a 27 b5 d1 7c 55 c9 bf 00 00 00 e0 a2 2d c0 bf
       -0.19792137374525504 -0.12639270722866058
000440 60 7f 54 cd 68 f3 2f 3f 4f 66 76 ae 83 01 c1 bf
       0.0002437653953757347 -0.13285871523548784
000450 32 1c e2 bc 98 46 9c bf 00 00 00 00 1c ae b2 3f
       -0.02761305477954696 0.07296919822692871
000460 a0 2d ed b8 86 58 a3 3f c3 b6 06 62 c1 21 b2 bf
       0.037784776758225336 -0.0708275665590135
000470 de 9d 95 a8 32 24 bf bf d2 95 31 bc 15 96 b2 3f
       -0.12164608589011247 0.0726026138741738
000480 66 77 25 01 fd 62 84 bf 15 7d 5f 42 d1 1a d6 3f
       -0.009954430196269914 0.34538680536020766
000490 00 00 00 c0 09 0d bc 3f 97 bc bf de f4 61 52 bf
       0.10957394540309906 -0.001121987467737095
0004a0 f3 cd 38 94 a9 a5 cf 3f 00 00 00 a0 f2 18 c3 3f
       0.24724311578175637 0.14919884502887726
0004b0 d7 fc ce a9 86 0c d5 bf a0 e4 d3 42 98 96 aa bf
       -0.3288895281111314 -0.05193019691245948
0004c0 00 00 00 00 5e 92 81 bf 49 8f 5b cb 6e 22 bf bf
       -0.008579954504966736 -0.12161915268694402
0004d0 00 00 00 e0 a9 1d c3 3f 00 00 00 00 b1 e6 bf bf
       0.14934276044368744 -0.12461382150650024
0004e0 08 fd 1a 16 c3 a0 d7 bf 00 00 00 00 7a 5b 88 3f
       -0.3691871372102047 0.011893227696418762
0004f0 45 d0 9c 96 a5 15 dc bf 52 1b 92 56 b4 6b 81 bf
       -0.43882121761567233 -0.008506211177758214
000500 27 aa e5 28 89 40 b6 bf cf d8 0e 8c 64 dd 96 3f
       -0.08692223785843876 0.022328921364270834
000510 00 00 00 00 d6 85 c4 bf 00 00 00 80 71 3f c0 bf
       -0.16033434867858887 -0.126936137676239
000520 7c b3 fd 7d 35 e2 d1 bf 30 bb 55 bb b8 56 c3 bf
       -0.2794316988354735 -0.15108403346263222
000530 9a f5 a9 58 10 6f d1 bf 00 00 00 60 de ba b1 bf
       -0.2724037996157108 -0.06925763934850693
000540 43 c1 38 ff 85 cc c2 3f 00 00 00 a0 4e 82 c0 3f
       0.14686655961987513 0.12897665798664093
000550 96 d7 bc 39 70 6c cf bf c5 16 43 19 b1 f4 87 bf
       -0.2454967767641249 -0.011697181304394797
000560 85 4e c7 67 28 61 89 bf 1e d3 c1 17 b6 3e d2 bf
       -0.012392345110959777 -0.28507759399444577
000570 82 fe e5 bd 09 e6 d1 bf 00 00 00 00 f8 c2 89 3f
       -0.27966540856139244 0.012578904628753662
000580 73 c9 dd a9 92 c4 b6 bf 23 b0 b6 64 be ad de bf
       -0.08893696448448 -0.47935447535815195
000590 53 98 d6 f8 37 0a ba bf dc a1 2b 8d d2 2f d5 bf
       -0.1017184240832603 -0.3310438517205776
0005a0 03 6b 24 7f 02 88 d3 3f bb 6b d6 47 4c eb c7 3f
       0.30517637649761314 0.18686822421736146
0005b0 00 00 00 00 3b 99 90 3f db e8 f3 cf 42 0d ed bf
       0.016209527850151062 -0.9078687726571631
0005c0 f1 af dc 59 c0 88 bd 3f 00 00 00 c0 04 ef bb 3f
       0.11536791032693806 0.10911588370800018
0005d0 04 ac 93 16 11 33 e6 bf 84 52 cf 9f b1 b8 c8 bf
       -0.6937337342218375 -0.19313640883651229
0005e0 00 00 00 60 80 55 bf bf 4f 27 ea 44 95 9c 95 bf
       -0.12239839881658554 -0.02110512955781668
0005f0 00 00 00 60 ae 87 c1 3f 00 00 00 60 be 7e bd bf
       0.13695316016674042 -0.11521520465612411
000600 95 94 53 c3 6e 79 d0 3f 00 00 00 20 d5 79 c2 3f
       0.25741166186191694 0.1443430334329605
000610 f3 07 81 e8 14 c6 b2 bf 74 04 97 f7 9b c4 dc 3f
       -0.0733349864613329 0.44950007609083475
000620 7b d8 7b 37 3d 27 cd bf 31 f6 ee 02 25 c9 c2 3f
       -0.22775998315018228 0.14676344531282973
000630 00 00 00 e0 3a 2e c2 3f 00 00 00 00 a8 a8 a3 bf
       0.1420358270406723 -0.03839612007141113
000640 d9 67 8b 1d 69 ff e7 3f d3 c1 9c 3e 95 ae d4 bf
       0.7499280526201303 -0.32315569986806486
000650 5a 3a 98 01 94 77 c8 bf 00 00 00 40 ff 14 b6 3f
       -0.1911492355142908 0.08625788986682892
000660 21 bd ba f8 e4 e2 bc 3f 00 00 00 00 22 33 b5 bf
       0.11283713409897135 -0.08281147480010986
000670 9c cc 24 7a 0b 8c cb bf 25 fd 1a a4 84 9f c0 3f
       -0.21521132911729957 0.12986810696563925
000680 0a c6 01 4a c9 96 a0 bf 36 3c 6e ac 26 0f e0 3f
       -0.03240040806202778 0.501849495676544
000690 7a c0 15 17 25 e6 bf 3f 00 00 00 00 b8 a2 8d 3f
       0.1246054822311197 0.014470517635345459
0006a0 dc 7f e7 55 54 0e e1 bf be fb b8 a4 20 11 9d 3f
       -0.5329991987055069 0.028385648778790566
0006b0 ba 14 46 9c 43 7c aa 3f 33 62 26 3f 16 30 de bf
       0.05172930987013431 -0.4716849915217011
0006c0 c2 ba cd 77 1e 63 a3 bf 16 8c 46 a6 31 2b cd 3f
       -0.037865593075243634 0.2278806745426613
0006d0 00 00 00 c0 38 eb b8 bf 13 00 b3 29 42 e6 c3 bf
       -0.0973391979932785 -0.15546443019957276
0006e0 6e 09 7a 58 69 2d bd 3f 00 00 00 c0 88 a4 b7 bf
       0.11397417459560241 -0.09235434234142303
0006f0 06 14 0e 66 5a 61 d6 bf 48 89 d1 48 d5 f0 de bf
       -0.349691962874488 -0.48344928847486246
000700 00 00 00 40 2b 08 c3 bf 8b 5c 50 03 3a 90 97 3f
       -0.14868679642677307 0.023011118366494315
000710 00 00 00 00 7b de 9f 3f 00 00 00 60 08 d7 b3 bf
       0.031122133135795593 -0.0774998888373375
000720 99 6c d7 b4 e7 8b bb 3f 00 00 00 00 d6 0e 87 bf
       0.10760353245807365 -0.011258766055107117
000730 98 42 2b ab e7 34 cc bf 12 53 ce f0 6c 82 a8 bf
       -0.22036453111515608 -0.047870067973383126
000740 ac 8a 5e b8 ab b9 b0 3f 96 b7 a5 29 6f 77 c5 bf
       0.06533311129764269 -0.16770734342156562
000750 00 00 00 40 1c 2d bf 3f 00 00 00 00 29 4b 9e bf
       0.1217820793390274 -0.029583588242530823
000760 0e 3c ae a4 e9 a1 c7 3f 5c 6b 0e fa e4 80 be bf
       0.18462868252797232 -0.11915427307978405
000770 1e ca 11 dc f6 0c b2 bf 00 00 00 00 34 15 a3 bf
       -0.07051031945028582 -0.03727114200592041
000780 11 41 e1 94 ce a5 c8 3f 00 00 00 00 90 77 a4 3f
       0.19256002683187792 0.03997468948364258
000790 89 87 d2 f3 ff 03 a5 3f 23 64 34 72 a1 f8 b7 3f
       0.04104614116046352 0.0936375526256517
0007a0 c7 67 7c 23 f2 82 cd 3f c6 44 ec f6 33 f3 bd 3f
       0.2305586503287584 0.11699223307029447
0007b0 de 42 03 ff 21 60 be 3f 00 00 00 a0 75 f9 c4 3f
       0.11865437007805776 0.1638628989458084
0007c0 72 72 07 2d a5 ba bc 3f 94 5a d7 0b 79 cf d0 bf
       0.11222298001616496 -0.26266313701982225
0007d0 be 7e dc 94 29 66 a5 3f ff 73 7e 71 3d 65 c1 bf
       0.04179506246714258 -0.13590210000702993
0007e0 00 00 00 e0 1e f3 c1 3f eb ac dc 9e c4 aa aa 3f
       0.14023195207118988 0.05208410681947292
0007f0 00 00 00 00 da 9d 81 3f a0 f3 b2 ee b5 e1 9a 3f
       0.008601859211921692 0.026251642889053906

bias f8 [72]
000000 0d 9f 5f 02 49 a9 f2 bf b0 12 9a 57 6c dd d4 3f
       -1.1663293926921512 0.32601460032337126
000010 2d ca f9 ad b2 38 e3 bf 0e 78 f4 bf 48 54 95 bf
       -0.6006711385692306 -0.0208293311271675
000020 35 25 ad eb f6 b6 9f 3f ff 5f e6 1a bd 9f e4 3f
       0.030971391806166444 0.6444993520153729
000030 aa ac 07 74 d3 66 d4 3f 4f 7d ef e5 a9 59 95 3f
       0.31877600031902864 0.02084985223689034
000040 51 71 cf df c8 7b d0 3f 4d c2 67 b4 59 ef c3 bf
       0.2575552163741764 -0.15574189480641323
000050 0e 3e 6c 9a bf f0 c4 bf f8 a6 ea 48 c2 fd 65 bf
       -0.16359705963303423 -0.002684478247222507
000060 ac 5f 62 62 00 ce c5 3f 1a 7f 1d 2c e1 50 d0 3f
       0.1703491669074969 0.25493649776579874
000070 28 68 d3 bd d9 32 b3 3f 79 46 0f 95 e6 14 e8 3f
       0.07499466785830633 0.7525513564416563
000080 a3 09 0c 74 29 51 76 bf 67 6b 8f 1c ff 44 c6 3f
       -0.0054484957952375705 0.17398060698073012
000090 3c b4 33 36 b4 3b a5 bf 8a 34 57 fe 78 c7 c2 bf
       -0.04147113000531319 -0.14671242159821346
0000a0 63 04 67 3f dc 5d bf bf c1 8d 84 94 ef 5e c0 bf
       -0.12252594516668718 -0.12789721252293698
0000b0 b4 68 7e 45 87 e1 e4 3f 57 55 75 2e c8 1f d3 3f
       0.6525303227711192 0.298814816827265
0000c0 1d a8 b4 2a 50 20 e5 3f 02 1c df ec 1a 72 b2 3f
       0.660194476518203 0.07205360682483788
0000d0 be 34 02 3b 13 c6 b1 3f 42 da e2 dd 16 b8 f1 bf
       0.06942863646164008 -1.1074436824252563
0000e0 fb 67 8a 84 fe 4c cf bf 83 5b 1b 85 66 18 c5 bf
       -0.2445371768160952 -0.16480714320524834
0000f0 50 4b 5c 96 df 15 d8 3f 0f 00 c8 c9 ed 85 d8 bf
       0.37633504565854015 -0.38317436890793116
000100 ad 6d e2 84 ee 8a d6 3f 5d fe 01 fa 19 ed ca bf
       0.3522297189426478 -0.21036076266681195
000110 16 5f bc dd d7 c7 ac 3f 71 81 c1 6b 7d f4 e3 3f
       0.05621218282447964 0.6235949616057451
000120 31 12 4b 9d 2f dc 39 bf d1 1b 0a 9b af d0 b2 3f
       -0.00039459383451071183 0.07349679503577923
000130 07 7d dc 7c 4c fc a9 3f 1b 86 77 9f 10 09 e0 bf
       0.05075301193414288 -0.5011065592372604
000140 60 e4 36 35 9d 87 d4 3f 69 ea 8b 06 22 7a a6 3f
       0.32077722737046166 0.04390055017389189
000150 17 96 67 91 a5 4d b0 3f 99 0f 0a 09 64 4e b6 bf
       0.06368479537885495 -0.08713364811597869
000160 f0 9f fb c7 34 26 d9 3f 02 e4 c9 0d e3 4b c7 3f
       0.39295691995221116 0.18200338528893673
000170 5b 39 60 08 53 b3 a3 bf a5 ba 62 e0 a9 e4 e1 3f
       -0.03847751118893213 0.5591630346805984
000180 a6 62 47 fd 0d 29 d6 3f ff 1c c5 12 ce c3 c8 bf
       0.34625577673208807 -0.19347549358847257
000190 22 22 bd 55 70 06 c7 bf 42 ca f5 15 d0 ec cb bf
       -0.17988399683442063 -0.21816445419570313
0001a0 6b ec fb c0 64 ec e6 3f 85 10 fe 24 20 1b b7 bf
       0.7163566369266737 -0.09025765326629383
0001b0 7d 6f b4 94 27 59 ef bf 72 9f 17 d1 02 8d ac bf
       -0.9796331314459931 -0.05576332857509571
0001c0 bb 85 f5 a8 1f 01 d7 3f be 7d 4e 51 1b 83 be 3f
       0.3594435834875999 0.11918802962326588
0001d0 e9 82 cd c9 9d 00 c0 3f 48 d3 12 1c 68 f9 8b bf
       0.12501880983020122 -0.013659299236999836
0001e0 84 43 fc 74 cb 7e d7 3f ec 16 8b 30 37 21 ad 3f
       0.3671139376102064 0.05689403979844862
0001f0 1a 20 5c d8 0b 6b ca bf a9 dc 5d fc 99 55 c0 bf
       -0.20639179291197324 -0.12761235067930457
000200 69 93 f1 4f dc 3b 95 bf 6c d0 cf f5 eb 4c bb 3f
       -0.020736162547467716 0.10664248229278578
000210 d5 0d 04 e1 93 11 cc bf 76 ef 5a a6 44 dd d2 3f
       -0.21928642737485285 0.29475513692499733
000220 02 5e 9b 92 63 c6 e3 bf 31 51 14 06 1e b2 ba 3f
       -0.6179674018302992 0.10428035400793047
000230 f4 e9 7f 08 c9 0f 95 bf 14 60 b6 18 24 94 ad bf
       -0.020568028587129875 -0.05777085115113337

weight f8 [50, 72]
000000 79 6a ba 10 26 43 b4 3f b3 5e e0 86 ed d2 b4 bf
       0.07914960773852354 -0.08134350340730627
000010 5e 95 12 14 a2 df a0 bf 60 7a 4c e6 10 bd b2 3f
       -0.032956185293452775 0.07319741842773331
000020 32 80 69 3d ba ce a0 bf 32 e5 33 45 cf aa d8 bf
       -0.032827205654712435 -0.38542539365842565
000030 e8 56 0d 29 98 3c b0 3f 3a 10 a0 9d d9 f5 87 bf
       0.06342459680794443 -0.011699390528527077
000040 b0 aa 89 22 cc f2 bc bf e7 25 50 04 f0 e8 a7 3f
       -0.11307979434210824 0.04669904759073145
000050 6b ff 5b ea 55 12 b5 bf ec ca ce 7b 35 57 a9 bf
       -0.08231102916397297 -0.0494934762604283
000060 83 37 59 c7 b5 b4 94 bf 35 8d 46 b4 37 bd b7 bf
       -0.02022060422159867 -0.0927309813619573
000070 b4 7d 74 80 8c 00 9a bf 15 10 91 9a ae 48 da bf
       -0.02539271863963473 -0.41068616003417563
000080 b9 0d bd ab 4a 2a d4 bf b3 03 6b b0 b4 b7 d4 3f
       -0.3150812794812868 0.3237125132400777
000090 d1 ad 15 b7 61 08 ab 3f f1 67 de ef a7 37 d0 3f
       0.052798322295383955 0.2533969728916637
0000a0 04 19 53 c0 e5 96 ac bf a8 af 84 97 d1 90 b7 3f
       -0.05583875630104454 0.0920535082738626
0000b0 78 a5 05 88 3e dd da 3f 06 10 54 f6 0f be df 3f
       0.4197536781635658 0.4959754853773578
0000c0 23 8f e9 97 14 2d c0 3f 47 be af 44 9f de ad 3f
       0.12637574594111198 0.058339097151357815
0000d0 7b ba 2b 14 6c 57 b1 bf bc 77 92 aa 6a b3 c7 bf
       -0.0677402066464569 -0.18516286209790944
0000e0 4a 9c 96 ba 23 58 7c 3f 76 72 d7 b4 f4 e3 bb bf
       0.006919993940221645 -0.10894708075597656
0000f0 2c 55 85 29 a6 4c c6 bf 75 54 c1 9e 8c a1 c8 bf
       -0.17421414401420898 -0.19243009330481056
000100 74 7a 22 ad d7 07 c3 bf 13 f2 3a 30 90 f4 af bf
       -0.14867683366624684 -0.06241274441478963
000110 00 74 c8 a8 89 0a a7 bf f2 08 e0 6e 11 99 a2 bf
       -0.04500227151240921 -0.03632406691032654
000120 75 d2 1f 50 54 21 bc bf 68 25 93 65 33 66 b1 bf
       -0.10988356548461715 -0.06796570997098217
000130 5f 69 af de 0f 0c aa 3f 91 d0 c8 4b 92 9a e2 3f
       0.050873275693180224 0.5813685875096032
000140 04 a1 2d e7 ca d8 ac bf 82 1c 0f 13 5a 51 c5 3f
       -0.05634149620056131 0.16654516153923643
000150 65 bf cf ba 2c 40 d2 bf 2d 61 f8 72 19 95 aa 3f
       -0.28516691439926084 0.05191878822751259
000160 1c d0 13 4e 14 1e b3 bf 27 be 00 56 e0 d2 93 bf
       -0.07467772394358047 -0.0193591167919164
000170 f9 88 52 87 6b 39 a4 bf 00 9e 19 b6 9b 98 e3 bf
       -0.039500580090377775 -0.6123789364473282
000180 66 87 6e cc eb 85 ba bf de 5d 44 06 15 9d be bf
       -0.10360597363481147 -0.11958438303951577
000190 20 18 0f 53 a7 c8 bb 3f f1 45 51 21 3e 6d c0 3f
       0.10853048112684904 0.12833382250623473
0001a0 0c 87 42 2a cb fa c6 3f d4 95 0b 0a ab 52 db bf
       0.17952861369581574 -0.42692066174489907
0001b0 93 a2 e7 cb 05 10 a5 3f b9 26 fa 3f a7 a9 94 bf
       0.0411378680617577 -0.020178426055770447
0001c0 23 29 a0 39 6d 23 df bf fc e8 c4 06 3e b2 a0 3f
       -0.48653727176192 0.03260988075858681
0001d0 31 8f 44 7d 95 93 cd bf 37 a6 02 d9 39 a2 ac bf
       -0.2310664045008877 -0.05592518590976819
0001e0 02 15 33 f7 d7 47 c5 3f 79 44 4a 97 ea c3 b6 3f
       0.1662549931553841 0.088926946579038
0001f0 1d a7 f4 4c dd 3e c6 bf 27 59 d9 e7 87 69 be 3f
       -0.17379347093201938 0.11879777346016294
000200 4b 6f 92 46 41 73 c4 bf fa 52 ff 5b 54 1f a8 bf
       -0.15976730295084915 -0.04711402533545157
000210 5f b8 c0 c8 71 52 b3 3f 5e d8 f1 05 a4 78 b4 3f
       0.07547675276939135 0.0799658312333533
000220 05 78 96 31 c7 b7 d6 3f c3 02 56 3c 8e c4 be 3f
       0.35496692507319977 0.12018670056387308
000230 cb ec 71 3a 88 68 b4 bf 01 0b fd 22 b7 ab da 3f
       -0.07972003390198094 0.41673067490425814
000240 40 95 09 19 0d f0 b2 3f a7 f7 eb ec 10 f0 aa bf
       0.07397539006486387 -0.0526128091059797
000250 76 e9 2b ed f9 ce a6 bf 28 82 62 04 f5 48 94 bf
       -0.044547853662112155 -0.01980955924284636
000260 04 62 fa 48 cd c0 a7 bf 04 f6 a6 f9 58 29 d8 bf
       -0.0463928367218536 -0.3775236547479326
000270 68 5a 15 72 06 52 b0 3f 4a 36 86 24 ce d3 aa bf
       0.0637516048931076 -0.05239719577648978
000280 d9 25 44 f5 47 75 b8 bf 17 3b 40 1c 6a f4 c1 bf
       -0.09553956735557935 -0.1402714384025436
000290 eb 7e 5b 35 ef 53 af 3f a6 62 97 19 8f 71 b0 3f
       0.06118724371276393 0.06423277258671564
0002a0 f0 48 f7 4a b8 3f 96 3f 39 a2 b7 d9 6b 06 b8 bf
       0.02172744710498703 -0.0938479811226295
0002b0 e8 20 e5 4a 5a 14 96 bf 36 b3 41 1b 0f c4 da bf
       -0.021562014409284652 -0.4182164922884114
0002c0 6e 11 3c fc 82 12 d4 bf ad 69 0c 80 ce 0b d5 3f
       -0.3136298621395984 0.32884562020049196
0002d0 2a 40 91 5b f2 f8 b0 3f bc 39 7a c3 e3 30 cd 3f
       0.0662986253312289 0.228054495285006
0002e0 55 d9 f7 99 ee fb b0 bf 94 27 28 b5 6e 73 50 3f
       -0.06634417780864983 0.0010040837411246827
0002f0 e2 9d e8 df 2d 23 da 3f 65 7c b3 ce db e4 df 3f
       0.40839716783599844 0.49834342179923957
000300 1d 30 a8 90 b6 bb c1 3f 1f 76 1b 31 bd e8 ba bf
       0.1385410505612307 -0.1051138157740401
000310 62 61 7a 80 10 12 93 bf 57 68 91 93 b7 0f c7 bf
       -0.01862359794776703 -0.18016714768856687
000320 36 f4 64 02 bd 47 94 3f 05 88 45 9f cf 19 99 bf
       0.019804909964694604 -0.02451252374283543
000330 9b d3 25 8a 70 87 c6 bf 3e 36 92 84 0a d6 c8 bf
       -0.1760082888173685 -0.1940320155448933
000340 9e 36 50 6a ac d4 c2 bf bc 3a a5 62 fb d5 a2 3f
       -0.14711528006630642 0.03678880290191475
000350 f8 40 11 ab 48 99 bd 3f f5 4d 70 36 b5 42 a0 bf
       0.11562017609071862 -0.031758940596912234
000360 d4 6a cc a3 93 a5 ae bf 4a 08 15 82 b4 4a b2 bf
       -0.05985700010770292 -0.07145240951379708
000370 50 75 05 e7 ee f9 5b bf 28 e8 d0 d1 8c 9a e2 3f
       -0.0017075379401697184 0.5813659761399821
000380 17 28 54 d3 29 dc 95 bf a3 8b 49 73 c7 dc bf 3f
       -0.021347669146997896 0.12446257176047353
000390 8e 56 e3 50 1e 02 d1 bf f6 8e 51 c9 75 e8 a7 3f
       -0.2657542982027302 0.04669540483953753
0003a0 39 9f ae 89 68 f8 ba bf f1 62 c4 5f d8 08 bb bf
       -0.10535291062717257 -0.1056037172132951
0003b0 1a f7 f1 78 33 41 96 3f 7d 97 dd 93 35 fe e2 bf
       0.021733097321422347 -0.5935314071655139
0003c0 2b ec 95 cb ba cc bb bf b1 10 1a 4f 60 3b b4 bf
       -0.10859267683365263 -0.07903100901791295
0003d0 90 d5 fc 51 2f 3e c4 3f cd 57 33 66 8d 00 a0 3f
       0.15814773085882594 0.03125421402516757
0003e0 a2 d3 61 28 7c 6c c9 3f 31 2b 50 83 e1 47 da bf
       0.1986231991938015 -0.4106372625689572
0003f0 4d 13 f0 55 f5 71 a5 3f d2 b4 74 4f dd 31 70 3f
       0.04188505815549224 0.003953804486895156
000400 23 89 f3 00 93 8c de bf 01 44 dc eb 7a 05 a3 3f
       -0.4773299702921056 0.037151185313753395
000410 7e fe cd 51 73 55 c8 bf 3b 53 16 6e 32 8f 93 bf
       -0.19010774130218872 -0.019100940674962912
000420 42 45 ef 01 f1 fa c4 3f 0c cd 41 2d 07 fb 91 3f
       0.1639081248709236 0.01755915845610638
000430 89 8b e3 87 7d c1 c0 bf 82 f5 f8 f7 81 51 a9 3f
       -0.13090485701749469 0.049449979324417206
000440 56 3d 7f 92 88 c5 8b bf 5a 6e d1 98 50 d3 a8 3f
       -0.013560358973249958 0.0484872042222519
000450 85 07 d1 bb cc 72 30 3f 0b f3 4d 17 ac e7 b1 3f
       0.00025098322277383067 0.06994128769833823
000460 a4 43 91 45 79 71 d6 3f d9 03 b6 a1 86 88 9a 3f
       0.3506758860940471 0.02591142999654381
000470 cc d3 2d a2 6c 93 a2 3f c0 92 5f 9b 68 9c da 3f
       0.036281008527033615 0.41579642460991906
000480 a2 09 90 1a fd c5 bb 3f 3f 30 37 6c c8 9e 8c bf
       0.10848981760503887 -0.01397472934959165
000490 4a d0 76 09 4d c3 a4 bf 8a 5a 73 84 6a c9 b3 3f
       -0.04055252781418568 0.0772921155324672
0004a0 1b e7 23 ae f4 c4 97 bf dd 55 95 36 e3 65 d4 bf
       -0.02321226418369014 -0.3187187226334041
0004b0 37 bd 6b 49 11 d0 9a 3f e3 49 04 36 1e fc ad bf
       0.026184339624646582 -0.05856413277992425
0004c0 e6 93 79 14 bb 8d a0 bf 8e b9 51 28 02 e7 bf bf
       -0.032331320046786335 -0.12461865887028109
0004d0 f1 97 a1 bc d2 33 c2 bf 98 9d 04 48 7d 15 ab bf
       -0.14220651827343958 -0.052898325959456816
0004e0 9e af 8d 60 41 54 bc bf cf e7 87 2f e2 46 c0 bf
       -0.11066063506376486 -0.12716319390147965
0004f0 c1 9f 1e d6 f3 78 6a bf 87 c7 0b 69 c9 db d7 bf
       -0.003231502764680955 -0.37278971918487297
000500 34 a9 f7 30 44 5e d3 bf 63 f5 2e 1d 0a 70 d1 3f
       -0.3026285627553478 0.27246334886497986
000510 b1 ce c2 f4 ed 44 b0 3f 58 3f 2d ac f6 b1 c5 3f
       0.0635517809449151 0.16949351698940052
000520 c5 99 19 2c fa 2f a7 3f 10 3e 54 33 8a c2 c4 3f
       0.04528791225748167 0.16218688494016975
000530 de d5 44 bd cc 4d d2 3f b8 0a 8d 8c 4d d9 de 3f
       0.2859985206917751 0.4820131180351086
000540 38 8a fa ce 89 0d c1 3f f3 07 28 e4 8d c5 a6 bf
       0.1332256565702481 -0.044475969411010306
000550 6c 2d de a0 59 b0 b4 bf ae 44 03 12 78 d2 c2 bf
       -0.08081588914335719 -0.14704800490884423
000560 8a 51 9e de 5b 7c a2 3f fd 2f 41 b2 43 df a6 3f
       0.03610503284940865 0.04467212248763983
000570 1b e2 a2 35 ca 65 cf bf cf 25 be 59 44 12 ca bf
       -0.24529388064344534 -0.20368246442767066
000580 7c 2d d0 38 53 3e c1 bf 3e 71 86 90 6a 18 b5 3f
       -0.13471451067048779 0.08240381267973348
000590 36 bc 48 b0 10 d5 a6 3f 39 5c 29 65 7a 8a 99 bf
       0.044594308394487234 -0.024942314552699883
0005a0 f4 5d ac bd 91 81 b3 bf 87 7a f1 a1 72 39 7a 3f
       -0.07619582062431346 0.006402442725714003
0005b0 53 29 e1 59 46 d4 b4 bf d6 b2 e2 b0 60 c4 e2 3f
       -0.08136405653309468 0.586471887092183
0005c0 82 c8 8a ea ed 7c ad bf 4f ee 96 b8 84 dd be 3f
       -0.0575937603765775 0.12056760317403213
0005d0 79 a2 1b 81 ec 76 d1 bf c9 26 19 51 20 f9 b9 3f
       -0.2728835354633144 0.10145761470735261
0005e0 e1 a0 71 8b 7f 47 a6 bf b3 ad da bc ac 34 98 3f
       -0.04351423814006395 0.02363843825029983
0005f0 41 80 ed 9e 0f 76 b6 bf 38 8e df 2b 87 6d dd bf
       -0.08773896818229422 -0.45981005939958974
000600 c2 b3 2e a5 25 34 c0 bf 89 90 f5 6f 15 15 c1 bf
       -0.12659140172527655 -0.13345592467078785
000610 e1 9c ff 2b 4e 3e 9e bf 6a c8 e3 aa de 67 b1 bf
       -0.029534551082090913 -0.06799117729295437
000620 1f 63 39 db 0e 00 c9 3f bd 10 35 0d 5f 29 d5 bf
       0.19531427101426233 -0.33065010347150886
000630 99 14 e6 3a bb be b3 3f 92 d9 74 07 75 e9 b7 3f
       0.07712907970388229 0.09340602333109008
000640 58 bf 26 ac 2d 3a da bf 8e 4b 55 f0 6d 57 80 bf
       -0.40980092822700476 -0.007979258438955996
000650 0a 27 2e 94 9e 28 be bf 5e 4a 30 f4 7b 05 b4 3f
       -0.11780730359728522 0.07820868217121688
000660 c5 59 cc 1e 0c 75 c0 3f f7 e5 73 d9 37 ed 67 3f
       0.12857200149364992 0.0029207316216541784
000670 a7 5b 65 13 d7 60 b2 bf d7 fb 32 fe 54 1e b9 3f
       -0.07179016326459352 0.09811907964738907
000680 27 1b 3c bb 8e 0f a7 3f a1 36 4f 70 51 b5 af 3f
       0.04504056964474606 0.06193022247280778
000690 da 35 15 20 87 9a b0 3f 2c 41 dc 6a a7 98 a1 3f
       0.06485790761254098 0.034367782396773044
0006a0 37 ce 97 0c 3e 16 d2 3f 8f 34 8e 3c cd 8c a4 bf
       0.2826075671175405 -0.040136731760051274
0006b0 7c ca 27 23 ab 2e a5 bf 2f 69 e4 29 9a 00 d8 3f
       -0.04137167743819689 0.3750367554763611
0006c0 19 42 1e 52 55 fd c7 bf 0b 40 8c f9 d4 25 9a bf
       -0.1874186182945017 -0.025534942370597984
0006d0 24 b5 0a db 4f 51 88 bf 4c ed 80 d2 fa a0 bd bf
       -0.01187384021008115 -0.11573760642288738
0006e0 5f 2f e6 d6 cc d8 90 3f aa ef 96 35 0d 44 bc bf
       0.016452026955036 -0.11041338499393186
0006f0 db f2 31 37 cf 60 89 3f 14 81 71 e1 41 a4 68 3f
       0.012391680595322743 0.0030080115061964594
000700 c0 6c ce e8 1c 86 6a bf 82 e5 95 d4 fc 9e bd bf
       -0.0032377781521525095 -0.11570720853878494
000710 cf 37 2b 1a c9 c4 af bf 88 67 1b ad 8a 29 b3 bf
       -0.062048229641376566 -0.07485262609716703
000720 a7 51 9d 7f f3 29 9f 3f 7f ea 43 dc d8 a0 8c bf
       0.030433468498203855 -0.013978666517222791
000730 2f b7 ca e2 01 45 8c 3f ab 01 3f 6e 0d 00 ca bf
       0.013803496106756434 -0.20312660105811395
000740 f2 d9 88 d5 b9 62 d2 bf c8 85 31 c0 9c ae c1 3f
       -0.2872757516192045 0.13814124473996814
000750 cc e4 49 95 ef 96 9e 3f 75 58 d8 bd fe 2f bd 3f
       0.029872649657112046 0.11401359686746722
000760 d4 1e 5f 38 54 d0 81 3f 8c 24 90 41 75 e3 a5 bf
       0.008698137255023587 -0.04275099206285757
000770 52 30 17 98 2a 13 a7 3f da b7 a3 ea bd 4b d3 3f
       0.045068102899307974 0.3014979163552859
000780 ff a7 ea 9a df 23 bc 3f eb 21 02 9b 0e 00 ad 3f
       0.10992238552231014 0.056641060277858056
000790 f3 e5 a4 4f 23 55 a3 3f cb c5 4a 18 22 17 c8 bf
       0.03775892588823728 -0.18820596872460124
0007a0 f3 c0 54 25 1b d0 a8 3f 17 b1 01 8e 80 f0 9d 3f
       0.0484627230711129 0.029237755458255323
0007b0 db f2 0c e2 83 58 c1 bf c3 1a 2e 76 84 1f d1 bf
       -0.13551376855493555 -0.26754867115998254
0007c0 83 af 28 3b c4 29 c3 bf 46 3f f8 ec 06 5e 9d 3f
       -0.14971211327189957 0.02867899724338876
0007d0 b1 52 53 6f 4d 62 c3 3f 0c f5 bf 36 1b 03 c0 bf
       0.15143745361151198 -0.12509479688007052
0007e0 80 03 54 ae d6 13 b1 3f 09 f8 1b 3f 31 37 bd 3f
       0.06670896297511142 0.1141234187197996
0007f0 b6 9e 1f 27 79 7c a3 bf 08 9c 26 ba 29 6c e6 3f
       -0.03805903055746056 0.7007034908064051

bias f8 [50]
000000 09 51 df 15 05 8f cf 3f 12 29 b6 89 0f 12 c4 3f
       0.2465521199034202 0.15680116867253752
000010 db 6b 84 cd 35 85 c0 3f e1 27 b4 ca 1e c4 ac 3f
       0.12906525168440805 0.056183778995617
000020 9a e5 79 a5 a6 8b b3 bf a0 73 ba e8 c0 4c c8 bf
       -0.07634965457864099 -0.189842332493666
000030 15 16 68 fe 15 4b d4 bf db 28 e2 be 0d 21 da bf
       -0.3170828804435087 -0.4082674373718313
000040 dd a6 cf b1 f5 8d de bf ac 50 99 02 14 b2 e0 bf
       -0.4774145351826585 -0.5217380572089687
000050 0d b6 55 9f 82 d3 e2 bf bd 9a 44 ce ea 9f e4 bf
       -0.5883191215522757 -0.6445211437865833
000060 aa b4 73 0f 01 46 e4 bf 37 e7 3b 17 4e cc e3 bf
       -0.6335454274937053 -0.6186895803250313
000070 b3 64 6a e9 cf 97 e3 bf 2e 51 44 b5 1d 91 e3 bf
       -0.6122817572496814 -0.6114643612259323
000080 8a 77 89 8b c8 c6 e3 bf 9a 6d ef d5 f2 63 e3 bf
       -0.6180155492145201 -0.6059507540152709
000090 80 d2 cc 9d 44 cf e2 bf 2b a0 a8 b7 f7 ed e1 bf
       -0.5878012735398244 -0.5602987849315516
0000a0 c6 d9 83 34 1a 41 e2 bf d9 24 3c 02 1a d7 e1 bf
       -0.570447065895501 -0.5575075191165083
0000b0 74 74 c7 8c 09 95 e3 bf 48 51 6a 5e 80 04 e3 bf
       -0.6119430303184701 -0.5942994922684557
0000c0 d6 36 59 cb af 07 e4 bf 2c 1c 4b fc b0 2e e4 bf
       -0.6259383174562696 -0.6306996276479189
0000d0 40 f9 69 fb ab c9 e2 bf e4 35 51 da 15 9d e1 bf
       -0.5871181402615449 -0.550425459290349
0000e0 0e 33 e7 25 75 d4 e3 bf e9 6a a2 4a 9a d7 e3 bf
       -0.6196847667975776 -0.620068689127348
0000f0 6c 9e b0 a3 a0 64 e4 bf 0f d0 8c cf 20 c3 e4 bf
       -0.637283630091543 -0.6488193563186558
000100 04 27 ad 9c 8b 64 e3 bf 28 08 cd 47 b2 15 e4 bf
       -0.6060236034474831 -0.6276484873162689
000110 74 96 8b 54 b8 c5 e5 bf 13 e3 dd 28 ae fe e3 bf
       -0.6803857470774362 -0.6248389051607738
000120 51 ad 8f 15 5c ec e4 bf fa c2 bd 1f 8e 78 e4 bf
       -0.6538525029294907 -0.639716207499162
000130 2a 47 a3 c7 9f b3 e5 bf c6 bd 63 03 4d a4 e3 bf
       -0.6781767749000427 -0.6138062540248306
000140 19 f5 cf e8 ef fe e3 bf ae f6 ea 28 5a d2 e5 bf
       -0.6248702571025745 -0.6819277571846294
000150 0b c2 e6 53 ad c7 e4 bf c4 18 b8 52 b2 69 e4 bf
       -0.6493746412944018 -0.6379024139030425
000160 73 9c 01 8c f4 0e e3 bf 8c 01 1c a3 6e 16 e6 bf
       -0.595575593423645 -0.6902383027773324
000170 5f 8e 0a 92 fa c9 e5 bf b5 b3 9a 66 16 cc e5 bf
       -0.6809056141250486 -0.6811630252828907
000180 83 82 0c 55 b2 3f e6 bf 2f 23 18 57 4b 96 e5 bf
       -0.6952754651175187 -0.6745964718876162

two_l_plus_1 f8 [50]
000000 83 c8 c9 6d 30 5f b4 3f c4 ac ae a4 c8 8e ce 3f
       0.07957747154594767 0.238732414637843
000010 a4 3a 3c 89 fc 76 d9 3f 73 8f 10 60 4a d3 e1 3f
       0.3978873577297384 0.5570423008216338
000020 93 01 83 7b 16 eb e6 3f b4 73 f5 96 e2 02 ec 3f
       0.716197243913529 0.8753521870054244
000030 ea f2 33 59 57 8d f0 3f fb 2b ed 66 3d 19 f3 3f
       1.0345071300973196 1.1936620731892151
000040 0b 65 a6 74 23 a5 f5 3f 1b 9e 5f 82 09 31 f8 3f
       1.3528170162811104 1.5119719593730057
000050 2c d7 18 90 ef bc fa 3f 3c 10 d2 9d d5 48 fd 3f
       1.6711269024649011 1.8302818455567964
000060 4c 49 8b ab bb d4 ff 3f 2e 41 a2 dc 50 30 01 40
       1.9894367886486917 2.148591731740587
000070 b7 dd 7e e3 43 76 02 40 3f 7a 5b ea 36 bc 03 40
       2.3077466748324826 2.466901617924378
000080 c7 16 38 f1 29 02 05 40 4f b3 14 f8 1c 48 06 40
       2.626056561016273 2.7852115041081684
000090 d7 4f f1 fe 0f 8e 07 40 5f ec cd 05 03 d4 08 40
       2.9443664472000637 3.103521390291959
0000a0 e8 88 aa 0c f6 19 0a 40 70 25 87 13 e9 5f 0b 40
       3.2626763333838547 3.42183127647575
0000b0 f8 c1 63 1a dc a5 0c 40 80 5e 40 21 cf eb 0d 40
       3.580986219567645 3.7401411626595404
0000c0 08 fb 1c 28 c2 31 0f 40 c8 cb 7c 97 da 3b 10 40
       3.8992961057514357 4.058451048843331
0000d0 0c 1a eb 1a d4 de 10 40 50 68 59 9e cd 81 11 40
       4.217605991935226 4.3767609350271215
0000e0 95 b6 c7 21 c7 24 12 40 d9 04 36 a5 c0 c7 12 40
       4.535915878119018 4.695070821210913
0000f0 1d 53 a4 28 ba 6a 13 40 61 a1 12 ac b3 0d 14 40
       4.854225764302808 5.013380707394703
000100 a5 ef 80 2f ad b0 14 40 e9 3d ef b2 a6 53 15 40
       5.172535650486599 5.331690593578494
000110 2d 8c 5d 36 a0 f6 15 40 71 da cb b9 99 99 16 40
       5.490845536670389 5.6500004797622845
000120 b5 28 3a 3d 93 3c 17 40 f9 76 a8 c0 8c df 17 40
       5.80915542285418 5.968310365946075
000130 3d c5 16 44 86 82 18 40 82 13 85 c7 7f 25 19 40
       6.12746530903797 6.286620252129866
000140 c6 61 f3 4a 79 c8 19 40 0a b0 61 ce 72 6b 1a 40
       6.445775195221762 6.604930138313657
000150 4e fe cf 51 6c 0e 1b 40 92 4c 3e d5 65 b1 1b 40
       6.764085081405552 6.9232400244974475
000160 d6 9a ac 58 5f 54 1c 40 1a e9 1a dc 58 f7 1c 40
       7.082394967589343 7.241549910681238
000170 5e 37 89 5f 52 9a 1d 40 a2 85 f7 e2 4b 3d 1e 40
       7.400704853773133 7.5598597968650285
000180 e6 d3 65 66 45 e0 1e 40 2a 22 d4 e9 3e 83 1f 40
       7.719014739956924 7.878169683048819
