Sphere/NeuralNetworks/models/net_l2_sqrt49.pt (torch_old, 71351 bytes, 7 tensors)

weight f8 [36, 6]
0	0x3fe3f323cf292f22	0.6234301611052369
1	0x3f999ab49dbf4c6a	0.025004217270020147
2	0xbfc450bbc20113d6	-0.15871378872739567
3	0xbfe0c9e3f41780bf	-0.5246448295038347
4	0xbfc0f886324045b7	-0.13258435681977485
5	0x3fe17047037a2ac8	0.5449557369150506
6	0xbfb4171122a11b6f	-0.07847697349016668
7	0x3fd670a6f8c0b31d	0.35062574665316665
8	0x3fcb1e3c740d2ed4	0.21186023394181197
9	0xbfc3bd4f226ad1a5	-0.15421475582628577
10	0x3fc3a97362fb6f79	0.1536087258635879
11	0x3fee048c470841bf	0.9380551707600303
12	0x3fcca5d1baf868a8	0.22381040219699355
13	0xbfb9d505683505c6	-0.10090669435614705
14	0x3fe20695198661c4	0.563303518155458
15	0x3fdb6ae2057425df	0.42839861424053355
16	0x3fe869690e660c7c	0.7628674775336459
17	0x3fdb3976f50fcaaf	0.42538236553006475
18	0x3fe1d5f61a90953f	0.5573683279841716
19	0x3fbd4a9b41fb9e25	0.11441965447340204
20	0xbfd16751a4689f0a	-0.27193108611616934
21	0x3fcce726e5c6dcb0	0.2258041974980407
22	0x3fe74145a4eb9789	0.7267177792643774
23	0x3ff489cd0be60dd8	1.283642813185784
24	0x3fd5bfae09922611	0.3398242085901027
25	0x3fd45ec685747932	0.31828463585579236
26	0x3fbe53fab31911db	0.11846892235286736
27	0x3fd63dc820aa877a	0.34752085866977434
28	0x3fe0c488e229e1ea	0.5239910523660545
29	0x3fe7a2b8defb66f3	0.7386135439985239
30	0xbfd25fba494c2951	-0.28709275396308437
31	0xbfb304440a6d2b56	-0.07428384069969005
32	0x3fadce805df9765d	0.0582161059107704
33	0x3fc30333bf5d5d83	0.14853522151927842
34	0x3fb89845bc387f5b	0.09607349248153467
35	0xbf96e3a8dcdbe765	-0.022352827530063197
36	0xbfcf880eba475d80	-0.24633964629786576
37	0x3fd4106d69e8d970	0.31350264876109346
38	0x3fd3eba4cdcaa178	0.3112575540240168
39	0xbfd35cca14890a97	-0.3025384140529836
40	0xbfd075d572be772e	-0.25719200330228176
41	0xbff01ae1b49a32f3	-1.0065629057673362
42	0xbfd00795a077adb4	-0.250462919909036
43	0xbfd42904de4aaf64	-0.31500360210588085
44	0x3fc5d1f4e675f6cf	0.1704698682114469
45	0x3fbec046b22b1a84	0.12012140130819132
46	0x3fd6a63351479a89	0.3538940709826553
47	0x3f98134f6e463c2c	0.02351116285859349
48	0x3fd5d1415aec5385	0.3408969295426732
49	0x3fdf7ad7edac410a	0.49187277040711364
50	0x3fc03faad85adf59	0.12694297374923272
51	0x3f98dda075184ce9	0.024282939097315746
52	0x3fdb9c949fa62409	0.43143191900941297
53	0x3fda6de81b123614	0.4129581703535632
54	0x3fca7835f86cf9a6	0.20679354314957016
55	0xbfd2fa81bc899c4c	-0.29653972064847234
56	0x3fd45de60f662a3a	0.3182311201459559
57	0x3fb73f9809f1f80f	0.09081411593248866
58	0xbfefd2b8fed119dc	-0.9944729782953874
59	0xbff553a51520d9ce	-1.3329211068463453
60	0x3fcc8edc7f78d9e6	0.22310978149626165
61	0x3fdf4ba1941ae132	0.48899116004351406
62	0x3fc4261a8e57e5e0	0.15741283369406656
63	0x3faa3c0561099e3f	0.05123917398014698
64	0xbfebd6bd28d4d74e	-0.8699632451523287
65	0xbfd41b15dd0a5a97	-0.31415316186886727
66	0x3fbe36cbd702b889	0.11802362441332738
67	0x3fd8bdc9d9f030a5	0.3865837696364543
68	0x3fd909c7aa12150c	0.3912219200941116
69	0x3fd37ac27339b21c	0.30436764957883766
70	0x3fe8cac9e6a6090c	0.7747544770102492
71	0x3ff907c021b869a7	1.564392215461888
72	0xbfd52c5c878bb68c	-0.3308326076210981
73	0x3fd6082170d61154	0.3442462541500124
74	0xbfce6db08e476109	-0.23772246310432646
75	0x3fe0ce986da61aae	0.5252191678599354
76	0xbfb7675938f47f51	-0.09142072334770758
77	0x3fbf959dcafd1d61	0.12337671476153879
78	0x3f5922688cb2eb82	0.0015340825073468516
79	0xbf7c68d3d597fbc3	-0.006935908773356428
80	0x3fd57800b6171eff	0.3354493883348226
81	0xbfd1a291de886e97	-0.275547473256418
82	0xbff176c3bf2267eb	-1.0914952722728184
83	0xbfef0d9ba1199c18	-0.9704111238942259
84	0x3fc32bf300000000	0.14977872371673584
85	0xbfcd299720000000	-0.22783173620700836
86	0xbfc68130c0000000	-0.1758175790309906
87	0xbfc32ff940000000	-0.14990153908729553
88	0x3fc0360b80000000	0.12664932012557983
89	0x3fc240f900000000	0.14260780811309814
90	0xbfa8a08d1519c31f	-0.04809990770889371
91	0x3fd4d41f417a77f9	0.3254469050824578
92	0xbfd8aa768b36afd7	-0.38540423960762155
93	0xbfee73df105e2f2c	-0.9516444511113824
94	0x3fdb526c38cab4c6	0.4269056849105478
95	0x3ff3e46d526d8996	1.2432683200682724
96	0xbfe5275e413da7e4	-0.661055686400911
97	0xbfed83d559d69c44	-0.9223429445891118
98	0xbfc190fc91d0bb35	-0.13723713989153344
99	0xbfcdbf889010edb5	-0.23240763697127212
100	0x3fb43a3920b144f7	0.07901341484218337
101	0xbf92857b7466fcc7	-0.01808731935466026
102	0x3fb2c4a16d7f9bb1	0.07331284449865795
103	0xbfa419dd0e2a16f6	-0.03925982282548361
104	0xbfe807f00a72ebba	-0.7509689525680792
105	0xbfe049673d7ca963	-0.508960361568182
106	0xbfdfbd306102966b	-0.49592217897075014
107	0xbf89d28343d1ab5d	-0.012608552462742112
108	0xbfd18c9460000000	-0.2742052972316742
109	0xbfc209c380000000	-0.14092296361923218
110	0x3fbcf01500000000	0.11303836107254028
111	0x3fbc536f00000000	0.11064809560775757
112	0x3fccaabe80000000	0.22396069765090942
113	0xbf8bfcd000000000	-0.01366579532623291
114	0x3fb1ad4ca6981be0	0.0690505892490445
115	0xbf92923db61650ca	-0.018135990370482337
116	0x3fd0a10bb93ce2e4	0.25982945527679946
117	0x3ff008518ccd3ac8	1.0020308971467546
118	0xbfb72ce9fcf5cf40	-0.09052908349786737
119	0xbfe8142002357d98	-0.7524566691535481
120	0x3fe1acbb557d45fa	0.5523354215349052
121	0x3fd6fb321ec4e666	0.3590817738037003
122	0x3fd781d29c7cbe3a	0.3672987487979956
123	0x3fd66749209c5864	0.3500540560211276
124	0xbfbc2535c0edb8c8	-0.1099427791611759
125	0x3fe7b0600a91a55e	0.7402801710533529
126	0xbfc2c878597ecf6b	-0.14674286241426712
127	0x3fc59027744e8fe8	0.1684617345719055
128	0xbfaadaebc864f306	-0.052451484882544405
129	0x3fe15f2670905029	0.5428650091657846
130	0x3fe6ab4b5ab64d8f	0.7084099551888573
131	0x3ff21c793d739384	1.131951561016849
132	0xbfce583520000000	-0.23706687986850739
133	0x3fc69f5e80000000	0.17673856019973755
134	0xbfd7b40760000000	-0.3703630864620209
135	0xbfc6a88080000000	-0.17701727151870728
136	0x3fd9370280000000	0.39398252964019775
137	0xbfd5361dc0000000	-0.33142799139022827
138	0xbfa6f9ec1b543ac7	-0.04487550576788162
139	0x3fe1f95bd9c00049	0.5616893055848858
140	0x3fdfa882010dc16f	0.49465990164664836
141	0x3fd94c716ef0fe49	0.3952907164966502
142	0x3fddfa4b2e6499b9	0.46840171366275346
143	0x3fdfaffade8b1b4a	0.4951159642482038
144	0x3fd908a33bff38e6	0.39115219935491863
145	0xbfc536b486d9786b	-0.16573196968505796
146	0x3fd89c2ed10ef3be	0.38453264633045225
147	0x3fe06a130c5a8ee1	0.5129485360416447
148	0x3fe1f03249c10d48	0.5605708542356433
149	0x3fe16df8aa4d189e	0.5446742368883581
150	0x3fcc2bcd80000000	0.22008675336837769
151	0xbfd17aba00000000	-0.2731156349182129
152	0xbfd3d29820000000	-0.3097286522388458
153	0xbf6bca4000000000	-0.003392338752746582
154	0x3f91bf8600000000	0.01733216643333435
155	0x3fd6c70540000000	0.3558972477912903
156	0xbfda086180000000	-0.4067615270614624
157	0xbf8a2e6c00000000	-0.012783855199813843
158	0xbfd550d7c0000000	-0.33305925130844116
159	0xbfcceca6c0000000	-0.2259720265865326
160	0x3fc64a7880000000	0.17414766550064087
161	0xbf932d4c00000000	-0.018727481365203857
162	0x3fd1c0a7200619dc	0.2773835957272277
163	0xbfbe0e76e3471edf	-0.1174082093121984
164	0xbf5febe75ed0ff02	-0.0019483336902936248
165	0xbfe28641011417c2	-0.5788884182991227
166	0xbfd1b48ec710f423	-0.2766453689581018
167	0xbfebc6f89b99a2d0	-0.8680384673180814
168	0x3fd88a97d7b118c2	0.38345905364657196
169	0xbfd1c9a8e42e1c2f	-0.2779333332368336
170	0xbfc24f74a48e04e6	-0.1430497935762453
171	0x3f94ca1e580b7b42	0.02030227100737681
172	0x3fe5f01caec8f1eb	0.6855605520027529
173	0x3fe3b22b6e1d602a	0.6154992247275051
174	0x3fde89e429e416bc	0.47716621485629296
175	0x3fdf655e8d87a400	0.4905620939376263
176	0xbfc3dc83c40bd50c	-0.15516707489556614
177	0xbfd2fb61075effd4	-0.2965929576857864
178	0xbfe0037405fe761b	-0.5004215352125273
179	0xbfee52d351d483aa	-0.9476105306858831
180	0x3fcc4b9f108168f4	0.22105778032238954
181	0x3fabfc8e58ded269	0.05466122469753005
182	0xbfe2862db6f61972	-0.5788792203391451
183	0xbfde747f40a413c7	-0.47586041748610025
184	0xbff0ae06e3de65d6	-1.04248703967311
185	0xbfd39ea0447b1e4b	-0.3065567654379932
186	0x3fad8383731bd875	0.05764399318825123
187	0x3fd62f2270691aee	0.3466268632659383
188	0x3fcd2e9db5e66f2a	0.2279851091560599
189	0x3fdcb59bd1d2f1f5	0.4485845135748428
190	0x3fd57785a020b81e	0.33542004239541423
191	0x3f9a59fce0b46b2e	0.025733901228799975
192	0x3fc6a7b12c0da4a4	0.17699255610503883
193	0x3fdf6972daf761e7	0.4908110750525609
194	0x3fe38472d27fba2b	0.6099180327708543
195	0xbfc47146ec9d9504	-0.15970694116109752
196	0x3fd0a0ff8aa5683b	0.2598265508619339
197	0x3fdaebf2bdbab70c	0.4206511357141245
198	0xbf9b17a01b931cda	-0.02645731132795679
199	0x3f998e989da89c0f	0.024958023665160364
200	0x3fe3297f4c6583ab	0.5988155834312371
201	0x3fd06929c7b6ea48	0.256418652566627
202	0x3fd2f882995cee16	0.2964178559957146
203	0x3fba5300b7bf103b	0.10282902227396644
204	0xbfc00fb4bd96fa40	-0.12547930962860399
205	0x3fdf5e56993883c3	0.4901329513832559
206	0x3fbbac20421e112f	0.10809518446155118
207	0x3fbc3b66d79a8e58	0.11028139842761087
208	0x3fc706208d71f5a6	0.17987448603154838
209	0xbff191d03aae7f19	-1.0980989734889077
210	0xbfcb178380000000	-0.21165508031845093
211	0xbfcc6fa220000000	-0.22215677797794342
212	0x3f552f0000000000	0.0012929439544677734
213	0xbfd978b7a0000000	-0.3979929983615875
214	0x3fa0cb1100000000	0.03279927372932434
215	0x3fab411e00000000	0.05323117971420288

bias f8 [36]
0	0xbfa22fc98b9ab09e	-0.03552083806184324
1	0xbfc77e715e59141c	-0.1835462294276632
2	0x3f955933dae53ff6	0.02084809325725697
3	0xbfd100ef14926446	-0.26568200119942664
4	0xbfd012745ffbe1e4	-0.25112637875966315
5	0xbfc6045f5e6cb466	-0.172008439164901
6	0x3fb5222f93fdea22	0.08255288470346803
7	0x3fd70efdecbc1a51	0.3602900325644543
8	0x3fc9b182d02889ca	0.200729705467053
9	0xbf91ec3da365533f	-0.017502749536407732
10	0x3fc0a587974d1448	0.13005156409977503
11	0xbfaafe23df86a9ab	-0.05272018531407537
12	0xbf9f2381263b8f61	-0.03040887637952439
13	0x3f76792ea22c18bd	0.005486662065555756
14	0xbfd72cc8c0000000	-0.36210840940475464
15	0x3fba26748d95834a	0.10214928108827084
16	0x3fba4d8673f73bee	0.10274544078059453
17	0x3fb01c3bbfa1f028	0.06293080738572654
18	0xbfd026eb40000000	-0.25237542390823364
19	0xbf784376e73b3543	-0.005923714128312443
20	0xbf52cba9d80be68b	-0.0011471899635452666
21	0x3fa9442273bb96f9	0.04934795058015413
22	0xbfd437a560000000	-0.3158963620662689
23	0xbf4475e42117ffad	-0.0006244052803481191
24	0x3fbec5c0d6b594c1	0.12020497552801414
25	0xbfd82d1480000000	-0.3777514696121216
26	0xbfbbaadd00000000	-0.10807591676712036
27	0x3fb7bfabe1b9a833	0.092768423660943
28	0x3fd6f5e3d9063e3a	0.3587579364184169
29	0x3fca42f6fe64b613	0.20516860410263912
30	0x3f7ddf3722e529fb	0.007292952896316591
31	0x3fc3c23b456c0e28	0.15436497583151376
32	0xbfc19c4018dfabb6	-0.13758088316475686
33	0xbf909f9ba1095d28	-0.01623385591878193
34	0x3fc7a12f7275f837	0.18460648621470607
35	0xbfa07fbe00000000	-0.03222459554672241

weight f8 [72, 36]
0	0xbfb47778c0000000	-0.07994799315929413
1	0xbfb9014bc0000000	-0.09767602384090424
2	0xbfb2b89000000000	-0.07312870025634766
3	0xbfc4de90e0000000	-0.16304217278957367
4	0x3fb978bf40000000	0.0994987040758133
5	0xbfbbb37e00000000	-0.1082075834274292
6	0x3f961d2b00000000	0.02159564197063446
7	0xbfafc90800000000	-0.06208062171936035
8	0xbfae6c78c0000000	-0.059421323239803314
9	0x3fc12a6c20000000	0.13410712778568268
10	0xbfb9f0d0c0000000	-0.10133080184459686
11	0xbfb366f1c0000000	-0.07578955590724945
12	0x3fa175be80000000	0.034101441502571106
13	0x3fa9b79800000000	0.05022883415222168
14	0xbfa0d9a080000000	-0.032910361886024475
15	0xbfaef152c0000000	-0.06043490022420883
16	0xbfba15cdc0000000	-0.10189519822597504
17	0xbfc47f7fc0000000	-0.1601409614086151
18	0xbfc0f66dc0000000	-0.1325204074382782
19	0x3fb061a700000000	0.06399005651473999
20	0x3fc021e920000000	0.12603487074375153
21	0xbf83309a00000000	-0.009370043873786926
22	0x3f646c0800000000	0.0024929195642471313
23	0xbfb527a360000000	-0.08263608068227768
24	0xbfaf151cc0000000	-0.060707949101924896
25	0xbfc11d0560000000	-0.13369815051555634
26	0xbfc51e3e60000000	-0.16498546302318573
27	0xbfaefd5a00000000	-0.06052666902542114
28	0x3faae20780000000	0.05250571668148041
29	0xbfbb2b1700000000	-0.10612624883651733
30	0x3fa9499980000000	0.04938964545726776
31	0x3fbca57b40000000	0.11190004646778107
32	0x3fa4ccd600000000	0.04062527418136597
33	0xbfc034b560000000	-0.12660853564739227
34	0x3fc2d216e0000000	0.14703641831874847
35	0xbf965e6d00000000	-0.02184458076953888
36	0xbfc11349c0000000	-0.13340112566947937
37	0xbfa049f400000000	-0.03181421756744385
38	0x3fa5dd5d80000000	0.0427045077085495
39	0x3f9cbb2700000000	0.028057679533958435
40	0xbfb80f4200000000	-0.09398281574249268
41	0x3fa7351b80000000	0.04532705247402191
42	0xbfc4bf7380000000	-0.16209262609481812
43	0xbfc32498e0000000	-0.14955435693264008
44	0x3f896a3800000000	0.012409627437591553
45	0xbfb328b400000000	-0.07483983039855957
46	0x3fc32d5860000000	0.14982132613658905
47	0xbfc0ff2de0000000	-0.13278745114803314
48	0x3fb87308c0000000	0.09550528228282928
49	0x3fc17c0a60000000	0.1365979164838791
50	0xbfb8bf3760000000	-0.09666772931814194
51	0xbf9315c400000000	-0.01863771677017212
52	0x3f93505100000000	0.0188610702753067
53	0x3fc2bf10a0000000	0.14645583927631378
54	0xbf983d6400000000	-0.02367168664932251
55	0xbfc40a2460000000	-0.1565595120191574
56	0xbfb1b68860000000	-0.06919147819280624
57	0x3fb22b7800000000	0.07097578048706055
58	0xbf91b78c00000000	-0.017301738262176514
59	0xbfbc44f260000000	-0.11042704433202744
60	0x3fc31688e0000000	0.14912520349025726
61	0xbfbe6850c0000000	-0.11877922713756561
62	0x3fb5371e40000000	0.08287228643894196
63	0xbf8eb27a00000000	-0.01498885452747345
64	0x3f8af44000000000	0.013161182403564453
65	0xbfbff04200000000	-0.12475979328155518
66	0xbfc1737580000000	-0.13633602857589722
67	0xbfb3e49bc0000000	-0.07770703732967377
68	0xbf71544400000000	-0.00423075258731842
69	0x3fc3bde520000000	0.15423263609409332
70	0x3fa687cd80000000	0.04400484263896942
71	0x3fc18dfee0000000	0.13714586198329926
72	0x3fa8eb6b31bd14ea	0.0486711023536744
73	0xbfc7d7902626f6e1	-0.186265963200575
74	0x3fca4d7134dbe38f	0.20548834877970676
75	0x3fb3401291227718	0.07519641917539521
76	0x3f93c1ce5d222f1a	0.019293999132556562
77	0x3fc3175b14e9fec0	0.1491502620810845
78	0x3fd2ac862fd7685f	0.29178003952040926
79	0x3fae8e30fbaccfdc	0.059678583833743665
80	0xbfb705482d7fae3b	-0.08992434607324011
81	0xbfa5956beabe5a00	-0.04215562096139891
82	0xbf8de4891e9b58b4	-0.014596053358598794
83	0xbfcb02ceab1c5ad5	-0.2110231719495547
84	0x3fc1c007e1fc3286	0.13867281469756082
85	0xbfb0c733bae24298	-0.06553958237260316
86	0xbfc2a249c0000000	-0.14557763934135437
87	0xbfce788d68dc209b	-0.23805396671400988
88	0xbfd2c334fee2bfa0	-0.2931644906157036
89	0xbfcfef3f2188d910	-0.24948872697286406
90	0x3f67984800000000	0.0028802305459976196
91	0x3fd29489e948775e	0.2903160837321276
92	0x3fc9240c0f793ff5	0.19641257052944608
93	0xbfc41756efb7a6d8	-0.1569622679228846
94	0x3fb451ff40000000	0.07937617599964142
95	0xbfb209ddf3327e21	-0.0704630583518271
96	0x3fb676808f40c0c6	0.08774569985758082
97	0x3fb6c9fd40000000	0.08901961147785187
98	0x3fc421ca60000000	0.15728120505809784
99	0xbfcb0b31ba83f952	-0.21127912146762157
100	0xbfc6fb3be0ffdf65	-0.17954205023101646
101	0x3fb1329035fe48e9	0.06717778509326745
102	0xbfdcd9c4b0c48775	-0.45079152357549584
103	0x3fd1884326c04f73	0.2739417913846786
104	0xbfcfa8100853b6b9	-0.24731636435119755
105	0xbfc3d79c42b56e76	-0.15501740700971184
106	0x3fd12ac2859e5e73	0.268234854208891
107	0xbfc2f9de80000000	-0.14825040102005005
108	0xbf6bd18d3c5d9414	-0.0033958204757476105
109	0xbfb53f1e21b7157a	-0.08299434970020583
110	0x3fd230754e00327e	0.28420765511763324
111	0xbfb30478e2d1bb8b	-0.07428699052409919
112	0x3faa42019f11e4ec	0.05128483835955841
113	0x3fa07f88c59c32d5	0.03222300922616276
114	0xbfb8dc4d667af5f2	-0.09711154701195548
115	0x3fb4be0cdae82a61	0.08102493614584595
116	0x3fca9e9dc225e572	0.20796558360943213
117	0xbfb8967665e4aa46	-0.09604587543132323
118	0x3fcaa43400719e0b	0.2081360819022254
119	0xbf993a0c36da28f7	-0.02463549694815811
120	0x3f8250cf378d989e	0.008943194277616858
121	0xbfca35e7ef083829	-0.20477008029450985
122	0xbfbd4dd7c0000000	-0.11446903645992279
123	0x3fad93f521f76d51	0.057769451519301136
124	0xbfba7c286f62c3c6	-0.10345699996356847
125	0xbfae8a2870d5675c	-0.05964781167376884
126	0xbfc337a560000000	-0.15013568103313446
127	0xbfd8502e982f84d9	-0.3798939214885429
128	0x3fc7dc126e77da0a	0.18640356439546252
129	0x3fb63e42a459ea23	0.08688751709443258
130	0x3fab24f800000000	0.05301642417907715
131	0xbfc3e457d56c5459	-0.1554059784035953
132	0x3fce405486f07720	0.23633820141633866
133	0x3fa151a000000000	0.03382587432861328
134	0xbfb3878c60000000	-0.07628705352544785
135	0xbfc8ffa9108f9093	-0.19530213650353243
136	0xbfaea23c147bdb72	-0.059831502438035936
137	0xbf96d7b651aefb65	-0.022307251678053492
138	0xbfd199217a7a81d6	-0.27497136078639295
139	0xbf9d81e778825ba2	-0.028815857630060678
140	0xbfc49db0a5ea3daa	-0.16106231786078
141	0xbfa0eb02d32d0889	-0.03304299190360022
142	0xbfb6ff855f4b9e24	-0.0898364408163777
143	0xbfa13d4c80000000	-0.03367079794406891
144	0xbfb071b1ee4c74ac	-0.06423484866941703
145	0x3fb2f46d6f77eb06	0.0740421673907968
146	0xbfbb0adb2d390fa1	-0.1056344018371065
147	0xbf9a4459b20c31ad	-0.025651360981145
148	0x3f927c4cbbfe3e06	0.018052290891828825
149	0xbfa34e0214e22006	-0.0377045298092185
150	0xbfc8242d928ab889	-0.18860406546940947
151	0x3fb81372a0a65efd	0.09404674932590847
152	0x3fa7ae6aa9ea36e0	0.04625256847530834
153	0x3fc1d0c960000000	0.1391841620206833
154	0x3f873789b48faba2	0.011336398909369386
155	0x3fbcb24b20357596	0.11209554230068472
156	0xbfc32674949a320f	-0.14961106544468847
157	0xbfc2f0cde0000000	-0.14797376096248627
158	0xbfa181e600000000	-0.03419417142868042
159	0x3fc094cfc7437a77	0.12954137067477564
160	0xbfb1641eb8717cdb	-0.06793395998964817
161	0xbf926d507d851f6d	-0.017995126401074858
162	0xbf78f30400000000	-0.006091132760047913
163	0x3fbbb195a98bee67	0.10817847623177955
164	0xbfc1b1efc76a81bd	-0.13824269520865853
165	0xbfaa2f7f763193e6	-0.051143630197465303
166	0xbfc15096c0000000	-0.13527187705039978
167	0xbfa41db4786d401c	-0.039289130878956
168	0xbfa5ff3650c3b867	-0.04296273933310673
169	0xbf8b050000000000	-0.013193130493164062
170	0xbfa8e68780000000	-0.04863379895687103
171	0x3fb8f68939692a3e	0.09751184131270293
172	0xbfc699e04bf822e6	-0.17657092770993826
173	0xbfc402c2f601c65c	-0.15633427631432795
174	0x3fa97e68b99248bc	0.049792549755822674
175	0x3fa73bb74d8f5443	0.04537747213149903
176	0x3fa513bf278047a1	0.04116628033820225
177	0xbfc166ba16b96a3f	-0.13594747647842273
178	0xbf7963df21113193	-0.006198760603251324
179	0x3fc0564fe0000000	0.12763403356075287
180	0x3fc055ede5d8e4d6	0.12762235377321102
181	0xbfc86ee29599684c	-0.19088394455576674
182	0xbfa7c51658d73607	-0.04642553171616375
183	0xbfd3660c5ee72802	-0.3031035353457129
184	0xbfc30bca80948018	-0.14879733351062963
185	0xbfc1e38dcfe32ca8	-0.13975689554931603
186	0x3f9b64d613b4d41e	0.0267518472221192
187	0x3fa4a0581d83f9b2	0.0402858291654299
188	0x3fc8d5af51048942	0.1940211434931119
189	0x3fa3c1f08def4b34	0.03858901722528288
190	0xbfb00ac6780423c7	-0.06266441755373285
191	0xbfcdfce40de55e83	-0.23428011587633443
192	0xbfa25cdaad54b2ec	-0.0358646713815228
193	0x3fd721f5d8f94f2d	0.3614477747807879
194	0x3fc21c6760000000	0.1414918154478073
195	0xbfb402b3dc5e6193	-0.07816623811812055
196	0xbfc75d6b90ddd845	-0.18253845761836565
197	0x3fac2dd784b03ec4	0.055037245700189114
198	0xbf75ff7400000000	-0.005370572209358215
199	0x3fce8f0c8950a60d	0.23874050812564498
200	0x3fc025afac7dafe0	0.12615009233866115
201	0xbfd5fbdc672d9e6e	-0.343497372398338
202	0xbfb5a93500000000	-0.0846131443977356
203	0x3fb679ccfdf2e783	0.08779603195116974
204	0xbfc006287ffc660b	-0.1251879334384259
205	0x3fc03d0c20000000	0.1268630176782608
206	0x3fac430e80000000	0.05519910156726837
207	0x3fd12e33d8efc3c9	0.2684449785729695
208	0xbfbcd1a41bea1739	-0.1125738685751373
209	0x3fb661c83f7fabbd	0.08742953825246409
210	0x3fc9e9f93a6b479e	0.20245280601971855
211	0x3fc70c23be965e7f	0.1800579720117987
212	0x3f9ae15938645d2c	0.02625026137056101
213	0xbfb29b3fc1db8d9b	-0.072681412533305
214	0x3fc5e8a0e65c1155	0.17116175888089438
215	0xbfa8b2e4c0000000	-0.048239849507808685
216	0x3fa269cd95c2468b	0.035963463336099975
217	0xbfbe515a763ee14a	-0.1184288538632973
218	0x3fdba9ef9f294dae	0.43224707167720566
219	0x3fa85f3fad44dc1c	0.047601690197943664
220	0xbfcb02c3b6d3662b	-0.2110218661025994
221	0xbfbb948d13b1f101	-0.10773545962178234
222	0xbfa6fbacfeb69e8c	-0.04488888367933183
223	0x3fbdc6bbb35f0c2f	0.1163136780660785
224	0x3fc98872a770e84b	0.19947655845482112
225	0xbfc2ee834ede6d30	-0.14790383673685303
226	0xbf749e9b0589f6ab	-0.005034070542590345
227	0xbfa6ab6824b2f3d3	-0.0442764801787018
228	0x3fb8c620c420239d	0.09677319324704432
229	0xbfce3528d8313f03	-0.2359973006846233
230	0x3fb8710fc0000000	0.09547518193721771
231	0xbfc2457e2e19528a	-0.14274575472758882
232	0xbfb3905532e73953	-0.07642109387163502
233	0x3fc294eab4face2d	0.14516958081149892
234	0xbfbee98560000000	-0.12075074762105942
235	0xbfa93d475b2fb182	-0.049295644646778505
236	0x3f878e2f8207aa01	0.011501666217516695
237	0xbfa2e846e465cd1f	-0.036928382282804366
238	0x3faf141780000000	0.06070016324520111
239	0x3fc2bb727bf1ba7b	0.1463454346844236
240	0xbfb19b0b87a43f27	-0.06877204953729842
241	0xbfc3eb4ec0000000	-0.15561851859092712
242	0xbfc36bab00000000	-0.15172326564788818
243	0xbfb5c1b77a412d23	-0.08498713240367244
244	0x3fc45bd542bf501e	0.15905252226969052
245	0xbfb1314c947e23ac	-0.06715849519072375
246	0xbfbaedf2b9c57d60	-0.1051933005851331
247	0x3fa8d81f8bc7ad3b	0.048523889363276194
248	0x3f99386a7567f10f	0.024629271903891466
249	0xbfd0867342c159f7	-0.258206191244795
250	0x3fc670751a465cc8	0.17530692847205942
251	0x3fc2b955a0000000	0.14628095924854279
252	0xbfc0dd5c2203f6ce	-0.13175536785995806
253	0xbfaa5a14075b8955	-0.051468492410793466
254	0xbfb371e10963742c	-0.07595640639506546
255	0xbfc0c7c7bdcfac63	-0.1310968090832346

bias f8 [72]
0	0xbfbcee7160000000	-0.11301334947347641
1	0xbfc0ffcde0000000	-0.13280652463436127
2	0x3f90ca55a94c983c	0.016396845300868032
3	0xbfa8df5dc62ba2d4	-0.048579149666527904
4	0x3faa405818b54de2	0.05127215673078546
5	0xbf939dccc31f4046	-0.01915664616518622
6	0x3f8c2ef75c17ab0e	0.013761456010759978
7	0xbf99067dbc2aed0f	-0.024438824281543477
8	0xbfbf96a5fc0d96d9	-0.12339246181144449
9	0xbf911cc72e4d1ef2	-0.016711342049602736
10	0xbf9e078344443d59	-0.02932553390661261
11	0xbfa659a5b9695349	-0.043652705081206174
12	0x3fb60c3330eb5bd6	0.08612365669556196
13	0xbfbd835260000000	-0.11528506129980087
14	0x3f8106c8fcf25991	0.008313722819633525
15	0xbfb43473b4f9c579	-0.07892535370208077
16	0x3fb0734150f64264	0.06425865389452096
17	0x3f98626b6ae6a9f4	0.023812940978737943
18	0xbfad2803b56d09c3	-0.056945911308975215
19	0xbfbc10f9e58254e7	-0.10963403561830241
20	0x3f97e4031fc5ef82	0.02333073502948891
21	0x3fb2ac9e34d4b823	0.07294644155328504
22	0x3fbdfe1fe91a9d10	0.11715888443960787
23	0xbfc22afd1dcc173a	-0.14193691210692255
24	0x3f60b4664c7fa4a6	0.0020391462348823995
25	0xbf8cbde53040ef54	-0.01403407147892436
26	0xbfc72da78b884472	-0.1810807639417678
27	0xbfc0250480000000	-0.12612968683242798
28	0x3fa152b754fdce3b	0.0338341990708639
29	0xbfc3488b40000000	-0.15065136551856995
30	0xbfbc9439723a5123	-0.11163672484173452
31	0xbf91f024b87a7f46	-0.017517637023615217
32	0x3fabb916dc887c55	0.05414649431281108
33	0x3fc225a2021d1d93	0.14177346327981563
34	0x3f937c82ab45a030	0.019029657081233775
35	0xbf65709a761dea42	-0.0026171700309849675
36	0x3fa9cc18978e4b0a	0.05038525438353332
37	0xbfb9b86993112d36	-0.10047015991692806
38	0x3fbb943a29f5ab22	0.10773051762013755
39	0x3f9dec3c00c27634	0.02922147516857461
40	0xbf6713d3c084a069	-0.0028170715123856838
41	0x3fb884029a914b4b	0.0957643153536029
42	0xbfbc8de000000000	-0.11153984069824219
43	0x3fb726b11b749fdf	0.09043414039899698
44	0xbfbcf5013c12d89d	-0.11311347691193636
45	0x3fb63629da2b295f	0.08676396919614636
46	0xbfa595af77188b0d	-0.042157634056158334
47	0x3fae9cec73a63467	0.05979098235830165
48	0xbfc071c400000000	-0.12847185134887695
49	0xbfa1493bd09a3392	-0.03376185342231176
50	0x3fc49e495ae83cdd	0.16108052195384107
51	0xbfab5f9200bf30e9	-0.05346351870648098
52	0xbfb9bb68c0000000	-0.10051588714122772
53	0xbfc4ddc880000000	-0.16301828622817993
54	0xbfc3c19f79a87945	-0.15434640350663123
55	0x3f7938331f7fe665	0.006157111834903616
56	0x3fc25215d979d6b4	0.1431300460714532
57	0x3f93b11b89919886	0.019230299254922055
58	0xbfba912cdd8584f8	-0.10377769859544006
59	0x3f8b0164e6d4bdd6	0.013186252874759424
60	0xbfbc194860000000	-0.10976078361272812
61	0x3f9972c3e8ca364e	0.024851857264869097
62	0xbf91d8a95e06b74d	-0.017428060878663932
63	0xbf813030303bacc9	-0.00839269301601177
64	0x3fc3b1ccdce319b6	0.15386353288176985
65	0xbfb42d6ad9bcff5d	-0.0788180142963006
66	0xbf85ba981fda7d04	-0.01060980651101185
67	0x3fb0c9df30224feb	0.06558031964442505
68	0x3fb8ac7e9e4a7efb	0.09638205875898713
69	0x3fb508eb06d35500	0.08216732899321144
70	0x3faf51280ed16eee	0.06116604977498051
71	0x3fbacac9b1a32a5b	0.1046567972836469

weight f8 [50, 72]
0	0x3fb4657820000000	0.07967329770326614
1	0xbfb859a480000000	-0.09511783719062805
2	0xbf9d9d2b4ccaf523	-0.028919865190563897
3	0x3fc7c35e50ebaed5	0.18564967108920052
4	0x3fa42472668ba767	0.03934056760574727
5	0x3fcee37dfc381258	0.241317508844207
6	0x3fc783d68ef31480	0.18371088008840175
7	0x3fc6fef3acf83428	0.17965551324633222
8	0x3fbd789fc58a7107	0.11512182781956791
9	0x3fc634ae2a280ab7	0.1734826761094916
10	0x3fd99a5d2ba2f45e	0.4000466276300524
11	0x3fb945cf84a2fede	0.09872147548866958
12	0x3fc5eec3391fe4e1	0.17134895600592073
13	0xbf8af06a00000000	-0.013153865933418274
14	0x3fc2bad36fd33eea	0.1463264747640019
15	0xbfdcbb0d49944a0d	-0.44891674218629946
16	0x3fc7647e44bc0abb	0.1827543101899972
17	0x3fc35f262f5d278f	0.15134122193040553
18	0xbf9d6c8ee4b39232	-0.02873442908175345
19	0x3fe0dda988e126c1	0.5270583795001685
20	0x3fd0ad085b4f767b	0.26056107441932114
21	0xbf63b9bfd84cf77b	-0.0024079081507854517
22	0x3fc79c4f316768bd	0.1844576827268777
23	0x3fd756bbcb380b42	0.36466879697416144
24	0x3fb48795645bc431	0.08019384098203443
25	0x3fccc577a09cee1a	0.22477622358734167
26	0x3f9a4d05cf0a4eb8	0.025684443246588556
27	0x3fbd26c120000000	0.11387259513139725
28	0x3f92ceb0965b24fb	0.018366583992961854
29	0x3f7cf73800000000	0.007071703672409058
30	0x3fc7cbab91275f9f	0.18590302074039486
31	0x3fe1a599722bc02e	0.5514647703075803
32	0xbfb1a25ee2f3ff4e	-0.06888382950637359
33	0x3fb2a2e6849f016a	0.07279816377468298
34	0x3f9e81720d4f37cf	0.029790670454353404
35	0xbf66458db1d8b96f	-0.0027187125658862314
36	0xbfe36bf791bee445	-0.6069295736880426
37	0xbfb3de31cc2647f8	-0.07760916933173678
38	0x3fb4869f3d2badb5	0.08017916911528895
39	0xbf92c1a0d0f07a9a	-0.018316757919928685
40	0x3fd1be1e06c51c16	0.27722883854988944
41	0x3fc3651509d4ba70	0.15152228336360762
42	0x3fb5d6ea60000000	0.08531060069799423
43	0xbf846c2d316dd1bc	-0.00997195536704331
44	0x3fd74044b3eb9c3f	0.3632976300272652
45	0x3f9f487aacdde0fd	0.03054992370695774
46	0x3fca9eb4a7177172	0.20796831282394695
47	0x3fa94d3bcd131f67	0.04941737058976408
48	0x3f603df800000000	0.0019826740026474
49	0x3fcbfe055cc8b9a7	0.2186896040961532
50	0xbf9f70268847eb24	-0.030701257770469628
51	0x3fe08668af84fc65	0.5164073398699541
52	0x3fb2025360000000	0.07034798711538315
53	0xbfb61db640000000	-0.08639086782932281
54	0xbfba383da23bcd37	-0.10242066584378483
55	0x3fc262aa8185c401	0.14363604854909798
56	0x3fb3b427270c239a	0.07696766570383176
57	0x3fb71ce466ef1954	0.09028460991894366
58	0x3fe11e9647ccf981	0.5349837686879227
59	0xbfc82c69df0c8350	-0.1888553942781308
60	0x3fa5cfdf40000000	0.0426015630364418
61	0x3fa8278102e4c6dc	0.04717639122317305
62	0xbfd041639a2817c2	-0.2539910321651143
63	0x3fc0c01f6d6182dc	0.13086312142242817
64	0xbf76fe6f5d5b1646	-0.00561374189209613
65	0x3fccd8cd71c68425	0.22536628776018222
66	0x3fdb9cefd63700f3	0.43145366591853856
67	0x3fcb735974533be2	0.21445768527925596
68	0xbfa1c3c258360a51	-0.034696648853259966
69	0x3fca5a0e38511480	0.2058732771858196
70	0x3fb4db157def7ed2	0.08146795582387803
71	0x3fc56c31865ae1a4	0.1673643022566128
72	0xbfac828e40000000	-0.05568356066942215
73	0xbf72623600000000	-0.0044881924986839294
74	0xbfb942c4ecb19cda	-0.09867506769807069
75	0x3fc2a83eee365aae	0.14575945502720827
76	0x3f94da3f80f1200d	0.020363800282467582
77	0x3fc46ed74648f701	0.15963259632001583
78	0xbf85c93eaffc3a6f	-0.010637750383037685
79	0x3fb729c740a7ba2a	0.090481236729581
80	0xbfbc0cc152b1d71a	-0.10956962841904919
81	0x3fc6d3f4b5aa3595	0.17834338064532732
82	0x3fd6a07d283d443e	0.35354546479817717
83	0x3f808876385a969b	0.00807278022268614
84	0x3fc9dad0c59d3fe1	0.20199021958478539
85	0xbf7cd2a800000000	-0.007036834955215454
86	0x3f9de16b880fa58b	0.029180221728812888
87	0xbfdde85f17d7af37	-0.46730782822008926
88	0x3fa8b1acf1a3443c	0.04823055696181952
89	0x3fc54b40e721dc58	0.1663590553832559
90	0x3fafc95d4236ef05	0.06208316262515549
91	0x3fe2710c7b804ce0	0.5762998973972593
92	0x3fc24f2e99ca4963	0.1430414439133286
93	0x3fb9b8e3fe40102f	0.10047745663911266
94	0x3fbd304ce225791b	0.11401825448180995
95	0x3fd3902931865f9b	0.3056738837853971
96	0x3fce3aa7ad06dff4	0.2361650080545129
97	0x3fd439fcfc702d94	0.3160393204895737
98	0xbf9ffb3e97a7aa90	-0.031231859213145585
99	0x3f9b310880000000	0.026554234325885773
100	0x3fba5d563a3e1dc0	0.10298670694293488
101	0x3fb8690ca0000000	0.09535292536020279
102	0x3fd00ba81df2aab8	0.25071146893121066
103	0x3fe1283f7d0d379e	0.5361630861677786
104	0xbfb93370b3f9d03f	-0.09844116586629158
105	0x3fb319c8f151db2a	0.0746121968421504
106	0x3fc5ef49e6b1cdb9	0.17136501087553116
107	0x3fc045fd330e1b40	0.12713589661526647
108	0xbfe6119831ec091c	-0.6896477675475441
109	0xbfa8982425cbdc81	-0.04803574525242827
110	0x3f9c6e36dee9ff35	0.027764184337228676
111	0xbfc2d8606f27853e	-0.1472282927270871
112	0x3fd3c33dd63fdb1f	0.3087915985374127
113	0x3fb6a72a3fed8eec	0.08848823605290662
114	0x3fb88af2e0000000	0.09587018936872482
115	0xbfa244f4c680e688	-0.035682343703638486
116	0x3fe1bee1525707b1	0.5545508011057249
117	0x3f8146348876d37a	0.008434687056117818
118	0x3fbb06fc4a486097	0.1055753404001528
119	0xbf8811694435d19b	-0.011751959222899446
120	0x3fb41d5e60000000	0.07857313007116318
121	0x3fcc5314a5c4da7c	0.22128542036235277
122	0x3fb3aea1486ae557	0.0768833925057114
123	0x3fd50427fc95282d	0.32837867418550354
124	0x3f906f2580000000	0.016048990190029144
125	0xbfb71a0960000000	-0.09024103730916977
126	0xbfbbeeff7d89ae22	-0.1091155702103426
127	0x3f9dd312c402da89	0.02912549325329875
128	0xbf767070cf218d79	-0.005478325520104626
129	0x3fcaef1aebfcb638	0.2104219105034859
130	0x3fdc65ac98371fef	0.44370570053842945
131	0xbfbbe25fa630b35b	-0.10892293746355845
132	0xbfb6896a80000000	-0.08803430199623108
133	0x3fcb39fea47cdb90	0.2127073577082368
134	0xbfcb8780588a0043	-0.21507267306515318
135	0x3fc12de8ea74016a	0.13421355674655483
136	0x3fa9eedfe2f4e14c	0.05065059323755125
137	0x3fd194e00e168d61	0.27471162200727944
138	0x3fd6a3f20bade4f2	0.35375643864206474
139	0x3fb517df6a10ccd0	0.0823955186795502
140	0xbfaa2078a69de524	-0.051028986300432316
141	0x3fbbe9a5572f8aea	0.10903390291745621
142	0xbf9b72c5b4383b68	-0.02680500900720109
143	0x3fca638af61bab2c	0.20616280571933865
144	0x3f9a0f5480000000	0.025449104607105255
145	0xbfb6d97680000000	-0.08925572037696838
146	0x3fb5d73dc093dea5	0.0853155703697391
147	0x3fa66ff2032798f5	0.04382282532223939
148	0xbfaa8214f9a9778f	-0.05177369639999007
149	0x3fc536b63656d7e6	0.1657321706131249
150	0x3fb28f6ac7957aae	0.07250087139753233
151	0x3fcf5bc391961130	0.2449879132146946
152	0xbf6cf7349c76c850	-0.0035358455240493206
153	0x3f97cdbb4a00e620	0.023245741264167674
154	0x3fd22d5ab9fc8260	0.28401821291666884
155	0xbf893908b08a0717	-0.01231581486468118
156	0x3fba237352a23c1d	0.10210343139100116
157	0x3fb0f73ca0000000	0.06627253443002701
158	0x3fc042c1a6307b83	0.1270372449370961
159	0xbfd1b6a09234f090	-0.27677168157584564
160	0x3fc911a9450073ff	0.1958514773295121
161	0x3fca11cdfd431bdb	0.20366835466685881
162	0x3f93bade306d896f	0.019267532068064804
163	0x3fe1cd7ed1ae23f3	0.5563348861043081
164	0x3fbe9665f724de45	0.11948239597119777
165	0xbf99d76690ad1665	-0.025235750751809855
166	0x3f9ce93397b93636	0.028233343253580588
167	0xbfcd7a9dc9ded8ff	-0.23030445439298572
168	0x3fb4267cca1e6144	0.07871227201974756
169	0x3fd1ceec0d61c2d9	0.27825452143501433
170	0xbf8066b8761ff3e8	-0.008008423905261311
171	0x3f9f9abe80000000	0.030863739550113678
172	0x3f8ba31cc3332894	0.01349470587446814
173	0x3fb7681d60000000	0.09143241494894028
174	0x3fd11e0499b1be65	0.26745715150079824
175	0x3fe047f5d807bd47	0.5087842196789233
176	0xbf430e7812fcc4e7	-0.00058155882832103
177	0x3faa9e63828747e5	0.05198965996136432
178	0x3fa0838fd9f8fcfc	0.03225373779104676
179	0x3fbe86a2944280a5	0.11924186820624756
180	0xbfe1a40cb79d30cc	-0.551275595303673
181	0x3fb58822635874a9	0.08410849500110608
182	0x3fc70c1fd9f16e3b	0.1800575079131351
183	0xbfb606c1d59bf05b	-0.08604060616556934
184	0x3fc408b52e5f3449	0.1565157391000034
185	0x3fc7108da7ee04bd	0.18019266795821479
186	0x3fae589fc0000000	0.059269897639751434
187	0x3f9867a5e04b2542	0.02383288556555852
188	0x3fdb7c8cbacc88de	0.4294769119461658
189	0x3f90d45160e9a4d3	0.01643492845542911
190	0x3fc341da6147cb7e	0.15044717550298609
191	0x3fb2e8790818ea16	0.07385975310982248
192	0xbfba641c60000000	-0.1030900701880455
193	0x3fc8b5ab7fd0a96c	0.19304412594767528
194	0x3f9384212cfe9451	0.019058721896403622
195	0x3fe136dba52f7cce	0.5379465318946133
196	0x3f90031c80000000	0.0156368687748909
197	0xbfac765d80000000	-0.05559055507183075
198	0xbfbe2853b4fe66f3	-0.11780284088890962
199	0x3fbb9d89e49d7353	0.10787259894773386
200	0x3f9dcdcc2cfdb9ee	0.02910536789516443
201	0x3fc112b7dfac7447	0.13338373586239724
202	0x3fd8144938f85dde	0.37623816073889127
203	0xbfd0c1361a29059b	-0.2617926841231452
204	0xbfa887c7c0000000	-0.04791092127561569
205	0x3fc0001b84129638	0.12500328015191697
206	0xbfc0adc0eaae7dc9	-0.1303025384813579
207	0x3fcc80a6b9f163e8	0.2226761253284899
208	0x3facc176a4ca2ed7	0.05616350900262795
209	0x3fc7a81c1149aba8	0.18481779903535522
210	0x3fda1b2a1095bed7	0.4079079782450043
211	0x3fcf416b8cf9cfd1	0.24418396361909214
212	0xbfa2a97248031b1f	-0.03644902352384904
213	0x3fa63c8dbeac37e2	0.043430737996558624
214	0xbfa41ea1949a7e1d	-0.039296197309564664
215	0x3fc8c4906d6f17e5	0.19349866240935323
216	0x3fbc6093a0000000	0.11084864288568497
217	0xbfb476cda0000000	-0.07993779331445694
218	0x3fc82601cb6ba7c2	0.18865988190310473
219	0xbf6462062ad6ed5c	-0.0024881477790736194
220	0xbfb3021492636775	-0.07425049375470201
221	0x3fb7bb0611585c83	0.0926975052210413
222	0x3fb533d6160bf67f	0.08282220876932377
223	0x3fc32163b075e931	0.14945646396865578
224	0x3fa7d3832a02816c	0.04653558624090945
225	0x3fc1627f426c7a61	0.13581839316698832
226	0x3fcd629f68f02ae5	0.2295722257989247
227	0xbfa29aa6a86cfea7	-0.03633614355066799
228	0x3fc6fe56d101227d	0.17963681416792446
229	0x3fa9543440000000	0.04947055131196976
230	0x3fb76ed3d397dd57	0.09153484264230848
231	0xbf943a7590e3f4fa	-0.01975425431100051
232	0x3facb4f16c7b38f1	0.056067986004210264
233	0x3fb81e1eeec998fa	0.09420960740826337
234	0xbfd5630da0422874	-0.33417072916257173
235	0x3fdbf67353674e7c	0.4369171442496975
236	0x3fc1d281e38b1e61	0.13923667536276965
237	0xbf8dc6115cd1f0e4	-0.01453794064058695
238	0x3fac64f7cbf91974	0.055457824372342396
239	0xbfb8e0b8c01f767c	-0.09717898073673753
240	0x3fb1cab027e09f79	0.06949902509279395
241	0x3fc9926010641798	0.19977951813069406
242	0xbfb068a5f68ffb95	-0.06409680623617782
243	0xbfb9811860000000	-0.0996260866522789
244	0xbfb6ece6530934a7	-0.08955230262036427
245	0xbfb71e8280000000	-0.09030929207801819
246	0x3fc5f205425cef77	0.17144838085539124
247	0xbf86851666cb9b18	-0.010996031772675205
248	0xbfc4f64eb065aa78	-0.1637667046846507
249	0x3fbce1284f52f937	0.11281063019393832
250	0x3fbf76fb2b649364	0.12290925797840441
251	0x3fb79f91c59c8de6	0.09227858614445203
252	0xbfdc70bee5925652	-0.4443814508352705
253	0x3fbb42af3397f6bf	0.10648627290353384
254	0xbfa8a4477b55d095	-0.04812835102612315
255	0xbfc2cb17e8554ad2	-0.14682291836159905

bias f8 [50]
0	0xbfabf497620344a0	-0.054600458826493226
1	0x3fa316b3f0d12ea7	0.037282584330197203
2	0xbfa87e53896773db	-0.04783879329963955
3	0x3f77d390475f1535	0.005816997136155512
4	0xbf68b25ec0ae173f	-0.003014741004736004
5	0x3fbf822ffe50e5c4	0.1230802532089888
6	0xbf9f246ce50d5ce5	-0.03041238925956415
7	0xbfa1def89fc60819	-0.03490426016198018
8	0xbfb2927133b4c282	-0.07254703056674752
9	0x3fa35450f3a554ce	0.037752656690523176
10	0x3fb83bf138baf48e	0.09466464648262926
11	0x3fb7cdb5f5a07869	0.09298264738797148
12	0xbfa70372239f6e21	-0.04494816479538267
13	0x3f7a2c3a6ab4804c	0.006389835539522503
14	0xbfb29ae32234ab31	-0.07267589173413282
15	0x3fb12fa37761e59f	0.06713315643891925
16	0x3fb5d277fc9ed284	0.08524274747362354
17	0xbfa906a88897a966	-0.04887892405880016
18	0xbfb1e32a2c7aa063	-0.06987250886834455
19	0xbfa52fbd2694356b	-0.04137984367307975
20	0xbfa56462b8e0a49e	-0.041781506603294036
21	0x3f962ea42b133225	0.021662297371948597
22	0xbf9bc1c88a3a6913	-0.0271064123504426
23	0xbf92924499265808	-0.01813609299423294
24	0xbf9d1c9a85055452	-0.028429426545092014
25	0x3f80257e1d5b89e4	0.007884011526987096
26	0x3fa527625cf32ef7	0.041316102835109385
27	0xbfa5babaf91e3949	-0.042440264615935926
28	0x3fb0517a71e31226	0.0637432601971076
29	0xbf7fdec4cc80ad96	-0.007780808206045894
30	0x3f9a66231c2cd98d	0.025780247301747706
31	0xbfb0cb0bb4b92510	-0.06559823190868408
32	0x3fa200cb6483d8db	0.035162311572934
33	0x3f9a00cd8e4b1981	0.025393688020608266
34	0xbfb9577266fa2cd9	-0.09899058355420055
35	0x3f73cd50a91f80b6	0.004834475594151557
36	0xbf9ec3addc780f37	-0.030043331700667166
37	0x3fb22c3cd4b32da7	0.07098751252049472
38	0x3fa1dbb5708981b6	0.03487936972374277
39	0x3faa58b46b5fe23e	0.051458013636822106
40	0xbf9be9db27c67931	-0.02725927763241848
41	0x3fb2ba247d6c15d4	0.07315280973497035
42	0x3f7cb54b919b54b5	0.007008834066899163
43	0xbfa0547bbe0179e7	-0.03189455694586112
44	0xbfb2c565c27937b5	-0.07332454679382645
45	0x3fa711fb0987a639	0.04505905619937462
46	0x3fb13c62d44c4711	0.06732766802840852
47	0xbfad0aa58fd10966	-0.05672185307095638
48	0x3fa294755dda9557	0.036288898188369494
49	0x3faa9eb2b3215c06	0.051992020002835246

two_l_plus_1 f8 [50]
0	0x3fb45f306dc9c883	0.07957747154594767
1	0x3fce8ec8a4aeacc4	0.238732414637843
2	0x3fd976fc893c3aa4	0.3978873577297384
3	0x3fe1d34a60108f73	0.5570423008216338
4	0x3fe6eb167b830193	0.716197243913529
5	0x3fec02e296f573b4	0.8753521870054244
6	0x3ff08d575933f2ea	1.0345071300973196
7	0x3ff3193d66ed2bfb	1.1936620731892151
8	0x3ff5a52374a6650b	1.3528170162811104
9	0x3ff83109825f9e1b	1.5119719593730057
10	0x3ffabcef9018d72c	1.6711269024649011
11	0x3ffd48d59dd2103c	1.8302818455567964
12	0x3fffd4bbab8b494c	1.9894367886486917
13	0x40013050dca2412e	2.148591731740587
14	0x40027643e37eddb7	2.3077466748324826
15	0x4003bc36ea5b7a3f	2.466901617924378
16	0x40050229f13816c7	2.626056561016273
17	0x4006481cf814b34f	2.7852115041081684
18	0x40078e0ffef14fd7	2.9443664472000637
19	0x4008d40305cdec5f	3.103521390291959
20	0x400a19f60caa88e8	3.2626763333838547
21	0x400b5fe913872570	3.42183127647575
22	0x400ca5dc1a63c1f8	3.580986219567645
23	0x400debcf21405e80	3.7401411626595404
24	0x400f31c2281cfb08	3.8992961057514357
25	0x40103bda977ccbc8	4.058451048843331
26	0x4010ded41aeb1a0c	4.217605991935226
27	0x401181cd9e596850	4.3767609350271215
28	0x401224c721c7b695	4.535915878119018
29	0x4012c7c0a53604d9	4.695070821210913
30	0x40136aba28a4531d	4.854225764302808
31	0x40140db3ac12a161	5.013380707394703
32	0x4014b0ad2f80efa5	5.172535650486599
33	0x401553a6b2ef3de9	5.331690593578494
34	0x4015f6a0365d8c2d	5.490845536670389
35	0x40169999b9cbda71	5.6500004797622845
36	0x40173c933d3a28b5	5.80915542285418
37	0x4017df8cc0a876f9	5.968310365946075
38	0x401882864416c53d	6.12746530903797
39	0x4019257fc7851382	6.286620252129866
40	0x4019c8794af361c6	6.445775195221762
41	0x401a6b72ce61b00a	6.604930138313657
42	0x401b0e6c51cffe4e	6.764085081405552
43	0x401bb165d53e4c92	6.9232400244974475
44	0x401c545f58ac9ad6	7.082394967589343
45	0x401cf758dc1ae91a	7.241549910681238
46	0x401d9a525f89375e	7.400704853773133
47	0x401e3d4be2f785a2	7.5598597968650285
48	0x401ee0456665d3e6	7.719014739956924
49	0x401f833ee9d4222a	7.878169683048819
