Sphere/NeuralNetworks/models/net_l129.pt (torch_old, 58736 bytes, 6 tensors)

weight f8 [36, 6]
0	0xbfde959ddf83b3d0	-0.4778818781622336
1	0x3fead978c1195e43	0.8390468379465762
2	0xbfa7e9471aecd8cc	-0.04670164302517463
3	0xbfc2a5d230c2c400	-0.14568545704744906
4	0xbfb2e4e4dde990a1	-0.07380514543325713
5	0x3fa88489e15b9930	0.04788618923139365
6	0x3fc25057a2a276bc	0.1430768531908394
7	0xbf962fe822f81cc9	-0.021667124876356057
8	0xbfbb3525394692aa	-0.10627968452770156
9	0x3fc9e670548fb7b2	0.20234493378614854
10	0xbf87ea5842997461	-0.011677445919469233
11	0xbfb16c757e2407ce	-0.06806120233161936
12	0x3fc39cd9edacf8ed	0.1532242212796925
13	0x3fe90913aa8e6868	0.7823580104043346
14	0xbfa333fc5bc59c2a	-0.03750599498999237
15	0x3fbb6c88201da9af	0.10712481292799823
16	0xbfd0d17ab8347e04	-0.2627856062772198
17	0x3fc45e15a2be7a58	0.1591212315224364
18	0xbfc1296d80000000	-0.1340767741203308
19	0xbfc0d67fc0000000	-0.1315459907054901
20	0x3fd363bf80000000	0.30296313762664795
21	0x3fd4808100000000	0.3203432559967041
22	0x3fd85807c0000000	0.38037294149398804
23	0xbf630fe000000000	-0.0023269057273864746
24	0x3fd22d6ce9e109d8	0.284022549054638
25	0xbfc617d74869bfa2	-0.17260256801409662
26	0xbfe368f5e92bc41e	-0.6065625719185197
27	0xbfdc914914faf3ca	-0.44636752175193506
28	0xbfd2ea56831ecbc4	-0.29555285267559506
29	0x3fd59843cb095666	0.33741850688725206
30	0xbfc7be57f3b8a8b0	-0.18549632454352638
31	0x3fa744cf4f521952	0.04544685214300394
32	0x3fe801f56bb27512	0.7502390960177385
33	0xbfcd897c56d72dad	-0.23075823059330727
34	0xbfc38142dc82d02c	-0.15238223807466633
35	0x3faed8c991901ff9	0.060247706431312005
36	0xbfd1edf72261f47e	-0.280149253441614
37	0x3fdb946d037991e4	0.43093419398635846
38	0x3fe031237dad5e64	0.5059983687051042
39	0x3fceafbbd1f4061c	0.23973796607610687
40	0xbfb38e6c6be4e89b	-0.07639196046958079
41	0xbfcbf05f3aee9532	-0.21827307107484156
42	0x3fd3cfb5c0000000	0.3095526099205017
43	0x3fd24b5000000000	0.2858467102050781
44	0x3fd70e6200000000	0.36025285720825195
45	0x3fbb17ad00000000	0.10583001375198364
46	0x3fc5f9e000000000	0.17168807983398438
47	0xbfa4d1b200000000	-0.04066234827041626
48	0xbfc5f79cf35668f4	-0.17161905175891656
49	0xbfdfcdb9ecb65a4b	-0.4969315349239067
50	0x3fd35fab7ad8fb89	0.3027142238315084
51	0x3fe0ceead2815dad	0.5252584563667618
52	0x3fc0a5ce7793f6dc	0.13006001318711113
53	0xbfd38e57e03b681c	-0.3055629434362588
54	0x3fcad40f80000000	0.20959657430648804
55	0x3fb0ed9e00000000	0.06612575054168701
56	0x3fd52d4480000000	0.33088791370391846
57	0x3fd1cdb140000000	0.27817946672439575
58	0x3fc4803800000000	0.16016292572021484
59	0x3fc4ff2e80000000	0.1640375256538391
60	0xbfcb0b5588bb83a7	-0.21128338982000835
61	0x3fc448c0157dc048	0.1584701638162207
62	0x3f8dedc44d5ab47b	0.01461366044108047
63	0x3fc5d584a1eaff71	0.1705785551657715
64	0x3fab847fa0ab5264	0.05374525867742788
65	0xbfd06dfa63cc6d0e	-0.2567125296206577
66	0x3fd4b2cd40000000	0.3234131932258606
67	0xbfccb5a7e0000000	-0.22429369390010834
68	0xbfa05bed00000000	-0.031951338052749634
69	0x3fa10a6d00000000	0.03328266739845276
70	0x3fd6350480000000	0.34698593616485596
71	0x3fd317fcc0000000	0.2983390688896179
72	0xbfe9582a347c3b02	-0.7920123124220881
73	0xbfd052cc9b012407	-0.25505366456178574
74	0xbfd3a831f16a2163	-0.30714081359521667
75	0x3fc77342205c802b	0.18320490436690426
76	0x3fb28fcff9de9b45	0.07250690317469573
77	0xbfc69871c2890726	-0.17652723311226132
78	0xbfd2bbab450bdd41	-0.292704408100196
79	0xbfcddcc5780c2fef	-0.23329990731906444
80	0x3fcfdd0228e80599	0.2489321422327009
81	0xbf99de3c3af339a2	-0.025261822793987705
82	0x3fcbcacd242f2837	0.2171265055351925
83	0xbfd67def9552f05b	-0.3514365156404488
84	0x3fcc75a200000000	0.22233986854553223
85	0x3fc4a97500000000	0.16142141819000244
86	0x3facb42700000000	0.05606195330619812
87	0xbfc9dd3640000000	-0.20206335186958313
88	0x3fa264d300000000	0.035925477743148804
89	0x3fd69291c0000000	0.35269588232040405
90	0xbfc5e828661b9a2e	-0.17114739404424156
91	0x3fd1cbe0a5c3b764	0.27806869686070557
92	0xbfb3d8969dddf942	-0.07752362589051123
93	0x3fce17bd39833273	0.23509946163393955
94	0xbfc0c7ff32c2c9ef	-0.13110342005309358
95	0xbf71fe252809e040	-0.004392762319746224
96	0x3ff21e3062cee1e4	1.1323703632061717
97	0x3fc9a4275337e228	0.20032207072633068
98	0x3fd0dc48f9590d69	0.2634451327359871
99	0xbfd28e5e2ef923c6	-0.2899394472811391
100	0x3fc0ccd9ee1085b6	0.1312515652107728
101	0xbfced170e7d1563c	-0.24076663321709357
102	0xbfc99d26c6116022	-0.2001083819511687
103	0x3fac6685f4a8b86a	0.05546969043312873
104	0x3fcfda1667262fe2	0.24884300266819454
105	0xbfd6c1594439c8ed	-0.35555106794994523
106	0x3fd498a7de8fab50	0.321817366928987
107	0xbfcccf3cf3ce1d0e	-0.22507440475985913
108	0xbfb6f03db830f8b3	-0.08960328814370903
109	0x3fe0e828436d98fc	0.5283395115809806
110	0xbfe475d010bfa36d	-0.6393814398880814
111	0x3fa41c6d5ff29844	0.03927938266979017
112	0x3fc86cc95b221a88	0.190819901941911
113	0xbfc2eebd70639dc7	-0.1479107664847403
114	0x3fbfed4db1dd3a9e	0.12471471397769071
115	0x3fddd02c2a2b3e87	0.46583084219035026
116	0x3fd4a47bad68d8c1	0.32253925261046495
117	0xbfca21ed5298a620	-0.20416037114164087
118	0x3fce3827dd0afcac	0.2360887364684222
119	0xbfd2fa913d0e4c9e	-0.2965434166191673
120	0x3faf83d200000000	0.061552584171295166
121	0x3fb064d700000000	0.06403869390487671
122	0x3fd1580740000000	0.2709978222846985
123	0x3fc5044e80000000	0.16419392824172974
124	0x3fbb722400000000	0.10721039772033691
125	0x3fb3393180000000	0.07509145140647888
126	0xbfc5ec49407251d7	-0.1712733807259059
127	0x3fa4a4937f8a440a	0.04031811649213786
128	0x3fc37bd9a1d3a2b8	0.15221710588163773
129	0xbfd159012203e8b4	-0.2710573990040175
130	0xbfc2919fec0ad2e0	-0.14506911302091563
131	0xbf77bc4613d1fdbc	-0.0057947862052282716
132	0xbfc1cedb44129510	-0.13912525962693012
133	0xbfd9fb973233fbb4	-0.4059808721794369
134	0xbfd34139ec654068	-0.3008560951757375
135	0x3fd5a642881d6fbe	0.3382726983306802
136	0x3fc0110175520c99	0.1255189726690318
137	0xbfc25f0ebba57ce3	-0.14352592623161006
138	0xbfc6ba9214930020	-0.1775686836681425
139	0xbfcf22ef98feb4a9	-0.24325365992027528
140	0x3fbd2a41f13a303c	0.11392604960764258
141	0x3fd2f2c0b6acfe2e	0.29606645430974055
142	0xbfd6ccd952fc768e	-0.3562529859935716
143	0xbfc02a0e9195d05e	-0.12628347500470033
144	0x3fd4726480000000	0.3194819688796997
145	0xbfd7b823e0000000	-0.37061402201652527
146	0x3fab06ef00000000	0.05278727412223816
147	0x3fc105af80000000	0.13298600912094116
148	0x3fc24e7280000000	0.14301902055740356
149	0x3fc89f8900000000	0.19236862659454346
150	0xbfd1fdc580ade0e2	-0.28111398283318867
151	0xbfcc7955f647d379	-0.22245287442606435
152	0x3fda3894a9c1a448	0.40970341279768663
153	0x3fe09f02112a0b08	0.5194101653326877
154	0x3fc7016c7c56da75	0.17973095008138143
155	0xbfd72b5d452fd33e	-0.36202174908185103
156	0x3faf5ffc00000000	0.06127917766571045
157	0x3fb2078980000000	0.07042750716209412
158	0x3fc261c600000000	0.14360880851745605
159	0x3fb19edb80000000	0.0688302218914032
160	0x3fd5bbcf80000000	0.3395880460739136
161	0x3fd6190e40000000	0.3452792763710022
162	0x3fc2b89a80000000	0.1462586522102356
163	0xbf85f87c00000000	-0.010727852582931519
164	0x3fd45dca00000000	0.3182244300842285
165	0x3fce6a2100000000	0.23761379718780518
166	0x3fca691380000000	0.20633167028427124
167	0x3fd9394400000000	0.3941202163696289
168	0x3fe86826ad6a567f	0.7627137553233324
169	0xbfe6163a932f268b	-0.6902134775820782
170	0xbfb3eb5207e59152	-0.07780945484916416
171	0x3fd1b646b4790dcc	0.27675025581649204
172	0xbfa0af98a10a0979	-0.032589692743402794
173	0xbfc099ff96fbe965	-0.12969965812937825
174	0xbff3e60e2d35a3c3	-1.2436658636090534
175	0x3fca57397b903d9a	0.2057868817650899
176	0x3fbfcb70dda0da89	0.12419801150177014
177	0xbfafb8b21aa722e4	-0.06195599150993816
178	0x3f7c8848a5093687	0.00696590782952245
179	0x3f9227e1c9c058e9	0.017730262698102548
180	0x3fd301a123ed120c	0.2969744540062329
181	0xbfd06b9203b2e6e0	-0.2565655742761077
182	0xbfddae2e6270ee1d	-0.4637561761225884
183	0x3fc05d19e249684e	0.12784122037084206
184	0x3fd1a038aaa9a478	0.27540413538242303
185	0xbfc1e972badd5444	-0.13993677257772863
186	0x3fcd9f8ac7a9d73a	0.23143133877936767
187	0xbfc90313c9874b3a	-0.1954064115548933
188	0x3fd1bb0f54c47041	0.27704222944317186
189	0x3fd1e9b22682ccbd	0.27988866577943466
190	0xbfc43be258f1c4f4	-0.15807751982678264
191	0xbfc843fba77e7f3a	-0.1895746772615839
192	0x3f600c52a32c80cf	0.0019590009700466214
193	0xbfb4a2e61d28a222	-0.0806106396854678
194	0x3fa0a106581af704	0.032478521590276116
195	0xbfd2ae613d05ec2e	-0.2918933006218961
196	0x3fd799f60ff930c0	0.3687720447530971
197	0xbfc4c96c83d92f00	-0.16239696920307978
198	0xbfdeddced50aadec	-0.4822880821691047
199	0xbfe8844e4a4342a3	-0.766150612873464
200	0xbfc57c3919220ee7	-0.1678534863204881
201	0xbfd012944ea2b2a5	-0.2511339919972591
202	0xbfa239136f57615e	-0.03559170469424332
203	0x3fd725eb9d19b287	0.3616894754584696
204	0x3fd65f59ea087107	0.34956977705748254
205	0xbfe2966c65012d2a	-0.5808622334238056
206	0x3fe5f372d645d446	0.6859678444876713
207	0x3fd99d49dddf4784	0.400225130722099
208	0xbfbc15bc94fe8a69	-0.10970667493396892
209	0xbfd041c9dcd367a5	-0.25401541295070224
210	0x3fa4ddbb00000000	0.04075416922569275
211	0xbf85ce4400000000	-0.010647326707839966
212	0xbfd0aba6c0000000	-0.2604767680168152
213	0xbf9fba7800000000	-0.03098475933074951
214	0x3fc8d4ef80000000	0.1939982771873474
215	0x3fd8ab76c0000000	0.3854653239250183

bias f8 [36]
0	0xbfd7476dcebba5be	-0.3637346762539798
1	0xbfd7812db0838d6e	-0.36725942838366776
2	0x3fd8af301a9e7a25	0.38569262122647024
3	0xbfbb5d5180000000	-0.1068926751613617
4	0x3fb090ab704fac99	0.06470748416875195
5	0xbfa0652179790d4b	-0.03202156646559703
6	0xbfd0f1668dad0d8f	-0.2647339232973644
7	0x3fd3e99140000000	0.3111308217048645
8	0xbfc31efa50625e23	-0.14938286709797052
9	0x3fd7c087c0000000	0.37112611532211304
10	0xbfe9964310a85e7b	-0.7995925259919682
11	0xbfc1bbf280000000	-0.13854819536209106
12	0xbfe9e693f335ad7d	-0.8093967199505837
13	0xbfe8476068d98da8	-0.7587129638526919
14	0xbfd30ced00000000	-0.29766392707824707
15	0xbfbdadfb8b8ef3b3	-0.11593601376712463
16	0xbfc0e99bf6b6fb8c	-0.13212918802852547
17	0xbfdc6eb12cd64b00	-0.44425610903378754
18	0xbfd77dfe61178e9b	-0.3670650432743316
19	0x3fdf65b5834b8332	0.49058282682203747
20	0x3fc27f5700000000	0.14451110363006592
21	0xbff1feaa63f611a9	-1.1246742157683036
22	0x3fd14434d49ca0c0	0.2697879864013082
23	0xbff2acbc03397562	-1.1671714902834869
24	0x3fc05f7680000000	0.12791329622268677
25	0x3fe36e9a86ca5e5d	0.6072514183642387
26	0x3fd9d7b640000000	0.40379101037979126
27	0x3fd02b6380000000	0.2526482343673706
28	0x3fd0cdf97bc36384	0.26257168852094304
29	0xbf7afa4523eb21b1	-0.006586332396814874
30	0x3fd4f0cc65f1403d	0.32719716983138253
31	0x3fe7861357068f35	0.7351166438788598
32	0xbfd82c3684bdef24	-0.3776985451038277
33	0x3fb060af9c367106	0.06397531093393036
34	0xbf931970847c4e86	-0.018651731573369655
35	0x3fd8a68ec0000000	0.38516587018966675

weight f8 [72, 36]
0	0xbfbbe87b11efde4a	-0.10901612461008728
1	0xbfba4c49f9b61c44	-0.10272657724827733
2	0xbfc5ee450c3a6d46	-0.17133391472894227
3	0x3fbd6422c0000000	0.11480920016765594
4	0xbfc1355723259356	-0.13444031921531047
5	0x3fc3d81e6e54e140	0.15503292453082373
6	0x3fd14d70a6bfda56	0.27035156520961345
7	0x3fc26b51a0000000	0.14390011131763458
8	0xbfdee3307697d3ba	-0.4826165350089543
9	0x3fb3aae200000000	0.07682621479034424
10	0xbf946b8a0029f342	-0.019941478977205003
11	0xbfb586a0c0000000	-0.08408550918102264
12	0xbfd006ebe6ce82d3	-0.2504224542590638
13	0x3f99e05256d299af	0.025269781636461704
14	0x3fc1cc6be0000000	0.1390509456396103
15	0xbf909be1c0b91f83	-0.016219642055403504
16	0x3fb60637c2b56cc0	0.08603237632398741
17	0x3fc411311535fdd4	0.15677464996041002
18	0xbfd583685f5546f2	-0.33614548978685754
19	0x3fc6c08bcf639757	0.17775104166428932
20	0xbfa8739800000000	-0.04775691032409668
21	0xbfd2278343943c18	-0.28366166686549965
22	0x3fc0c135c45b012e	0.13089630210561992
23	0xbfc65f35e0351c50	-0.17478059241895716
24	0xbfc43fb040000000	-0.15819361805915833
25	0xbfb05c3b9c95c67e	-0.06390736172559205
26	0x3fbac04a40000000	0.10449661314487457
27	0x3fb4d334c0000000	0.0813477486371994
28	0x3faeb9a9a9d6dd76	0.060010244352663486
29	0x3fa6b29d1219d639	0.04433146329840238
30	0x3fc8fd0a991c494a	0.19522221065614992
31	0x3fba49529afad889	0.10268131526649617
32	0x3f86fd5fd04a968f	0.011225460571334693
33	0x3fbd27f268e7fc0a	0.11389079152284878
34	0x3f6ea80b995911a8	0.003742239622427774
35	0x3f8caa2e00000000	0.013996466994285583
36	0xbfa2d32944b4edfa	-0.036767282139830784
37	0xbfd16afe0d71b79b	-0.27215529740248606
38	0xbfc0ffd05e382bc1	-0.13280682182843687
39	0x3fa8712780000000	0.047738298773765564
40	0xbfcb5021a1b17e6d	-0.21338291545088187
41	0x3fcdaa1e9d418bc7	0.23175413778798612
42	0xbfbe4af5143acb62	-0.1183312582386811
43	0xbfb9124ec0000000	-0.09793560206890106
44	0xbfe16322ff4d4348	-0.543351648937553
45	0x3f71509400000000	0.004227235913276672
46	0xbfd297a4106582f5	-0.2905054245111807
47	0x3fa5d87180000000	0.042666956782341
48	0xbfad7de06c57199f	-0.05760098764908438
49	0x3f728427d158dcef	0.004520564592488826
50	0x3fb55ce340000000	0.08344860374927521
51	0xbfc98fad0e71e922	-0.19969714360542762
52	0x3f7d757c9a13333c	0.007192122198102887
53	0xbfc783a7e16fe35d	-0.18370531566304296
54	0xbfd38572438bdb70	-0.3050199184066775
55	0xbf96d197744dce69	-0.022283903573635664
56	0x3faab36e00000000	0.052150189876556396
57	0xbfc89e154ae7026e	-0.19232431561796964
58	0xbfab31e68ff881f0	-0.0531150866265796
59	0xbf911a977d2c6c6c	-0.016703001990304875
60	0xbfa8204800000000	-0.047121286392211914
61	0x3fccb81b02500e2d	0.22436845410276032
62	0xbfbde55ec0000000	-0.11678116023540497
63	0xbfc3a8b0c0000000	-0.1535855233669281
64	0xbfa207a4f7c49bda	-0.03521457218658215
65	0xbfa1e2c5dffaa7e6	-0.03493326529617473
66	0xbfaa96a4dacb07bb	-0.051930572231426685
67	0xbfa1080cb7fbd213	-0.0332645392026373
68	0xbfdb40f81a6835a4	-0.4258404024011162
69	0x3fafc7693b9efed3	0.062068260696376186
70	0x3fd36f29a4db2f6c	0.30365983103978667
71	0xbfb6155500000000	-0.08626300096511841
72	0x3fb5971df4fb670b	0.08433711272246229
73	0xbfe32ef6113f2f88	-0.5994825684406218
74	0x3fa64b43557ec2f5	0.04354296129839056
75	0xbfc304cac0000000	-0.14858373999595642
76	0xbfd6343892285c8f	-0.34693731568536007
77	0x3fd35270992bcba3	0.30190672834504023
78	0x3f86374d4af7d440	0.010847667551369011
79	0xbfa4ed3000000000	-0.04087209701538086
80	0xbfc1a9580816cf83	-0.137980464887388
81	0xbfbab803c0000000	-0.10437034070491791
82	0xbfbd44c55d8d44f4	-0.11433061155300434
83	0xbfc2f8b3e0000000	-0.14821480214595795
84	0xbfac2687ef48cf3c	-0.05498146816208169
85	0x3f9b739d4d43e215	0.026808221665279037
86	0x3fc554eaa0000000	0.16665394604206085
87	0xbfca413fdb7d2799	-0.20511625497084365
88	0x3fc013bd2e68e968	0.12560238615135266
89	0x3fb0d13eae8dc434	0.06569282304350638
90	0xbfc1819a7d54b314	-0.13676768417044427
91	0x3fb6fc7b282fd6ff	0.08979005557179319
92	0xbfba662560000000	-0.10312112420797348
93	0xbfe23a7fed335723	-0.5696410782645426
94	0xbfc5a7e175f1abeb	-0.16918581255899254
95	0xbfdd3c96b2e20e81	-0.45682303875967284
96	0xbf993e3400000000	-0.02465134859085083
97	0x3fc26f585414644d	0.14402298074199607
98	0x3fb1573f40000000	0.06773753464221954
99	0xbf9313b800000000	-0.018629908561706543
100	0xbfe09c33b4642b03	-0.5190676234500134
101	0x3fd68518e036ef69	0.35187360664325823
102	0xbfd96814ea90d034	-0.3969776430778922
103	0xbfcb56648a76a395	-0.2135739971247658
104	0xbfd8b4bf1e2437f8	-0.38603189414504824
105	0x3fb8055498f2c583	0.09383133634653089
106	0x3f88ff48910213de	0.012205664563461779
107	0x3fbecddcc0000000	0.12032870948314667
108	0x3f8ed15a634f1580	0.015047746806781559
109	0xbfc0e127b37e24ef	-0.131871187823243
110	0xbfdfbec0682bd428	-0.49601755307168327
111	0xbfc4197a00000000	-0.1570274829864502
112	0x3fb6dd23a18f0f1a	0.08931181616122466
113	0x3fb361b616fcf800	0.07570970593675952
114	0x3fb23e6a5aa29363	0.07126488411684088
115	0xbfc32db500000000	-0.1498323678970337
116	0x3fc8f934ab17935c	0.19510515550714558
117	0x3f5be5b000000000	0.0017027109861373901
118	0x3fa9e5b59dfacedc	0.05058066895926824
119	0xbfc45a1160000000	-0.15899865329265594
120	0x3fd5c91e98ed4357	0.3404003613878123
121	0x3fb23eaf2b17e463	0.07126898576815814
122	0xbfb2a914c0000000	-0.07289247214794159
123	0x3fa7a276edf5cb06	0.046161381290309264
124	0xbfa8d7e5c0f63b0a	-0.048522167019760046
125	0x3fc767b1318224c0	0.1828519336452583
126	0xbfa4abe20bec8274	-0.040373863177824015
127	0xbfafb7281ff59e9e	-0.061944250012684096
128	0xbfa5593f80000000	-0.04169653356075287
129	0xbfa030140b84e307	-0.031616808324946226
130	0x3fbda3e331e99bf7	0.11578197449271942
131	0x3fc9dda0727fb60f	0.20207601156964514
132	0x3fc524a320000000	0.16518057882785797
133	0x3fca76169b55c3eb	0.20672876915662583
134	0xbfbfe15560000000	-0.1245320662856102
135	0xbf97917d00000000	-0.023015931248664856
136	0x3fb3bea8f2eecaf9	0.07712799006439387
137	0x3fb44dfeb66ce74a	0.07931510881180973
138	0xbfc92c488612dc74	-0.19666391893926838
139	0xbf9abf355d9ca5c7	-0.026120027388207647
140	0xbfafae09a00d3129	-0.06187467650178952
141	0x3fc8fca6210a13ea	0.1952102338147193
142	0xbf5179056f96beb5	-0.0010664513668920243
143	0x3fba859140000000	0.10360057651996613
144	0xbfb60ea32500b62c	-0.08616084721935441
145	0x3facfe34a329975e	0.05662693492631264
146	0xbfcbfadf89395d75	-0.21859354210276263
147	0x3fa4a1d180000000	0.04029707610607147
148	0xbfca2aeacf329623	-0.2044347297389076
149	0xbfbd87d9d78dab7b	-0.11535417091879012
150	0xbfb553cadc36421f	-0.08330982090252136
151	0xbfc0a7bb00000000	-0.130118727684021
152	0xbf97047de4cd2d18	-0.022478072252210074
153	0x3f6e842800000000	0.0037251263856887817
154	0xbfc55fd976da0ca5	-0.16698759368236896
155	0xbfbcfeaac0000000	-0.1132609099149704
156	0xbfafee8e87d5f461	-0.06236691864158029
157	0xbf9ff1ddf027a109	-0.031196086676488686
158	0xbfc09c42c0000000	-0.12976869940757751
159	0xbfc9e17eee1987ad	-0.20219408632243355
160	0xbfb867f4970d37c4	-0.09533623397621144
161	0xbfd002a1847c04dc	-0.25016057908949363
162	0x3f91103d58b221d0	0.01666351178985953
163	0x3fb2fa48fe18d125	0.07413154796160322
164	0x3fa3632280000000	0.037865713238716125
165	0xbfc85c7ec9cc56e1	-0.1903227315275933
166	0xbfce3c2a304f0391	-0.23621108397312843
167	0xbfd03c3ef731af4c	-0.2536771215443323
168	0x3fb956d440000000	0.09898115694522858
169	0x3fa1ceda89922b4f	0.03478129319508715
170	0x3f9365b800000000	0.018942713737487793
171	0xbfbd571460000000	-0.1146099790930748
172	0xbfb6dadc9500f03e	-0.089277063730095
173	0x3fbf9b7045c0dbed	0.12346555426562107
174	0xbfbc7e0f501f4b69	-0.11129852014646037
175	0x3fa66e1cc48e50ef	0.043808840745585324
176	0x3fbb50435d399304	0.10669346834181331
177	0x3fb25971687881e1	0.07167729187540985
178	0x3faafa355fe43b5c	0.05269018931914246
179	0xbfbf4f9c60000000	-0.12230851501226425
180	0xbfae1be58bce6cad	-0.05880658465977127
181	0xbfc0f92ec9000ed8	-0.13260445417846856
182	0xbfc7b7d597305a7f	-0.1852976787783582
183	0x3fa3825200000000	0.03810364007949829
184	0x3fb0e73531eaeb1f	0.06602795094196921
185	0xbfa39f517d6f495b	-0.03832487732110464
186	0xbfa47ab02db8e2a5	-0.03999853666431833
187	0x3fb181cd40000000	0.06838686764240265
188	0xbfcfdf0d4cae655d	-0.24899450535012138
189	0xbf952f7400000000	-0.02068883180618286
190	0xbfbf298e8219173c	-0.1217278545019242
191	0xbfb89121c0000000	-0.09596453607082367
192	0xbf9ea1269cd68a0c	-0.02991161663306667
193	0x3fb84d30ab5c849a	0.09492782767894639
194	0x3fad902380000000	0.05774031579494476
195	0xbfb8a670de067205	-0.09628968639885478
196	0xbfc08f51e1d2aed2	-0.1293737747813482
197	0x3fb10ed09d82971a	0.06663230748617047
198	0xbfc20ccc13cf87e7	-0.14101553885762927
199	0xbfac8ad47e56aa6b	-0.05574668924540024
200	0xbfabbbb200000000	-0.05416637659072876
201	0x3fa7a012920add6b	0.046143131568380756
202	0xbfab7608d9f3a8e4	-0.053634907346195054
203	0x3f78deef54163c9d	0.006071982266248413
204	0x3fbfec6e40000000	0.12470139563083649
205	0xbfb8a28041e40050	-0.09622956856401399
206	0x3fa5abce00000000	0.042326390743255615
207	0xbfc3b86280000000	-0.15406447649002075
208	0xbfd19b9b5b46dfad	-0.2751224891067022
209	0x3fbba3fa7054dfab	0.10797085993260562
210	0xbfb2b601a91ed94b	-0.07308969859045537
211	0x3fa94951d0445add	0.04938750903436582
212	0xbfd50c51d2152734	-0.32887692943460256
213	0xbfb5506079be916c	-0.08325770351672696
214	0x3fbe221f103775a0	0.11770815034784343
215	0x3f96ea5700000000	0.022378310561180115
216	0xbfe97c8660505339	-0.7964507943275755
217	0xbfb05d7f5eb1dae1	-0.06392665922053765
218	0x3fade48821f86809	0.05838418402363749
219	0x3fbf859440000000	0.12313200533390045
220	0xbfa167be4b869044	-0.03399462387031396
221	0xbf845552dfe05d27	-0.009928367097059422
222	0xbfdad064ab0956af	-0.4189693136480441
223	0xbfbb87a3c0000000	-0.10753844678401947
224	0xbfda1a73b136b41c	-0.40786449724220275
225	0xbfb4455660000000	-0.07918300479650497
226	0xbfb21268fa425eb9	-0.07059341535420573
227	0x3fc3c5d920000000	0.1544753462076187
228	0xbfeaa45dbb0b2e5e	-0.8325642255017092
229	0xbfbfcaf29c87fb9a	-0.12419048615991671
230	0xbfbcb97f00000000	-0.11220544576644897
231	0xbfb4e3c8c1605d83	-0.08160071107010052
232	0xbfbb768ab07841e6	-0.10727755363792077
233	0xbfc0ab633da8c8f5	-0.13023033629139716
234	0xbfd781bf77638307	-0.3672941842942667
235	0xbfc40d1ade6811b1	-0.1566499315232597
236	0x3fc02e11e0000000	0.12640593945980072
237	0xbfdd98dc2b0ad5bd	-0.46245483592369024
238	0x3fce87d6fd9d6085	0.2385205019334117
239	0xbfd159e9d26d51d5	-0.2711128764106239
240	0xbfaae42580000000	-0.05252186954021454
241	0x3fd811f5c9c7c1b4	0.37609619813067785
242	0xbfb666b560000000	-0.08750470727682114
243	0x3fc12a47a0000000	0.13410277664661407
244	0x3fc35232e4c22dc6	0.15094600839471023
245	0xbfe2a2a1cc57ba31	-0.5823525420253813
246	0x3fc86568b5ad1d16	0.19059475775632312
247	0x3fb4518c16c991e0	0.0793693118699319
248	0x3fb95f43886fc735	0.09910986023876663
249	0x3fcfdd1696406c22	0.24893457733637187
250	0x3fd923936fca969e	0.39279638211369583
251	0xbf96007100000000	-0.021486058831214905
252	0xbfc636cb8870eb1e	-0.1735472122398613
253	0xbfc1d455381f99c3	-0.13929238548662512
254	0xbfb2c075c0000000	-0.0732492059469223
255	0xbfbadfc100000000	-0.10497671365737915

bias f8 [72]
0	0x3fe67602a43094ff	0.7019055563766016
1	0x3fab11088ad51df9	0.05286432928783919
2	0x3fc2387ea705ba35	0.1423490825213364
3	0xbfdd33b793a61abf	-0.4562815610774286
4	0xbfcb86286b953a84	-0.21503167393753497
5	0x3fd033e0b4d9e646	0.25316636716124596
6	0x3fe029402d0837f5	0.5050354842694548
7	0xbfc0fcadd08df82b	-0.1327111500103809
8	0xbfd28bdf3eeddc59	-0.2897871126692216
9	0xbfc6fce3f972ed98	-0.17959260635494156
10	0xbfad3151b7f27342	-0.057016900734402146
11	0xbfd63d9345b4e8b0	-0.34750825698177845
12	0xbfc1ffadcaee2f8d	-0.14061520012580467
13	0xbfe0137e8eca05ed	-0.5023796833849566
14	0x3f9ed35eaef3b87e	0.03010318701574776
15	0xbfcaeb352ac3f16a	-0.21030296886591354
16	0x3fc69ef09b32c76f	0.17672545984310825
17	0x3fe234a965709b93	0.5689284306762253
18	0x3fb23e895822d165	0.07126673127897261
19	0x3fe66c4530b6cf75	0.7007165862510037
20	0xbfe4c75d7fb76f66	-0.6493365759338132
21	0xbfc4908191f19c59	-0.16065997720872607
22	0x3fb8e87ae2856837	0.0972973635702211
23	0xbfd0c95abb89ab65	-0.26228969873652935
24	0xbfd8c5ae3db8ea35	-0.3870654680974071
25	0xbfd9e681a5173f44	-0.4046939956870015
26	0xbfc5e4866f1378da	-0.1710365335811222
27	0xbfd77d879f1cbc53	-0.36703672922425773
28	0x3fcb2a418e0ede6b	0.21222705303601982
29	0xbfc974fe0f58b52c	-0.19888282536832358
30	0x3fc12b76777dde17	0.1341388781981869
31	0x3fde7f5acc1a497a	0.476523112601306
32	0xbfdaec30e98c55ed	-0.42066595847549487
33	0x3fcf9f53885a4e14	0.2470497527871066
34	0xbfc78c0199f50305	-0.18396015183864037
35	0xbfbc3e89ebcbbb22	-0.11032926565870274
36	0x3fc4de350330652f	0.1630312219211105
37	0x3fdd04a2382103cd	0.45340781670898594
38	0x3fa78dfd38886d66	0.04600516619776833
39	0x3f90fc8a6b9aabd9	0.016588366334570146
40	0xbfcce87d193e052f	-0.2258449910405402
41	0x3fddacd71ba1db0e	0.4636743326040439
42	0xbfdc56ee842dd44f	-0.44280589016063215
43	0xbfdfbd812e7f0e80	-0.4959414438310219
44	0xbfe2f4ef8becc80b	-0.5923993809612979
45	0x3fd2db5452d42b8c	0.294636803519716
46	0x3fd70cbfcaaf4951	0.36015314858845665
47	0xbfbd8860107bee04	-0.11536217119640219
48	0x3fb44bbd97c2f419	0.07928070979228642
49	0x3fe05392ea103ab1	0.510201890139646
50	0xbfc430206da4009b	-0.1577187095026645
51	0xbfc4004ef3a2af32	-0.1562594117761989
52	0x3fe28918dfe482f0	0.579235493936805
53	0x3fe13e0ffb25eb8b	0.5388259797322105
54	0xbfd47d92102f84e4	-0.3201642187178335
55	0xbfdaeeec880744b1	-0.42083276065848013
56	0xbfcec22225012eae	-0.24029948050371303
57	0xbfe1c58fc669864e	-0.5553664088476553
58	0xbfd08ec01d40ec8b	-0.2587127957992343
59	0xbfce625e29cf2459	-0.23737694779836963
60	0x3fdc3e5d9efe2a23	0.44130650068896865
61	0xbfdab172fabf1fbe	-0.41708063590021627
62	0x3fd9b33525b04a7e	0.4015629642537205
63	0x3fc6d1f5a740ad2d	0.17828245798714573
64	0xbfc2456b8bfa32a0	-0.14274353346663293
65	0xbfd437d9172eb575	-0.31590869201575994
66	0xbfb2880bd30c0192	-0.07238840010177786
67	0x3fc76942b4248a3f	0.18289979740173298
68	0xbfd41398aafcb659	-0.3136960668369731
69	0xbfdd2c1d27ffae4f	-0.455817498265536
70	0xbfc10aedfa2c22a0	-0.13314604487847692
71	0x3fe20b71d06f572c	0.5638970442766769

weight f8 [30, 72]
0	0x3fc88b32f9c887ca	0.1917480201382758
1	0x3fad242e27cdbdd5	0.0569166587437128
2	0xbfda75d51f65ceed	-0.4134419256799749
3	0xbfbe62d54aa34a95	-0.1186955744954424
4	0xbfa9ed032bd779d5	-0.05063638601471935
5	0x3f8563c7c68148ad	0.010444222207443532
6	0xbfe8d751d5a8d07c	-0.7762841389690176
7	0x3fa2aea49a93ef1c	0.03648867022454125
8	0xbfa2657dbda713d9	-0.0359305662164286
9	0x3fa83f320eb36c4f	0.04735714368299481
10	0xbfae5a91167c08d3	-0.05928471946210014
11	0x3f9a535a63fa22f8	0.02570859179698723
12	0xbfbdb82a5b40d054	-0.11609139182911693
13	0xbfc63b8ffac6e40c	-0.17369270081488286
14	0x3f75e4cfb182d5c6	0.005345164587358514
15	0x3fbaab8ac587b054	0.10418002436171153
16	0xbf8da658189188a8	-0.014477432489176614
17	0x3fc013a9738eaee5	0.12560003416489632
18	0x3fbd23117b5e0d12	0.11381634961985679
19	0x3fa3d800c5991bf2	0.038757347222194385
20	0xbfa38e174d913d5b	-0.03819344350687955
21	0xbfd3e84aa2780596	-0.31105295053574744
22	0x3fa155b4238b1d17	0.033856992090983855
23	0x3f65e56d0f87f31a	0.0026728754130530665
24	0xbf9e3e9ecad1e461	-0.029535752419608822
25	0xbf94628ca25c36bf	-0.01990718594520646
26	0x3f8a1cfc4fecfab0	0.012750598134173202
27	0x3fbc9b58fd1806c1	0.11174541644143245
28	0xbfca98dd96f7180a	-0.207790087426645
29	0x3f7759e83ea8bf82	0.005700976568320361
30	0x3f9e34bbafef984f	0.029498036015773995
31	0x3fe60c1a03774d2a	0.6889772479720808
32	0xbfd856712d0e884c	-0.38027600669932293
33	0x3fcd3e0ff6d99a4d	0.228456492931587
34	0xbfd09e7d9089c775	-0.259673491621576
35	0x3f92a1fadc1589f0	0.018196029360646848
36	0xbfdb817a9303f6b9	-0.42977775914173894
37	0x3fba6d1e02239208	0.10322749664516817
38	0xbfa49a8d99261f65	-0.04024164671414957
39	0x3f93ded5b0e4b0f5	0.019404734536849728
40	0x3fb142a77d1605f0	0.06742331317766292
41	0x3fc6a24cff447181	0.1768280264303819
42	0x3fdf702a726f6c37	0.49122105765644924
43	0xbfc7b79256a5b2f9	-0.18528966170142505
44	0x3f8859bf77b7d7c3	0.011889930573470658
45	0xbfb0e908356fffe7	-0.06605578713060788
46	0x3fb86f07daf68908	0.09544419379975377
47	0xbf75ba3585273a09	-0.005304535925871886
48	0xbf9f9d5ff6702ae2	-0.030873774925605064
49	0xbfca50482a63d725	-0.20557500905823037
50	0xbfc4a20d12dd471f	-0.16119540616141934
51	0x3faf73172733d843	0.06142494538828249
52	0x3fbd9585ac574032	0.11556277711429244
53	0x3fb09e7c50f9096b	0.06491829850077628
54	0x3fe1c89f9d50c9aa	0.555740172631251
55	0xbfd13eb166f33d26	-0.2694514756558014
56	0x3fd2d1661c44022e	0.294030692675764
57	0x3f892449005b07b8	0.012276239703513755
58	0xbfa4f95e80ba291c	-0.04096503564240292
59	0xbf9e9ba731fd1d32	-0.029890644479818103
60	0x3fc280340200b98c	0.1445374498156976
61	0x3fbffb98a55ee918	0.12493280446407018
62	0x3f9dea2eb4141d14	0.02921364759552343
63	0x3fdde0fdee59a2ad	0.46685741688137733
64	0x3f95cc8fb242e907	0.021288151984415495
65	0xbfbfd47fe295babf	-0.1243362358270401
66	0x3f87d08433736aa2	0.011628182239680488
67	0x3fa720886996eb13	0.0451700810330832
68	0xbf96809cf08a04d6	-0.021974994832366722
69	0x3fd0bb978b463d77	0.2614497051335642
70	0xbfb2564463699824	-0.0716288321214909
71	0x3fd401edde521f9c	0.3126177474118721
72	0x3fc45a283e263574	0.15900137934333325
73	0x3fb5f385125f162a	0.08574706743737495
74	0xbfdab86ef2020843	-0.4175069201811576
75	0xbfbc4e085980617d	-0.11056568322272216
76	0x3fbac17c63f84dd6	0.10451486054107959
77	0xbf759734d2f41a57	-0.0052711547316507045
78	0xbfe6a8dde4df8c03	-0.7081136198215748
79	0xbfc1a6af107875e3	-0.13789928726411835
80	0xbfa17ddb89864c55	-0.034163342034979984
81	0xbfae921e236f36bd	-0.059708539796344585
82	0xbf731ef7cb3427da	-0.0046682052081994056
83	0x3f80bb49305fd1dc	0.00816971949459682
84	0x3faa4133f3b11082	0.05127870893241583
85	0xbfc93c49983d11ce	-0.19715232785723774
86	0xbfa61062881b0c3c	-0.043093756784877674
87	0xbfb85b3d7458f6a7	-0.09514221277728528
88	0xbf844426c08df28b	-0.009895613433166936
89	0x3fc1f654f53f4c7c	0.14032995200122744
90	0x3f995206dbb1bc38	0.024726969870638466
91	0x3fa83c4df3f8a0ca	0.04733508685268502
92	0xbfa3f52c868cb5d5	-0.03897990362598206
93	0xbfd3f3bd429d09ce	-0.3117516661187921
94	0x3fb1e21e6db3eb59	0.0698565500096441
95	0xbf7194535ae9c264	-0.004291844945882948
96	0xbf93089f0939e920	-0.018587574899791126
97	0xbf820bdd812fe4dd	-0.008811693673111904
98	0x3fa3140eb1c4ec8d	0.03726240081820107
99	0x3fbd93fefc2e3009	0.11553949028729006
100	0xbfcb4d223b613b21	-0.21329143428234779
101	0x3fa0aa08053575f8	0.032547236095279375
102	0x3fa8ad2ff062f77a	0.04819631394774056
103	0x3fd5b98c3fd6e429	0.33944994196241624
104	0xbfd7cd7047781010	-0.3719139764727979
105	0x3fd00743cdeab9d9	0.2504434119136057
106	0xbfd083b3ae90d3c2	-0.25803844497141537
107	0x3fb0ef91a2a14efa	0.06615553112470343
108	0xbfe1292074ee0924	-0.5362703594003375
109	0x3fa44606c7113c23	0.0395967596056084
110	0xbf9d67917d068a83	-0.028715394264177362
111	0xbfaf80d68c4658b3	-0.0615298315271259
112	0xbfa25a2ce9fe3704	-0.0358442340503711
113	0x3fc0b76682cd515b	0.13059693705384742
114	0x3fdd0a9c9aa3eac1	0.45377268888084293
115	0xbfc88a532ae688c7	-0.1917213401293962
116	0xbf705bc9dded8eba	-0.003993786375619807
117	0xbfab2a2c12e655e6	-0.05305612307271783
118	0x3fb79169600ab20f	0.09206255526323325
119	0xbf9bdc2d74b00182	-0.027207098242798995
120	0x3f8b918a9e013074	0.013461192080420604
121	0xbfc7cdf2872f501e	-0.18597251511403184
122	0xbfc348d037f4d075	-0.15065958721391196
123	0xbfaf639e482913df	-0.06130690222611412
124	0x3fc079b29fa6c247	0.12871392055014239
125	0x3f80e75cd1dfb835	0.008253789095729139
126	0x3fe090270727459a	0.5175967349734265
127	0xbfd0c210c77ebd5c	-0.26184482080403426
128	0x3fd168e2c923cf1d	0.27202672617498697
129	0x3f916200a94fd3b5	0.0169754126872765
130	0xbf9f8a530c857431	-0.030801103247871168
131	0x3f990f8a48cec62a	0.024473343557195694
132	0x3fc10eee9509097e	0.13326818730463325
133	0x3fc33a012091a3a3	0.15020765390661692
134	0xbf799b2f97248955	-0.006251512432103053
135	0x3fce39ffcce4288f	0.23614499573188083
136	0xbfa434ae230027dd	-0.039464418194327534
137	0xbfc2f0fe0f83ef47	-0.147979505134453
138	0xbfa53df43286183f	-0.041488295714814154
139	0x3fa9ff5bcd4fa3ef	0.05077635651816325
140	0x3f9b9db3f58624ee	0.02696877656993462
141	0x3fd4f53072357f7e	0.32746516373844503
142	0xbf606e5a14edac0e	-0.002005744877739974
143	0x3fd593d19ebbbbed	0.33714714528372164
144	0x3fc02548ffb49ffa	0.12613785253165571
145	0x3fa631775abb053d	0.04334614737082141
146	0xbfd2a607b95e823b	-0.2913836775060507
147	0x3f613e871d5564ec	0.0021050108868335606
148	0x3fa9ad9861ed9a41	0.05015255160724453
149	0x3f912ca9b45f2bd7	0.01677193797494766
150	0xbfdc37db0a7dbfa8	-0.44090915703326994
151	0x3fb59ec6595d126f	0.08445396119811631
152	0xbfd34c9b1f9fb425	-0.3015506562067592
153	0x3f8343f4718eb1b5	0.009406957355019377
154	0x3fb108f4f0236be7	0.06654291975739533
155	0xbf98b02cc0f2a249	-0.024109553600881992
156	0x3fb3fc837aa6ae38	0.07807180160914917
157	0xbfc5c417fc4afdb2	-0.1700468046092119
158	0x3fa2c1667a27135f	0.036631777201853614
159	0x3fb569b79a1f763d	0.08364436638608992
160	0xbf5d46f72ecec2d2	-0.0017869390387483153
161	0x3fba0498a427dc04	0.10163263328273336
162	0xbfb527b6267ded4f	-0.08263719978088101
163	0xbfaf0bb26b56b4da	-0.060636115649097724
164	0xbfb69a8e8b89adbf	-0.08829584986386062
165	0xbfd442b52a3819e3	-0.3165715133949602
166	0xbfbb9a4585d28712	-0.10782274739406386
167	0xbf63dda0cb97d584	-0.0024250164540215464
168	0xbfc4d018e2a79787	-0.16260062281724805
169	0x3fb8e11d0637201e	0.09718495752088116
170	0x3fbd52e889f5c5bf	0.11454633110203981
171	0xbfb99525f33c6f7c	-0.09993207157498135
172	0xbfbb7913a700a3e1	-0.10731623484811294
173	0xbf84073d5439a01e	-0.009779433377119114
174	0xbfc2e0399a4fd146	-0.14746780428652978
175	0xbfc67e2677fa11f0	-0.17572480066532092
176	0xbfbbbb23a1a60db9	-0.10832426735401314
177	0x3fd1b3e4fdbf44f3	0.2766048887252303
178	0xbfd126f70c03ceb8	-0.26800323651626057
179	0x3fb483c65e3b0fe1	0.08013572502665013
180	0xbfcab9b566f9ffb2	-0.20879237678673018
181	0xbfd6d7c1031449ad	-0.3569185762472909
182	0xbfadb547196ffc98	-0.058023664336354475
183	0xbf962eb0f1526b9d	-0.02166248772537537
184	0xbf92cabd2fe51f4d	-0.018351512954978322
185	0xbfc005db8955de1f	-0.12517875867682535
186	0x3fcfa9137a2a8314	0.24734729256763244
187	0xbfb293ec0bef0531	-0.07256961146687925
188	0xbf8c8d3e38d45a3b	-0.013941274747179757
189	0x3fcf1c557a684b25	0.2430521819774977
190	0x3fb96c481be8660e	0.09930849725096655
191	0xbfbd27bb63730cca	-0.11388751199688155
192	0x3f7e0db358d50990	0.0073372846357550175
193	0xbfc3b4bc1f927a80	-0.15395309011087832
194	0xbf8e2f8bbe6d7b21	-0.014739124058619492
195	0xbfa57b82924f39c7	-0.04195793186191881
196	0x3fbff44b16829143	0.1248213701206327
197	0x3fbf94ec48fbda79	0.12336613447028268
198	0x3fdc82b5ee87b628	0.4454779462238059
199	0xbfb340c0f812e936	-0.07520681435099594
200	0x3fc8746e7a252f81	0.19105320896266778
201	0xbfd3b0c86682af07	-0.30766496668614746
202	0xbfb3fdc432cfa9b4	-0.07809091797358897
203	0x3fb0bd31b6ca61af	0.06538687431964861
204	0x3fc5f042462807f5	0.17139461923221658
205	0xbfb7e8ff3005d046	-0.09339899942807603
206	0xbfbf7ceb663ccf7a	-0.12299987073930466
207	0x3fcad9990dc4e131	0.209765559886145
208	0x3fc1846f9521b466	0.1368541219884804
209	0xbfb8b3df2c546e34	-0.09649462539930981
210	0x3f5934caabec133c	0.001538465424972559
211	0x3fc761d820a29725	0.1826734694815794
212	0x3f8fd30b1449e798	0.0155392518583886
213	0x3fd546d4ceecd71e	0.3324481983903399
214	0xbfa4f8d4889f3027	-0.040960923840970324
215	0x3fd5ed8d0fb19ea0	0.3426239636669184
216	0x3fcc58fb08dd00dd	0.22146547253397034
217	0xbfb9bdd74ec675f3	-0.1005529944727284
218	0xbfc5e9ce1dfcd4d7	-0.17119766678084744
219	0xbfa44f93c51a0fc8	-0.039669626055029605
220	0xbfa4346364f1bc03	-0.03946219069700165
221	0x3f988bf34428c9f2	0.023971367869487233
222	0xbfc42297125d47f5	-0.15730560681055264
223	0xbfb41fea2446ee10	-0.07861197839422851
224	0xbfd128e660f173f4	-0.2681213328085612
225	0x3f995d3c780a2f46	0.02476973040260979
226	0xbfb7f227268de8f1	-0.09353871051090203
227	0x3fa4c57ced192203	0.0405692138124927
228	0x3fa8015277f8880e	0.04688508715140936
229	0x3f768d7f01a31033	0.005506034964302175
230	0xbfbf862f221aedc7	-0.12314123709341294
231	0xbfbbfc38434d839c	-0.10931731837400921
232	0x3fa69b1ff05f78cb	0.04415225800743058
233	0x3fb4f9bd4357a59f	0.08193571943379262
234	0x3fb31ff9201bcbd2	0.07470662149334764
235	0x3fa60eb6722cf632	0.04308099883790496
236	0xbfd0d15f29da07bd	-0.26277903639867956
237	0xbfd359ef741812c7	-0.30236421906765226
238	0xbfb6ae64b8b0a25c	-0.08859853276283886
239	0x3fa5d7b48127efda	0.04266132427798626
240	0xbfc23b76a8a72f8c	-0.14243968234074733
241	0x3fc8212c63266888	0.18851237145719701
242	0x3fde81e50ab439c1	0.4766781429797469
243	0xbfde653a8ff89e71	-0.4749285131424364
244	0xbfb3c7e33b0fa974	-0.07726879302905393
245	0xbf9dcdd5ec221786	-0.029105513131546988
246	0xbfcab5aa9e9ae8bd	-0.2086690210761101
247	0xbfd830457da2f5c0	-0.3779462553901247
248	0xbfbff2543bfd7df9	-0.12479139771084381
249	0x3fd8aaeb808f2afc	0.38543212465872023
250	0xbfc72411ab71ca88	-0.18078823920548737
251	0x3fb985aed92115b4	0.09969609070784352
252	0xbfc9550793a44e14	-0.19790739735673013
253	0xbfe1dcdec287cf83	-0.5582116889404322
254	0xbf8677593880ecd6	-0.01096982673344941
255	0x3fa9292a18ea54f3	0.04914218477385104

bias f8 [30]
0	0x3fdbf00c20e46fa1	0.4365263291563171
1	0x3fdac98aa51d3e6d	0.41855112194477934
2	0x3fc1c3e925e0a8d0	0.13879122113696107
3	0x3fc0ad27d2a3144b	0.13028428826342728
4	0xbfb300342a48a261	-0.07422185928647586
5	0xbfcc4b64f87bb661	-0.2210508549973609
6	0xbfc643336663c37a	-0.1739258050870623
7	0xbfccefe8e33bf3a9	-0.22607146354121468
8	0xbfd1b74591467a24	-0.27681101977387557
9	0xbfdbbde76866e255	-0.43346581645486043
10	0xbfd6a9e66f78a935	-0.3541198814952112
11	0xbfd862bf21b17f9a	-0.38102701464048894
12	0xbfdba371806eb288	-0.4318507913801928
13	0xbfdca017783b33be	-0.44727122060140434
14	0xbfd81e0b97f6adff	-0.3768338188189943
15	0xbfe1ed592cb664f5	-0.5602231858530603
16	0xbfe21e2f797dd2b5	-0.566184747016982
17	0xbfe222912b90b51c	-0.5667196131595662
18	0xbfdbaaae605129cc	-0.4322925510975011
19	0xbfe057d2a473d1bf	-0.5107205593072236
20	0xbfdb4b6f0ec1dbab	-0.4264791149247979
21	0xbfe0314e9f234a92	-0.5060189350281965
22	0xbfd5c5bf5739d284	-0.3401945449652788
23	0xbfd9230e87ce76b5	-0.39276469480851556
24	0xbfe01e6bc35183df	-0.5037134947598324
25	0xbfe14ffdfdc9c0a5	-0.5410146672056909
26	0xbfda9dc08df537e3	-0.4158784281070195
27	0xbfe249a4ba8c62bd	-0.5714896815798834
28	0xbfde2de4ffa138c8	-0.4715511795410632
29	0xbfd83e15a961ae71	-0.37878934422653915
